checkpoint_qnetwork_local_WMT_DDQN_PER_without_trend.pth (torch_old, 659276 bytes, 12 tensors)

fc1.weight f4 [128, 122]
000000 b5 95 20 3c e8 2c 88 3d 31 5e 0d be 12 fd 08 be
       0.009801318 0.0664919 -0.13805462 -0.13377789
000010 73 85 4f bd ff 2d 75 3d 18 29 06 bb cc 06 b9 3d
       -0.050664376 0.05985832 -0.002047127 0.090344995
000020 18 a6 8b bb c9 d7 8f 3d ee 72 2b bd eb 3d 04 bd
       -0.0042617433 0.070235796 -0.041857652 -0.032285612
000030 94 d4 ce bd 1a 81 98 bd aa 45 54 bd 3a 93 36 bc
       -0.1009914 -0.07446499 -0.05182425 -0.0111435
000040 38 75 ae 3c 79 24 23 3d 41 60 9b bd b1 c4 5c bd
       0.021296129 0.039829705 -0.07586718 -0.053898517
000050 ce 52 09 3d c3 42 5b 3d fc f4 9e 3d 95 b2 e9 3d
       0.033526234 0.053530466 0.07761571 0.11411015
000060 88 21 a9 bd 80 66 14 3c 0e f2 87 3d 46 57 c2 bd
       -0.08258349 0.009057641 0.06637965 -0.09489302
000070 5f 4a 16 bd 6b ed d2 bc 2f 9a 35 bd be 15 61 3d
       -0.03669202 -0.025747975 -0.044336494 0.054952376
000080 fc b6 8a be db 53 ba bd 87 26 84 3b 2a 0b d6 bd
       -0.2709273 -0.090980254 0.004032913 -0.10451348
000090 be c1 a4 bd c2 18 2a 3d 63 9a 60 bd bb be 81 3d
       -0.08044766 0.041527517 -0.054834735 0.06335207
0000a0 58 c3 3e bc 4a d0 90 bd af 37 ab 3d 0f 62 16 be
       -0.011643253 -0.07070978 0.0836023 -0.14685844
0000b0 e7 3d 48 be 59 41 78 bd 8b 5e 20 3d 34 5e d8 3d
       -0.19554864 -0.060609195 0.039152663 0.10564843
0000c0 59 38 a6 3c 29 0a 65 bd dd 33 36 3d eb ea 95 3d
       0.02029054 -0.055917893 0.044483054 0.07320198
0000d0 67 b7 51 bd 39 eb 37 3d 68 85 06 3e 12 2b 89 bd
       -0.051200297 0.04490206 0.13136828 -0.06697668
0000e0 8d 58 fd 3a 19 dd 99 bc ff 17 72 bd 93 13 d7 bd
       0.0019328758 -0.018782185 -0.059104916 -0.1050178
0000f0 45 d5 01 3d 32 95 c5 3c a2 c1 c9 bd 42 66 87 bc
       0.03169753 0.024118993 -0.09851386 -0.016528253
000100 40 02 27 3d 9c 9e 39 bc 3a 17 03 3b 70 d8 2a 3c
       0.04077363 -0.011329319 0.0020002858 0.010427579
000110 1a 8c 7e 3d dc b7 8c 3d 54 91 ac bd f1 77 43 bd
       0.06214533 0.06871006 -0.08426157 -0.047721807
000120 c5 d9 ac 3c 46 83 77 3d 7d 68 83 3d 17 ed 85 3d
       0.021099934 0.060427926 0.06416414 0.06539362
000130 8d b3 63 3b 9e ce be bd ae d5 ca bb 87 07 92 bd
       0.0034744472 -0.09316753 -0.0061900234 -0.07130342
000140 24 7a ca bd 79 f4 86 3d 78 0a 5e 3d e6 b0 d6 bd
       -0.09886578 0.06589598 0.054209203 -0.104829594
000150 17 18 22 3b e8 a7 f3 bc 2e 35 f1 bc 8d 98 65 bd
       0.0024733597 -0.02974315 -0.029444303 -0.056053687
000160 61 f0 a5 3c 37 81 8b bd 18 2c 99 3c 97 e6 ff 3c
       0.020256223 -0.06811755 0.018697783 0.031237883
000170 c6 6f 4e 3d 7d 1d 9e 3c b0 99 d5 bd 59 f5 95 bd
       0.050399564 0.01930117 -0.10429704 -0.07322187
000180 72 28 fb 3c fb df 97 3b ba 39 ae bd a6 0d 89 bd
       0.030658934 0.004634855 -0.08507104 -0.06692056
000190 95 c0 90 3d 35 4a 3e 3d 00 4c 5d bd 4c 6c 18 bd
       0.07067982 0.046457488 -0.054027557 -0.037212655
0001a0 c7 6d ce bd fa 0b 84 bc 4f 6c a9 bd a3 90 ac bd
       -0.10079532 -0.016118992 -0.08272611 -0.08426025
0001b0 00 14 9f bc 05 37 8e ba 24 39 53 bd f4 75 20 3d
       -0.019418716 -0.0010850137 -0.051568165 0.03917499
0001c0 98 4e 8e bd d8 a2 8a 3d 94 df 41 3d 54 08 ba bd
       -0.06948584 0.06769341 0.04733236 -0.0908362
0001d0 bd df 17 bd 18 cb 2a bc ec 86 a1 ba bf 6d e1 3b
       -0.037078608 -0.010424398 -0.0012323535 0.006879538
0001e0 e1 f5 46 3d f3 2a f7 bc 32 a3 ef bd 89 59 3b 3c
       0.048574332 -0.030171847 -0.11701049 0.011434921
0001f0 96 26 e2 bd 94 c9 e8 bd 2d 27 bf bc c3 55 87 bd
       -0.11042516 -0.11366573 -0.02333411 -0.066081546
000200 14 d9 19 bd 6f 38 c9 bd e9 09 53 3c fd e9 8c bd
       -0.037560537 -0.09825217 0.012880781 -0.06880567
000210 66 b4 96 bd 5c c3 9d bc 13 8c 4d 3d 38 1d c4 bc
       -0.07358627 -0.019258194 0.050182413 -0.023939714
000220 89 7f 46 bc f3 dd b7 bc 83 cf 71 3b ba db 2f 3d
       -0.012115368 -0.0224447 0.0036897368 0.042934157
000230 36 ae 91 3d 9b 78 2f 3d 99 74 9e 3d 6a 3c ca bc
       0.07113306 0.042839628 0.07737083 -0.02468701
000240 f2 ef af bd 6d 0c f7 3c 59 bf c9 3d e5 fb 2a bc
       -0.08590688 0.030157292 0.0985095 -0.010436033
000250 5a 23 8a bd 78 17 67 bd c4 aa 72 bc 73 fc bd bd
       -0.06745024 -0.056418866 -0.0148112215 -0.092766665
000260 88 b8 46 bd 31 86 8d 3c dc 38 d4 3c 09 f5 15 be
       -0.048515826 0.017275902 0.025906019 -0.14644255
000270 19 89 99 3d 86 99 d6 bd 6e ec 54 bd d4 8b b6 bd
       0.074968524 -0.10478501 -0.05198329 -0.08913389
000280 49 08 40 bd 99 d0 81 3d 0e 83 e4 bd f8 22 d9 bd
       -0.0468829 0.06338615 -0.11157809 -0.10602373
000290 05 a1 6e bc 0e 61 82 bc 69 19 8b bc 5e 38 bf 3b
       -0.014564757 -0.01591542 -0.01697989 0.005835577
0002a0 a8 44 dd bd a8 43 51 3d c0 af 68 3d 3e 2a 4e bd
       -0.10804111 0.051089913 0.056808233 -0.050333254
0002b0 db 69 69 3d 82 4f 28 3c 8d 62 d0 bd 83 99 48 3d
       0.056985717 0.010272862 -0.10175047 0.048974525
0002c0 aa 0c 6b 3d cc a5 a3 bd 52 ab 58 3d 17 bb f6 3c
       0.057385124 -0.079906076 0.05289776 0.030118508
0002d0 8b 3b ef 3c cd 95 20 bd fb 7b dc 3c 32 6d 41 3c
       0.029203197 -0.03920536 0.026914587 0.011805819
0002e0 87 9a 32 3e 0f bf 08 3e bb 60 56 be a0 f3 7a bd
       0.1744176 0.13354133 -0.20935337 -0.061267495
0002f0 d5 ed de bd 04 f6 d3 3d e4 79 0e 3e d4 61 88 3d
       -0.108852066 0.10349658 0.13913685 0.06659284
000300 ac b3 a0 bd 03 d1 2c bc 15 a6 a0 bd e8 0f 84 bd
       -0.0784677 -0.010547879 -0.07844178 -0.064483464
000310 a9 d9 89 bd 11 d0 85 3c c3 5d 8c bd 75 27 88 bc
       -0.067309685 0.016334565 -0.06853821 -0.016620377
000320 ac 79 31 bc 75 89 33 3d 8b 13 aa bd 30 2b 9d bd
       -0.0108322315 0.04383226 -0.08304509 -0.07674253
000330 98 69 89 bd ec c4 47 3d 08 4e 41 bd 9f f4 7c 3d
       -0.067095935 0.048771784 -0.047193557 0.061756726
000340 f8 aa 94 3c 50 92 54 bb 87 ad 7a bc ea 8f 04 bd
       0.01814793 -0.0032435842 -0.015300161 -0.03236381
000350 b7 16 55 bb 45 72 10 bd fd 8a 7d bc 24 b5 4d bb
       -0.003251476 -0.035265226 -0.015475032 -0.0031388486
000360 b3 64 ae bd c7 37 7e bd cf ab 6f 3d 86 74 b4 bd
       -0.085153006 -0.062064912 0.05851346 -0.088112876
000370 da e9 ad bc 6d a7 99 3d 6e 35 94 3c 65 1b 45 bc
       -0.021229673 0.07502637 0.018091884 -0.012030457
000380 09 75 be bd f9 36 f7 3c bf 0b a2 bd 4f 21 25 bd
       -0.092996664 0.03017758 -0.07912397 -0.04031497
000390 2c 33 38 bd 4c 2e e7 bc fa 03 60 bc e9 0a 77 3d
       -0.044970676 -0.028220318 -0.013672823 0.06031314
0003a0 05 4b 59 bb c1 2f 88 3d d3 64 27 3d ef 2a 93 bd
       -0.0033156287 0.06649733 0.040867638 -0.07185923
0003b0 b8 8b d4 3c 86 03 a1 bd c1 f4 58 bd 1f a8 45 3c
       0.02594553 -0.07862 -0.05296779 0.012064009
0003c0 20 14 7a 3c 37 5e 5a 3d d6 8e 1d bb 23 82 b2 bd
       0.015263587 0.053312507 -0.0024041436 -0.08716228
0003d0 4b 7b c5 3d 94 08 f5 bd 88 dc 3a 3d a9 24 a9 3d
       0.09642657 -0.11964527 0.04562047 0.082589455
0003e0 bf a5 b7 3c 96 e4 58 bd 79 13 f5 3a 63 91 5c be
       0.022417901 -0.05295237 0.001869782 -0.21539836
0003f0 5e 32 ae 3d 4c 43 ee bd 88 51 49 bd 3c a2 ec bc
       0.085057005 -0.116339296 -0.04915002 -0.028885953

fc1.bias f4 [128]
000000 f7 f8 99 bd ca 8d 50 3d 7c c8 42 3d 1d 09 95 bc
       -0.075181894 0.05091647 0.047554478 -0.018192822
000010 8d 08 3e bd a5 42 bd 3d 66 af 89 bd 6f 9c b4 bd
       -0.046394873 0.09241227 -0.06722908 -0.088189
000020 1f 57 d9 bd b8 a3 49 bd b8 e6 b1 bd 0d 98 69 3d
       -0.1061232 -0.0492284 -0.08686584 0.057029773
000030 90 14 28 3d 4a 5e b0 bd 47 6a a8 3d 3b 95 cc bd
       0.041035235 -0.08611734 0.08223396 -0.09989401
000040 7d 7a ae 3b 33 7b 40 bd 96 a1 6e 3d 78 a5 3e bd
       0.0053246603 -0.046992492 0.05825957 -0.046544522
000050 84 8a 79 bc 36 0a 34 3d cb 12 39 bd 23 8d 07 bd
       -0.015230779 0.04395505 -0.045183938 -0.033093583
000060 c3 df 4c 3c e6 c9 71 3c f6 bf ab bd 33 7c b6 bd
       0.012504521 0.014757609 -0.08386223 -0.08910408
000070 4f 98 0b bd 58 fb 81 3d ad 5e 23 3d 77 ed b2 3d
       -0.0340808 0.06346768 0.03988521 0.08736699
000080 b0 01 20 bd 96 85 5c bd a4 68 89 bd d1 c9 ff bc
       -0.03906411 -0.053838335 -0.06709412 -0.031224163
000090 e6 5b e2 bb 3d 95 b3 bd 8f ba 37 3d 6f e5 82 bd
       -0.006907928 -0.08768699 0.04485565 -0.06391417
0000a0 24 98 64 3d 34 de 5a 3c 46 43 1e 3d 9f a4 a1 bc
       0.055809155 0.013358641 0.038638376 -0.019731818
0000b0 da 7e ae bd 3d 2d 56 3d 14 b6 20 bd 36 72 54 3d
       -0.08520289 0.052289236 -0.039236143 0.051866733
0000c0 d3 69 f8 bc e9 9e 88 3d 3e b2 a3 bc 5c f8 ba bd
       -0.030323898 0.06670935 -0.019982453 -0.09129402
0000d0 ec 42 a0 3d 23 f1 e3 bb 90 aa e3 3c 4b 78 b3 bd
       0.07825264 -0.006956236 0.027791291 -0.087631784
0000e0 2e f3 97 3d ed a0 0d 3d e6 75 50 3c 45 d5 bf bd
       0.0741943 0.0345773 0.012723422 -0.0936685
0000f0 aa 9b 82 bd bc 9f af bc 50 82 6f bd 01 ad 48 bd
       -0.06377347 -0.021438472 -0.058473885 -0.048993114
000100 8f 22 0c bc 9b 72 38 bc 7d ea 74 3d c5 b9 09 bd
       -0.008553161 -0.011257793 0.059793938 -0.03362443
000110 22 b3 d9 bd fe ca 95 3d 3e 36 39 3d a5 4d 9e ba
       -0.1062987 0.07314108 0.045217745 -0.0012077583
000120 7a ed bc bc 3e bb 67 bd 8c 95 85 bc b7 91 81 3d
       -0.023062456 -0.056575052 -0.016306661 0.06326621
000130 aa c9 b9 bd 34 0c 5b 3d 8c 21 73 bd 2e 91 3f 3c
       -0.090716675 0.053478435 -0.059358165 0.011692328
000140 0b ce 53 3d 05 b3 eb bc 06 68 0f bc 4f 1e 36 3d
       0.05171017 -0.028771887 -0.008752828 0.0444625
000150 bf ee 2a bd 07 28 f7 bb dc cf 77 3d 64 36 0f 3a
       -0.041731592 -0.0075426134 0.060500965 0.0005463122
000160 ca b0 96 bd e6 2e ad bd a3 74 c7 3c 83 48 aa bd
       -0.073579386 -0.08456211 0.024347609 -0.08314612
000170 fb 4d 73 3d f0 ac 82 bd c2 68 bd bd be 80 85 3d
       0.05940054 -0.063806415 -0.092484966 0.06518696
000180 8a f2 6a bd 4a bc 9f bd 1e 90 7f 3d 83 fe 96 bd
       -0.05736021 -0.07799585 0.0623933 -0.07372763
000190 8e a1 3d 3b 5e 2d 1c bd dd 42 9a 3b ae de 1f 3d
       0.0028935405 -0.038129203 0.0047076778 0.039030723
0001a0 8f e6 8a 3d b9 5e 90 bd 87 c8 35 3c 1a 03 17 3d
       0.06782257 -0.07049317 0.011095173 0.036868192
0001b0 40 12 11 3c 11 b6 c7 bd 4c 25 a0 3d da 6a a6 3b
       0.008854449 -0.09751523 0.07819614 0.0050786557
0001c0 d2 04 a8 bd 5e ad 3f 3d 60 80 2e bc 0d a2 9b bd
       -0.082040444 0.046796195 -0.010650724 -0.07599268
0001d0 ea 5e b5 bb cc 6f c8 bd d8 22 8c bd a4 58 81 bd
       -0.0055349963 -0.097869486 -0.068425834 -0.06315735
0001e0 26 19 17 bd ca ea de 3b c7 da 84 bc 93 9c aa 3c
       -0.036889218 0.0068028914 -0.016217602 0.020826614
0001f0 f3 f1 0d 3d 43 ad 32 3d e5 a9 72 bd 97 2a a8 3d
       0.03465457 0.043622267 -0.059244055 0.08211248

fc2.weight f4 [256, 128]
000000 8d 21 01 bd 5c 72 8d bd c2 9c a1 bd 95 df 24 3c
       -0.031526137 -0.06906578 -0.07891227 0.010063072
000010 d8 15 48 3d c1 40 1b 3d 03 a2 17 bc 96 12 2a 3d
       0.048848957 0.03790355 -0.009254935 0.04152163
000020 9a f4 cf 3b c2 e3 cc bd fd ec 64 3b 47 6d 6f bd
       0.0063462975 -0.10004379 0.0034931295 -0.058453824
000030 be d0 46 bd 87 86 57 bd 56 89 89 3d 7b ea e3 bd
       -0.048538916 -0.05261853 0.06715648 -0.11128708
000040 76 6a d3 3d 1f ac 10 bd 53 88 e4 3c 39 23 b6 bd
       0.1032304 -0.035320397 0.027897036 -0.08893437
000050 0e 0d d1 bd 9e be 7c bd dd d8 77 bd 15 2a 23 bd
       -0.10207568 -0.061705224 -0.06050955 -0.039835054
000060 6a 71 2c bd b3 9c 63 3c c5 f6 99 bd ba 63 29 3d
       -0.042100348 0.0138923405 -0.07517771 0.041354872
000070 52 03 84 3c b9 de f7 bd 93 14 a8 bd d9 6d 93 bc
       0.016114864 -0.12103028 -0.08207049 -0.017996715
000080 fd e2 e0 bc 98 6a d1 bd e2 36 b2 bd a8 7f 78 bd
       -0.027451986 -0.10225409 -0.08701874 -0.060668617
000090 23 d1 5e be c7 d1 e4 3d 05 e6 ec bd 2c 5c ef 3c
       -0.21759467 0.11172824 -0.1156731 0.029218756
0000a0 40 16 50 3d df b9 82 3b 27 56 5d be 41 58 98 bc
       0.05080247 0.0039894427 -0.21614896 -0.01859677
0000b0 73 ff 9f 3c f3 74 9e bb e8 43 06 be bd d0 93 3c
       0.019530987 -0.004835719 -0.13111842 0.01804387
0000c0 1d 35 a8 3c 8d a6 0e be 0f 90 16 3d 79 55 7d be
       0.020533139 -0.13930722 0.03675848 -0.24739636
0000d0 36 c1 1b 3d b8 cc 52 bd 6a 65 df bb f0 c2 e2 bc
       0.038026057 -0.051464766 -0.0068175094 -0.027680844
0000e0 93 79 88 bd e4 fc 68 3d 72 66 73 bd 07 b7 6c 3d
       -0.066638134 0.0568818 -0.05942387 0.057791736
0000f0 e8 63 ff 3c 61 ed 4d bd 87 eb a2 bd fa 6e 0b bd
       0.031175569 -0.05027521 -0.079550795 -0.034041382
000100 b7 5f 58 bd b1 e6 d0 bc 05 0c 57 3c 84 4d 85 bd
       -0.052825656 -0.025500627 0.013125424 -0.065089256
000110 ca f9 94 3d 52 8f f2 3d 28 2d 17 be 2d 4d 07 bc
       0.07274206 0.118437424 -0.1476332 -0.008258146
000120 f3 82 df bd 2c 24 4b bd 4d b5 bf 3d 7d eb 5f 3d
       -0.109136485 -0.049595043 0.09360752 0.05466794
000130 dc ed 29 bc 41 40 cb bd 58 6b 83 bd 24 d1 80 3d
       -0.0103716515 -0.09924365 -0.064169586 0.062898904
000140 29 b6 3a be e5 e4 55 bd 78 30 11 bd 51 14 8c 3d
       -0.18233551 -0.052220244 -0.035446614 0.068398125
000150 e9 2e 33 bd 97 7a 0f 3e e4 3f 3b 3c 99 b5 97 bc
       -0.04374591 0.14011608 0.011428807 -0.01851921
000160 28 3c 96 3d 4e 61 0c 3c 0e c0 58 3d ad 33 8d bd
       0.07335693 0.008568121 0.052917533 -0.06894622
000170 ef ef d3 3b f5 73 99 3d ac ea 81 bd 3f 68 47 be
       0.0064678113 0.0749282 -0.06343588 -0.1947336
000180 d7 c2 17 3d 70 84 18 bd 35 4c 02 be 73 2c 8e 3d
       0.037051048 -0.037235677 -0.12724383 0.06942072
000190 70 93 4a 3d ef 46 ba 3c 9c 3b ec bc cd 15 89 3d
       0.049457014 0.022738902 -0.028837018 0.06693611
0001a0 0d ed 93 3d 86 1d aa 3d 34 db cd 3b 77 96 81 3d
       0.07222948 0.083064124 0.0062822346 0.06327527
0001b0 a3 11 f6 3c 33 d5 a3 bd 0f 28 f1 bc 54 9e 3f bd
       0.030037707 -0.07999649 -0.029438047 -0.046781853
0001c0 de 57 96 3d 02 08 9a 3c 81 d4 8c bb 4e fd 86 bd
       0.07340978 0.018802647 -0.0042977934 -0.06591283
0001d0 e6 53 52 3d 8b 9d f7 3b 64 d0 ed 3d 1c 1c 84 3d
       0.051349543 0.0075566224 0.11612013 0.06450674
0001e0 4b d9 33 bd c7 74 ae bc f4 41 3f 3c 4e 36 5d 3d
       -0.0439084 -0.021295918 0.011673439 0.054006867
0001f0 4a 2a e0 bd f5 4a 30 3b bf 31 b2 bd e2 74 b3 3d
       -0.10945566 0.0026900147 -0.087008946 0.08762528
000200 4f f7 ee 3c 01 ec 08 bc 03 81 c6 3d 66 d2 7f 3d
       0.02917066 -0.008357049 0.09692576 0.06245651
000210 51 ff 23 bc 63 ac a4 3d 09 29 e2 3d 69 f6 6d bc
       -0.010009603 0.08040693 0.11042983 -0.014524081
000220 9d ed fe 3c 36 fc b1 bd c8 26 49 3d 89 d9 d2 bc
       0.031119162 -0.086906835 0.04910925 -0.025738494
000230 70 70 bc 3d 97 8c d1 3c 8f c3 a8 3d b9 6d 28 bd
       0.09201133 0.025579734 0.08240425 -0.041120265
000240 5e ca 46 bd 40 9c 44 bd 2c 21 08 be c2 f5 f5 bc
       -0.048532836 -0.048000574 -0.13293904 -0.030024413
000250 74 70 7c bc 56 06 ef bd 4d 1f 31 bc 5f 2e 34 3d
       -0.01540767 -0.1167113 -0.010810685 0.043989535
000260 a0 15 fc bc 08 d7 6f bd ce 96 c1 bc 00 1c 2b bc
       -0.03077203 -0.05855468 -0.02363148 -0.010443687
000270 b8 eb 0b be c2 ef 82 bd 67 ef 68 3d 9d 52 bf bb
       -0.13664138 -0.063933864 0.056868937 -0.0058387057
000280 28 4d ca 3b b4 af 6e bd eb 58 c4 bc 4f cb 89 bd
       0.0061737485 -0.058273032 -0.02396818 -0.06728231
000290 a8 36 67 3d 1b f5 39 bc e4 58 74 3d a6 87 12 bc
       0.05644861 -0.011349942 0.059655085 -0.008943474
0002a0 8d 23 c5 bd b1 84 ec 3c 30 9d a2 3d 60 42 ff 3c
       -0.096259214 0.028871866 0.079401374 0.03115958
0002b0 3a ae 71 bd 2e 19 17 3c 9a 15 c6 3d 55 d6 8b 3d
       -0.059004046 0.009222312 0.09672089 0.0682799
0002c0 e0 3d b5 bc 95 f2 88 bd ed e6 f0 3c 75 43 cb 3d
       -0.02212423 -0.06686894 0.029406989 0.09924976
0002d0 a2 f6 bf 3c 73 19 b0 3c 4d ca 82 bc d9 05 1d 3d
       0.023433033 0.02149651 -0.015965605 0.038335655
0002e0 fa a5 7d bd 99 cc f5 bc 20 cc ab bd 2f 7b 0b bd
       -0.061925866 -0.030004786 -0.08388543 -0.034053024
0002f0 68 06 2f bd d2 26 55 bb f0 70 7a bb f2 d8 b3 3c
       -0.04273072 -0.003252436 -0.0038214289 0.021954034
000300 70 a0 86 3c e2 ac 5d 3d 6c c7 11 3d 6f e6 14 3e
       0.016433924 0.054119952 0.035590574 0.14541028
000310 56 5a 9f 3a 5f 0c a2 bb de 27 dd 3d 0d 22 26 bc
       0.001215766 -0.0049453224 0.1079862 -0.010139954
000320 f9 1b 15 3d 97 17 c3 bc ad c3 cc 3d 5b 19 a9 3c
       0.03640363 -0.02381496 0.0999826 0.020641973
000330 49 09 eb bc 84 f9 1f 3c 72 63 2b 3d 1f 36 8a 3d
       -0.028690951 0.009764079 0.041842885 0.06748604
000340 18 0f da 3d 61 46 2c be f0 b8 76 3d d8 4b 2d be
       0.1064741 -0.16823722 0.060234964 -0.16923463
000350 72 5c a4 3d 3a 16 34 3d a8 2a 7d 3c 56 c0 33 bd
       0.08025445 0.04396651 0.015452065 -0.043884598
000360 2b 0a ba 3d 31 73 33 3e 6e d4 53 3c f2 09 fc 3d
       0.09083971 0.17524411 0.012929065 0.123065844
000370 2b 52 87 3d 15 f5 34 3d 2e 80 91 bc 85 7d 5b bd
       0.06607469 0.04417904 -0.017761316 -0.0535865
000380 30 07 b5 bd 8f 7f 12 3d e6 4b 87 bc 8b 92 e1 bd
       -0.088392615 0.03576618 -0.016515683 -0.11014279
000390 80 d5 c1 3d b1 66 5f 3d 91 5d af 3d 89 8f e3 bc
       0.0946455 0.054541294 0.08562768 -0.027778404
0003a0 28 b5 01 be eb a8 7b bd 24 9d f6 bb 2f f5 ba bd
       -0.12666762 -0.06144039 -0.007526057 -0.09128796
0003b0 bd 3b b8 3d 7f 77 c2 bd bd a3 45 bc c7 11 a4 3c
       0.08995769 -0.09495448 -0.012062964 0.020028008
0003c0 de 4f 35 bc d0 c3 5d 3c ac 98 32 bd 70 c0 1f be
       -0.011066405 0.013535455 -0.04360263 -0.15600753
0003d0 08 16 42 bd f8 f1 9a bd 8d 81 d8 bc 38 78 b8 bb
       -0.047384292 -0.07565683 -0.026428962 -0.0056295656
0003e0 33 24 00 3e c0 02 9f 3d e9 ec a3 bd dc 87 96 3e
       0.12513809 0.077641964 -0.080041714 0.29400527
0003f0 46 4c 24 bc 8f 03 0a 3d 28 6a 50 bd 12 b8 bb bc
       -0.010027951 0.0336948 -0.05088249 -0.02291492

fc2.bias f4 [256]
000000 0d c2 3f 3d f3 19 75 bd fb aa b6 bd 8e ba 21 3c
       0.04681592 -0.0598392 -0.08919331 0.009871138
000010 00 86 1f 3d 54 8a 61 3d 0e 32 2a bd 0f 6a 54 bd
       0.03894615 0.05506356 -0.041551642 -0.051858958
000020 94 21 00 be a3 ea 06 bd fc e1 34 bd 3d ac f3 bd
       -0.12512809 -0.03293861 -0.044160828 -0.11898086
000030 e4 7e 2a be 47 8d 12 3d 49 58 7c 3d 94 07 e1 3c
       -0.16649967 0.035779264 0.061607633 0.027469434
000040 44 4a 05 be 58 35 00 be 37 e0 51 bc 6f 72 9d bd
       -0.13016611 -0.12520349 -0.012809805 -0.07687842
000050 7a d1 26 bd e0 84 bc bd 58 d7 8e bd d9 31 4f 3c
       -0.040727116 -0.092050314 -0.06974667 0.012646162
000060 7f e4 8d bc 0b 75 3a bd f9 bc e0 3b fb 1d 55 3d
       -0.01732087 -0.045521777 0.006858465 0.052030545
000070 12 b8 42 bd a8 24 65 bd 46 c0 2d be e6 e6 9c bc
       -0.047538824 -0.05594316 -0.16967878 -0.01915307
000080 b5 3b 5e 3a fe 1f 98 3d 8c 88 a9 bc a6 d3 d7 3d
       0.0008477525 0.07427977 -0.020694993 0.105384156
000090 67 ff 9a 3c be ad b0 bd 06 21 8f bd d0 dd 0d bd
       0.018920613 -0.08626889 -0.069887206 -0.034635365
0000a0 c0 dc 2e bc 97 3f 89 bd 5c a8 04 be 00 59 f6 3b
       -0.010672748 -0.06701582 -0.12954849 0.007517934
0000b0 37 d2 f1 3c f0 72 05 be 17 ac d7 bc d4 fb 99 bd
       0.029519184 -0.13032126 -0.026327176 -0.075187355
0000c0 c9 69 3e ba a1 50 77 3b 31 3a 54 bd ab a9 20 bd
       -0.0007263688 0.0037737268 -0.05181331 -0.039224308
0000d0 85 ff c9 bd 0a 68 08 3d 18 8a b5 bd a6 27 c8 3d
       -0.098631896 0.033302344 -0.0886423 0.09773187
0000e0 08 20 46 bd 05 be c3 bd 77 40 3c bd de 84 be 3c
       -0.04837039 -0.09557728 -0.045959916 0.023256715
0000f0 75 74 a2 bc e6 6d 87 3d 6d 00 a2 bc 84 8a a2 3d
       -0.019830922 0.06612758 -0.019775594 0.07936576
000100 bf c4 72 bd e9 08 ce bd 7a d0 01 be 0f a8 37 be
       -0.059269663 -0.10060293 -0.12677184 -0.17935203
000110 eb 70 fe 3c 5d d1 81 bd 8a 57 54 3d 41 d1 11 bd
       0.031059703 -0.06338761 0.051841296 -0.03559995
000120 f3 68 9f bd e2 b7 fb bd 8d a3 51 bc 12 83 5e bc
       -0.07783689 -0.12290932 -0.012795341 -0.013581054
000130 a4 88 f1 3b 62 c8 fb bd 97 d4 04 be 4d 8f 9b bd
       0.007371025 -0.12294079 -0.12971722 -0.07595692
000140 2c 8d 28 bd 53 2e 8f 3d 72 aa bb bd a3 39 bc bd
       -0.041150257 0.069912575 -0.09163369 -0.09190681
000150 6f f7 19 bd af a6 85 bd c4 a7 b8 bd fc 7e 05 bd
       -0.037589487 -0.06525933 -0.09016374 -0.032591805
000160 3e d4 34 bd 2a 56 f7 3c a6 b2 d9 bd 08 be c5 3c
       -0.044147722 0.030192453 -0.106297776 0.024138466
000170 3d 1d 0c 3c 67 1a c4 3d f5 35 7f bd 88 a4 a5 bd
       0.008551893 0.09575348 -0.062307317 -0.080880225
000180 0e ea c5 bc 78 2f 7e bd 43 20 6f bd 1f 6f 87 bd
       -0.024159458 -0.06205699 -0.058380377 -0.066129915
000190 e9 13 59 bc e0 19 00 bd 84 76 0c be 00 4b 0e bd
       -0.013249376 -0.031274676 -0.13717085 -0.034739494
0001a0 cd 1b 8a bd 53 8c 3c 3d 6e 15 3c ba 67 8e f2 bd
       -0.06743584 0.04603226 -0.0007174824 -0.11843567
0001b0 4b e4 19 be 66 b2 34 3d 28 88 ff bd dc b3 9c bc
       -0.15028493 0.044115447 -0.124771416 -0.019128732
0001c0 08 15 c0 3d c1 34 b3 bd e4 19 80 bd bf fe 08 3d
       0.093790114 -0.087502964 -0.06254938 0.03344607
0001d0 40 2e b0 3d 47 58 5b 3d 79 88 67 3d 35 61 92 bd
       0.086025715 0.053550985 0.056526635 -0.07147447
0001e0 bd df 02 3d 9f 16 db ba 61 85 22 3c d8 97 2a be
       0.031951655 -0.0016715116 0.009919495 -0.16659486
0001f0 e2 16 aa 3b 3c 96 f0 bd 08 4d a0 bc af 8a 68 bd
       0.005190716 -0.11747405 -0.019567981 -0.056772884
000200 05 89 a1 bc 66 77 c6 bd fd 86 35 3d 60 d1 19 3d
       -0.019718656 -0.09690742 0.044318188 0.03755319
000210 b0 27 26 bd aa cd 33 3b bc b6 3e bd d5 d3 c5 bc
       -0.040565193 0.0027435818 -0.046560988 -0.024148861
000220 7b 5b d3 3d f6 0b 6c bd cd 5e 68 3a 23 fd b8 3d
       0.10320183 -0.057628594 0.0008864224 0.09032657
000230 b0 ae 8c bc 31 e9 27 3b 77 78 83 3d f9 fe 42 bb
       -0.017173141 0.002562117 0.06419461 -0.0029754026
000240 f3 68 08 bd 61 88 a2 3c f3 30 8a 3b dd 45 53 bd
       -0.033303212 0.019840421 0.004217261 -0.0515803
000250 f5 24 48 bd ae ae 1c 3b ad d9 ba 3c ec 1b e2 bd
       -0.04886337 0.0023907828 0.022808874 -0.11040482
000260 df 55 13 be b9 de 2f bd 02 f6 7a 3d 06 ae 30 3d
       -0.14388226 -0.042937014 0.061269768 0.04313471
000270 db 48 e5 bd ca 0b 79 bd 53 55 f3 bd f1 9a 5d bc
       -0.11195537 -0.06080226 -0.11881509 -0.01352571
000280 f3 f8 9a 3d 63 4b e9 3c db 35 c7 3c 40 2b 9d 3d
       0.075670145 0.02847833 0.024317672 0.07674265
000290 b0 1d 77 39 6d 6c aa bd c6 1b f6 3c 08 94 92 3c
       0.00023566815 -0.08321462 0.03004254 0.017892852
0002a0 62 4f fd bd 5c 8c 59 bd e7 23 d4 bd 3c 6b 97 ba
       -0.12368657 -0.053112373 -0.1035841 -0.0011552344
0002b0 2b fa b4 3c 40 77 83 3d 65 b9 d2 bd f6 20 07 bd
       0.022091946 0.064192295 -0.102892675 -0.03299042
0002c0 c0 b6 3e bd f7 ec df bb d6 b1 c4 bd 28 da 55 bd
       -0.046561003 -0.0068336683 -0.09604232 -0.052210003
0002d0 2b 3c 89 3d 66 1d f3 bc 8f ed 05 be dc bb 69 3d
       0.06700929 -0.029677104 -0.13078903 0.057063922
0002e0 3b de c8 bb 5b 6f cb bb 48 f8 df 3b 75 f5 a4 bd
       -0.0061300076 -0.006208343 0.0068350174 -0.0805463
0002f0 25 35 db bd fc 90 79 3c 97 22 1b bd 55 a4 0c 3d
       -0.10703496 0.015232321 -0.037874784 0.034336407
000300 f0 1e d1 3d 90 e1 2c 3d 1f 19 95 3b 86 4f e5 3c
       0.10210979 0.0422073 0.004550114 0.027992021
000310 74 6d 1a 3d d8 2a a6 bd 73 79 fa 3d e7 30 39 bd
       0.03770204 -0.081136405 0.12230196 -0.045212653
000320 82 1d 91 3d 6d a6 61 bd d9 31 27 bd d6 94 d3 bd
       0.07085706 -0.055090357 -0.040819023 -0.103311226
000330 bf b1 27 3c 51 6e 0b 3d a8 2f 96 bd 40 94 a6 bd
       0.010235249 0.034040753 -0.073333085 -0.08133745
000340 96 5f b4 bd 1a b2 40 bd 50 09 c8 3d e0 52 4e bd
       -0.08807294 -0.04704485 0.09767401 -0.050372005
000350 8c 27 8e bd cb 96 9a bb c2 b3 68 bd 4d ae bf 3c
       -0.06941137 -0.004717683 -0.056812055 0.023398543
000360 a5 0a 93 bc 2a 2e 25 be 57 cd 05 3d 48 bd 05 3c
       -0.017949412 -0.16130891 0.03266653 0.008162804
000370 19 59 d6 bd 2f 55 1e bd 86 6d 6c 3d 53 a0 e2 bd
       -0.10466213 -0.038655456 0.057721637 -0.11065736
000380 d5 2c 1d be cf 9e 17 be 76 aa 8d 3c 3a 87 b5 bd
       -0.15349133 -0.14806674 0.017293196 -0.08863683
000390 24 a2 18 bd fd 80 02 be 07 74 26 bd de 5a 59 bc
       -0.037264004 -0.12744518 -0.040637996 -0.013266293
0003a0 33 5b 7a bc f9 ac 93 bd 83 20 6e bd 8e 36 07 bc
       -0.015280533 -0.07210726 -0.058136474 -0.008252753
0003b0 9f 56 3f 3c e4 00 5d bc 7e 19 33 be a5 08 53 bd
       0.011678367 -0.013488982 -0.17490193 -0.051521916
0003c0 e3 75 af bd ee 37 28 bd 33 2c 7d 3d c1 80 37 bb
       -0.08567407 -0.041068964 0.06180973 -0.0028000327
0003d0 16 d0 81 bc 1e 1a dd bd 3a fb 09 be 83 37 51 bd
       -0.015846293 -0.10795997 -0.13474742 -0.05107833
0003e0 a1 3d 93 bc 76 3d 4c be 8e 97 6d bd c3 71 30 3d
       -0.017973723 -0.1994532 -0.058005862 0.04307724
0003f0 1a f2 00 3d 9f 4c 02 3d 0d fc 1c be dc e2 09 be
       0.031480886 0.031811353 -0.15330525 -0.13465446

fc3.weight f4 [256, 256]
000000 c8 13 0c 3d 5d 29 0c bd 36 9c 5b 3d 0d c4 6f bd
       0.034198552 -0.034219135 0.05361577 -0.058536578
000010 b5 f2 d8 bd 0b 65 1c 3d 78 c3 b6 bd b3 7c d0 bd
       -0.10593168 0.0381823 -0.089240015 -0.101800345
000020 ab c4 d2 3c e3 e1 d8 bc 97 af 3d 3c 16 d4 9d 3d
       0.025728544 -0.026474899 0.011577508 0.07706468
000030 8e 16 c5 bd eb c8 41 bd 0b 51 47 3d 9d d1 57 be
       -0.096234426 -0.04731075 0.048661273 -0.21076055
000040 37 ff e2 3d 86 24 15 3c 2d 03 98 3d d4 09 f6 bd
       0.110838346 0.009102946 0.07422481 -0.12013593
000050 3b 25 4e 3c f7 bb be 3d 50 24 75 3d b3 82 41 bd
       0.012582119 0.09313195 0.059849083 -0.047243785
000060 5b 16 16 be 0f 4f 85 3d cf 0e bd 3d a6 bb 4a bd
       -0.14656965 0.0650922 0.0923134 -0.04949536
000070 24 48 50 be 0d 66 92 bc de d1 ac 3d 20 fe f7 bd
       -0.2034002 -0.017870927 0.084384665 -0.12109017
000080 2d 55 6f bd cb 60 f5 bc dd 5c f6 bc 25 f4 27 be
       -0.05843084 -0.029953381 -0.030073578 -0.16401727
000090 63 3c cb bd 3d 3a ff 3c 64 92 16 3d fc c5 a4 bd
       -0.09923627 0.0311557 0.036760703 -0.08045575
0000a0 1e b4 33 bd 85 4b 77 bd 0e 51 c8 3c 87 98 be bd
       -0.043872945 -0.060374755 0.024452712 -0.09306436
0000b0 65 8b 44 be 69 1c ac 3d 52 53 b5 3c ba 31 83 bd
       -0.191938 0.08403856 0.022134457 -0.06405969
0000c0 c7 d0 55 3d 94 c4 82 be 82 06 90 3b b0 d2 76 bc
       0.05220106 -0.25540602 0.004395307 -0.01506488
0000d0 3a 82 e5 3b 55 a8 59 bd 49 1b 69 3d 08 65 fc bd
       0.0070040496 -0.05313905 0.056910787 -0.12323958
0000e0 4b 6e 0e 3d ef 97 e6 bd 2e 81 ba 3d d8 c5 9f bc
       0.034773152 -0.11259448 0.0910667 -0.019503519
0000f0 41 42 57 3e 22 50 5c be 62 fa 92 bd 71 f0 8b bd
       0.21021368 -0.21514943 -0.07176663 -0.0683297
000100 b3 bb 88 3d 10 d0 fa bc 6f 5b 33 3d 67 39 55 bd
       0.06676426 -0.03061679 0.04378837 -0.052056696
000110 16 5f 41 3d 9b 7b 8a 3d 6d 6d fe bd cc f2 0f be
       0.04720982 0.06761857 -0.12423215 -0.14057463
000120 f4 65 3c 3c 4a 38 4c 3e 30 3b df 3d ed 25 6b bd
       0.011498917 0.19943348 0.10899961 -0.057409216
000130 a1 d3 54 bd fa b0 6f 3d 4e 7a 68 bd 43 10 0b be
       -0.051959638 0.058518387 -0.056757264 -0.13580422
000140 7b 3d 5a bd 68 7e e2 bd 22 4e a6 bd b0 ef 2f bd
       -0.05328129 -0.11059266 -0.081203714 -0.042953193
000150 12 58 a9 3b 91 cb 10 3c 58 43 b9 bd 41 4c c7 bd
       0.0051679695 0.0088375965 -0.09046048 -0.09731341
000160 78 26 78 bc d2 91 0a bc 9e 38 ae 3c ab 56 b5 bd
       -0.01514589 -0.008457618 0.021267232 -0.08854421
000170 21 cc ef 3d 1f 59 37 be d8 75 60 3e f9 24 43 bd
       0.117088564 -0.17905091 0.21919954 -0.04764268
000180 ea d6 64 bd 9e 2c b9 3d c0 57 b8 3c e8 0c 22 be
       -0.05586902 0.09041713 0.02250278 -0.15825236
000190 2d 8d 9a bd 05 e7 42 3d ce 0d 48 3c 57 71 5e bc
       -0.075464584 0.0475836 0.012210323 -0.013576827
0001a0 df 01 8e bd fd 07 ae bd 29 14 75 bd 15 f2 e1 3d
       -0.06933951 -0.084976174 -0.05983368 0.110325016
0001b0 fe d1 b6 3d c5 b7 50 bc 6a 5a 73 3c 13 42 8b bc
       0.089267716 -0.012739127 0.014853099 -0.01699928
0001c0 52 67 d7 bd 6d 0c cc ba aa a4 a6 bd b9 fe aa 3c
       -0.10517754 -0.0015567668 -0.08136876 0.020873414
0001d0 43 86 b1 be 9f fb 9d bd d7 3d 10 3d 3e f2 c0 3d
       -0.34672746 -0.077140085 0.035215225 0.09421204
0001e0 f4 7e 93 bd fa 5c c7 3c 67 ec ae bb 11 82 93 3d
       -0.07201949 0.024336327 -0.00533824 0.072025426
0001f0 2e 08 b2 bd d8 6e 2a 3d d8 6a 0c be 05 48 f5 3b
       -0.086929664 0.041609615 -0.13712633 0.007485392
000200 72 73 b4 bc 35 ad 11 be 56 62 e1 bd ab 40 97 bd
       -0.022027705 -0.1422623 -0.11005084 -0.07385381
000210 b1 6e 17 3c 2e e8 81 bc b8 5c d0 bc da 2c 02 be
       0.0092426995 -0.015857782 -0.025434837 -0.12712422
000220 ab 0a 92 bc 5d 53 aa 3c 6d 1a c0 3d c6 75 83 bd
       -0.017827353 0.020791704 0.0938004 -0.06418948
000230 c6 0b d6 bc dc c5 9c 3d d9 0a bc bb bd 3c 8f bd
       -0.02612866 0.07654926 -0.005738598 -0.06994007
000240 08 ef 9b bd 56 6e 2f bd 0c 8a 2f be 11 1e 65 3d
       -0.07613951 -0.042829834 -0.17142504 0.055936877
000250 ff 62 b1 3d 82 2e 09 3d 5c c2 63 be 77 95 dd bd
       0.0866146 0.03349162 -0.22242111 -0.10819524
000260 14 ef 9e 3d 46 8a c1 bd b9 33 72 be b1 43 0f 3c
       0.07760444 -0.09450202 -0.23652543 0.008744166
000270 fd a1 17 3d 82 43 20 bd 0f c6 ac bd 3a 0f f3 bc
       0.03701972 -0.03912688 -0.08436214 -0.029670347
000280 01 55 10 3d 95 9a cb 3c 2f 1d a1 be c6 93 6b bd
       0.035237316 0.024853984 -0.31467578 -0.057513975
000290 80 2d 31 3d f2 59 77 bc d2 3f 11 be 11 55 e6 bc
       0.043256283 -0.015097128 -0.14184502 -0.028116735
0002a0 03 cb 63 3d 7d 9c 39 3d 0c 99 5b 3d b8 e8 02 be
       0.05561353 0.045315254 0.053612754 -0.12784088
0002b0 6b a6 3a be 71 c3 89 3c 17 c8 9e bd 28 a1 38 be
       -0.18227546 0.016816827 -0.07753008 -0.18030226
0002c0 68 24 06 bd b2 48 4d 3d ab 58 7b 3d 41 8d 8c bd
       -0.032749563 0.050118156 0.061363857 -0.068628795
0002d0 f5 d8 00 bd 6d e1 c5 bd 3e 07 ea bd e9 21 b5 bd
       -0.031456906 -0.09662137 -0.114271626 -0.088443585
0002e0 22 41 79 bd 4b b8 80 bd ae 86 c6 bc 75 5d 44 bc
       -0.06085313 -0.06285151 -0.024234142 -0.0119851725
0002f0 93 65 ae 3d 96 e5 a8 3c 97 64 9f 3c 16 26 e0 bd
       0.085154675 0.020617288 0.019457145 -0.10944764
000300 76 79 99 be 19 36 b5 3c 7f 48 6b be b6 b0 6c 3c
       -0.2997548 0.022120522 -0.22976874 0.014446428
000310 a2 fa a0 bd 77 a9 c4 bd 40 1d 3c 3d c9 a9 7f bc
       -0.078603044 -0.09602635 0.045926332 -0.015604445
000320 56 0a 8b 3d f4 a3 b5 bc ef 91 1d 3d bd 55 fd bd
       0.06789081 -0.022172906 0.03846925 -0.12369869
000330 29 2b 0c be cf ca 3f bd 44 43 f7 3d db ad 54 bd
       -0.1368834 -0.046824273 0.12073377 -0.051923614
000340 66 13 11 bd 9d 49 8d bd 88 70 ef bd 24 54 5f bc
       -0.03541889 -0.06898806 -0.116913855 -0.0136309005
000350 1f 81 67 bd f1 05 ed bd f8 14 0b bd 80 cb 06 be
       -0.056519624 -0.11573399 -0.033955544 -0.13163567
000360 11 5b 93 3c 75 94 be 3d c9 00 6a be d6 31 f4 bd
       0.01798776 0.0930566 -0.22851862 -0.11923568
000370 8e 09 08 be c7 a4 8a bd 6a 26 53 bd e3 b8 38 3d
       -0.13284895 -0.0676971 -0.051550306 0.045098197
000380 2c 5e 31 3e 67 df f5 3c d3 73 f8 3d 8f 0a ed 3d
       0.1732108 0.030013753 0.12131467 0.115742795
000390 94 26 95 3e 78 85 82 bc f9 68 5f 3c 3c 0a 88 3c
       0.29130995 -0.015932783 0.013635867 0.016606443
0003a0 ff 19 2a bd b9 28 41 bb 14 8a 80 3d c8 0c 45 3c
       -0.041528698 -0.0029473735 0.06276336 0.012026973
0003b0 21 fa 82 bd be f0 13 3d 55 a8 45 3d a7 a9 a4 bd
       -0.063953646 0.03611826 0.048256237 -0.08040171
0003c0 26 00 84 3d c6 22 cb bd 30 b9 12 be e0 0b 7b bd
       0.06445341 -0.09918742 -0.14328456 -0.06129062
0003d0 fa 1d b2 bd 17 19 90 bd 2c 5f 9e bd 47 03 6e bd
       -0.08697124 -0.070360355 -0.07732996 -0.058108594
0003e0 4d 48 17 be a6 d6 09 bd 30 5e d8 3c 09 a3 55 bd
       -0.14773674 -0.03365197 0.0264121 -0.052157436
0003f0 44 70 5b bc a9 e3 ac bd b5 7d 0a 3e 04 08 c9 3c
       -0.013393465 -0.0844186 0.13524516 0.024539955

fc3.bias f4 [256]
000000 be 85 f8 bd 82 83 32 be 83 4a d2 3d bb de aa bd
       -0.12134884 -0.17432979 0.10268118 -0.08343264
000010 b7 30 f5 3c 65 45 49 3d 2e 5c 46 bc 39 17 c4 3d
       0.029930456 0.049138445 -0.012106938 0.09574742
000020 c8 81 3d 3d b3 9e 45 be 6e 07 ff 3b f7 40 4f 3d
       0.046266347 -0.1929882 0.007782868 0.050599065
000030 3c 7f ac 3d 27 a2 a4 3c 25 98 5f 3c 66 f1 c9 3d
       0.084227055 0.020096852 0.013647114 0.09860496
000040 98 a1 a7 bd 65 8e 8f 3d 99 59 50 3c 07 df 20 3d
       -0.081851184 0.070095815 0.012716674 0.039275195
000050 1d 11 b0 bd 33 6f 18 bc 2e 87 1a 3c 49 04 aa 3d
       -0.08597014 -0.009303856 0.009431643 0.083015986
000060 73 a0 8c bc d2 e7 a8 bc ed 14 d3 3c 41 9b 62 3c
       -0.017166352 -0.020618353 0.025766814 0.013830961
000070 cb dd 88 3d e9 ca 28 3d 16 87 a3 bd 3a c1 e4 3c
       0.06682929 0.041209135 -0.0798475 0.027924169
000080 97 8a 7d be 93 6f b8 3c e8 5d 3a 3c a0 c0 00 3e
       -0.24759899 0.02251414 0.011374928 0.1257348
000090 9b fa 95 bd c4 ef 4a bc 20 eb 04 bd f4 c4 53 3d
       -0.0732319 -0.012386266 -0.032450795 0.0517015
0000a0 73 cf c5 3d 70 71 04 be 8d 94 b6 bd 53 48 93 bd
       0.096587084 -0.12933898 -0.089150526 -0.07191529
0000b0 30 2f 5e be 6b 7a 39 3d 31 40 cb 3d 39 39 2a bd
       -0.21697688 0.045282762 0.09924353 -0.041558478
0000c0 a1 c6 9a bc de 1e 1f 3d d1 fb 59 3d cf 22 07 be
       -0.018893542 0.038847797 0.053218666 -0.13196872
0000d0 69 ff 05 3d a9 0d 8a 3d df 80 42 bd 24 9a 97 3c
       0.03271428 0.06740887 -0.047486182 0.018506117
0000e0 8c f9 91 3b ea cb 8d 3d 82 d7 9c bb 7e f9 8f 3d
       0.004454797 0.06923659 -0.0047864327 0.07030009
0000f0 af f7 cf bd 22 44 79 bc 51 cd 63 be b9 1b 4a bd
       -0.10154664 -0.015213998 -0.2224629 -0.049342845
000100 6b 0d a8 3c f9 c0 1d bc 97 31 c2 bd d8 5c dc 3d
       0.02051421 -0.009628528 -0.09482115 0.10759896
000110 84 b6 ae 3c 9f cd 14 3d e0 65 83 be 23 b9 e7 3c
       0.021327265 0.036328908 -0.25663662 0.028286522
000120 82 0d 5e 3d 72 5e ef 3d e0 14 e2 bc 0e 00 0d be
       0.0542121 0.11687936 -0.027597845 -0.13769552
000130 88 77 45 bd ca 65 4e 3d 3e 9d 00 3d ce 30 9f bd
       -0.048209697 0.050390042 0.031399958 -0.07772981
000140 ad 58 64 be cc ca 11 be 41 ce 3b 3d 2e 90 99 bd
       -0.22299452 -0.14237517 0.045850996 -0.07498203
000150 99 49 87 3c a8 71 17 3c a1 6b 89 3c 87 06 d7 3d
       0.016514586 0.009243406 0.016774954 0.10499292
000160 3c 33 96 bd ab b9 4a bd b8 b5 4d bc 2e 5c ea 3d
       -0.07333991 -0.049493473 -0.012555532 0.11443363
000170 c2 ae 3b 3d e0 c5 ef bc c4 84 57 bd 22 75 a0 3d
       0.04582096 -0.029269159 -0.05261685 0.07834841
000180 d2 ef a9 3c c4 44 b9 bd 10 87 de bd cd f7 5c 3d
       0.020744238 -0.09046319 -0.10865605 0.05394726
000190 96 6c 57 3c cd 3b 24 3e 85 85 84 bb 38 c3 3a bc
       0.0131484475 0.16038437 -0.004044237 -0.011399083
0001a0 c5 20 cc bc 0b f5 e2 bd 64 21 d5 3c a7 7c 06 3d
       -0.02491797 -0.110818945 0.026016898 0.03283372
0001b0 29 11 a0 3d a9 6c 2b be fc 92 76 bc e3 7c 89 3d
       0.07815773 -0.1674067 -0.015049692 0.067132734
0001c0 8c 68 02 bd 08 5d a2 bd 2c 30 19 3e 7d ab 3a be
       -0.031837985 -0.079279006 0.14959782 -0.1822948
0001d0 b7 7d 80 bd 52 7a 2d 3c 3a 96 2a bd c9 61 ac 3c
       -0.06273978 0.0105882455 -0.041647173 0.021042721
0001e0 3c c7 de 3b fd ef 8b 3c 3f 6d 8d 3c 39 09 2b bd
       0.006798653 0.017082209 0.017264007 -0.041756842
0001f0 2d 67 82 3d 8b 1e 3f 3c e3 ae ff 3c 6d 9e fc bd
       0.063673355 0.011664997 0.031211322 -0.12334905
000200 70 13 2d be e8 62 2a bd 96 12 81 3d 73 85 03 bd
       -0.16901946 -0.04159823 0.06302373 -0.03210969
000210 32 97 8d bd e3 74 dc 3c 9c bf d2 bc 6a 16 62 be
       -0.06913604 0.026911205 -0.025726132 -0.22078863
000220 56 a5 9a 3c e7 43 30 3d 22 90 e0 bd 0f 49 79 bd
       0.018877666 0.043033507 -0.10964991 -0.06086069
000230 60 38 7d bd e1 3c 31 bd 63 ae 20 3d b5 63 c2 3d
       -0.06182134 -0.04327095 0.039228808 0.09491674
000240 6c c6 99 3d 4d 59 bf bc ba 8d 5c be 9d 22 40 be
       0.07508549 -0.023358012 -0.2153844 -0.18763204
000250 b3 c8 35 bc 56 cb 29 be 97 26 10 bc ca 0b d5 3d
       -0.011095214 -0.16581473 -0.008798263 0.10402639
000260 18 76 c4 3c 7d 46 0e bd da 82 be 3d 89 22 0b 3d
       0.023982093 -0.03473519 0.09302302 0.033968482
000270 05 b6 33 be 44 e0 eb 3d ee 4c 7d 3c 20 a3 89 bd
       -0.17549904 0.11517385 0.015460236 -0.06720567
000280 4f 82 1b bd 41 3e c5 bc b8 aa 4d 3d 7a b0 87 3c
       -0.03796607 -0.024077537 0.05021164 0.016563643
000290 9c bc 9e bd fd b2 6e bd 4a f2 1a bc e8 dd 14 be
       -0.07750818 -0.058276165 -0.00945718 -0.14537776
0002a0 f2 92 16 3d 83 5f 28 be 43 5e 81 3d 62 66 2c be
       0.03676123 -0.16442685 0.06316807 -0.16835931
0002b0 69 a7 94 bc c1 54 9f bd 6a bb c2 3d 55 23 cb bd
       -0.018146234 -0.077798374 0.09508403 -0.099188484
0002c0 71 ef 09 3d 76 c9 1b be 47 12 32 3e 8d b5 2e 3e
       0.033675615 -0.1521357 0.17389785 0.17061444
0002d0 49 7b 4c 3d bf df fd bc e3 df 56 3e ff db c3 bc
       0.04992226 -0.03099048 0.20983844 -0.023908613
0002e0 0a 78 67 3d bf ad b4 3c 83 bd c7 3b b0 d2 20 be
       0.056510963 0.022055505 0.0060955896 -0.15705371
0002f0 f4 f6 cb bb 08 ae 13 be 28 50 ee bd 37 b1 44 bd
       -0.0062245075 -0.14421856 -0.11636382 -0.048020568
000300 ee 2c b4 bd 0a c3 be 3d 64 9a a2 3c 2f 4f 9f 3c
       -0.08797632 0.093145445 0.01984901 0.019446937
000310 94 ce ce bd 55 39 da bd d4 be c4 3a 84 a8 2d bd
       -0.100979954 -0.106554665 0.0015010484 -0.042397037
000320 06 7e e8 bc f2 02 7d bd c2 ac 48 3d cd 30 ef bd
       -0.028380405 -0.061770387 0.04899288 -0.1167923
000330 58 dc 5f be cb c8 ef 3c 22 0d 88 3d 42 55 85 bd
       -0.21861398 0.02927055 0.0664313 -0.06510402
000340 45 4f 18 3d 35 ab 18 bc 92 bc 2b 3d 7f 70 a2 be
       0.037184972 -0.009318163 0.04192788 -0.31726453
000350 ad 00 9a 3c 75 1e 7f 3d 3a 67 9d bb e2 6e fb 3d
       0.01879915 0.062284905 -0.0048035653 0.122770086
000360 d0 56 92 bc 27 12 45 ba e4 5c 65 be 36 96 27 be
       -0.017863661 -0.00075176585 -0.22398716 -0.16365895
000370 4c e3 8c bd da 87 1f 3d 2f 33 06 3c b0 0e 80 bd
       -0.06879291 0.038947918 0.008190914 -0.062528014
000380 7d a5 04 3d ea c1 20 bd 79 c4 16 3c 1a 7f ea bd
       0.032384384 -0.03924743 0.009202116 -0.11450024
000390 59 7b da 3c 2a 6e b2 3d eb d2 a2 3c 1a b2 9b bd
       0.026670145 0.087124184 0.019875964 -0.076023296
0003a0 59 f6 9f 3d 2b d6 21 3d 78 97 13 be 04 2f 01 be
       0.07810659 0.039510887 -0.1441325 -0.12615591
0003b0 56 7e d0 3d 51 13 32 bd 2d 0d a3 3c 41 ce cc bc
       0.10180347 -0.043475453 0.019903744 -0.025000693
0003c0 94 f0 70 3c a1 cf 25 3e 12 52 05 3c 30 3c 3e 3c
       0.014705796 0.16192485 0.008137243 0.0116110295
0003d0 71 0b b7 bd a9 ff c7 3d e8 0c 12 3e f9 77 2a 3c
       -0.08937729 0.0976556 0.14262736 0.01040458
0003e0 68 51 1c bd ff 2d e5 3c 8d 94 95 bb c4 68 f5 bd
       -0.038163573 0.027976034 -0.004564828 -0.11982873
0003f0 bc 2e 38 be ee ad ff 3c 3b 3f db 3d f2 86 c2 bc
       -0.17986578 0.031210866 0.1070542 -0.023745988

fc4.weight f4 [128, 256]
000000 ee 44 6f 3d 65 b4 05 3e 2f e9 87 3d 50 57 cc bc
       0.058415346 0.13057096 0.06636273 -0.024943978
000010 b4 d8 b0 bd bc 01 d3 bd a1 79 af 3b 2f 2a 45 3d
       -0.08635083 -0.10303065 0.0053550755 0.048135933
000020 b1 d5 c7 3d 08 a0 2c 3e 08 96 4a ba bb df db 3c
       0.09757555 0.16857922 -0.0007728045 0.026840081
000030 65 6f 6e 3d 3b 6a b7 3b 3a bc 17 3c db da 25 3d
       0.058211703 0.0055973805 0.009261185 0.04049192
000040 8d d7 ba 3d 36 4f 08 be 9f 73 36 3d 3e 6b 70 3d
       0.09123144 -0.13311467 0.04454386 0.058696024
000050 60 6c ba 3c 82 52 90 bd 33 fa 75 3d 75 b1 6a 3d
       0.022756755 -0.07046987 0.06005306 0.057298142
000060 0c 5a 2a bc 7f 9f da 3d 03 43 11 be fb 00 2c 3d
       -0.010397445 0.10674953 -0.14185719 0.041993123
000070 4f ed 3e ba 45 ce cf bd 67 d3 cf bc 05 de 3d 3d
       -0.00072832865 -0.10146765 -0.02536936 0.046354312
000080 c4 e3 9c bc 95 34 de bd a5 07 ca bd 29 47 7a bd
       -0.019151576 -0.10849873 -0.09864739 -0.06110302
000090 42 8d 88 3e 72 b9 de 3d 39 f8 f4 3b ac 44 9c 3e
       0.2667027 0.10875215 0.0074758795 0.30521142
0000a0 d1 a4 00 3e 0f 5a c8 ba ab 53 88 bd 95 9f e2 3d
       0.12562872 -0.0015285629 -0.066565834 0.11065594
0000b0 74 94 6b be 9f 5c 23 3e 75 0d 3b be 24 a4 fd 3b
       -0.23005849 0.15953301 -0.18266852 0.0077405144
0000c0 28 0b 53 3c 1b 44 0e 3d 6f 97 a7 3d e1 b7 01 bc
       0.012881078 0.03473292 0.081831805 -0.007917375
0000d0 59 f5 34 3d b5 5f a1 3d f5 74 dd bd 70 b7 15 bd
       0.044179294 0.07879583 -0.108133234 -0.036551893
0000e0 5b 32 0f 3d 67 d2 6a 3e 88 ad 90 3d 25 0b b8 3c
       0.034960132 0.22931825 0.070643485 0.022466252
0000f0 d9 20 23 3c 6b a8 2e bd 94 3d df 3d e4 70 7b be
       0.009956562 -0.042641085 0.10900417 -0.24554783
000100 86 85 a0 bc 38 50 e0 3c 98 3d 78 bb 0d 9f be bd
       -0.019594919 0.027382001 -0.003787851 -0.0930768
000110 11 b9 20 3d 7e f2 34 bd 53 01 a2 3d 05 4d 2b be
       0.039238993 -0.04417657 0.07910409 -0.167286
000120 c0 93 96 bc 8f b7 e1 bc 2b 02 4d 3e 0a a6 23 3d
       -0.018381 -0.027553348 0.20020358 0.03995327
000130 df 0c d9 bd 77 23 12 3e bf fd 8c bd a5 17 e9 3d
       -0.10598158 0.14271341 -0.06884336 0.11381463
000140 aa 83 5e 3d 76 e9 92 3d fb 1a 76 3d e3 75 f1 bc
       0.054324783 0.071734354 0.060084324 -0.029475158
000150 70 58 da bd 65 87 85 bc e0 19 37 3e fa 03 38 bd
       -0.10661399 -0.016299913 0.17880964 -0.044925667
000160 17 8c 7b 3e 2a 1c 8a 3c 4d ca 13 3e 7f 19 19 bd
       0.24565159 0.016859133 0.1443264 -0.03737783
000170 c1 ba 89 bd b9 bb 8a bc 40 bb 99 bd 73 30 96 b8
       -0.067250736 -0.016935216 -0.07506418 -7.161582e-05
000180 9a ab a9 3a 90 3e 38 bd 5c 13 4d 3d ad ac 5a 3e
       0.0012944818 -0.04498154 0.05006729 0.21354933
000190 f6 fe 83 bd 2d 87 a5 bd 34 0c af bc eb 55 17 3c
       -0.06445114 -0.08082423 -0.021368124 0.009236793
0001a0 1b 4e dc bc 74 7b 1c 3d 2a 13 8f 3c 75 4f f4 3b
       -0.026892712 0.03820367 0.017465193 0.007455761
0001b0 17 2b f3 bd 6d d4 b6 3d d1 ef a1 3e b6 32 23 bd
       -0.11873453 0.08927236 0.31628278 -0.039843284
0001c0 ee 8d 85 3d 24 dd fb 3c d2 08 76 bc c1 23 ea bc
       0.065212116 0.030745097 -0.015016751 -0.028581502
0001d0 20 b9 57 3d fe d0 04 3b ae 7b 76 3d 88 01 64 3d
       0.052666783 0.002026617 0.060176544 0.055665523
0001e0 62 80 b4 3d 84 b4 6a 3e 78 a2 f8 3c e6 30 e9 bc
       0.088135496 0.22920424 0.030350909 -0.0284657
0001f0 a0 f4 4e bd 56 76 d8 bd 5f b3 d7 3e 30 1c 13 3e
       -0.05052626 -0.10569446 0.42129037 0.14366221
000200 2a d1 d6 bc cc 62 cd 3d 75 57 0e bc 10 7a 13 3e
       -0.026222784 0.1002861 -0.008687844 0.14402032
000210 b9 e5 e8 bc d8 6c f3 3c 45 67 87 3c 19 aa bc 3d
       -0.028429853 0.029714987 0.016528735 0.09212131
000220 9a 20 c1 3c 45 8a c4 3d c5 b0 9d bb f8 cc a9 3d
       0.023575116 0.09596685 -0.0048123323 0.08291048
000230 aa b5 e1 3c 47 ff 3c 3e b7 d2 36 3e 43 00 b9 bd
       0.027552444 0.18456756 0.17853819 -0.09033253
000240 ea 6c 5d 3d 98 0b 6b 3d 75 9c 49 3c 8f c8 07 be
       0.054058947 0.057384104 0.012305369 -0.13260101
000250 8e 9d ef 3d 11 a0 07 3d 20 8d 61 bd 3f d2 cf bc
       0.11699973 0.033111636 -0.055066228 -0.025368808
000260 70 2d c2 bc 97 df 3e bc 1b 7d 30 3d a0 1c ad 3d
       -0.023703307 -0.011649988 0.04308806 0.084527254
000270 01 13 dd 3d 75 60 42 bc 80 24 84 bd 2d 80 12 bd
       0.1079464 -0.011863817 -0.06452274 -0.03576677
000280 c1 8f 2d 3e 30 46 e9 3e a8 ea 1f 3d bf 58 da bd
       0.16949369 0.4556136 0.039042145 -0.10661458
000290 49 78 83 3d 4a 31 84 ba 75 dd 84 bb d8 b4 16 3e
       0.06419427 -0.001008549 -0.00405472 0.14717424
0002a0 cc f4 2b 3e f7 de 48 3c f2 83 fa bd 11 2f 5f 3e
       0.16792601 0.01226019 -0.12232198 0.21795298
0002b0 51 47 64 3d a4 88 5a bc 23 39 e0 3a 08 fc 87 3d
       0.055732075 -0.013338242 0.0017106872 0.06639868
0002c0 62 a1 59 3d 18 d4 17 3d b7 8c 84 bd b0 0c be bb
       0.053132422 0.037067503 -0.06472152 -0.0057998523
0002d0 13 32 f5 bc 75 27 0e be 83 73 9d 3d 7d 8d 87 3d
       -0.029931104 -0.13882239 0.07688048 0.066187836
0002e0 a2 8c 32 bc 2a 15 de bd 74 64 7e 3d 30 bc 93 3d
       -0.010897787 -0.108438805 0.06210752 0.07213628
0002f0 c2 d0 80 bb f4 fa c3 3d f9 f1 1a 3d 72 ca 0b be
       -0.003931136 0.0956935 0.03782842 -0.13651446
000300 9a bf 21 bd 2a 0a 99 3c c4 5e cf 3d 96 c8 00 3d
       -0.039489366 0.018681604 0.10125497 0.031441294
000310 0b e0 2f 3e ca dc 91 bc 12 15 b8 bb b8 89 27 3d
       0.1717531 -0.017805476 -0.005617746 0.040902823
000320 f8 c6 24 3d 88 d8 68 3c 8e ad ef bc 4e e1 a6 bd
       0.040228814 0.014211781 -0.029257562 -0.08148442
000330 f5 9d d6 3d b6 6c 0e 3d 1a a4 98 3b b4 92 ed bd
       0.10479347 0.034771644 0.0046582343 -0.11600247
000340 f9 fe ab bd 94 40 04 3d 74 f2 c3 3d a2 ff 00 3d
       -0.083982415 0.03228815 0.09567729 0.03149379
000350 72 5a 8f bd 7b e0 90 3d 99 c7 85 3d 8b 6f b5 bd
       -0.06999673 0.07074066 0.06532211 -0.08859166
000360 03 94 cb bd 03 d7 34 be db 6c e8 3c 04 bf 04 3d
       -0.0994034 -0.17660145 0.028372219 0.03240873
000370 30 af af 3c 9a 88 1e 3c fe 76 61 bc 42 a0 39 bd
       0.02144584 0.009676123 -0.01376128 -0.04531885
000380 aa e8 17 bd 5e d4 d0 bd 7a 5b ff 3c 0c 0d 8d bc
       -0.03708712 -0.10196756 0.03117155 -0.017218135
000390 31 64 d5 3d ca 43 04 3e 1d e7 fb bc bc 8f 2b bd
       0.104195006 0.12916484 -0.030749852 -0.041885123
0003a0 ee 27 8d bd 8c 34 11 3d 40 42 65 bd d6 da ce 3c
       -0.068923816 0.035450503 -0.055971384 0.025250833
0003b0 08 32 77 b8 d3 d2 2e bd 29 ea d2 bd 94 b5 58 3d
       -5.8935984e-05 -0.042681526 -0.10298569 0.05290754
0003c0 0c 49 09 be 3f eb a5 3e 79 7c 0d bd 6f d1 e9 3d
       -0.13406771 0.3240604 -0.034542535 0.114168994
0003d0 81 3c 41 3d 8f 37 3f bd 7a 61 a4 bd 67 82 41 bd
       0.04717684 -0.046683844 -0.08026405 -0.047243502
0003e0 ff 3c a2 3d e8 3e aa bd ef f0 c4 3c 89 f1 84 3d
       0.0792179 -0.0831278 0.024040667 0.06491382
0003f0 09 e1 d1 3c 26 0f 96 bd 57 78 d7 bc 14 c0 45 3b
       0.02562 -0.07327108 -0.0263025 0.0030174302

fc4.bias f4 [128]
000000 1e 32 d6 3c 9e 89 12 be 8d 20 01 be 97 47 9e bd
       0.026146945 -0.1431031 -0.12610073 -0.077284984
000010 a0 1f 5f 3d 5b 8c 3e bc df 77 21 3c 76 52 ab bb
       0.05447352 -0.011630143 0.00985524 -0.005228336
000020 5d 14 fe bc e3 75 32 bd 51 c1 eb 3c 8a ff 3a bd
       -0.03101557 -0.043569457 0.028778704 -0.045653857
000030 0e 43 1a 3e 7c b6 83 3d c9 c7 45 3d f1 ac 45 3e
       0.15064642 0.064312905 0.048286233 0.19304253
000040 02 e3 df bc 1b 98 bb 3c 73 ef 0f bd dc 22 a9 3d
       -0.027329925 0.022899678 -0.035140466 0.08258602
000050 03 d6 f1 bd 4b 03 87 3d be 40 93 3d 44 79 63 be
       -0.118083976 0.06592425 0.07190083 -0.22214228
000060 06 c5 3c be 5f 7a 0e be 74 ec cf 3b 76 3e 6d 3d
       -0.18434533 -0.13913868 0.006345326 0.057920896
000070 c7 3d bd 3d 70 95 af bc 20 7b 28 3e c1 0a a3 3c
       0.09240299 -0.021433562 0.16453218 0.019902589
000080 08 1d 8b 3d 8c ef 18 3d 25 58 61 bd e8 eb 6a be
       0.06792647 0.037337825 -0.0550157 -0.22941554
000090 6e 4e d2 3d 50 56 fc 3d c1 50 99 bd 70 89 10 3d
       0.102688655 0.1232115 -0.07486106 0.03528732
0000a0 36 c0 dd 3d 7b 3c 51 be c2 41 6c bc b6 50 6f be
       0.10827677 -0.20433228 -0.014419975 -0.23370633
0000b0 8c f2 04 3d 9b 1a e6 bb ad 49 28 be 21 d4 0e 3d
       0.032457873 -0.0070222146 -0.16434355 0.03487027
0000c0 03 05 63 bd 56 f3 92 3d 47 7a 1b bc 18 ff 71 ba
       -0.0554247 0.07175319 -0.009489602 -0.00092314323
0000d0 ec 70 ee 3c ab 09 11 bd 17 85 a1 bc 78 b4 e9 bd
       0.02910658 -0.03540961 -0.019716782 -0.11411375
0000e0 6a 22 3b be 20 62 1c be 65 f7 cd be e4 8d 0d bd
       -0.18274847 -0.15271807 -0.4022781 -0.034559146
0000f0 04 77 8f be dd 15 5c 3d 47 0b a2 bd 72 c6 0a be
       -0.2802049 0.053731788 -0.07912307 -0.13552263
000100 de fc d4 3c b0 5e 8e be 45 65 34 bd b5 25 58 3e
       0.025999483 -0.27806616 -0.04404189 0.21108134
000110 96 c2 96 3a 31 1b 97 3d aa c4 dd 3d 9a 26 6c 3d
       0.0011502083 0.07378233 0.10828526 0.057654
000120 17 d9 5c 3d 43 5c 8b 3e e4 72 39 3d b3 84 5a 3e
       0.05391797 0.27218828 0.045275584 0.21339683
000130 c5 af d6 3c e0 aa 5b bc 58 a8 cc bc e5 bf a5 bd
       0.02620686 -0.013407439 -0.024982616 -0.080932416
000140 4e d4 c7 3d b6 62 17 bd e5 d3 dd 3a 43 6b c4 3d
       0.09757291 -0.036959372 0.0016924111 0.09590771
000150 19 5b 0e be 2f d1 87 3e 5d 8a 6f 3e 20 b3 50 3e
       -0.13901938 0.26526782 0.23392625 0.20380831
000160 1f 0e 0a bd 44 4f 4f 3e 13 04 1b bd 59 0d b4 3d
       -0.033704873 0.20245081 -0.037845682 0.08791608
000170 b1 0f cc 3d 07 db c9 bc 89 0d 19 3e 89 15 b8 3d
       0.099639304 -0.024640573 0.1494657 0.089884825
000180 b0 1d 3c bd 01 99 9e 3c 12 95 88 bd d6 22 e6 bd
       -0.04592675 0.019360067 -0.06669058 -0.11237113
000190 cd 81 bd 3d 42 8e 4f 3d f2 e0 97 bd 10 cd ed 3d
       0.09253273 0.050672777 -0.07415952 0.11611378
0001a0 28 72 3d 3d e4 7a de bc cf a6 6b be 33 81 94 3d
       0.046251446 -0.027158208 -0.23012851 0.07251205
0001b0 de 28 90 bd 97 c5 09 be 6d 1c 50 bc 83 2d 0f 3c
       -0.07039045 -0.13454281 -0.01270209 0.008738878
0001c0 31 cc f8 3d c0 bd c4 3d ae b6 5d bd ea ff ae 3b
       0.121483214 0.096065044 -0.054129295 0.005340566
0001d0 85 81 1b be d6 45 81 3d ed 10 d9 3d ba df cd bd
       -0.15186127 0.06312148 0.105989315 -0.10052438
0001e0 7c 70 56 bb 57 c8 45 be dc 30 cb be c8 26 9f 3c
       -0.0032720855 -0.19314705 -0.39685714 0.019427672
0001f0 df 48 26 bd 11 81 90 be f1 27 c6 bd 84 92 48 3b
       -0.04059684 -0.2822347 -0.09675587 0.0030604908
