checkpoint_qnetwork_target_UNH.pth (torch_old, 339524 bytes, 10 tensors)

fc1.weight f4 [128, 12]
0	0x3e61aa1c	0.22037548
1	0x3e9a42eb	0.3012918
2	0xbeba013b	-0.36329064
3	0xbdac1e6a	-0.084042385
4	0xbe172c5f	-0.1476302
5	0x3e74b747	0.2389804
6	0x3d9b60df	0.07586836
7	0x3eca84aa	0.3955434
8	0x3d0d30e5	0.034470458
9	0x3c8ccf8f	0.017188815
10	0xbe3daff9	-0.1852416
11	0xbe2f6a45	-0.17130382
12	0xbf1324e5	-0.5747817
13	0xbf09fb0d	-0.538987
14	0xbeadd72a	-0.3395322
15	0x3d8ba19e	0.068179354
16	0xbdeca725	-0.11555318
17	0x3efcbb75	0.49361768
18	0xbf28f785	-0.66002685
19	0xbf5e34f9	-0.8679958
20	0x3d03dcc6	0.032192968
21	0x3ec12565	0.37723842
22	0xbe8526e8	-0.26006246
23	0x3e751923	0.2393537
24	0xbe398e71	-0.18120743
25	0x3e98d7d2	0.29852158
26	0x3f04ecd2	0.5192386
27	0xbea59d64	-0.32346642
28	0xbe0b379b	-0.1359543
29	0xbd636536	-0.055516444
30	0x3d1f8412	0.03894431
31	0x3eed1e2b	0.4631208
32	0xbf56fb36	-0.8397707
33	0xbf0303b3	-0.5117752
34	0xbd8f6647	-0.0700193
35	0xbe230879	-0.15921201
36	0xbd60009a	-0.054688074
37	0x3e6c67b5	0.23086436
38	0x3efd4440	0.49466133
39	0x3ecc7848	0.39935517
40	0xbe19eee3	-0.15032534
41	0xbebc957e	-0.36832803
42	0x3dc722c5	0.09723429
43	0xbf7ff3cd	-0.99981385
44	0xbe6189a4	-0.22025162
45	0xbe9d90ce	-0.3077454
46	0x3eca7f65	0.3955032
47	0x3e150107	0.14551173
48	0xbf1e3de7	-0.61813205
49	0xbf064f02	-0.52464306
50	0x3ed78718	0.42095256
51	0x3f34ba07	0.70596355
52	0x3ec5ac85	0.38608184
53	0xbde678fb	-0.11253544
54	0x3eb8fee3	0.36131963
55	0xbec1b9ec	-0.3783716
56	0xbebb2d3b	-0.36557946
57	0xbef4ab53	-0.4778696
58	0xbe629497	-0.22126995
59	0xbeb36dea	-0.35044795
60	0x3e64eb0a	0.22355285
61	0x3dce89d6	0.10084884
62	0xbf4a8c3e	-0.7912024
63	0x3e8ef1d6	0.2791888
64	0x3db70de0	0.08938193
65	0x3d8a859e	0.06763767
66	0xbe111a81	-0.14170267
67	0xbe57ef85	-0.21087463
68	0x3ec73f6f	0.38915583
69	0x3e9634d9	0.29337195
70	0xbd97f7e2	-0.07420327
71	0xbe518dc6	-0.20464239
72	0xbcfe32f5	-0.031030158
73	0x3e6cec16	0.23136935
74	0x3e2d4f7b	0.1692485
75	0x3e35eaae	0.17765304
76	0xbd8e5ba8	-0.06951076
77	0xbe6c2254	-0.2305997
78	0x3d478bef	0.048717435
79	0xbe25ef5e	-0.16204593
80	0xbe8b63f7	-0.27224705
81	0x3e92cae7	0.28670427
82	0x3f2282ff	0.63481134
83	0xbefc499e	-0.49274915
84	0xbeec8222	-0.46193033
85	0x3d31887c	0.043343052
86	0xbf300344	-0.6875498
87	0xbe1173e3	-0.14204364
88	0x3f0304d9	0.5117927
89	0x3e92d0a5	0.28674808
90	0x3ea5b99c	0.3236817
91	0x3ea4bc9e	0.32175153
92	0x3edbec12	0.42953545
93	0xbe03f939	-0.1288804
94	0xbf035b83	-0.5131151
95	0xbee1028c	-0.43947256
96	0x3f09e239	0.53860813
97	0x3ecc97b4	0.3995949
98	0xbe0915e5	-0.13387258
99	0xbf33a635	-0.70175487
100	0x3efdd2c0	0.49574852
101	0x3e5da7e7	0.21646081
102	0xbdd0a642	-0.10187961
103	0xbf0c9344	-0.5491221
104	0x3d95fbfe	0.07323454
105	0x3ed6dfa8	0.4196751
106	0xbe91c2c7	-0.28468916
107	0xbe8f9d93	-0.28049907
108	0x3d618caa	0.05506579
109	0xbe3a7d56	-0.18211874
110	0xbf117bec	-0.56829715
111	0x3d373a7c	0.04473351
112	0xbf5218c6	-0.8206905
113	0x3f03b5e8	0.5144944
114	0x3eeb8c2e	0.46005386
115	0xbde25df3	-0.11053076
116	0xbef78ea8	-0.48351026
117	0xbf0e4136	-0.55568254
118	0x3e91fc64	0.2851287
119	0xbe0b594b	-0.13608281
120	0x3e889b95	0.266812
121	0x3ead1aac	0.33809412
122	0xbd21aa2d	-0.039468933
123	0x3e5c9cd6	0.21544203
124	0xbff1b913	-1.8884605
125	0xbeeb666d	-0.45976582
126	0x3e52328b	0.20527093
127	0xbeafe363	-0.3435317
128	0xbd91c2ba	-0.07117219
129	0xbd763799	-0.060111616
130	0x3d888325	0.06665639
131	0x3e464e87	0.19365893
132	0xbe417320	-0.18891573
133	0xbd8ecfb4	-0.0697321
134	0x3e334312	0.17506054
135	0x3da0d206	0.07852559
136	0xbdfc5076	-0.12320034
137	0x3db61cde	0.08892225
138	0x3ce677b5	0.028133253
139	0x3e260d1c	0.16215938
140	0x3e446afa	0.19181433
141	0x3e557a19	0.20847358
142	0x3f05c23d	0.5224951
143	0xbe866f85	-0.26256958
144	0xbe84c5ff	-0.2593231
145	0xbe0c2389	-0.1368543
146	0x3e494722	0.19656041
147	0xbaf54700	-0.0018713176
148	0xbe12edb6	-0.14348492
149	0xbe62863a	-0.22121516
150	0xbe8a520c	-0.27015722
151	0xbe797df7	-0.24364458
152	0xbd6fd63c	-0.05855392
153	0x3e221c54	0.15831119
154	0x3e1fd0b8	0.15606964
155	0xbe8e8b6d	-0.27840748
156	0x3e2dcace	0.16971895
157	0xbe4ee392	-0.20203999
158	0xbe4123ff	-0.18861388
159	0xbe8dc764	-0.27691185
160	0xbe3cda54	-0.1844266
161	0xbe9e2ac1	-0.30891994
162	0xbf0789b7	-0.5294451
163	0xbef24649	-0.47319248
164	0xbe08c238	-0.13355339
165	0xbcd878bb	-0.026424756
166	0xbde94591	-0.11390222
167	0xbc2ff199	-0.010738754
168	0xbe847faf	-0.25878665
169	0x3e1a8a85	0.15091904
170	0x3e964ac4	0.29353917
171	0xbe0dfa32	-0.13864973
172	0x3e5fa5b5	0.21840556
173	0x3ca9ae35	0.020712951
174	0xbe898875	-0.2686192
175	0x3f04887c	0.5177076
176	0x3e87f4bc	0.26553905
177	0xbd4bf3ce	-0.049793057
178	0x3f192019	0.598146
179	0xbf083664	-0.53207994
180	0xbdb54520	-0.08851075
181	0xbd30c8f2	-0.043160386
182	0xbc7bd786	-0.015371209
183	0x3cb63593	0.022242343
184	0x3e9f9eda	0.31175882
185	0xbdd69755	-0.10478083
186	0xbf2191d4	-0.6311314
187	0xbbfb0381	-0.00766033
188	0xbf2651db	-0.6496865
189	0x3f00a0d2	0.5024539
190	0x3eecf81d	0.46283045
191	0x3debc123	0.11511447
192	0x3da7c0fd	0.081911065
193	0x3e53863d	0.20656677
194	0xbf0e5e14	-0.556123
195	0x3e5118bd	0.20419593
196	0xbe88c5e2	-0.26713473
197	0x3f316349	0.6929212
198	0xbef8de93	-0.4860731
199	0x3b98ae5b	0.0046594567
200	0xbecdde70	-0.4020877
201	0x3ee1f92b	0.44135413
202	0xbe6d2d8a	-0.23161903
203	0xbe7cfa7c	-0.24704927
204	0xbf697533	-0.91194457
205	0x3e228ee5	0.15874822
206	0xbf0059c6	-0.50136983
207	0x3ec9ad01	0.39389804
208	0xbeb2c8ca	-0.34918815
209	0x3cc2f22d	0.023797119
210	0xbe990a41	-0.29890636
211	0xbd7a7b05	-0.061152477
212	0x3e969fe8	0.29418874
213	0x3e03b33d	0.12861343
214	0x3e7205db	0.23635046
215	0x3e3fac62	0.18718103
216	0xbe45ffb9	-0.19335832
217	0xbe8982ce	-0.2685761
218	0x3efc8946	0.4932348
219	0xbd018407	-0.03162005
220	0xbd641096	-0.05567988
221	0x3ecdf8e2	0.40228945
222	0x3ef25087	0.47327062
223	0x3e30b1d6	0.17255339
224	0xbf07e41d	-0.5308245
225	0x3eeac5df	0.4585409
226	0xbe690e1e	-0.22759292
227	0xbe1cd32a	-0.15314928
228	0x3cd5f59f	0.026118098
229	0xbf166570	-0.5874853
230	0xbb003238	-0.0019561183
231	0x3e97efb6	0.29675072
232	0xbebd1080	-0.3692665
233	0xba8f8580	-0.001094982
234	0x3e842385	0.2580835
235	0xbfa3f3cb	-1.2808775
236	0x3ece6e65	0.403186
237	0xbeadcc22	-0.33944803
238	0x3d345974	0.04403062
239	0x3e940f85	0.2891809
240	0x3e0d6fb9	0.1381215
241	0x3e4e0854	0.20120364
242	0x3e0f91a2	0.14020398
243	0x3bf3d0f9	0.007440683
244	0x3ef5eff1	0.48034623
245	0xbf0d2760	-0.55138206
246	0x3ee80d90	0.45322847
247	0xbde8273e	-0.1133561
248	0xbd3c4e96	-0.045973383
249	0x3ad6834f	0.0016366037
250	0xbe38ad14	-0.18034774
251	0xbe0c244b	-0.1368572
252	0x3ee1c997	0.44099113
253	0xbe8dda70	-0.27705717
254	0xbe4223de	-0.18958995
255	0xbf34c5bb	-0.7061421

fc1.bias f4 [128]
0	0xbe5fdb4c	-0.21860999
1	0x3d906d20	0.07052064
2	0x3e982157	0.29712936
3	0x3e60b865	0.21945341
4	0x3eb37405	0.35049453
5	0xbee1db9a	-0.44112855
6	0xbd29d7a2	-0.04146541
7	0x3df3968a	0.118939474
8	0x3de91a85	0.11382011
9	0x3e91090a	0.2832721
10	0x3d61ec54	0.05515702
11	0xbf048cab	-0.5177714
12	0xbe222c3f	-0.15837191
13	0x3dbeca6c	0.09315953
14	0xbe8ff230	-0.28114462
15	0xbe0ea399	-0.13929595
16	0x3e1768aa	0.1478602
17	0x3e96aca0	0.29428577
18	0xbd8ab4a8	-0.06772739
19	0x3e4f49e1	0.20243026
20	0xbe747317	-0.23872028
21	0xbd98ab67	-0.074545674
22	0xbe5e3474	-0.21699697
23	0xbeaea0b9	-0.34106997
24	0x3dd717ba	0.10502572
25	0x3e22ee44	0.15911204
26	0xbeabca0c	-0.33552587
27	0xbeb2a38d	-0.34890404
28	0xbe16854a	-0.14699283
29	0xbead51fc	-0.33851612
30	0x3d9ccb43	0.076559566
31	0xbea8f169	-0.3299668
32	0xbe6c926d	-0.23102732
33	0xbc88688f	-0.01665142
34	0xbe9c3aa8	-0.305135
35	0xbde5ca86	-0.11220269
36	0x3eb246e5	0.34819713
37	0xbe93df60	-0.2888136
38	0xbdc38c0d	-0.09548197
39	0xbe0c777b	-0.13717453
40	0x3d4bf471	0.049793664
41	0xbebe081e	-0.37115568
42	0xbcfd00e7	-0.03088422
43	0x3ed80b52	0.42196137
44	0x3e060e82	0.13091472
45	0x3de4aa1c	0.11165258
46	0xbe9e9964	-0.30976403
47	0x3e312824	0.17300469
48	0x3e7d23cf	0.24720691
49	0xbe6ae3f5	-0.22938521
50	0xbe746d13	-0.23869734
51	0xbe5c3dbf	-0.2150793
52	0x3dc89690	0.097943425
53	0xbdf4b74b	-0.11949023
54	0x3e1574b2	0.14595297
55	0x3d9fb159	0.07797498
56	0xbde06aa2	-0.109578386
57	0xbea57223	-0.32313642
58	0x3edcf601	0.43156436
59	0xbd885f07	-0.0665875
60	0xbebe8035	-0.3720719
61	0x3e7c8e20	0.24663591
62	0x3e1de7b6	0.15420422
63	0xbd55cd39	-0.05219767
64	0xbe3c92f5	-0.18415435
65	0x3ea24b1f	0.31697938
66	0x3e2a7b9d	0.16648717
67	0xbe0b126f	-0.1358125
68	0x3d718daf	0.05897301
69	0x3c4ccfca	0.012500713
70	0x3ce915e7	0.028452827
71	0xbdf23fbc	-0.118285626
72	0xbe354627	-0.17702542
73	0xbcdd6eb0	-0.027030319
74	0xbdc8fbc8	-0.098136485
75	0xbdca087f	-0.09864902
76	0xbe1c7979	-0.15280713
77	0xbcf50551	-0.029909762
78	0xbe6f0a26	-0.23343715
79	0x3e931fd2	0.28735214
80	0x3db77d1e	0.08959411
81	0xbe24f2a6	-0.16108188
82	0xbea20fce	-0.31652683
83	0xba898b00	-0.0010493696
84	0xbe4ceba0	-0.20011759
85	0xbe9138d1	-0.2836366
86	0xbe51142d	-0.20417853
87	0x3e5f2840	0.21792698
88	0x3e5b98dc	0.2144503
89	0x3e237fae	0.15966675
90	0x3e6d8c52	0.23198059
91	0x3e8e5c48	0.2780478
92	0x3e265cba	0.1624631
93	0x3e43c8d4	0.19119579
94	0x3d0094b1	0.031391803
95	0x3d4efec7	0.050535943
96	0x3e87f25d	0.26552096
97	0x3e1f0f82	0.1553326
98	0xbddc1b03	-0.107473396
99	0xbe6364ac	-0.22206372
100	0x3e6c7a81	0.23093607
101	0x3eb3a0bb	0.35083565
102	0x3e201a38	0.15635002
103	0x3d91826b	0.071049534
104	0x3e473e46	0.19457349
105	0xbf093767	-0.5360016
106	0xbe415b87	-0.18882571
107	0xbe8e3822	-0.277772
108	0xbd1e08eb	-0.038582724
109	0x3dc28c4e	0.09499417
110	0xbe081d6a	-0.1329247
111	0x3e2d396e	0.16916439
112	0xbe8ea8cf	-0.27863166
113	0xbee31985	-0.44355407
114	0xbdf8287c	-0.12117097
115	0xbccc54c7	-0.024942769
116	0xbe2cb885	-0.16867264
117	0xbedc1dbf	-0.42991444
118	0x3ea92d22	0.33042246
119	0x3ed6d546	0.4195959
120	0x3df47d5a	0.119379714
121	0xbe147a42	-0.14499763
122	0x3d4c9ee1	0.049956206
123	0xbde3397b	-0.11094948
124	0xbeb167d9	-0.34649542
125	0xbec5ab72	-0.38607365
126	0x3dc3e399	0.09564895
127	0x3d9b3730	0.075788856

fc2.weight f4 [256, 128]
0	0xbdc99490	-0.09842789
1	0xbd932ac5	-0.07185892
2	0x3d75c84c	0.06000547
3	0x3ee3e8ef	0.44513652
4	0x3df2a5af	0.11848008
5	0x3e633088	0.22186482
6	0xbd5085cd	-0.050908852
7	0xbfd26714	-1.6437707
8	0xbefad37e	-0.4898948
9	0xbd391c0e	-0.04519277
10	0xbdb18400	-0.08667755
11	0x3db2ee94	0.087369114
12	0x3dad9671	0.0847596
13	0xba772465	-0.00094277255
14	0xbd40428e	-0.04693847
15	0x3e432e3c	0.19060606
16	0xbf83374a	-1.0251248
17	0xbe863b36	-0.2621705
18	0x3e36873d	0.17825027
19	0xbefbb0ca	-0.49158317
20	0x3c7c2f30	0.01539211
21	0xbdfb5430	-0.12271917
22	0xbd3d1e90	-0.046171725
23	0x3e8f5945	0.27997795
24	0x3cac755d	0.021052057
25	0x3e360575	0.17775519
26	0x3ebe6c76	0.37192124
27	0xbe63f2b9	-0.2226056
28	0xbe97168b	-0.29509386
29	0x3e30a28b	0.17249505
30	0x3e304097	0.17212139
31	0xbf6a7392	-0.91582596
32	0x3e083e82	0.13305095
33	0xbe0bd05f	-0.13653706
34	0xbda356fd	-0.07975576
35	0xbe61fce8	-0.22069132
36	0xbee0b7aa	-0.43890125
37	0xbd795c15	-0.060878832
38	0xbeec9e5d	-0.46214572
39	0x3f2060fd	0.6264799
40	0xbe25b472	-0.16182116
41	0x3eaccedb	0.33751568
42	0x3edccdde	0.43125814
43	0x3f126eb7	0.5720019
44	0x3e975021	0.2955332
45	0xbee1c105	-0.44092575
46	0xbe2971c5	-0.16547306
47	0xbf13a909	-0.576798
48	0x3ef0895e	0.46979803
49	0x3f1d5efa	0.6147305
50	0x3d4b34c2	0.04961086
51	0x3e1c2ccf	0.15251468
52	0x3d5c78be	0.053826086
53	0xbcd0952c	-0.025461756
54	0xbe2a80dc	-0.16650718
55	0x3dd14f79	0.10220236
56	0xbf1d225f	-0.6138057
57	0xbd9a29a2	-0.07527472
58	0xbc92c1fe	-0.017914768
59	0xbf8e66c2	-1.1125109
60	0x3d5aaf24	0.053389683
61	0x3f511748	0.8167615
62	0xbe847268	-0.25868535
63	0xbf117cbb	-0.5683095
64	0x3d19fd80	0.037595272
65	0xbf66d230	-0.9016447
66	0xbdd5e796	-0.10444562
67	0x3e156b16	0.14591631
68	0xbecd5cf2	-0.40109974
69	0x3e8a76b0	0.27043676
70	0x3da5ab4f	0.08089315
71	0xbfb46a9c	-1.4095035
72	0x3e9660a9	0.2937062
73	0xbef55f49	-0.4792426
74	0x3bda1699	0.006655526
75	0xbe722c1d	-0.2364964
76	0xbe87db53	-0.2653452
77	0x3ebdfdcc	0.37107694
78	0xbaabea56	-0.0013116102
79	0xbe95e6a3	-0.29277524
80	0xbf151248	-0.5823102
81	0xbebdcefc	-0.3707198
82	0xbf39b69c	-0.72544265
83	0xbd30be56	-0.04315027
84	0x3ef26b2f	0.473474
85	0x3ecd9203	0.4015046
86	0xbc9016e4	-0.01758904
87	0x3cd586e3	0.026065296
88	0x3e00b445	0.12568767
89	0x3df4f3f2	0.119605914
90	0x3d2972ce	0.041369252
91	0xbf594f87	-0.84886974
92	0xbd41ade5	-0.04728498
93	0xbc7ea780	-0.015542865
94	0x3f027bcb	0.50970143
95	0x3db097ec	0.08622727
96	0x3e7db0b9	0.24774446
97	0xbe1d18b7	-0.15341459
98	0x3e9496a1	0.2902117
99	0xbfb87e7c	-1.44136
100	0xbdf8f862	-0.1215675
101	0x3e193c27	0.14964353
102	0xbe5ce76b	-0.21572654
103	0x3f0f7dde	0.56051433
104	0xbe38bba9	-0.18040337
105	0x3e911d6d	0.28342763
106	0xbeb3d7b3	-0.35125503
107	0xbcfdeacb	-0.030995747
108	0x3d31fd99	0.04345474
109	0x3e8b2d6d	0.27183095
110	0xbca0fafc	-0.019650929
111	0xbc622f58	-0.013805233
112	0xbe0da1c9	-0.13831247
113	0x3df26294	0.118352085
114	0xbe4a4783	-0.19753842
115	0x3f277a0f	0.6542062
116	0xbf2ec828	-0.68274164
117	0xbe8b2072	-0.2717319
118	0xbf0e65e6	-0.55624235
119	0x3e55c351	0.20875289
120	0x3f00ef38	0.5036502
121	0xbd51dafa	-0.051234223
122	0xbeb55c8b	-0.35422167
123	0xbdffc54a	-0.12488802
124	0xbf4d5d97	-0.8022093
125	0x3e9f0143	0.3105565
126	0x3e168dfc	0.147026
127	0x3becdb2c	0.0072282758
128	0xbda9e4b8	-0.08295578
129	0x3d9379da	0.07200976
130	0x3d62b9c3	0.055352937
131	0xbf27af48	-0.6550183
132	0x3e66f4a5	0.22554262
133	0x3e72d38f	0.23713516
134	0xbe54b0ee	-0.20770618
135	0xbf36df84	-0.7143481
136	0x3df92a8c	0.12166318
137	0xbf36db27	-0.7142815
138	0xbdb92b58	-0.0904147
139	0xbe7efe00	-0.24901581
140	0xbd851355	-0.06497828
141	0x3ee13eda	0.43993264
142	0xbda2b110	-0.07943928
143	0xbee0740b	-0.43838534
144	0xbe303400	-0.17207336
145	0xbe888164	-0.26661217
146	0xbea4bd12	-0.321755
147	0x3e337ca8	0.17528021
148	0xbd2ce0d2	-0.042206593
149	0x3ea39c8b	0.3195537
150	0x3cb56bf6	0.022146206
151	0xbe1e4a8c	-0.15458125
152	0xbef32b76	-0.47494096
153	0xbf1740f6	-0.590835
154	0xbee89207	-0.4542391
155	0xbae6b1f1	-0.0017600638
156	0xbf176d9a	-0.59151614
157	0xbf606bea	-0.87664664
158	0xbf92a92c	-1.1457877
159	0x3e1901b1	0.14942051
160	0xbf2abe97	-0.6669707
161	0xbd855770	-0.06510818
162	0x3d2c28d6	0.04203113
163	0x3f884f5c	1.0649219
164	0xbf4c5f08	-0.79832506
165	0x3ca68e73	0.020331597
166	0x3ebdc9f1	0.37068132
167	0xbfc52f2b	-1.540502
168	0xbdf56453	-0.11982026
169	0xbf0e9942	-0.557026
170	0x3daaddd3	0.08343091
171	0xbde7cf66	-0.11318855
172	0x3dc31c9a	0.0952694
173	0xbee23530	-0.44181204
174	0xbf9823c5	-1.1885916
175	0xbe810d8e	-0.25205654
176	0xbde3cce1	-0.11123062
177	0xbf583e14	-0.84469724
178	0xbc3ae088	-0.0114060715
179	0xbeeb8b1e	-0.46004575
180	0xbd942586	-0.072337195
181	0xbda9dafc	-0.08293721
182	0x3e6f37a3	0.23361067
183	0x3d1e8713	0.038703036
184	0x3f07d707	0.5306248
185	0x3e1354b2	0.14387777
186	0xbf237988	-0.63857317
187	0xbf259997	-0.64687485
188	0x3d8c4893	0.0684978
189	0xbf33eb08	-0.70280504
190	0x3ee6df2b	0.4509214
191	0x3eb374be	0.35050005
192	0x3d12ab9a	0.035808183
193	0x3e2d10c8	0.16900933
194	0x3f84cc0e	1.0374773
195	0x3eef9395	0.46792284
196	0xbd0c43ec	-0.034244463
197	0x3f024ef0	0.509017
198	0xbf89b906	-1.075959
199	0xbac987bf	-0.0015375538
200	0xbf1397b1	-0.5765334
201	0xbe0bb80e	-0.1364443
202	0xbf0a4109	-0.54005486
203	0x3de92e32	0.11385764
204	0x3e2776be	0.1635389
205	0xbda324c5	-0.079659976
206	0x3d9a22d5	0.07526175
207	0x3e0add49	0.13560976
208	0xbc0ee5a1	-0.00872174
209	0xbdea3440	-0.11435747
210	0xbe593e72	-0.21215227
211	0xbd532fea	-0.051559366
212	0xbe1f8f7f	-0.15582083
213	0xbf8525ed	-1.0402199
214	0xbcd46c06	-0.025930416
215	0xbeb12b11	-0.3460317
216	0xbe5e0e9d	-0.21685262
217	0xbdb0eb9e	-0.086386904
218	0xbea8609b	-0.32886204
219	0x3f38fb17	0.7225813
220	0x3cb69dc0	0.022292018
221	0xbd8b541e	-0.068031535
222	0xbe959b53	-0.29220065
223	0x3db87448	0.09006554
224	0xbe0d8ce4	-0.13823277
225	0xbfb30a52	-1.3987525
226	0x3e874337	0.26418468
227	0xbe96c8ea	-0.2945016
228	0x3ddc7ae9	0.10765631
229	0x3d991e48	0.07476479
230	0xbe6bf652	-0.23043182
231	0xbe910ae5	-0.28328624
232	0x3dee2bc7	0.116294436
233	0xbe1d52f8	-0.15363681
234	0xbe97f0fc	-0.29676044
235	0x3d3630c6	0.044480108
236	0xbe83e118	-0.2575767
237	0x3efe7898	0.4970138
238	0xbd129039	-0.035782073
239	0x3d2a6b32	0.041606136
240	0x3d8057f1	0.062667735
241	0xbe3ed054	-0.18634158
242	0xbc1add5a	-0.009452188
243	0xbe54ecc6	-0.20793447
244	0xbd359aea	-0.04433719
245	0x3e53be13	0.20677976
246	0x3f1dbd52	0.61617005
247	0xbe312cc8	-0.17302239
248	0x3ec12d26	0.37729758
249	0xbd42cdc9	-0.047559533
250	0xbdf69965	-0.120409764
251	0x3eab246b	0.33426222
252	0xbfed2b96	-1.8528926
253	0xbed04239	-0.40675524
254	0x3aba70ae	0.0014224255
255	0x3e39b5ea	0.18135801

fc2.bias f4 [256]
0	0x3ead45cc	0.33842313
1	0xbd06201d	-0.03274547
2	0x3c2cdf0f	0.010551228
3	0xbe959e56	-0.29222363
4	0xbd9f3c33	-0.07775154
5	0x3ea94796	0.33062428
6	0x3e33ed63	0.17571025
7	0xbdb50599	-0.08838958
8	0xbd65bb4e	-0.05608683
9	0x3dc0c4be	0.094125256
10	0xbde165eb	-0.110057674
11	0xbd4b8268	-0.049684912
12	0x3d2595c6	0.04042604
13	0xbd80bf69	-0.062865086
14	0x3ed9072c	0.42388284
15	0xbe04ce77	-0.12969385
16	0xbd0df25c	-0.03465496
17	0xbda35303	-0.079748176
18	0xbb8d92d9	-0.004320484
19	0xbdf99893	-0.12187304
20	0xbc50858c	-0.012727153
21	0xbda8e95d	-0.082476355
22	0x3ee261ae	0.4421515
23	0x3d8fdb6a	0.07024272
24	0xbc93b6f1	-0.01803157
25	0xbc300cf1	-0.010745273
26	0xbdc32563	-0.09528615
27	0x3e2017e1	0.15634109
28	0x3d9018c3	0.07035973
29	0xbdaae885	-0.08345131
30	0x3e8b2b0c	0.2718128
31	0xbd83efd4	-0.06442228
32	0x3d8f7613	0.07004943
33	0xbc4fbd51	-0.012679414
34	0xbc471d3d	-0.012152967
35	0x3e52d6fd	0.20589824
36	0x3e4bdef3	0.19909267
37	0x3e2ed856	0.17074713
38	0xbdaef798	-0.085433185
39	0x3e0ff2df	0.14057492
40	0x3e1fad7a	0.1559352
41	0x3dff6495	0.124703564
42	0x3db2a93e	0.08723687
43	0x3ba9a09d	0.0051766173
44	0xbed59367	-0.41714022
45	0xba70d13c	-0.0009186452
46	0xbd559d82	-0.052152164
47	0xbdb00139	-0.08593983
48	0xbe3de59a	-0.18544617
49	0x3e670693	0.22561102
50	0xbcfc154a	-0.03077187
51	0x3ec2ae87	0.3802378
52	0xbe9e3682	-0.3090096
53	0x3e0555c7	0.13021003
54	0x3e8a2709	0.26982906
55	0x3def42d3	0.116826676
56	0xbde048c2	-0.109513775
57	0xbdf1d8e9	-0.118089505
58	0xbd9064ad	-0.070504524
59	0xbeb2723b	-0.34852776
60	0xbd1bec88	-0.03806737
61	0x3e87ab51	0.26497892
62	0x3cbd9da3	0.023146456
63	0xbea2d44e	-0.318026
64	0x3f024f12	0.509019
65	0x3eb6fb24	0.3573848
66	0xbdeff52a	-0.11716683
67	0x3eaf18f9	0.3419874
68	0x3e3cf4e8	0.184528
69	0xbc0c89eb	-0.008577804
70	0x3cd95c8f	0.026533393
71	0xbcc1acb8	-0.023641929
72	0x3e84b241	0.25917247
73	0xbb50b399	-0.003184533
74	0x3eb9ecd6	0.36313504
75	0xbbd5b2c4	-0.0065215547
76	0x3e0de55d	0.13857026
77	0xbcc055c6	-0.0234784
78	0xbc3106f2	-0.010804879
79	0x3c0a7d14	0.0084526725
80	0x3db47dd3	0.088130616
81	0x3e71878f	0.23586868
82	0xbd787456	-0.06065782
83	0x3d3b0644	0.045660272
84	0xbe6341e3	-0.22193103
85	0xbea81a44	-0.3283254
86	0x3e3dac47	0.1852275
87	0xbde54236	-0.11194269
88	0x3caf32b6	0.021386486
89	0x3e31e982	0.17374232
90	0x3ebf2616	0.37333745
91	0xbe072427	-0.13197385
92	0x3e5567ae	0.20840332
93	0xbdbf958e	-0.09354697
94	0xbda63561	-0.0811565
95	0xbe18de73	-0.14928608
96	0xbd4ff5d5	-0.050771553
97	0x3e676fa4	0.22601181
98	0x3d92c926	0.07167272
99	0x3d47697c	0.048684582
100	0x3c63845b	0.0138865365
101	0xbdba750a	-0.09104355
102	0xbdd30a17	-0.10304659
103	0xbece2fe2	-0.40270907
104	0xbd9bec88	-0.07613474
105	0xbdb68c51	-0.08913482
106	0xbd8ad57a	-0.06778999
107	0x3eac2f8a	0.3363002
108	0xbd73e45a	-0.059543945
109	0x3e3e8cae	0.18608353
110	0xbeadaee1	-0.33922485
111	0x3ed13885	0.40863433
112	0xbddec9f0	-0.1087836
113	0xbd9317c1	-0.07182265
114	0xbe8cd647	-0.2750723
115	0x3e0f32ac	0.13984174
116	0xbe2167ce	-0.15762255
117	0xbdf8c2ca	-0.12146528
118	0x3df20a14	0.118183285
119	0xbda1dffd	-0.079040505
120	0xbd86e5a6	-0.06586771
121	0x3df53bf3	0.11974325
122	0x3ea6145c	0.32437408
123	0xbe86c8bd	-0.26325026
124	0xbd6c4f0e	-0.05769258
125	0xbe010622	-0.12599996
126	0x3c8247cc	0.015903376
127	0xbdbfacfe	-0.093591675
128	0xbd2e2924	-0.042519704
129	0x3ca994e1	0.020700874
130	0xbe43f347	-0.19135772
131	0xbc31d213	-0.010853308
132	0xbdec377c	-0.1153402
133	0x3d11fddf	0.0356425
134	0xbe549c70	-0.20762801
135	0xbbeec9c9	-0.0072872383
136	0xbe30281a	-0.17202798
137	0x3e7bd9c5	0.24594791
138	0x3e05d4aa	0.13069406
139	0x3e9b5712	0.30339867
140	0xbd08f8e8	-0.0334405
141	0xbdffc75c	-0.12489197
142	0xbe894ed6	-0.2681796
143	0x3dae2720	0.08503556
144	0x3e9e52e6	0.3092262
145	0x3ea13388	0.31484628
146	0x3dcda70b	0.100416265
147	0x3dbf9336	0.0935425
148	0x3cad041b	0.021120122
149	0xbe0c5833	-0.1370552
150	0x3e4d0792	0.20022419
151	0x3d73fc6d	0.059566904
152	0xbd85d04d	-0.06533871
153	0x3cf952a2	0.03043491
154	0x3bf4baaf	0.0074685435
155	0xbdbdd06d	-0.0926827
156	0xbd4da335	-0.050204474
157	0xbdb08dd9	-0.08620805
158	0xbe24ee9b	-0.16106646
159	0xbdf4327b	-0.11923691
160	0x3e856134	0.26050723
161	0xbde3139c	-0.110877246
162	0xbe40a72f	-0.18813775
163	0xbe22f74f	-0.15914653
164	0x3b069912	0.0020538014
165	0x3d3d61f5	0.046235997
166	0x3d408eff	0.04701137
167	0x3b6af81c	0.003585345
168	0x3cc3ccb0	0.023901314
169	0x3ecd6fe5	0.4012443
170	0xbd1d1ed5	-0.03835948
171	0x3ea1877c	0.3154868
172	0xbddae5d5	-0.10688368
173	0x3e80280f	0.25030562
174	0xbdc11c2f	-0.09429204
175	0xbece7dcb	-0.40330347
176	0x3e6dfcb2	0.23240927
177	0x3cd58208	0.02606298
178	0xbdede915	-0.116167225
179	0x3cac2105	0.021011839
180	0xbe9baf13	-0.3040701
181	0x3e991232	0.29896694
182	0xbd9c2ef0	-0.0762614
183	0xbdb158fa	-0.08659549
184	0xbe45e39f	-0.19325112
185	0x3efcf1b1	0.49403146
186	0xbdc9306a	-0.098236874
187	0xbe4ab43f	-0.19795321
188	0x3ed81631	0.4220443
189	0x3ea66444	0.32498372
190	0xbe29d9ab	-0.1658694
191	0x3e3b86ec	0.18313187
192	0x3f14c689	0.5811544
193	0x3e3b642d	0.18299933
194	0xbe02e359	-0.12782039
195	0xbcb835ea	-0.022486646
196	0xbe4ca171	-0.1998346
197	0xbd99c9a6	-0.075091645
198	0xbe17961a	-0.14803353
199	0x3e0ec4e7	0.139423
200	0xbdf2b4e7	-0.11850911
201	0xbcf73467	-0.030176355
202	0x3e50b24f	0.2038052
203	0x3e84a162	0.25904375
204	0xbe953404	-0.29141247
205	0x3e954fdd	0.29162493
206	0x3e864790	0.26226473
207	0x3e98a98f	0.29816863
208	0x3ea12ed4	0.3148104
209	0xbca552d0	-0.02018109
210	0x3e3956e2	0.1809955
211	0x3e8a04dc	0.26956832
212	0x3ed0c70a	0.40776855
213	0xbc792de0	-0.015208691
214	0x3d75b3b2	0.059985824
215	0x3d10a3f7	0.03531262
216	0xbe9f534b	-0.31118235
217	0x3e9b1d02	0.3029557
218	0xbdaf1ac0	-0.08550024
219	0xbe56ce1b	-0.2097706
220	0xbe18b10b	-0.14911287
221	0xbda1c0bd	-0.0789809
222	0x3d12d99b	0.035852056
223	0x3ec319eb	0.3810571
224	0x3e122016	0.14270052
225	0x3ddca11d	0.107729174
226	0xbd62f45c	-0.05540882
227	0x3e46fa0d	0.19431324
228	0x3e3b23c1	0.18275358
229	0xbddd6a5f	-0.10811304
230	0xbdd469d4	-0.103717476
231	0xbe166c2c	-0.14689702
232	0xbe480ae1	-0.195354
233	0xbd94e18c	-0.07269582
234	0x3e8f622a	0.2800458
235	0x3de8b5ba	0.113627866
236	0x3de70cf8	0.112817705
237	0xbeb6458f	-0.35599944
238	0xbd2c7ade	-0.042109363
239	0xbddbbcae	-0.10729347
240	0xbe69751d	-0.22798581
241	0x3eb5f167	0.35535738
242	0x3e6ade7a	0.2293643
243	0x3ce50b85	0.027959595
244	0xbe0fcf13	-0.14043836
245	0xbe077add	-0.13230462
246	0xbdc22da0	-0.094813585
247	0x3c035ca0	0.008017689
248	0x3d450300	0.048098564
249	0xbdac2106	-0.08404736
250	0xbd375c0f	-0.04476553
251	0xbdef97e1	-0.116988905
252	0xbd558337	-0.05212709
253	0xbe93f528	-0.28897977
254	0xbc6604e9	-0.014039257
255	0xbdba6952	-0.091021195

fc3.weight f4 [128, 256]
0	0x3df23d97	0.118281536
1	0x3ef631c0	0.4808483
2	0x3e0d508d	0.13800259
3	0x3eb05f5f	0.34447762
4	0xbc94ff12	-0.018188033
5	0xbc6f0b6e	-0.014590127
6	0x3e5a34ff	0.21309279
7	0xbe2aafb2	-0.16668585
8	0x3d77d046	0.06050136
9	0xbee611ff	-0.44935605
10	0xbdadd687	-0.084881835
11	0xbdbcc697	-0.092175655
12	0x3e4f583a	0.202485
13	0x3dd461d8	0.10370225
14	0x3e3d466f	0.184839
15	0x3d83c578	0.064341486
16	0xbc6c183b	-0.014410074
17	0xbe0e9539	-0.13924111
18	0xbf1612ad	-0.58622247
19	0x3c6402b1	0.013916657
20	0xbb7d8d09	-0.00386888
21	0x3ed4729e	0.41493696
22	0xbd441b3a	-0.047877528
23	0x3e1e1304	0.15436941
24	0xbd298cdc	-0.0413941
25	0xba12b51f	-0.0005596447
26	0xbf3e7693	-0.7439968
27	0xbeb66dfc	-0.35630786
28	0xbeb6ad5b	-0.35679135
29	0xbd26e911	-0.040749613
30	0xbe840e2b	-0.2579206
31	0x3da59d08	0.08086592
32	0xbde538e3	-0.11192491
33	0xbfc18e13	-1.5121483
34	0xbd36cf7a	-0.04463146
35	0x3e963552	0.29337555
36	0x3e88a401	0.26687625
37	0x3b0a58be	0.0021110023
38	0x3deb8f83	0.11501982
39	0x3d66042f	0.056156334
40	0xbf9fff83	-1.2499851
41	0x3eb04d44	0.3443395
42	0xbe7d277b	-0.24722092
43	0xbe389031	-0.18023755
44	0x3ee75535	0.45182195
45	0x3e7a34fe	0.24434277
46	0x3d8282ce	0.06372605
47	0xbbcc7678	-0.0062397085
48	0x3ebecdbd	0.3726634
49	0x3e5db811	0.21652247
50	0x3e599881	0.21249582
51	0x3efacb24	0.4898311
52	0xbe9f38c9	-0.3109801
53	0xbf1ba4f7	-0.6079859
54	0xbe8bc09a	-0.2729538
55	0x3dcbdcc3	0.09954216
56	0x3f7a25ef	0.9771413
57	0xbd2bdab6	-0.041956626
58	0x3ea600c2	0.32422453
59	0x3ca896c2	0.0205797
60	0x3c3095a9	0.010777869
61	0x3c2848e0	0.010271281
62	0xbdad1eef	-0.08453166
63	0x3e0bdf9e	0.13659522
64	0x3e996a83	0.29964074
65	0x3ec4f61b	0.38469014
66	0x3faac222	1.3340495
67	0xbd343d7f	-0.04400396
68	0xbd2260cc	-0.039643094
69	0xbf7af319	-0.9802719
70	0x3ed05416	0.40689152
71	0xbcdcf916	-0.026974242
72	0x3dfd25aa	0.123606995
73	0x3d534ec6	0.051588796
74	0x3ed5edca	0.4178298
75	0x3dfbb23f	0.12289857
76	0x3e8fd4a6	0.28091925
77	0x3e36f18e	0.17865583
78	0x3d65d2be	0.056109183
79	0x3ea16b27	0.31527063
80	0xbc488a52	-0.012240009
81	0xbe10ecdb	-0.14152853
82	0x3f31d9e2	0.6947309
83	0x3e9e177b	0.3087729
84	0x3eea0d3c	0.45713222
85	0xbf947a3d	-1.1599804
86	0x3f422d49	0.7585035
87	0x3d49f5d7	0.049306717
88	0x3dad51cb	0.084628664
89	0xbdff2f03	-0.12460139
90	0x3e687405	0.22700508
91	0xbd46409c	-0.04840146
92	0xbd287146	-0.04112365
93	0x3d9149d7	0.07094162
94	0xbd03289a	-0.032021143
95	0xbefe7189	-0.49695995
96	0x3ec63800	0.387146
97	0x3eb272e9	0.34853294
98	0xbf38de99	-0.7221466
99	0x3ccabd10	0.024748355
100	0x3efb5bbd	0.49093428
101	0x3d1eced2	0.038771458
102	0xbc041acc	-0.0080630295
103	0x3df08127	0.11743384
104	0xbcfb1c08	-0.030653015
105	0xbe1a95e4	-0.15096241
106	0xbd06ab0d	-0.03287797
107	0x3ea9b0a3	0.33142576
108	0x3ba1bcd4	0.00493584
109	0x3dc9f7cd	0.098617174
110	0xbf85daad	-1.045736
111	0x3e2855e1	0.1643901
112	0xbc792bee	-0.015208228
113	0x3eb704c0	0.3574581
114	0xbe339932	-0.17538908
115	0xbeb1c047	-0.34717008
116	0xbd56b9ef	-0.052423414
117	0xbe9b1886	-0.30292147
118	0x3e038bf7	0.12846361
119	0xbd82c30b	-0.06384858
120	0x3bd06a33	0.006360316
121	0x3f3c2a44	0.7350199
122	0xbe1dc625	-0.15407617
123	0xbda47c6e	-0.080315456
124	0xbee68193	-0.45020732
125	0x3e640c6c	0.22270364
126	0xbdd50368	-0.1040104
127	0x3d46021c	0.048341855
128	0xbf1b4ff6	-0.60668886
129	0x3dc11a0c	0.09428796
130	0xbcfefd47	-0.031126631
131	0xbda0ce8c	-0.07851896
132	0xbd052855	-0.032509167
133	0x3ef30c46	0.474703
134	0x3e5b0514	0.21388656
135	0x3e5b965c	0.21444076
136	0x3e736ef7	0.23772798
137	0x3e4e1e12	0.20128658
138	0xbec03fa1	-0.37548545
139	0x3e18a1e0	0.149055
140	0x3da6b261	0.08139492
141	0xbd19f0b6	-0.037583075
142	0x3dcfbda6	0.101435944
143	0xbf42a1c9	-0.76028115
144	0x3db01248	0.08597237
145	0x3d1c23c1	0.038120035
146	0x3e8dcff4	0.27697718
147	0xbe9dcd3b	-0.3082064
148	0xbee32b85	-0.4436914
149	0xbe5af574	-0.21382695
150	0x3f22c902	0.63587964
151	0x3df19473	0.117958926
152	0xbd0f983e	-0.0350573
153	0x3e424167	0.18970262
154	0xbec36b61	-0.3816786
155	0xbb0b90f9	-0.0021296127
156	0xbe400018	-0.18750036
157	0x3c814052	0.01577774
158	0xbddf2c02	-0.10897066
159	0xbd04b323	-0.0323974
160	0x3e61e91f	0.22061585
161	0xbd657116	-0.05601605
162	0x3da0c7da	0.07850619
163	0xbecda91c	-0.40168083
164	0x3f09be2b	0.538058
165	0xbc26b1ad	-0.010174197
166	0x3dab010b	0.08349808
167	0x3e8736ea	0.26409084
168	0x3f1dd00d	0.61645585
169	0xbd6a8e05	-0.057264347
170	0x3f1ede76	0.620582
171	0x3e117357	0.14204155
172	0xbcdf98f8	-0.02729462
173	0xbcc87bc4	-0.024473079
174	0xbcd0f6d4	-0.025508322
175	0x3e5b3056	0.21405157
176	0x3e9b482f	0.3032851
177	0x3e073572	0.13203982
178	0x3d3be053	0.04586823
179	0xbf025d79	-0.5092388
180	0x3cd906bb	0.026492467
181	0x3c532f4c	0.012889694
182	0x3d3e7865	0.046501536
183	0xbd53eaf4	-0.05173774
184	0x3ebe8dbc	0.3721751
185	0x3e12b474	0.1432665
186	0xbf1f4e1f	-0.6222858
187	0xbcc659d2	-0.024212752
188	0x3e41cb44	0.18925196
189	0x3f92d05b	1.1469835
190	0xb9829f10	-0.00024914043
191	0x3e5d4c0d	0.21611042
192	0x3e143f59	0.1447729
193	0xbe3b2b82	-0.18278316
194	0xbe9846cd	-0.29741517
195	0xbdf23f75	-0.1182851
196	0xbf8128e1	-1.00906
197	0xbda4415f	-0.08020281
198	0xbf65694b	-0.8961379
199	0x3e862848	0.26202607
200	0xbed0eca7	-0.4080555
201	0x3e1de026	0.15417537
202	0x3d2e7e33	0.04260082
203	0x3d0ccbcb	0.03437404
204	0xbdf803ca	-0.12110098
205	0x3e51042d	0.20411749
206	0x3e2ab1e3	0.16669421
207	0x3d6cc0c8	0.057801038
208	0xbe62fd92	-0.22167042
209	0x3d2e72c7	0.04258993
210	0xbcc284df	-0.023744998
211	0x3e89ddab	0.26926932
212	0x3ebb4338	0.3657472
213	0x3f0d456a	0.5518404
214	0x3f4897bc	0.7835653
215	0x3ea85a76	0.32881516
216	0x3ea15ad3	0.31514606
217	0x3e6d7315	0.23188432
218	0x3cd33127	0.025780274
219	0x3f1b3372	0.60625374
220	0x3e9ff0c9	0.31238392
221	0xbd5a39f5	-0.05327793
222	0x3e38d640	0.1805048
223	0x3e764a28	0.24051726
224	0x3f3665b4	0.71248937
225	0xbf1bbc26	-0.60833967
226	0x3cb14571	0.021639558
227	0x3ed24c12	0.41073662
228	0xbdd717fc	-0.105026215
229	0x3d8db7c4	0.06919816
230	0x3f036367	0.5132355
231	0x3e2899e0	0.16464949
232	0x3d619902	0.05507756
233	0x3dff3bb5	0.1246256
234	0x3e392712	0.1808131
235	0x3edb2581	0.4280205
236	0x3e92baaf	0.28658053
237	0xbffa49d7	-1.9553784
238	0x3d5bd41d	0.053669084
239	0xbcfe44a2	-0.031038586
240	0xbd2c2812	-0.0420304
241	0x3e1738dd	0.14767785
242	0x3de44826	0.11146574
243	0x3ebe4984	0.37165463
244	0x3ad5eeed	0.0016321816
245	0xbe559c1d	-0.20860334
246	0x39b39b1b	0.00034257103
247	0x3e680457	0.22657906
248	0x3e6737c0	0.2257986
249	0x3be49e25	0.00697686
250	0x3d076a77	0.033060517
251	0x3e083c70	0.13304305
252	0x3f177d00	0.5917511
253	0x3e5039e3	0.20334582
254	0xbedc255b	-0.4299725
255	0x3c8e7efd	0.017394537

fc3.bias f4 [128]
0	0x3f0866f9	0.53282124
1	0x3f17d3d6	0.5930761
2	0x3ee3381c	0.44378746
3	0x3f18b9a2	0.59658253
4	0x3f199862	0.5999814
5	0x3f2f6b75	0.6852334
6	0xbe05d641	-0.13070013
7	0x3e508917	0.20364796
8	0xbdc9ab9f	-0.09847187
9	0x3d53eca6	0.051739357
10	0x3e6576b2	0.2240856
11	0x3eaf412b	0.34229407
12	0x3f16abc5	0.5885585
13	0xbc3ff736	-0.0117166545
14	0xbd2ecca0	-0.042675614
15	0x3f10eb6f	0.56609243
16	0x3f17a028	0.59228754
17	0x3f116a7f	0.56803125
18	0x3c8e119b	0.01734238
19	0x3f260b97	0.64861435
20	0x3f10cb32	0.5656005
21	0x3e163aea	0.14670911
22	0xbd9fbd1b	-0.07799741
23	0x3df245ac	0.11829695
24	0x3d94d9c8	0.07268101
25	0xbdab0f95	-0.083525814
26	0xbd61acae	-0.05509632
27	0xbda79cc2	-0.08184196
28	0x3f37335c	0.71562743
29	0x3f0b01b6	0.54299486
30	0x3f358e17	0.70919937
31	0xbdb6bbe7	-0.08922558
32	0x3e95f0d2	0.29285294
33	0xbdba5d9a	-0.09099884
34	0xbf09525c	-0.53641295
35	0x3f249584	0.6429064
36	0xbdc71b5c	-0.09722015
37	0xbd996416	-0.07489793
38	0xbdad26bf	-0.08454656
39	0x3bda7874	0.006667191
40	0xbd40ba87	-0.047052886
41	0x3cdcb2c6	0.026940715
42	0xbdbc0225	-0.091800965
43	0xbd413f58	-0.04717955
44	0x3f21ee5c	0.6325433
45	0x3e9afedc	0.30272567
46	0x3ec4a04c	0.38403547
47	0xbd98cbbd	-0.07460735
48	0xbd8ea225	-0.0696452
49	0xbd24b2a7	-0.04020944
50	0x3f402f8f	0.7507257
51	0x3f2b6571	0.6695166
52	0xbb87c837	-0.0041437405
53	0x3f0fd7ca	0.5618864
54	0xbda385de	-0.079845175
55	0x3f26c48b	0.6514365
56	0xbe12db65	-0.14341505
57	0x3f2557cf	0.6458711
58	0x3eedb600	0.46427917
59	0x3d69253b	0.05692027
60	0x3f26629e	0.6499423
61	0x3bb100b1	0.0054016938
62	0x3f2843b9	0.65728337
63	0x3e1b6578	0.15175426
64	0xbd0bbfda	-0.03411851
65	0x3f2c8c74	0.67401814
66	0xbd81a9ca	-0.06331213
67	0xbd96899c	-0.07350466
68	0x3ef30035	0.47461095
69	0x3f26ab5c	0.65105224
70	0xbd5f3751	-0.054496113
71	0x3ef6867d	0.4814948
72	0x3f187156	0.59547937
73	0xbe02fc6f	-0.12791608
74	0x3ec5acac	0.386083
75	0xbf050020	-0.51953316
76	0xbd5f8d41	-0.05457807
77	0x3e0e8663	0.13918452
78	0xbd85728d	-0.065159895
79	0xbcb37bdc	-0.021909647
80	0x3f07e444	0.5308268
81	0x3f04e9ee	0.5191945
82	0x3f1aa85f	0.60413164
83	0x3ef23ac6	0.47310466
84	0x3ce1d732	0.027568433
85	0x3f1657f2	0.58727944
86	0x3ebed6d4	0.37273276
87	0xbd831383	-0.06400206
88	0x3f084428	0.53229
89	0x3f073475	0.5281442
90	0x3f1974df	0.59943956
91	0x3e5ff575	0.21870978
92	0xbdc06c67	-0.09395676
93	0xbcc18d78	-0.023627028
94	0x3f03f04c	0.5153854
95	0xbd7f0fc4	-0.062270895
96	0x3f36a387	0.7134327
97	0xbdc84ff6	-0.09780876
98	0xbeb0c674	-0.34526408
99	0xbe0b46c2	-0.1360121
100	0x3f2c9736	0.6741823
101	0xbdd8e353	-0.10590234
102	0x3eee9ad5	0.46602502
103	0x3ee25f46	0.44213313
104	0xbdc16280	-0.094426155
105	0xbea166d0	-0.31523752
106	0x3f15fea6	0.5859169
107	0x3eea030a	0.45705444
108	0x3efe58a3	0.49677
109	0xbd5d400b	-0.054016154
110	0x3f14c161	0.5810757
111	0xbd0cae23	-0.034345757
112	0xbe080624	-0.13283592
113	0x3f10aaac	0.56510425
114	0x3db6bf5a	0.08923216
115	0xbecd2f73	-0.40075263
116	0x3ee7120f	0.45130965
117	0xbd1ca421	-0.038242463
118	0x3e9e71bd	0.3094615
119	0xbe6bfbc9	-0.23045267
120	0x3e069394	0.13142234
121	0xbdaf0b20	-0.08547044
122	0xbc9a0c0e	-0.018804576
123	0x3f0f2e0a	0.55929625
124	0x3f3b213b	0.7309758
125	0x3ddeaa9c	0.10872385
126	0xbd8f3695	-0.069928326
127	0xbcfef46c	-0.031122409

fc4.weight f4 [128, 128]
0	0x3e6733b4	0.22578317
1	0x3ea50086	0.32226962
2	0x3e530548	0.20607483
3	0x3ec229ae	0.37922424
4	0x3eb1547a	0.34634763
5	0x3e9984cd	0.2998413
6	0xbe5a493e	-0.21317002
7	0x3f3d193f	0.7386665
8	0x3c016b4a	0.007899115
9	0xbddf1811	-0.10893262
10	0x3e4303e1	0.19044448
11	0x3d811c47	0.063042216
12	0x3e9595c9	0.2921584
13	0x3cc104be	0.023561832
14	0xbdd42b28	-0.10359794
15	0x3eb0677e	0.34453958
16	0x3e796ed7	0.24358688
17	0x3e7de6fc	0.24795145
18	0xbcae5387	-0.021280063
19	0x3e8c9e26	0.27464408
20	0x3f56cb25	0.83903724
21	0x3e08e1ad	0.13367338
22	0xbd0b0c2a	-0.033947147
23	0x3e92bd83	0.2866021
24	0x3da8c5af	0.0824083
25	0x3d6e5676	0.058187924
26	0x3f81a831	1.0129453
27	0x3d15ce1a	0.036573507
28	0x3e95cd41	0.2925816
29	0x3ed23d45	0.4106237
30	0x3ed82658	0.42216754
31	0xbdd5f819	-0.104477115
32	0x3e2bdee3	0.16784243
33	0xbd588c43	-0.05286814
34	0xbfa2a7c0	-1.2707443
35	0x3eb42004	0.35180676
36	0x3d402616	0.04691132
37	0xbdec5e8c	-0.11541471
38	0x3d516fec	0.051132128
39	0xbdc127e7	-0.09431439
40	0xbde4b97d	-0.111681916
41	0x3d336c3b	0.04380439
42	0x3cffb29a	0.031213094
43	0x3d547560	0.05186975
44	0x3eaace57	0.3336055
45	0x405e22c4	3.470872
46	0x3ea427e2	0.32061678
47	0x3d7b4ed1	0.061354462
48	0x3cfa1650	0.030528218
49	0x3df595f4	0.11991492
50	0x3f3c9038	0.7365756
51	0x3e528ec8	0.20562279
52	0xbdeaf72b	-0.11472925
53	0x3e86ffad	0.2636694
54	0x3c64444c	0.013932299
55	0x3efab0f8	0.4896314
56	0xbef6ec9f	-0.48227403
57	0x3ea3cbe2	0.31991488
58	0x3e33e50d	0.17567845
59	0xbf1e6060	-0.61865807
60	0x3eaa5814	0.33270323
61	0xbe689f04	-0.2271691
62	0x3edaec75	0.42758527
63	0x3f5608cf	0.8360719
64	0xbd74327a	-0.05961845
65	0x3e83f98a	0.2577632
66	0x3d44d93b	0.04805873
67	0x3dd3e4d7	0.10346382
68	0x3e4722b1	0.19446827
69	0x3ec5a708	0.38603997
70	0x3d9e3e4a	0.077267244
71	0x3db63526	0.08896856
72	0x3eafd6bb	0.34343514
73	0xbe11ce5a	-0.14238873
74	0x3fb722b4	1.4307466
75	0xbf72851f	-0.94734377
76	0xbc8c3cda	-0.01711886
77	0x3dd4b213	0.103855275
78	0xbd9bf458	-0.07614964
79	0xbc36b02e	-0.011150403
80	0x3e9b1962	0.30292803
81	0x3ec3fdcd	0.38279572
82	0x3e9374e9	0.28800133
83	0x3efc0814	0.49224913
84	0xbbc41dba	-0.005984989
85	0x3e297f2c	0.16552418
86	0x3e05c689	0.13064016
87	0x3e24cf7b	0.16094773
88	0x3ea0d18f	0.3140988
89	0x3e4d2618	0.20034063
90	0x3ecdd76a	0.4020341
91	0x3e6a07b0	0.22854495
92	0x3c980485	0.018556843
93	0x3c98950d	0.01862576
94	0x3e2c7cac	0.16844434
95	0x3d741721	0.05959237
96	0x3e8aacb9	0.27084902
97	0x3d4fdd94	0.050748423
98	0xbe69d32d	-0.22834463
99	0x3cafde11	0.021468194
100	0x3f31c19e	0.6943606
101	0xbf5ba223	-0.85794276
102	0x3e1046a5	0.14089449
103	0x3d817e87	0.06322961
104	0x3d8c062b	0.06837114
105	0xbf9976ed	-1.1989418
106	0x3ebe5ffb	0.37182602
107	0x3e48ec16	0.1962131
108	0x3e683985	0.22678192
109	0xbe963437	-0.29336712
110	0x3e3f0713	0.18655042
111	0xbd0a0288	-0.03369382
112	0xbfeb79b8	-1.8396521
113	0x3e9e7408	0.309479
114	0x3f9a53b7	1.2056798
115	0xbeab4aef	-0.33455607
116	0x3e7fe558	0.24989831
117	0x3cedb64d	0.029017592
118	0x3f86371b	1.0485567
119	0x3de984bb	0.114022695
120	0x3e02bcbc	0.12767309
121	0x3c56bf51	0.013107137
122	0xbc77f36d	-0.015133721
123	0x3e798a9a	0.24369279
124	0x3ed2f0f3	0.41199455
125	0x3f8953b1	1.0728666
126	0x3dbe5155	0.092928566
127	0x3d7ada6a	0.061243452
128	0x3da53b5f	0.08067965
129	0xbd038273	-0.032106828
130	0xbcdeed18	-0.027212664
131	0xbd70dee8	-0.05880633
132	0xbdddb880	-0.10826206
133	0xbdb34cfc	-0.08754918
134	0xbc2a4474	-0.010392297
135	0xbca60299	-0.02026491
136	0xbc928ce4	-0.017889448
137	0x3d76edb4	0.060285285
138	0xbd24f8f8	-0.040276498
139	0xbd9243d8	-0.071418464
140	0x3d2ab1d4	0.041673496
141	0xbc9fccba	-0.0195068
142	0x3c4bf590	0.012448683
143	0xba6efa86	-0.00091163104
144	0x3ce97470	0.028497905
145	0x3d8ad961	0.06779743
146	0xbc807531	-0.015680881
147	0xbd9a1baf	-0.075248115
148	0x3d12110f	0.0356608
149	0xbd78f157	-0.060777035
150	0xbd5e06a0	-0.054205537
151	0x3d84bedd	0.06481717
152	0xbdb8afe8	-0.090179265
153	0x3d063b34	0.032771304
154	0x3d75632b	0.059909027
155	0xbd41433f	-0.04718327
156	0xbd919027	-0.07107573
157	0x3d84e5ec	0.064891666
158	0xbdca9dcf	-0.09893381
159	0x3d10bec8	0.035338193
160	0x3c951e51	0.018202933
161	0x3d8c9c1d	0.06865714
162	0x3cb00139	0.021484958
163	0xbd84035c	-0.06445953
164	0xbda1ba02	-0.07896806
165	0x3d87cc1f	0.0663073
166	0x3a9ced40	0.0011972561
167	0x3b9be0d0	0.0047570243
168	0x3ce8a181	0.028397324
169	0x3db97339	0.0905518
170	0x3cd7ec1b	0.026357701
171	0x3d9a8cf7	0.07546418
172	0x3c6dd58c	0.014516246
173	0xbd1320a9	-0.03591982
174	0x3cf1fff9	0.029541003
175	0xbc95f83c	-0.018306844
176	0xbc0f03cc	-0.008728933
177	0xbc19f49e	-0.0093967
178	0xbd0d1b84	-0.03445007
179	0x3c1393c8	0.009007402
180	0xbd944b62	-0.07240941
181	0xbdd0bc3d	-0.101921536
182	0xbd30e3ed	-0.043186117
183	0x3d3be052	0.045868225
184	0xbd814ff2	-0.063140765
185	0xbd8f4635	-0.06995813
186	0xbcd075ec	-0.025446855
187	0x3d3b6b22	0.045756467
188	0x3d8186a1	0.063245066
189	0xbbe73e08	-0.0070569552
190	0x3ccb517f	0.024819134
191	0xbcece35c	-0.028917007
192	0xbcad6927	-0.021168305
193	0xbd10d88f	-0.035362776
194	0x3d647afc	0.05578135
195	0x3ce50528	0.02795656
196	0xbcaf7499	-0.021417903
197	0x3d7eae1a	0.062177755
198	0xbbe89d99	-0.007098865
199	0x3cdeb27f	0.027184723
200	0x3ca8f86a	0.020626266
201	0xbd182f7d	-0.037154663
202	0x3d2cffad	0.04223602
203	0xbcd13555	-0.025538126
204	0xbda235ed	-0.07920442
205	0xbd62d51c	-0.05537902
206	0x3d1df9ce	0.03856831
207	0x3d104805	0.035224933
208	0xbcf2dea1	-0.029647173
209	0xbcc36df1	-0.023856135
210	0x3d5f2b98	0.054484934
211	0xbd23bc8f	-0.039974745
212	0x3c3a8891	0.011385099
213	0xbd0bead3	-0.034159493
214	0xbd510674	-0.051031545
215	0xbcd17ba4	-0.025571652
216	0x3d2b907d	0.04188584
217	0xbb2b231d	-0.0026113458
218	0xbc5c9b57	-0.01346477
219	0xbc695d00	-0.014243364
220	0x3cc55260	0.024087131
221	0x3da88425	0.082283296
222	0xbd157ffb	-0.036499005
223	0xbd104526	-0.035222195
224	0xbd9122c7	-0.070867114
225	0x3c1af66f	0.009458168
226	0x3d74297e	0.059609883
227	0x3d1637f6	0.036674462
228	0xbda7a87a	-0.08186431
229	0xbd5943dc	-0.05304323
230	0xbda1e3e5	-0.079047956
231	0x3c1c03f7	0.00952243
232	0x3d6f815e	0.058472984
233	0x3d59c0db	0.053162437
234	0xbd1ddca2	-0.03854049
235	0x3cd56140	0.026047349
236	0xbc1bb5d8	-0.009503804
237	0xbdc0be6f	-0.09411322
238	0x3d8280a2	0.06372191
239	0x3d34b074	0.04411359
240	0xbdb2d3e3	-0.087318204
241	0x3d839dcb	0.06426581
242	0x3cefae36	0.029257875
243	0xbd88b736	-0.0667557
244	0x3d33c9fb	0.043893795
245	0xbd9b9d4f	-0.075983636
246	0x3d34db6c	0.04415457
247	0xbc5d7617	-0.013516924
248	0xbd0cb20b	-0.034349483
249	0x3ce1ac3a	0.027547944
250	0x3d5d2027	0.05398574
251	0xbd87b897	-0.066270046
252	0x3d271020	0.040786862
253	0xbd1c6988	-0.03818658
254	0x3d90c675	0.07069103
255	0x3dad941e	0.08475517

fc4.bias f4 [128]
0	0x3f1d4890	0.61438847
1	0x3d188954	0.03724034
2	0x3f17fc83	0.5936968
3	0x3d88e55f	0.06684374
4	0xbdadb35f	-0.08481478
5	0x3e968f8d	0.29406396
6	0x3ed7aa48	0.42122102
7	0xbe4cdef9	-0.20006932
8	0xbe55741a	-0.2084507
9	0x3e70d8f6	0.23520264
10	0xbdb91961	-0.09038044
11	0x3efccf72	0.49377018
12	0x3f304c23	0.68866175
13	0xbdb34cfc	-0.08754918
14	0xbdc6021c	-0.09668371
15	0x3f08966b	0.5335452
16	0x3ec37f42	0.38183028
17	0xbf0dfbcb	-0.5546233
18	0x3ec38edf	0.3819494
19	0x3f3627ab	0.7115428
20	0xbca5cfd0	-0.020240694
21	0x3f3324fb	0.699783
22	0x3f3a179e	0.72692287
23	0xbe8fb77e	-0.2806968
24	0xbdd9ebd4	-0.10640684
25	0x3f315cb9	0.6928211
26	0xbd9e26da	-0.07722254
27	0x3e8a1bba	0.2697428
28	0xbd5294e6	-0.051411532
29	0xbd3c97ec	-0.04604332
30	0x3d946c55	0.07247225
31	0x3c3abb59	0.011397206
32	0x3f249e73	0.64304274
33	0x3f3dc8f1	0.7413474
34	0xbe6bcfd2	-0.23028496
35	0xbd049f9c	-0.032378778
36	0x3f145744	0.57945657
37	0x3c55c550	0.013047531
38	0x3f452dbf	0.7702293
39	0xbcda321d	-0.026635224
40	0xbc554e38	-0.013019137
41	0xbbb0dbfa	-0.005397317
42	0xbda50898	-0.0805828
43	0xbef26c36	-0.47348183
44	0xbd8da824	-0.06916836
45	0x3ef67e36	0.48143166
46	0x3bf1f828	0.007384319
47	0x3d590d2b	0.052991074
48	0x3f3a3ce3	0.72749156
49	0x3eff831c	0.49904716
50	0xbe6f9aaf	-0.23398851
51	0xbd507dbc	-0.05090116
52	0xbd8395fc	-0.064250916
53	0xbe548f23	-0.20757727
54	0xbdd7115a	-0.105013564
55	0xbd27528a	-0.0408502
56	0xbdd2ac56	-0.10286777
57	0x3d12c4bf	0.035832163
58	0xbdc7520d	-0.09732447
59	0xbd62216b	-0.05520765
60	0x3f151512	0.58235276
61	0xbdc6d50c	-0.09708604
62	0x3e6b73c4	0.2299338
63	0x3f331348	0.69951296
64	0x3f140941	0.5782662
65	0xbdd1e136	-0.10248034
66	0xbe53e2ec	-0.20692033
67	0x3f216c53	0.63055915
68	0x3f1bd65f	0.6087398
69	0xbedd2d6c	-0.43198717
70	0xbd2c4046	-0.042053483
71	0xbdb8a048	-0.09014946
72	0x3f23a5ef	0.6392507
73	0x3e4b1372	0.19831637
74	0x3d12f39f	0.035876866
75	0xbda35ece	-0.07977067
76	0x3f2e6bff	0.6813354
77	0x3f19e7e8	0.60119486
78	0x3f266306	0.6499485
79	0xbdd38717	-0.10328501
80	0x3d39e098	0.045380205
81	0x3f334378	0.70024824
82	0x3e85e442	0.2615071
83	0xbddc6c76	-0.10762875
84	0x3f1d401c	0.6142595
85	0xbcc686ec	-0.024234258
86	0xbe2a9e4c	-0.16661948
87	0xbdef5846	-0.11686759
88	0x3e748d69	0.23882069
89	0x3f516be8	0.81805277
90	0x3f2c4a2d	0.67300683
91	0x3f039996	0.5140623
92	0x3f315c49	0.6928144
93	0xbd912e7f	-0.070889466
94	0xbdf5c804	-0.120010406
95	0x3f0e8b76	0.5568155
96	0xbe435e51	-0.19078948
97	0x3f459689	0.77182823
98	0xbdddeb48	-0.10835892
99	0x3f29bef1	0.6630698
100	0xbd5ce1a7	-0.053926136
101	0x3ed6280d	0.4182743
102	0x3f2cfe0b	0.6757514
103	0x3efe756d	0.49698964
104	0x3f4c5e89	0.7983175
105	0x3bdc7446	0.006727728
106	0xbde0d562	-0.109781995
107	0x3d855f04	0.065122634
108	0x3f1e2492	0.6177455
109	0x3f2f7907	0.6854405
110	0xbddc705e	-0.1076362
111	0x3f35fa78	0.7108531
112	0x3f14422c	0.5791347
113	0x3e074da8	0.13213217
114	0xbdecfacc	-0.11571273
115	0x3ea34786	0.31890506
116	0xbdc1b0a0	-0.09457517
117	0xbdcab928	-0.09898597
118	0xbe233c34	-0.15940934
119	0x3dc19b09	0.09453399
120	0xbd6da2c5	-0.058016557
121	0xbd5cf147	-0.053941038
122	0xbd7c5871	-0.06160778
123	0xbcd5ade1	-0.026083888
124	0x3f31bd8e	0.6942986
125	0x3ca357c3	0.019939309
126	0xbe782a1e	-0.24234816
127	0xbd91846f	-0.07105338

fc5.weight f4 [3, 128]
0	0x3f09f84f	0.53894514
1	0x3d537777	0.051627602
2	0x3e86a8bd	0.26300612
3	0x3d382730	0.044959247
4	0xbbbd8e30	-0.0057847723
5	0xbfe33790	-1.7751331
6	0x40444cca	3.0671868
7	0xbee4270e	-0.44561046
8	0xbf26bc1a	-0.6513077
9	0x3cae22ae	0.021256771
10	0xbd5c52ba	-0.05378983
11	0x3e088d54	0.13335162
12	0x3ec7630c	0.38942754
13	0xbc7c5489	-0.015401014
14	0x3cf3869a	0.029727269
15	0x3f0b6690	0.5445337
16	0x3e2527b2	0.16128424
17	0xbffdf5fc	-1.9840693
18	0xbd197802	-0.037467964
19	0x3ee6b2bd	0.4505824
20	0xbb9d7af8	-0.004805919
21	0x3ebab82e	0.36468643
22	0x3e9cfe68	0.30662847
23	0xbdc1b0a0	-0.09457517
24	0x3d9f20db	0.077699386
25	0x3ea9895f	0.33112618
26	0x3d9e1351	0.07718528
27	0xbfbb0fa8	-1.4614153
28	0x3d5f2b99	0.054484937
29	0x3b28aa4a	0.0025736266
30	0xbe5a3ae2	-0.21311525
31	0xbd38b7b8	-0.045097083
32	0x3f38ee0a	0.7223822
33	0x3e9b2877	0.3030431
34	0xbf2f56c1	-0.6849175
35	0x3d3eddf5	0.046598393
36	0x3ec60be7	0.38680956
37	0x3d9d30c1	0.07675315
38	0x3f02518c	0.5090568
39	0x3cbc7c36	0.023008447
40	0x3e61b417	0.22041355
41	0xbd01bd51	-0.031674687
42	0x3d87d007	0.06631475
43	0xbf44fd1c	-0.76948714
44	0x3db6f297	0.08932989
45	0x3d0094f8	0.031392068
46	0xbd9d2cd8	-0.07674569
47	0x3d47426d	0.048647333
48	0x3f875e59	1.0575668
49	0x3faf4381	1.3692476
50	0x3e388107	0.1801797
51	0xbc8320cb	-0.016006848
52	0x3d24703e	0.040146105
53	0xbf203e90	-0.6259546
54	0xbd90b17e	-0.07065104
55	0x3cb59ebd	0.022170419
56	0x3da18df5	0.07888404
57	0xbced970d	-0.02900269
58	0x3ca53390	0.020166188
59	0x3d1ee643	0.038793813
60	0x3f07962d	0.52963525
61	0xbc93e1e9	-0.018052058
62	0xbf8db9a9	-1.1072284
63	0x3f0bc961	0.54604155
64	0x3d9b774d	0.07591114
65	0xbc424128	-0.011856355
66	0xbf0753d9	-0.52862316
67	0x3f297f83	0.6621019
68	0x3eba7fad	0.36425534
69	0xbea88702	-0.32915503
70	0xbe0514cd	-0.12996216
71	0x3cfb8968	0.030705169
72	0x3f216873	0.6305
73	0x3e272a00	0.16324615
74	0xbd87c836	-0.06629984
75	0xbd8d02f6	-0.068853304
76	0x3ef722fe	0.48268884
77	0x3e3913e0	0.18073988
78	0x3ecfe0c3	0.40601167
79	0x3e84a76b	0.2590898
80	0x3c346255	0.011009772
81	0x3ec4452c	0.38334024
82	0xbd92bc40	-0.07164812
83	0x3d8e63a5	0.069525994
84	0x3ea6b53c	0.32560146
85	0xbdb80bd8	-0.08986634
86	0xbe2a679c	-0.16641086
87	0xbd18086d	-0.03711741
88	0x3f42a079	0.7602611
89	0x3f49aad9	0.7877632
90	0x3edac85e	0.42730993
91	0x3de88562	0.11353566
92	0x3ff30b85	1.898789
93	0xbcda3224	-0.026635237
94	0xbe0e9a11	-0.13925959
95	0x3e66211a	0.22473565
96	0xbe61c793	-0.22048788
97	0x3faac93e	1.3342664
98	0x3d56945a	0.052387573
99	0x3f0acf3b	0.5422246
100	0xbc7e023b	-0.0155034615
101	0xbdc40f99	-0.095732875
102	0x3ead4cd2	0.33847672
103	0x3ea37a2f	0.31929156
104	0x3f002487	0.50055736
105	0x3d2c154e	0.042012505
106	0xbd7a452f	-0.061101135
107	0xbcea4b49	-0.028600352
108	0x3edb1ce2	0.42795473
109	0x3f0ba226	0.54544294
110	0xbd9dc919	-0.07704372
111	0x3f05eac5	0.52311355
112	0x3ea19291	0.31557134
113	0xbe872fb8	-0.26403594
114	0xbd16fecb	-0.036864083
115	0x3c7fca62	0.015612217
116	0xbda775b2	-0.081767455
117	0xbcfae557	-0.030626936
118	0xbf62fc7b	-0.88666505
119	0x3dad0998	0.084490955
120	0x3d07fee6	0.033202074
121	0xb9fe582b	-0.00048512346
122	0x3db37fc3	0.08764603
123	0xbcb16c81	-0.021658184
124	0x3f1f70f1	0.6228171
125	0xbf669235	-0.90066844
126	0xbe96993b	-0.2941378
127	0x3d0b6601	0.034032825
128	0x3f05a7e7	0.52209324
129	0xbd0f32ac	-0.034960434
130	0x3f2ef04c	0.68335414
131	0xbd23dfb6	-0.04000827
132	0x3d3341fa	0.043764092
133	0x3f21a342	0.63139737
134	0xbf5065ed	-0.81405526
135	0xbf06f6bc	-0.52720237
136	0xbf070801	-0.5274659
137	0xbe14f8ca	-0.1454803
138	0x3baeb52f	0.0053316574
139	0xbcb9a7c7	-0.02266301
140	0x3f337a86	0.7010883
141	0xbd1a69d5	-0.037698586
142	0xbc58da63	-0.013235661
143	0x3f196368	0.59917307
144	0x3e4a19af	0.1973636
145	0xc01651df	-2.348747
146	0xbca8ca9b	-0.020604422
147	0x3e8d68bd	0.2761897
148	0x3c670b3e	0.014101801
149	0x3ec62d2f	0.38706347
150	0x3f1740d1	0.59083277
151	0x3e84e204	0.25953686
152	0xbcb9dcb0	-0.02268824
153	0x3eaf7d04	0.34275067
154	0x3c8ffd30	0.017576784
155	0x3f87b5cd	1.0602356
156	0x3d6f92de	0.058489673
157	0xbc140ce0	-0.009036273
158	0x3e432e44	0.19060618
159	0xbd96628b	-0.07343014
160	0x3f1f1585	0.6214221
161	0x3ebfdcdb	0.37473187
162	0xbf0258ea	-0.5091692
163	0xbcee893e	-0.029118177
164	0xbe3faa08	-0.18717206
165	0xbc6c52d3	-0.014424044
166	0x3e600518	0.21876943
167	0xbea107dc	-0.3145131
168	0xbcd4ec30	-0.02599153
169	0xbd6574fd	-0.05601977
170	0x3d16c434	0.036808208
171	0xbee2f12a	-0.4432462
172	0xbd33ba5c	-0.043878898
173	0x3db8447a	0.08997436
174	0xbc222e1c	-0.009898689
175	0x3b33e16b	0.0027447592
176	0x3f26a7e9	0.6509996
177	0x3f046799	0.5172058
178	0x3e3a1361	0.18171455
179	0x3db24b2b	0.087057434
180	0xbd9cf240	-0.07663393
181	0xbec0696e	-0.37580436
182	0x3da1c88d	0.0789958
183	0xbd4133a0	-0.047168374
184	0x3c726d59	0.014796578
185	0xbd36ac46	-0.044597887
186	0x3d120558	0.035649627
187	0x3bae4000	0.005317688
188	0x3ee9117a	0.45521146
189	0xbc4bca98	-0.012438439
190	0x3f651b18	0.89494467
191	0x3cb61efc	0.022231571
192	0x3dad6956	0.08467357
193	0xb94083d7	-0.00018359661
194	0xbedc6108	-0.4304278
195	0x3f19853c	0.59968925
196	0x3f464194	0.77443814
197	0xbf359db5	-0.70943767
198	0x3dad3a47	0.08458381
199	0xbb78ddce	-0.0037974003
200	0x3eadc7a8	0.33941388
201	0x3d91cd61	0.07119251
202	0xbd8a7f88	-0.06762606
203	0x3d89c7f1	0.06727589
204	0x3df612eb	0.12015327
205	0x3d2317bb	0.039817553
206	0x3f0e58d2	0.5560428
207	0x3e86ed75	0.2635304
208	0x3b339b1c	0.0027405685
209	0x3ef89af6	0.48555726
210	0x3e879c8d	0.26486626
211	0xbd12cc8f	-0.035839614
212	0x3eba876e	0.3643145
213	0x3b67ba40	0.0035358816
214	0x3e580b5a	0.2109808
215	0x3c8e213b	0.01734983
216	0x3ea152fd	0.31508628
217	0x3f1d35cf	0.6141023
218	0x3ebf890f	0.37409255
219	0xbd0d1e10	-0.034452498
220	0x3f7f4c76	0.99726045
221	0x3da8cd72	0.082423106
222	0xbcad0c5a	-0.021124054
223	0x3e6dff3a	0.23241892
224	0x3e6b60a2	0.22986081
225	0x3f8ecf4a	1.115701
226	0x3d1da5f2	0.038488336
227	0x3f4c9224	0.7991049
228	0xbd7d91cb	-0.061906617
229	0xbc7b00f9	-0.015320056
230	0x3f35dfb2	0.71044457
231	0x3e848a57	0.25886795
232	0x3e930798	0.2871673
233	0xbd53ae26	-0.051679753
234	0xbd924f90	-0.071440816
235	0xbd012cc8	-0.031536847
236	0xbe0b86f9	-0.13625707
237	0x3ebde96a	0.37092143
238	0xbbfcbe02	-0.0077130804
239	0x3f2a8826	0.66613996
240	0x3f18ae08	0.5964055
241	0xbd344543	-0.044011366
242	0x3dadf9c9	0.08494908
243	0x3e918360	0.28420544
244	0xbd4b8448	-0.0496867
245	0x3cc39410	0.023874313
246	0xbf5c763c	-0.8611791
247	0xbe5d1deb	-0.21593444
248	0xbd04788b	-0.03234152
249	0xbd8a81f0	-0.06763065
250	0xbd07a50f	-0.033116397
251	0x3bd09cfd	0.0063663707
252	0x3f4af6db	0.7928292
253	0x3f6e689b	0.93128365
254	0x3e98f6b5	0.29875723
255	0x3d37d90f	0.044884738

fc5.bias f4 [3]
0	0x3f506ce5	0.8141616
1	0x3f09072b	0.5352656
2	0x3e6d7624	0.23189598
