checkpoints/checkpoint_qnetwork_target_WMT_V5_PER.pth (torch_old, 340036 bytes, 10 tensors)

fc1.weight f4 [128, 13]
000000 be e9 4d be ad 1c 04 3e 4f be 3e be 48 d9 5e be
       -0.20108697 0.12901564 -0.18627284 -0.21762574
000010 c6 5d 90 bd 8d 69 31 3e 14 c8 7c bd 00 5c 82 3e
       -0.07049136 0.1732542 -0.061714247 0.25460815
000020 de 8a 51 3c 51 7b 82 3d 5b 77 97 be 23 7e 55 3e
       0.012789456 0.06371177 -0.29583248 0.20848899
000030 19 9b 64 be f1 4d 8e be df ee 36 bd db fc 14 bd
       -0.2232479 -0.2779384 -0.0446614 -0.036373954
000040 54 84 50 3c 18 4f 08 3e e6 59 0e be 9c 1c 4e bd
       0.012726862 0.13311422 -0.13901481 -0.050320253
000050 ce cd be 3d 12 60 69 3e ee 26 64 bd 05 3e 86 3e
       0.09316598 0.22790554 -0.05570119 0.26219192
000060 b4 c9 8f be 83 02 7e 3d aa 17 4c 3e 16 4b 63 be
       -0.28083575 0.062014114 0.19930902 -0.22196612
000070 cd 2d fd bd 21 ac 07 be 65 2e 14 be a7 9a 8f 3e
       -0.123622514 -0.13249256 -0.14470823 0.28047678
000080 f3 87 24 be 68 ac fb bd 90 f1 1c be d5 4e 5b be
       -0.16067486 -0.12288743 -0.15326524 -0.21416791
000090 60 84 df be 9e f8 13 3f cd de 09 3e dc 38 12 3c
       -0.43655682 0.57801235 0.13463898 0.008924689
0000a0 ff 73 34 bc dd 85 fe bd fc c0 a7 3c 8d a6 87 be
       -0.011013984 -0.12427876 0.020477764 -0.26494256
0000b0 23 dd 44 be ac 7d 17 bd 2c 2c 39 3e 73 1b 31 3d
       -0.19224982 -0.036985084 0.18083256 0.04323907
0000c0 98 ec 8e bd f0 a0 25 be d7 0e 9a 3e ef 6b 8a 3e
       -0.069787204 -0.16174674 0.30089447 0.27035472
0000d0 42 b4 91 3d aa f6 eb bc 60 97 47 3e 64 bf 45 be
       0.071144596 -0.028804142 0.19491339 -0.19311291
0000e0 24 68 66 3d e2 d1 2c be ab 1c e0 bd c4 3c 84 bc
       0.05625166 -0.16876939 -0.10942968 -0.016142257
0000f0 69 3f b7 3d 56 90 26 3c d4 22 a0 be dc 6b 06 3e
       0.089476414 0.010166248 -0.31276572 0.13127083
000100 df 33 53 3e ed 18 9c bd 06 08 90 3d d4 df 9f 3d
       0.20625256 -0.07621942 0.0703278 0.07806364
000110 0f b6 87 3e c6 65 4c 3e 2d eb 32 be e8 8a 16 3c
       0.26506087 0.19960698 -0.17472525 0.009188391
000120 44 ba 35 3e 56 d7 05 3e 4c 41 6e 3e e4 3f bd 3e
       0.17746836 0.13070425 0.23267096 0.36962807
000130 e4 d4 1c be f4 78 6e be 60 54 6c 3d d5 ab 16 be
       -0.15315586 -0.23288327 0.057697654 -0.14713986
000140 ec ed 62 be b3 11 85 3e 82 c8 21 3e 40 a9 93 be
       -0.22161072 0.25990066 0.15799144 -0.28840065
000150 15 d2 0d 3d 8a 48 5d bd 9b d6 21 3d 70 2a fd bd
       0.034624178 -0.054024257 0.039511304 -0.1236161
000160 70 46 b8 3e 26 63 82 be 8b 24 c4 3d 31 1c 36 3e
       0.3599124 -0.2546627 0.095772825 0.17784192
000170 42 c2 09 3e 66 00 7c 3d d6 b9 70 be f8 1d 02 be
       0.1345301 0.061523817 -0.23508391 -0.12706745
000180 37 c5 04 3e 22 76 74 bc 6a 93 30 be 2b b8 0e be
       0.12965856 -0.014920743 -0.17243734 -0.13937442
000190 22 9e 3d 3e e5 29 af 3e f5 e5 c0 be 0c 6e 47 be
       0.18517354 0.3421165 -0.37675443 -0.19475573
0001a0 56 49 60 be a6 86 42 3d 6d a7 3b be 8b 87 42 be
       -0.21902975 0.047491692 -0.18325587 -0.18997018
0001b0 12 ea 59 be b4 eb d3 3d 78 d7 07 be 84 0a 5a 3e
       -0.21280697 0.10347691 -0.13265789 0.21293074
0001c0 76 8d 1c be 81 d7 39 3e 95 c2 cb 3e 9f e6 18 be
       -0.15288338 0.18148614 0.39796892 -0.14931725
0001d0 e4 cb 80 bd 64 56 7f bd ec 82 11 3d 18 60 1c 3d
       -0.06288889 -0.062338248 0.035525247 0.03817758
0001e0 b0 6e 16 bd 5f b6 fd 3c 9b 51 df bd 6d 82 2a 3e
       -0.036726654 0.03097075 -0.10904237 0.16651316
0001f0 a4 4b 7b be 0a 3e 80 bd fd 17 82 bd 71 1c 6a be
       -0.24540573 -0.06261833 -0.06352232 -0.22862412
000200 3d 22 44 bd cb a3 54 be c9 0f 1b be a1 56 e1 3d
       -0.047884215 -0.20765607 -0.1514274 0.11002851
000210 3b 0c 45 be 70 71 3a 3d cd 9d 6d 3d 04 a1 66 bb
       -0.19242947 0.04551834 0.05801182 -0.0035191188
000220 b5 75 2a 3e 5c 7d 8d 3d c9 68 47 3d e1 86 fe 3d
       0.16646464 0.06908676 0.048683915 0.1242807
000230 b6 e5 a2 3e 29 14 0b 3e d5 23 8b 3e b6 3a 19 bc
       0.3181588 0.13581909 0.27175775 -0.009352377
000240 e1 2a 4b be f7 28 a8 bd b4 00 2f 3e f8 62 2a bd
       -0.19840576 -0.082109384 0.17090112 -0.04159829
000250 44 14 82 be b2 18 81 bd e1 74 6c be c4 0f 33 be
       -0.25406086 -0.063035384 -0.23091461 -0.17486483
000260 db d7 30 be cd 8d b7 3e 0d 14 d6 3d 74 68 58 be
       -0.17269842 0.35850373 0.10453043 -0.21133596
000270 07 c5 90 3d ad 91 14 be a0 24 5f bd dd d0 11 be
       0.0706883 -0.14508696 -0.054478288 -0.14239831
000280 2b 2d 94 bb fc c4 ac bc 8b c9 28 be bc 32 2b be
       -0.004521986 -0.021090023 -0.16483133 -0.16718572
000290 0d e7 84 bd ea 46 b5 bc 9a 09 d2 be f0 6d 49 3e
       -0.06489382 -0.022128541 -0.4102295 0.19670844
0002a0 37 1d 7d be 12 e6 1b be a4 1f 7c 3e b1 4b c1 bc
       -0.24718176 -0.15224484 0.24621445 -0.023595663
0002b0 80 ac 8c 3e 56 a5 5d bd f7 3b 8e be 17 fa b6 3d
       0.27475357 -0.054112755 -0.27780125 0.089344196
0002c0 27 1c c5 bc 17 7d 81 bd cd 75 b8 3d bd 39 f8 be
       -0.024061276 -0.06322687 0.09006844 -0.4848155
0002d0 6b 33 89 3e a0 fa e7 3c 35 9e 34 3e 11 2b f7 3d
       0.2679704 0.02831775 0.17638476 0.12068761
0002e0 81 43 9b 3c 35 d5 0f 3e e6 37 15 3e dc f1 f6 bd
       0.018953087 0.14046176 0.14572105 -0.1205785
0002f0 80 aa 8a be ec 9c 8d 3e a1 d6 79 3e 4f c7 e9 3d
       -0.27083206 0.27658784 0.2439828 0.11414968
000300 d9 84 e8 bd 7f 5a 3b 3e f8 31 30 be d8 f6 36 be
       -0.11353464 0.1829624 -0.17206562 -0.17867601
000310 b2 1a 11 be d9 05 f1 3d 03 0f 3f be 6e f2 85 bc
       -0.1417034 0.117686935 -0.1865807 -0.016350951
000320 59 18 80 bc 66 c7 c8 3d 0a 3f d3 bd 47 9c c9 bd
       -0.01563661 0.09803657 -0.10314758 -0.09844261
000330 5a 8d e5 bd aa 25 f4 3e 2c b1 3d be 10 37 5b 3e
       -0.11208601 0.47684985 -0.18524617 0.21407723
000340 6c cb 65 3e 47 23 77 3d 9d ac 31 bd bb c0 de bd
       0.2244088 0.060336377 -0.043377507 -0.10876604
000350 a7 ba 80 bc 71 9a 85 bd 42 8a ae bd 40 a5 bf 3d
       -0.015714003 -0.06523598 -0.08522464 0.09357691
000360 67 9c 02 be dc b3 22 be 52 2f 0b 3f 84 6d 52 be
       -0.12754975 -0.15888923 0.5436908 -0.2054959
000370 2d fe d2 3c d9 dc 46 3e 16 92 a3 3d b0 b8 6d 3c
       0.025755966 0.19420184 0.07986848 0.014509365
000380 53 19 5c be 34 4f 83 3d 0b e2 17 be 81 35 ec bc
       -0.21494035 0.06411591 -0.14832322 -0.028834106
000390 39 3d 2c bd 8b 4e 3a bd 3a 4f 53 bd 01 27 a6 3e
       -0.042050574 -0.04548506 -0.05158923 0.32451633
0003a0 5a 92 15 be 5d d8 83 3e 8d 1f 54 3e fb 3f 14 be
       -0.1460661 0.2575101 0.2071516 -0.14477532
0003b0 a0 f6 a7 3d 31 8a 3c be 38 81 6d be 99 21 d2 3d
       0.08201337 -0.18412091 -0.23193824 0.102603145
0003c0 03 43 da 3c 1f f6 7d 3e 3c 24 4d 3c c3 aa ec bc
       0.026643282 0.24800919 0.012520846 -0.02889002
0003d0 0a 3c ec 3e 6a 5c ec be 6b 60 ac 3d 16 3b 82 be
       0.46139556 -0.46164256 0.08416828 -0.25435704
0003e0 8a 67 98 bd b6 84 36 3c 25 d0 27 be 25 f0 9a bc
       -0.074416235 0.011140039 -0.16387995 -0.018913338
0003f0 9e 41 78 3e 76 ee 44 bd 57 1a 94 bd 84 04 e0 bd
       0.24243781 -0.048078977 -0.072315864 -0.10938361

fc1.bias f4 [128]
000000 22 05 d5 bd 6c be a1 3e 32 10 72 be 8e e3 07 3f
       -0.1040137 0.31590593 -0.2363899 0.53081596
000010 c3 a4 eb 3e ec 18 22 3e 45 68 05 3d bc e1 22 3d
       0.4602414 0.1582982 0.032570142 0.03976606
000020 d3 e1 76 be 4d 66 55 3e 45 2b 9a 3e 20 52 91 be
       -0.24109583 0.20839806 0.30111137 -0.2838297
000030 22 91 18 3f a7 a3 74 be 40 fc bb be 67 3a e7 bd
       0.59596455 -0.23890553 -0.3671589 -0.11290436
000040 f1 38 99 be dc 10 f7 3e 12 2d 0f be 69 91 a0 be
       -0.29926255 0.4825505 -0.13982037 -0.3136094
000050 1f bd 12 3e e9 42 a7 be 4b 80 23 3d d4 e4 9f 3d
       0.14329956 -0.32668236 0.03991727 0.078073174
000060 cf 5a 6e be e9 f7 80 3e f2 f8 ba 3e f7 48 d7 bd
       -0.23276828 0.2518914 0.36518055 -0.10511964
000070 a2 51 fb 3d a1 1c 5c be 7e 5e ed 3e 86 f6 0d 3f
       0.122714296 -0.21495296 0.46361154 0.5545429
000080 91 2b 5e 3c e0 b6 ed 3d 1b fc b1 be ce d4 6e bd
       0.013560192 0.11607146 -0.34762654 -0.058308415
000090 d2 46 a7 3e 2f 2c 70 be e4 62 77 3e b7 24 ee bb
       0.3267122 -0.23454355 0.24158818 -0.0072675603
0000a0 37 38 9a 3d da f0 5b be b7 71 b0 3e 2b 07 4b be
       0.075302534 -0.21478596 0.34461758 -0.19826953
0000b0 53 1e b5 bd 8b e0 c7 3d ba 36 ee 3e f4 df 86 3e
       -0.088436745 0.09759625 0.46526128 0.26342738
0000c0 f4 2d a3 bc 3e 67 5a bd f1 0c b0 3e 42 ab 7c 3e
       -0.019919373 -0.053321116 0.34384874 0.24674705
0000d0 d2 1c f2 3e a7 42 b3 bb b5 90 f0 3e 33 ea 69 be
       0.47287613 -0.005470592 0.46985403 -0.22843246
0000e0 7a f3 a7 3e a5 5d 05 be 59 98 85 be f6 ae 06 3e
       0.32802945 -0.13024004 -0.26092795 0.1315268
0000f0 de 93 ba 3c 2b 9e 72 3e 6b 19 0e 3f 9e ce 83 be
       0.022775587 0.23693149 0.55507535 -0.25743574
000100 a8 a6 a6 3e cd 38 93 be 37 13 75 3e a2 cd fc 3e
       0.32549024 -0.28754273 0.23933111 0.49375635
000110 c3 47 f1 3e 72 77 0c 3f 5a c6 b1 3e 87 f0 2e bd
       0.47125062 0.5486976 0.34721643 -0.042709854
000120 14 87 25 be 7e 27 6d be ef f9 d6 3e 94 f2 fc 3d
       -0.1616481 -0.23159596 0.4198756 0.123509556
000130 af 15 9b be 47 ef 07 3f de c0 6d be 15 09 00 3e
       -0.3028998 0.53099483 -0.23218104 0.12503465
000140 b0 03 a4 bd 96 08 e8 3d 11 84 fa 3d c9 90 7f be
       -0.08008516 0.11329763 0.12232221 -0.24957575
000150 69 65 a5 be d0 53 ab be 88 31 e4 bc 5e 32 f6 3e
       -0.32303932 -0.3346238 -0.02785565 0.48085302
000160 dc 43 d9 3e 52 cf a0 be 34 df 2e 3d 6d 29 a2 be
       0.42434585 -0.31408173 0.04269333 -0.3167223
000170 2a b5 ab bd 84 d5 0e be ad c4 1d be c3 29 97 3e
       -0.08384164 -0.13948637 -0.15407057 0.2952405
000180 2d 0b 4b be 76 f0 0d 3e fb 8a 8c be d0 8e fc bd
       -0.19828482 0.1386126 -0.27449784 -0.12331927
000190 f0 50 08 3f ed ec fe bd ce 1f d4 bd b4 90 0d 3f
       0.532485 -0.12447534 -0.10357629 0.55298924
0001a0 57 72 b5 3e 54 89 bf be 34 35 04 be f2 34 62 be
       0.35438797 -0.3740946 -0.1291092 -0.2209051
0001b0 51 37 1d be e7 fb 9b 3e c0 cf 3b be 5b ab fb 3e
       -0.15353133 0.30465624 -0.18340969 0.4915417
0001c0 5e 54 79 be 6d 51 be bd 43 3a 8c 3e 85 3e c7 3e
       -0.2434859 -0.092928745 0.273882 0.38914886
0001d0 64 bc 16 3f 41 e1 63 3e a2 98 81 3e 5e 50 af 3d
       0.5888121 0.22253896 0.25311762 0.08560251
0001e0 b6 ce ad 3e 1c dc 86 be 71 7f 4b 3d 08 26 9f be
       0.3394677 -0.26339805 0.049682084 -0.31083703
0001f0 cb 4f a8 be 46 80 c6 3e d2 1b 86 bd 14 83 e2 3e
       -0.32873377 0.3876974 -0.06548275 0.4424063

fc2.weight f4 [256, 128]
000000 b6 a2 52 3d d1 47 90 3d 06 81 91 bb 44 6a 08 3c
       0.051424704 0.07044948 -0.0044404296 0.008326117
000010 a6 0a 95 3d 9a be 6a 3d e6 b0 3e 3c a7 8f a0 bc
       0.07277422 0.057310678 0.011638856 -0.019599749
000020 38 23 5a bb 4a f3 3c bc f7 1e 09 bc 43 57 09 bb
       -0.0033285152 -0.011532614 -0.008369199 -0.0020956553
000030 8d 45 0f bd 4a 34 b8 ba 18 2f 09 be eb ae 0b bd
       -0.03497844 -0.0014053669 -0.13396871 -0.03410236
000040 99 36 93 bd 40 28 e7 3d 2f ba a6 bd b0 1a 24 3d
       -0.07188148 0.11286974 -0.081409805 0.040064514
000050 51 57 83 3d 36 fc 3a 3d 9f 90 e3 3c a9 1e c8 3c
       0.06413139 0.045650683 0.027778922 0.024428682
000060 02 97 f2 3c b9 f9 72 bc 86 26 2d 3d 89 90 b9 bd
       0.029613022 -0.014830046 0.042273067 -0.09060771
000070 dc c3 d7 bc e5 3d 4b bc e1 a1 72 3d be bc 92 3c
       -0.02633851 -0.0124048935 0.05923641 0.017912265
000080 b2 0d b3 bd 93 74 f2 bc a9 e3 63 ba 2e c9 c0 3d
       -0.087428465 -0.029596603 -0.0008693287 0.09413372
000090 d0 ca 24 bd c0 75 87 3b 09 75 8f bd 7b cf 9f bd
       -0.04023248 0.00413391 -0.070047446 -0.07803246
0000a0 74 e7 b3 bc 49 a1 28 bd c9 2c 13 3d 98 51 d1 bd
       -0.021960951 -0.04116944 0.035931382 -0.10220641
0000b0 2d bd 81 3d b8 a1 84 3d 80 f9 c8 3c b5 b6 e9 3d
       0.063349105 0.06476158 0.024533033 0.11411802
0000c0 a7 81 65 bc 3f 95 25 bd 04 6c 0b 3c 78 4f 10 3d
       -0.014007962 -0.040425535 0.00850964 0.035232037
0000d0 28 2b 80 bc be 01 a5 bd 85 26 88 3d 0f d2 7a 3b
       -0.015645579 -0.08056973 0.06647972 0.0038272177
0000e0 36 92 a4 3d f0 a7 f7 bc ff e1 bd 3c 7d 5d be bc
       0.080357 -0.030231446 0.023179052 -0.023237938
0000f0 d0 56 4b 3c 2c e0 c9 3b 59 b8 0b 3e 52 a9 3c 3c
       0.012410834 0.0061607566 0.13644542 0.0115149785
000100 bd b0 92 3d 82 20 3b 3c 0d af 6c 3c 4d 56 06 3e
       0.071626164 0.011421325 0.014446032 0.13118859
000110 7d 43 11 bd 8e 22 12 3e 1e d1 ab 3d 4c a8 be 3d
       -0.035464752 0.14270994 0.08389495 0.09309444
000120 54 da 4d bd 57 58 19 bd 26 9a e2 3c 69 d9 f2 3c
       -0.050257042 -0.037437763 0.027661394 0.029644685
000130 4d da 47 3c e0 95 a2 3d f9 9c cd 3c 7a af fa bc
       0.012198043 0.07938743 0.025099264 -0.030601252
000140 b2 85 d2 bc 53 d4 86 3c 1b 12 13 3d be 6b a3 bd
       -0.025698517 0.016458666 0.03590594 -0.079795346
000150 92 a0 8c bc f6 4a db bd 19 83 29 bd b6 1e ce 3b
       -0.01716641 -0.10707657 -0.04138479 0.006290282
000160 58 23 d0 3d 19 40 af bd 70 a0 f0 bc 01 2e 1e be
       0.10162991 -0.085571475 -0.029373378 -0.15447237
000170 af be 0c bc 2b da 0a be 07 67 14 3c e4 0e 2c bd
       -0.008590384 -0.13559787 0.009057767 -0.04200639
000180 1c b4 9d bd f4 5d bd bb 38 09 ba bc bf 08 43 3d
       -0.07700369 -0.0057790224 -0.022709474 0.047615763
000190 2a 41 06 3e 9e 30 85 bc 21 9a 86 bd 43 0f a2 3c
       0.13110796 -0.016258534 -0.065723665 0.019782668
0001a0 02 71 09 bd be 8b 36 bd 3f 92 e4 3c ba b3 f6 bb
       -0.03355504 -0.044566862 0.027901767 -0.0075287493
0001b0 9a 58 e7 3c 2c 93 0e 3d 4c 70 9a bd cd 4d 08 b8
       0.02824049 0.034808323 -0.0754095 -3.2497384e-05
0001c0 b7 47 64 bb 78 47 90 bd 8f ca 13 3c 93 08 84 bc
       -0.0034832784 -0.070448816 0.009020462 -0.01611737
0001d0 fe 45 05 bd 9e c8 93 3d 95 66 d5 3b a0 1d 74 bd
       -0.032537453 0.07215999 0.006512473 -0.059598565
0001e0 6a 75 a9 3d 1f b9 b5 bd c7 38 19 3d 30 59 93 3d
       0.08274348 -0.088732 0.037407663 0.071947455
0001f0 76 26 c0 bc 89 a0 8e 3d 62 9b 09 3d ef 49 a1 3d
       -0.02345584 0.069642134 0.03359545 0.0787543
000200 17 f9 a4 bc fa 17 ba bc 41 6e 93 3b 28 3b 27 3e
       -0.020138307 -0.022716511 0.0044992273 0.1633116
000210 09 f2 09 3e 63 ac 44 3e 8e cd 02 bd af 47 e9 bc
       0.13471235 0.19206385 -0.031934313 -0.028476564
000220 f9 68 3a bc 2b 90 48 3d cd 40 b0 bc f8 2e ec bd
       -0.0113775665 0.048965614 -0.021515274 -0.11532396
000230 df 65 14 3e 5c 56 dd 3c ba f6 16 3d 66 58 13 bd
       0.14491986 0.027018718 0.03685639 -0.035972975
000240 c6 9d ab bd 50 b7 89 3d f4 f9 fc bd 25 3f 83 be
       -0.08379702 0.06724417 -0.12352362 -0.25634113
000250 b2 71 65 bd ba 05 cc bd e6 4b 12 be 46 8d e5 bb
       -0.05601663 -0.0996203 -0.14286765 -0.0070053665
000260 0b 8e 78 bd d5 58 c8 3d 0d 8d c8 3d f2 86 ed 3d
       -0.060682338 0.09782568 0.09792528 0.115980044
000270 10 b6 54 3e d9 36 9f bc 82 82 43 bc 5b b7 60 3d
       0.20772576 -0.019435333 -0.011932971 0.05486236
000280 52 17 a4 3d c6 4d 64 3d 81 5e f3 bd b3 97 88 bc
       0.080122605 0.055738233 -0.118832596 -0.016673898
000290 03 f3 5f 3e f0 5d 8e bd b1 8f f0 bc 14 8e 18 3e
       0.21870045 -0.06951511 -0.029365392 0.14897949
0002a0 2a a4 0b 3e b8 06 09 3d a1 22 13 bd 87 15 96 3d
       0.13636842 0.033453673 -0.035921697 0.07328325
0002b0 87 ab 33 3b 08 bf a5 bd 26 f3 99 bb 07 d6 11 bd
       0.002741547 -0.08093077 -0.004698175 -0.035604503
0002c0 f5 53 29 bd db 5d d8 bd 28 90 0c bc ec 96 0d 3d
       -0.041339833 -0.105647765 -0.008579291 0.03456776
0002d0 25 31 e1 3d 66 7f 93 bd 60 45 50 3d f2 dc f7 bc
       0.10995702 -0.07202034 0.05084741 -0.030256722
0002e0 6e bd 07 3d 37 f3 b1 3d 18 e6 0c 3b 89 37 ba bb
       0.03313964 0.08688968 0.0021499451 -0.00568289
0002f0 ee 54 6d bd ea 85 96 3d 2b 6b 2a 3e 26 77 71 3d
       -0.057942323 0.07349761 0.16642444 0.05895152
000300 65 0a f5 3d 51 1e 21 3d e7 fd 06 3e 2b fb 12 bd
       0.11964873 0.039335553 0.13182794 -0.035884064
000310 90 1c 10 3e ef 7e 19 3e 9b be 20 be 1d e7 dd bd
       0.14073396 0.14989828 -0.1569771 -0.10835097
000320 65 c3 4e 3d 7e e1 d4 bd 17 47 18 3c b1 1c 3a 3e
       0.05047931 -0.10394572 0.009294293 0.18175007
000330 07 db 74 bd c4 b8 b3 3d 0e 1a 0b be de 59 3b 3d
       -0.059779193 0.087754756 -0.13584158 0.04574
000340 f3 d4 f0 3d 7a 6e bd bd 01 cd 14 3e 72 b5 9f 3c
       0.11759367 -0.09249587 0.14531328 0.0194957
000350 c4 a9 8b bc e1 89 04 bd f4 78 3c bd 75 0d 51 3d
       -0.017048724 -0.032358054 -0.046013787 0.051038224
000360 cb f0 7c bd 43 ae 36 3d 27 74 36 bd 66 a7 b9 bd
       -0.061753076 0.044599783 -0.044544365 -0.09065132
000370 de 4f 70 bb 50 7f 21 3d 88 06 43 3d 62 e2 96 3d
       -0.0036668698 0.039428055 0.04761365 0.07367398
000380 8b 44 d8 bc fa 6b 80 3d 4a 45 df bd e3 65 85 3c
       -0.026399871 0.06270595 -0.10901888 0.016283935
000390 47 5d ab bd 45 52 26 bd e8 ca b9 3c d7 61 bc bc
       -0.083674006 -0.040605802 0.022679761 -0.022995872
0003a0 e3 a5 f9 3d 27 72 12 bc ab 9a 23 3e 81 14 f2 bc
       0.121898435 -0.008938349 0.1597697 -0.029550793
0003b0 f9 45 88 bc 0e 48 f7 3c e5 6d bb 3c b9 e9 7f 3e
       -0.016634928 0.030185726 0.02287955 0.24991502
0003c0 44 ef 6f bd 27 50 e6 ba e0 a0 0f 3d d4 06 19 3d
       -0.05857779 -0.0017571495 0.03506553 0.037360027
0003d0 23 ca 9d 3d ca 13 ba ba 3a a4 2c 3e 25 d9 3d 3d
       0.0770457 -0.0014196571 0.16859522 0.046349663
0003e0 2a 7d d0 3d 2f fe 39 be 68 b8 2d 3e 3e 14 89 3d
       0.10180123 -0.1816337 0.16964877 0.06693314
0003f0 f1 bc 7d 3d 2b 4b 53 3e e4 d4 dd 3d 09 f7 18 3d
       0.061947767 0.20634143 0.10831621 0.037344966

fc2.bias f4 [256]
000000 1f 2a e1 3d 41 a2 a8 3d 68 63 1b 3e 74 14 a5 3e
       0.10994362 0.082340725 0.15174639 0.32242167
000010 37 d4 dd 3c 77 e3 5a 3e f8 1a 42 3e 4e 5b 9f 3c
       0.027078731 0.21375833 0.189556 0.019452717
000020 5c 3a 03 3e 35 05 65 3e 72 6d c0 bd ec 04 fb 3d
       0.12815231 0.22365268 -0.09395875 0.12256798
000030 3a 76 48 3e 33 58 8c bd 09 da 53 3e 0e 8c 81 3e
       0.1957635 -0.0685276 0.20688643 0.25302166
000040 a1 93 95 3e 08 af 83 3e 6b 3c c0 3d a6 6e 54 3e
       0.29214194 0.25719476 0.09386524 0.20745334
000050 94 05 9f 3e 9b 50 94 bc e0 eb ae 3e cb 4c 90 3e
       0.31058943 -0.018104842 0.34164333 0.28183588
000060 49 39 a6 3e c3 f3 43 3e b0 44 22 3e 06 92 fd 3c
       0.3246558 0.19135956 0.15846515 0.030953418
000070 2f 24 65 3e 05 db 4a 3e 43 58 05 3e 98 5d 0b 3d
       0.22377084 0.19810112 0.1302195 0.034024805
000080 5a 92 81 3e a7 08 45 3d 6d 31 51 bd 41 c0 a6 3e
       0.2530697 0.048103955 -0.051072527 0.32568553
000090 44 e5 97 3e 69 4a 9a 3e a8 7d 39 bd 0e b1 14 3e
       0.29667103 0.30134895 -0.04528585 0.14520666
0000a0 20 9c 58 3e bd ed 84 3e 2c d1 3d 3e ab 45 8a 3e
       0.21153307 0.2596263 0.18536824 0.27006277
0000b0 4c ae ce 3d a2 97 6b 3e 17 ce ff 3d 2c df 77 3d
       0.10091838 0.23007062 0.124904804 0.060515568
0000c0 b7 d9 55 3e 93 68 06 3d 57 d5 69 bc 54 20 58 3e
       0.20883833 0.032814573 -0.014272056 0.21106082
0000d0 74 11 84 3e f5 27 42 3e 24 b1 16 3e 92 10 b2 3d
       0.25794566 0.18960555 0.14716011 0.08694567
0000e0 fb 28 28 3e fb eb 1f 3e 79 c2 21 3e 22 3e 67 3e
       0.16421883 0.15617363 0.15796842 0.22582296
0000f0 61 66 86 3e 23 bf 10 3e fa f4 45 3e e2 68 a2 3e
       0.26249984 0.14135413 0.19331732 0.31720644
000100 69 4d 92 3e 00 44 92 3e 5e 6e 87 3e 08 5e a3 3d
       0.28574684 0.28567505 0.2645139 0.079769194
000110 cc 86 78 3e 38 fe 9e 3d 37 ec 55 3e da 36 86 3d
       0.24270171 0.07763332 0.2089089 0.06553431
000120 12 95 34 3d 56 74 85 bc 46 21 3f 3e 27 1c 35 3e
       0.044087477 -0.016290825 0.18665037 0.1768652
000130 ec 32 5b 3d 28 ce 82 3e 85 92 8e 3e 90 ce 3f 3e
       0.05351536 0.2554791 0.2784616 0.18731141
000140 1a 37 7d 3e 11 16 8a 3e ea 09 74 3e c1 23 80 3d
       0.24728051 0.2696996 0.23831907 0.062568195
000150 74 09 a0 3e b1 a2 8a 3e be 55 e9 bd 50 d6 4b 3e
       0.31257212 0.2707725 -0.11393307 0.19905972
000160 45 69 65 3e 62 95 32 3e e7 49 2d 3e 8d 03 19 3e
       0.22403438 0.17439798 0.16922723 0.14942761
000170 66 dd 02 3e c9 a9 8c 3d f6 15 19 3e 7c 35 97 3e
       0.1277977 0.068683214 0.14949784 0.29532993
000180 ac be 3f 3d d6 44 99 3e 9d 56 34 3e f4 ff aa 3e
       0.0468127 0.2993533 0.17611165 0.33398402
000190 72 0b 82 3e ad 23 49 3e 74 19 68 3e b1 6d 05 3e
       0.25399357 0.19642515 0.2266596 0.13030125
0001a0 e7 41 59 3e a0 ac c3 3d 10 98 56 3e 34 dd 9e 3e
       0.21216546 0.0955441 0.20956445 0.3102814
0001b0 67 e7 74 3e 0b 9f 0e 3e 90 22 af bc cd 63 17 bd
       0.23916398 0.13927858 -0.021378785 -0.03696041
0001c0 bd c2 76 3e ca 20 29 3e 02 f4 cb 3d 12 d0 c8 3d
       0.24097724 0.16516414 0.0995865 0.09805311
0001d0 79 2f 43 3e a1 3c ac 3e 9c 55 c0 3d de 82 75 3e
       0.19061078 0.33640006 0.09391329 0.23975703
0001e0 9a 7e 3f 3e f2 1c 0b 3e 8a ee 3e 3e db 86 99 3e
       0.18700638 0.1358526 0.18645683 0.299857
0001f0 5e 4e 6a 3e 99 c5 20 3e 66 38 90 3e 29 30 0a 3e
       0.22881457 0.15700378 0.2816803 0.13494934
000200 ea e3 5d 3e 73 38 7e 3e 41 9c 80 3e 78 d8 52 be
       0.21668974 0.24826221 0.25119212 -0.20590389
000210 b9 95 4c 3e 7e 3f 8b 3e 10 5e 2d 3e 5f 67 84 3e
       0.1997899 0.27196878 0.16930413 0.25860116
000220 ea dd 69 3e 63 81 29 3e 73 d6 15 3e 85 92 8e 3e
       0.2283856 0.16553263 0.14632587 0.2784616
000230 cc 8d f9 3d 8b af c0 3e f1 04 d9 3d 2f eb 85 3e
       0.12185249 0.3763393 0.105966456 0.26155993
000240 57 60 e0 3c 9c 58 25 3e ff b7 79 3e ed 7e 85 be
       0.027389688 0.16147083 0.24386595 -0.260734
000250 20 1e fa 3d 80 b4 7d 3e 0e d7 15 3e 08 23 e4 3d
       0.12212777 0.24775887 0.14632818 0.11139494
000260 8b 0e b6 3d bf 4b 36 be 34 0b 3b 3e bd 1e 96 3e
       0.088894926 -0.17802332 0.18265992 0.29320326
000270 1c a8 3d 3e 3b a4 59 3e 3e 30 df bb 21 10 a7 3e
       0.1852116 0.21254055 -0.006811171 0.32629493
000280 3e 81 77 3e 0b 6d c9 3d 7d da 3e 3e 09 b3 93 3e
       0.24170396 0.098352514 0.18638034 0.2884753
000290 9f cf 01 3e 16 97 0a 3e 8d 58 6d 3e 14 07 6d 3e
       0.12676857 0.13534197 0.2317831 0.23147231
0002a0 b5 56 4e 3e a5 7b 51 3e 87 f2 9a 3e f8 7c 72 3e
       0.20150264 0.20457323 0.3026316 0.23680484
0002b0 5f e2 b7 3d 63 e0 93 3e 2e 3f 9f 3e 8d c6 0f 3e
       0.08978724 0.2888213 0.3110289 0.14040585
0002c0 23 73 c0 3d fd cf 6e 3d 03 28 32 3e fe 39 37 3e
       0.093969606 0.05830382 0.17398076 0.17893216
0002d0 02 27 5d 3e 2c 54 13 3e 1a c4 aa 3e b5 2f bb bd
       0.21596912 0.14387578 0.3335274 -0.09139959
0002e0 be a2 42 3e 28 1a 5e 3e 0a 8a a0 bd d4 af ee 3d
       0.19007394 0.21689665 -0.07838829 0.1165463
0002f0 76 84 22 3e 08 eb 97 3e b0 7c c6 bc 1a c3 9e 3e
       0.15870842 0.29671502 -0.024229378 0.31008226
000300 61 de ab bc 7a c1 6d 3d d5 68 73 3e 03 66 12 bc
       -0.020980062 0.05804584 0.23770459 -0.008935454
000310 ae 65 81 3e 68 80 b8 3d ac 5f 4a 3e 3d 2d 12 3e
       0.25272888 0.090088665 0.19763058 0.1427507
000320 ec be 24 3e c6 0d 63 3e c9 32 64 3e 31 a4 e6 3d
       0.16088456 0.22173223 0.22284998 0.11261786
000330 1d 9d 59 3e 0e e6 a1 3d d2 ea 8b 3e 36 31 6f 3e
       0.2125134 0.079052076 0.2732759 0.23358616
000340 fe de 9a 3e 77 e7 87 3e f7 dd 3f 3e b3 ad 79 3e
       0.30248255 0.2654378 0.18737017 0.24382667
000350 52 b8 43 3e d1 ca 68 3e ea cf 05 3e 47 e2 3f 3e
       0.19113281 0.22733618 0.13067594 0.18738662
000360 62 94 64 3e 1a 7e 29 3e 12 6d 36 3e 41 2c ee 3d
       0.22322229 0.1655201 0.17815045 0.116295345
000370 95 fb 7a 3e 08 0c 98 3e b7 48 b9 3d cd 75 98 3e
       0.24510033 0.2969668 0.090470724 0.29777375
000380 92 17 29 3e 6f 39 a2 3e c2 58 4f 3e d8 23 7b 3e
       0.16512898 0.31684443 0.20248702 0.24525392
000390 8e 66 87 3e 58 79 3f 3e d4 3c 71 3e cd 6f 99 3e
       0.2644543 0.18698633 0.2355836 0.2996811
0003a0 ca c2 8b bd c9 2c 53 3e 02 e9 8a 3e 5a 49 79 3e
       -0.068242624 0.20622553 0.27130896 0.24344388
0003b0 17 6b 66 3e 60 22 42 3e 2a 30 cf 3d dc 66 37 3e
       0.22501789 0.18958426 0.101166084 0.17910331
0003c0 7a 47 bb 3d 47 1a d2 3c cb d9 2b 3d 3a 17 1e 3e
       0.091444924 0.025647296 0.04195575 0.15438548
0003d0 72 6c 95 3e a1 d1 a6 3e 6d 6e 83 bc 8c 30 da 3d
       0.291843 0.3258181 -0.016043866 0.10653791
0003e0 cb 5a 09 3e c5 62 bf 3c e6 51 22 3d d0 c8 76 3e
       0.13413541 0.023362527 0.039628886 0.24100041
0003f0 c3 31 5c 3e c9 2c 81 3e 9f ac 31 3e 67 7b 52 3e
       0.21503358 0.2522948 0.17351006 0.20554887

fc3.weight f4 [128, 256]
000000 7c 2f 18 3d 01 34 30 bd 93 4d 84 3b 16 ff 5b bd
       0.03715466 -0.043018345 0.004037568 -0.053710066
000010 92 cd e0 bc f4 e9 3c bd dc 0e a2 3c 41 20 4e 3c
       -0.027441774 -0.046121553 0.019782476 0.012580932
000020 9d 18 5b 3d 2c 4a 2b 3d 8e e9 86 bc 51 9c 1c bd
       0.05349027 0.041818783 -0.01646879 -0.038235012
000030 be 04 41 3d 6c cc f9 bc 9f e5 f8 bc 35 91 34 bd
       0.047123663 -0.030492984 -0.03038293 -0.044083793
000040 73 5b 9f ba a1 50 fc bc a7 e6 54 bc 2b 6e 6c 3c
       -0.0012157991 -0.030800166 -0.012994445 0.014430563
000050 7c d0 59 bd 14 6a 18 3d 27 24 87 bd 3b fc fe 3c
       -0.05317734 0.03721054 -0.065986924 0.031126132
000060 c2 35 15 bd 3e 78 78 bb fb 59 ff 3a fc 30 c6 bc
       -0.03642822 -0.0037913467 0.0019481772 -0.02419328
000070 a9 5d 56 3c c3 1e 20 3b fe c2 2d bd 6a 1a 15 bd
       0.013083854 0.0024432398 -0.042422287 -0.036402144
000080 32 b0 fd 3c 0a 46 02 bd 46 56 9a bc bb 54 97 3c
       0.030967806 -0.031805076 -0.018839967 0.01847302
000090 88 69 1c bd 03 b0 29 3d 01 de 13 bd b5 f8 6d bc
       -0.03818658 0.041427623 -0.03610039 -0.014524628
0000a0 33 e2 58 bd bc e7 05 bd e4 12 5a bd 6a 9d 14 bd
       -0.052950095 -0.032691702 -0.05324067 -0.036282934
0000b0 2f 06 53 bd 3a 7f fe 3c 4f 27 70 bd f0 3b 68 bd
       -0.05151957 0.031066526 -0.058631238 -0.056697786
0000c0 8a 46 29 3d fd 06 86 bc 26 90 11 3d 39 68 c2 bb
       0.041327037 -0.016360754 0.03553786 -0.0059328345
0000d0 47 cd 1b 3d 0f a5 87 bd 6f 51 2f 3c 51 69 3a bd
       0.038037565 -0.06623279 0.010700568 -0.045510594
0000e0 d5 f0 51 3b 56 ea ab bc 51 4d 4d bd 4d bb 65 3d
       0.0032034416 -0.020985764 -0.050122563 0.056086827
0000f0 1e 01 3f bd 76 5f 90 bb 5a 1c 4e bc 39 78 31 3d
       -0.046631925 -0.004405911 -0.012580002 0.043327544
000100 24 dc bd bc 0d 9c 65 3d d2 2a 3a bd 0e 06 1b 3d
       -0.02317626 0.056057025 -0.045450993 0.03784757
000110 71 90 d6 3c c3 e0 46 bd ab 62 4e bd 62 d3 8b bc
       0.026191922 -0.048554193 -0.050387066 -0.017068569
000120 c6 1d 99 bb 36 13 ad 3c b1 c0 4c bc 7a 8c ba bc
       -0.0046727387 0.021127325 -0.012497113 -0.022772063
000130 7a 38 73 3d 94 5a d0 bc d8 3d 13 bd 61 f1 4d 3d
       0.059380032 -0.025433816 -0.03594765 0.050279025
000140 5a 1c ce bc aa f0 44 3c 13 2d 46 3d 4e 9d 23 bd
       -0.025160003 0.012020269 0.04838283 -0.03994494
000150 62 90 3a 3d 72 a0 45 3d 0e 62 36 bd 09 ba e0 ba
       0.04554785 0.048248716 -0.044527106 -0.0017145287
000160 fe de 1a 3d 3a 17 9e bc a9 de 80 3c c4 7f b3 bc
       0.03781032 -0.019298185 0.015731173 -0.02191151
000170 27 36 4b 3d 51 13 1e bd b5 14 5b ba 47 f6 54 3d
       0.04961219 -0.03859264 -0.00083572726 0.05199268
000180 41 31 44 bd 9c 00 18 3d cf 25 42 3d 68 17 72 3c
       -0.047898535 0.037109956 0.04739934 0.014776088
000190 b7 ec 6f bd e3 fa 96 3c 44 df 18 3d 53 36 58 3d
       -0.05857536 0.018430179 0.037322298 0.052786183
0001a0 77 60 5e bd 92 cb 8b bd e0 23 09 bd 5c 71 e3 bc
       -0.054291215 -0.06825937 -0.03348148 -0.027764015
0001b0 0f f5 24 3d 28 cf 38 bd a2 71 61 3d bc 5b 64 bd
       0.04027277 -0.045119435 0.05504001 -0.055751547
0001c0 03 c3 74 bd 21 d8 4c bc 13 70 17 3d e0 28 01 3c
       -0.05975629 -0.012502701 0.036972117 0.0078832805
0001d0 e6 78 65 bd b5 57 2c 3d 7f 51 cb 3c ea 5e 14 bd
       -0.0560235 0.04207583 0.024819134 -0.03622333
0001e0 cd 08 07 3c 69 06 fc bc 8b 62 96 ba a4 20 3d bd
       0.008241844 -0.030764775 -0.001147346 -0.046173707
0001f0 75 f3 05 3b 7c a3 f6 3c 0c 85 29 bc f1 df 4c bc
       0.00204393 0.030107252 -0.010346662 -0.012504564
000200 90 00 43 ba 70 f2 70 bd 10 ef 25 3d a6 24 ae 3c
       -0.00074387435 -0.058824956 0.04051119 0.02125771
000210 4e ae 99 bc 6e 95 87 3c f4 a5 64 3d 30 9e 39 3d
       -0.018759873 0.016550746 0.055822328 0.045316875
000220 12 e5 7c bd f3 43 83 bc d4 18 bd bb e8 10 4c 3d
       -0.061741896 -0.016023612 -0.005770782 0.04982081
000230 d5 1d b5 bc da 33 6a bd 25 6a 34 bd 51 e1 42 bd
       -0.022108952 -0.057178356 -0.04404654 -0.04757816
000240 59 7c 93 bc 8c 4b 21 3c 82 39 cf 3c b4 d5 33 bc
       -0.01800363 0.009844672 0.025295977 -0.010976244
000250 cf db a3 bb a1 16 cd 3b 5e 5f e6 3c af 87 24 3d
       -0.0050005685 0.006258801 0.028121646 0.04016846
000260 71 02 60 3d e4 bc 3d bd 09 d1 55 bd 17 5a 70 bd
       0.05468983 -0.04632272 -0.052201305 -0.058679666
000270 7a 9e fe 3c e0 8f 13 bd e0 a8 5d bd e3 d3 32 bd
       0.031081427 -0.03602588 -0.05411613 -0.043659102
000280 0f 11 12 bd 65 61 49 3d 51 81 fd bb a6 dc e4 bc
       -0.0356608 0.04916515 -0.007736363 -0.027937245
000290 04 5f 05 3d 2a 80 69 bb 3e d2 be bc 70 a7 4b bd
       0.032561317 -0.003562937 -0.02329361 -0.049720228
0002a0 a2 d2 74 3b 9b a1 d9 3c c8 d3 c1 bc 97 08 25 3d
       0.0037356992 0.026566317 -0.023660555 0.040291395
0002b0 d9 93 2f bd 32 31 a8 bc c9 6c 2f bb 89 d7 7b bd
       -0.042865608 -0.02053127 -0.0026767722 -0.061484847
0002c0 5f d4 92 3b b5 73 19 bd 2b ac 45 bd a0 00 df 3c
       0.004480883 -0.037463862 -0.048259895 0.027221978
0002d0 dd 3b 85 bc 58 a5 4c 3c 91 af 9e 3c 50 7e 37 3d
       -0.016263897 0.012490593 0.019370826 0.044798195
0002e0 3d b6 51 bd d6 e4 53 3c 14 f8 0e 3d 00 90 cb bc
       -0.051199187 0.012932977 0.034904554 -0.024848938
0002f0 d0 e5 93 3c f9 0e 13 bd db 1a 20 3c b0 a2 8a 3c
       0.01805392 -0.03590295 0.009772028 0.016923279
000300 b9 7d 89 bd 56 16 88 3b 7f b2 5e 3d 87 0e 88 bd
       -0.06713433 0.0041530533 0.054369446 -0.06643396
000310 06 98 2d 3d 93 48 8c bc 8d b7 ab ba 7e 0d 2c bd
       0.04238131 -0.01712445 -0.0013100967 -0.042005055
000320 bb 17 c5 3c 86 86 10 bd 40 f2 9c 3a e3 9f 02 bc
       0.024059167 -0.03528454 0.0011974052 -0.00797269
000330 40 86 92 bc b5 4c 35 bd e1 f2 fb bc d8 c7 5f 3d
       -0.017886281 -0.044262607 -0.030755462 0.054633945
000340 4c ff 3d 3d 92 44 e2 3c 0b 85 a9 3c 15 77 64 bc
       0.04638605 0.027620587 0.020693323 -0.013944407
000350 6a 36 82 3d e9 87 4d 3d 18 d7 70 bd 2d 60 99 3c
       0.06358035 0.050178442 -0.05879888 0.018722618
000360 30 7d 54 bd 18 79 00 bd 37 90 ad bb af 15 9b bc
       -0.0518772 -0.031365484 -0.0052967328 -0.018931238
000370 52 6e b2 3c 4f a2 9b bc 1f 22 24 bd 75 43 23 bd
       0.02178112 -0.018998293 -0.040071603 -0.039859254
000380 a5 30 2c 3d 82 45 4d bd 8f 51 e7 bc f1 35 69 bd
       0.04203858 -0.050115116 -0.028237132 -0.05693621
000390 68 31 8a bc bd 9e 35 3d 11 2e 4d 3d f3 72 bb bc
       -0.016869262 0.044340838 0.05009276 -0.02288196
0003a0 cf b9 b7 3c 51 2f 0b 3c 33 6a 50 bd 4d 0a 35 bd
       0.022427468 0.008495168 -0.05088253 -0.044199277
0003b0 a0 76 12 bd 5a 92 81 3c f5 cc c8 bb d0 eb 12 bd
       -0.03575766 0.015816856 -0.0061279484 -0.03586942
0003c0 c9 e3 30 3d ea f1 82 3c cd e3 77 3b 7d bf 63 bd
       0.043185983 0.015984494 0.0037824989 -0.05560254
0003d0 f0 9a 26 3c 6a 97 15 3d a8 d9 08 bd e5 87 06 3d
       0.010168776 0.036521353 -0.0334107 0.032844443
0003e0 1d 4a 0f bd 7f 0e 7a 3d 19 dc e8 bc 25 08 9a 3b
       -0.03498279 0.06104898 -0.028425263 0.004700678
0003f0 62 74 4d bd f4 f4 33 3d 02 6b 03 3d b0 2b 65 3d
       -0.05015982 0.043934777 0.032084472 0.055949867

fc3.bias f4 [128]
000000 60 42 72 3c 00 57 89 3e 64 d2 84 3c aa 72 55 3e
       0.014786333 0.26824188 0.016213603 0.20844522
000010 cd 9f 37 3e 98 05 6a 3e 90 60 88 bc ca ca 91 3e
       0.17932053 0.22853696 -0.016647607 0.28475028
000020 48 41 fa bc b2 f4 7c bd f3 44 10 3e b4 06 64 3e
       -0.030548707 -0.061756797 0.14088802 0.22268182
000030 14 16 d1 bc bc 65 8d 3e 01 8a 4c bd 6a 61 2e 3e
       -0.025523223 0.2761668 -0.0499363 0.17029348
000040 88 21 8a 3d 1a 09 69 3e b0 a7 e5 3d 0e 2a dc 3d
       0.06744677 0.22757378 0.112136245 0.10750209
000050 61 40 1d 3e 9b 0c 96 bc 15 8c ec 3d d0 c9 a6 3c
       0.1535659 -0.018316558 0.11550156 0.020359904
000060 0f 11 12 3d ca 65 29 3c 14 06 53 3e 67 cd 53 3e
       0.0356608 0.01033921 0.20607787 0.20683824
000070 67 27 1a 3e 20 5b 4c 3d 8f 31 79 3e 73 e9 15 3e
       0.15054093 0.04989159 0.24335311 0.14639835
000080 c2 31 6b 3c 19 14 43 3e fa d5 31 3e 38 cf 54 3e
       0.014355125 0.19050635 0.17366782 0.20782173
000090 83 e9 15 3e cb 9c 3d 3e 52 25 62 3d db 49 58 bd
       0.14639859 0.18516843 0.055211373 -0.05280481
0000a0 7f bc 87 bd 0c a8 e3 3c f9 a4 7c 3e 49 41 22 3e
       -0.0662775 0.027790092 0.24672307 0.15845217
0000b0 f0 b8 e8 3c 13 0a 0c 3e 6b 81 4c 3e b9 81 47 3e
       0.028408498 0.13675718 0.19971244 0.19483079
0000c0 72 02 60 3e 7d 6c 5e 3e 93 d0 83 3e 0d bc 5c 3d
       0.21875933 0.21721072 0.25745067 0.053890277
0000d0 69 88 27 3e 7d 3c 64 bd b9 9a c4 3c ae 2c 90 3e
       0.1636063 -0.05572175 0.023999559 0.28159088
0000e0 f4 ba 84 bd 0c 3d 1b 3e c2 36 b5 3d 71 98 0f 3e
       -0.06480971 0.15160006 0.08848335 0.14022996
0000f0 dd 37 db bc 4f 4e d4 3c 03 ed 6b 3e a9 b7 9c bc
       -0.026760036 0.025916247 0.23039632 -0.019130545
000100 62 1e 31 3e a8 d9 88 bd 35 b7 29 3e ff 92 74 3e
       0.17296746 -0.0668214 0.16573794 0.238842
000110 81 2d 0a 3e 26 d7 01 3e 20 cb 80 3e 73 82 83 bd
       0.13493921 0.12679729 0.25154972 -0.064213656
000120 a6 df 87 3e 40 c0 41 bc b3 8b fa 3d 2c 55 a2 3c
       0.26537818 -0.011825621 0.12233677 0.019816004
000130 aa 7c b8 3d 96 e5 90 3e df 0d 1b bd d7 69 17 3e
       0.09008153 0.2830016 -0.037855025 0.14786468
000140 12 7a ee 3d 71 3c 14 3e 3d 0a 19 3e 30 b6 a1 bc
       0.11644377 0.14476182 0.14945312 -0.019740194
000150 cf 7b 5e 3c 5e 57 3f 3e d4 66 85 3e 5d b9 2c 3d
       0.013579323 0.18685672 0.26055014 0.042168964
000160 ba d9 eb 3c 69 8c 1e 3e 40 80 13 3d 1b ec d7 bc
       0.028790344 0.1548325 0.03601098 -0.026357701
000170 b8 84 d6 3d 3f 8c 7a bc d9 d6 80 bd f5 94 ee 3c
       0.10474533 -0.015292226 -0.06290979 0.029123763
000180 84 2d 29 3e ee 3c 6f 3e b9 23 43 3e d4 45 20 3e
       0.16521269 0.23363087 0.19056596 0.15651637
000190 ac b0 16 bd 5e 28 87 3e eb 8e 20 3e c9 07 72 bd
       -0.03678958 0.26397985 0.15679519 -0.059089456
0001a0 4e 31 19 3e 27 f0 5d 3e 39 9d 75 3e d6 51 65 3e
       0.14960214 0.21673642 0.23985757 0.22394499
0001b0 8a 44 32 3e c4 31 17 3e b1 8c 1c 3e db 2b 96 bd
       0.17408958 0.14765078 0.15288045 -0.073325835
0001c0 d3 84 0c bd 99 84 9e bd 68 20 14 3b 0a a3 eb 3c
       -0.03430636 -0.07740135 0.0022602323 0.028764267
0001d0 2e 65 91 3c bc 61 63 bc e6 9a 1e 3e 10 61 2f bc
       0.017748442 -0.013878282 0.15488777 -0.010704294
0001e0 b9 e0 71 bd 82 12 66 3e 64 28 21 bd 72 8a 57 3e
       -0.059052203 0.22467998 -0.03934516 0.21048906
0001f0 bb 46 37 3e 93 a4 34 3e 9e 0c 5d 3d 44 84 84 3e
       0.17898075 0.17640905 0.05396711 0.2588216

fc4.weight f4 [128, 128]
000000 b6 46 b6 3d 8e b1 ac bc 09 25 1d bd 9d f1 76 bd
       0.08900206 -0.021080758 -0.038365398 -0.060289014
000010 b3 d0 bb bd 86 e2 ab bd c0 56 d7 3a bf 20 ae bc
       -0.091706656 -0.08392815 0.0016429052 -0.021255849
000020 22 e3 c3 bc 3b 1b 8b 3d 58 e3 25 bd 37 2f 9a bd
       -0.023912016 0.06792303 -0.040500015 -0.07528537
000030 31 e7 89 3d 45 51 22 bd 1a ea 82 3c 5e 14 c1 3b
       0.067335494 -0.039628286 0.015980769 0.0058923205
000040 36 74 40 3d 3a 9f 95 3d 3b 61 bc bc e8 59 9c bd
       0.046985827 0.07305761 -0.022995582 -0.07634336
000050 8a 3b 32 3d a6 22 33 bd f6 9f 65 bd 0a a3 6b 3d
       0.043513812 -0.043734215 -0.056060754 0.057528533
000060 17 cb a6 bd bd 66 db 3c 69 0b 74 3d 51 26 69 bd
       -0.08144205 0.026782388 0.059581194 -0.056921307
000070 57 f1 78 bd c5 8f a2 3d f9 c5 c2 bd 34 75 c7 3c
       -0.060777035 0.07937578 -0.095104165 0.024347879
000080 93 26 a0 3c 0f 9b 5e 3d 7c ce 04 3c cf 0f 54 bd
       0.019549644 0.054347094 0.00810587 -0.05177289
000090 1f 83 b7 bd 4f cb 54 3d da a3 9e bb d0 e0 9b 3b
       -0.08960556 0.051951703 -0.00484131 0.0047570243
0000a0 ce 3c b7 3c ee 3a 9a 3d 49 b2 7c 3c aa 24 75 3d
       0.022367861 0.07530771 0.015423366 0.05984942
0000b0 6c d0 bd 3c 87 cb 36 bd 01 23 3a 3c 40 16 de bc
       0.023170672 -0.044627693 0.011360885 -0.027110219
0000c0 2f 9f c0 bc 3b bd 57 bc 4c 32 a0 bc 17 db 9a bb
       -0.023513405 -0.013167675 -0.019555233 -0.0047258246
0000d0 30 dc 92 bd e4 f5 a3 bd 87 a9 4a bd dc 64 3e 3d
       -0.07170904 -0.08005884 -0.04947808 0.046482906
0000e0 2d f6 63 bd 4d a5 77 bd 2e b6 b5 bc b1 75 27 3d
       -0.055654693 -0.060460377 -0.022181597 0.040883724
0000f0 1e c1 90 3d c3 85 32 b8 0a 19 1f 3d 42 98 d6 bc
       0.07068084 -4.2563082e-05 0.03884224 -0.026195649
000100 c8 0d f1 bc f0 c5 9a bc 42 c4 32 3d 85 f8 99 3c
       -0.029425517 -0.018893212 0.043644197 0.018795261
000110 1a e5 8a bc c8 af 80 3d ff fc 5c bc d3 61 0d 3d
       -0.016954947 0.062835276 -0.013488053 0.03451712
000120 47 eb dd 3c f9 85 94 bc 85 b5 48 3d 23 3e d8 bc
       0.027089728 -0.01813029 0.049001236 -0.026396817
000130 ae 66 bf bd 17 87 53 bd 2e 33 36 3d 44 01 05 3d
       -0.093457565 -0.051642504 0.044482403 0.03247191
000140 ce a9 c8 bc 1f bd 66 bc ec 37 77 3d 5f fe d2 bc
       -0.024495032 -0.014083176 0.060356066 -0.02575606
000150 b4 b9 c6 3c f0 3f 92 bc 17 db 9a bd 33 04 45 bd
       0.024258472 -0.017852753 -0.07561319 -0.048099708
000160 d3 d9 15 3d ad 12 78 3c e7 f3 10 bc 06 f9 40 bc
       0.036584686 0.015141171 -0.008847213 -0.011778122
000170 74 b0 34 3c a7 3a 9c 3d 40 70 ad bc dc 8c 29 bd
       0.011028398 0.076283745 -0.021171689 -0.0413941
000180 79 58 8a bd c5 5d c7 ba 05 77 48 3d c6 67 b7 3c
       -0.06755156 -0.0015210441 0.04894163 0.02238835
000190 37 0d ae bd 34 c0 6c bd 08 b9 92 bd 42 02 8c 3c
       -0.08498614 -0.057800487 -0.07164198 0.01709092
0001a0 3a 72 32 3d e0 03 72 3d 75 dd 17 bd f1 90 7d 3c
       0.043565966 0.059085727 -0.037076432 0.015476451
0001b0 87 48 37 ba e7 c6 ad bd 83 8d 96 3d 2a ce 5e 3d
       -0.00069917034 -0.08485203 0.0735121 0.054395832
0001c0 01 b7 af bd 9d 08 9f 3d 9e 64 30 3d 12 ff 94 bd
       -0.08579827 0.07765315 0.043064706 -0.07275213
0001d0 f2 cc 81 3d fa e6 a7 bd 95 59 49 3d 7c e1 cf 3a
       0.06337918 -0.08198352 0.049157698 0.0015860046
0001e0 5c e8 c3 bc d5 7e c8 3c ca 28 57 3d c2 c9 8a bd
       -0.023914509 0.02447454 0.052529134 -0.067767635
0001f0 fc b2 3e 3d b2 80 1e bd d3 6c 84 3d 01 c7 9e 3d
       0.04655741 -0.038696952 0.06466069 0.07752801
000200 36 1e a4 3d 17 eb 77 3d ef 7f c0 bc 5d 9b d2 3c
       0.08013575 0.060526934 -0.023498503 0.025708849
000210 de 85 f6 3c b7 dd 4b bd 64 4a 8d bd c3 0a 40 bd
       0.03009313 -0.04977199 -0.068989545 -0.046885263
000220 2f d1 9b 3b 1c d8 05 bd 5a e5 c2 3d c2 44 70 3d
       0.0047551612 -0.0326768 0.095164016 0.058659323
000230 06 bf 91 3d 0b 7c 4b 3e 9c 0d e4 3c 22 44 4a bc
       0.07116513 0.19871537 0.02783852 -0.012345346
000240 ff eb 20 3d f2 f9 21 3d 24 77 f0 bd b1 e2 44 3d
       0.039287563 0.039545007 -0.11741474 0.048067752
000250 12 71 eb 3d 2b 34 3d 3d a5 43 97 bd 82 88 1e 3d
       0.11496176 0.04619233 -0.07385949 0.038704403
000260 38 1d 1d bd 3c 0b a0 3b e3 5c e2 3d 17 45 19 3c
       -0.038357943 0.0048841517 0.11052873 0.009354851
000270 5c 7a d3 bd c5 41 5a 3b 47 ee bf 3d 8b f2 b4 3c
       -0.103260726 0.0033303362 0.0937162 0.02208831
000280 3f 1a 88 bd f6 28 70 3d bc 2c dc bd 8b 56 53 3d
       -0.06645631 0.058632813 -0.1075072 0.051596206
000290 8f 89 d5 3d fd f0 e9 3c 6a 86 9f bd 9e ff 10 3d
       0.10426628 0.028557295 -0.07789309 0.035400026
0002a0 90 78 4b 39 e5 04 87 bd 98 9e 84 be 1c 33 4a 3d
       0.00019404502 -0.065927304 -0.25902247 0.049365148
0002b0 60 ea 00 bd 61 b7 69 3c e4 31 ea bd 41 7f 70 3d
       -0.031473517 0.014264912 -0.11435297 0.05871511
0002c0 83 86 53 3c 49 89 2d bd 32 d4 82 bd 2a f3 57 bd
       0.012910488 -0.042367253 -0.06388129 -0.052722134
0002d0 c2 0d d0 bd c5 41 da bc 24 a8 8d 3d 02 7f 48 bd
       -0.10158874 -0.02664269 0.06916836 -0.04894925
0002e0 df e0 37 3d a1 8e 05 bd 08 b2 5c be 12 9f 40 bd
       0.04489219 -0.032606725 -0.21552289 -0.0470267
0002f0 d4 52 6c 3d 37 a6 9b 3c ec be d9 3d f9 f9 f2 3c
       0.05769618 0.019000156 0.106321186 0.029660212
000300 23 21 2e 3c 31 75 80 bd cb 22 a0 3d a9 c3 05 be
       0.010628018 -0.062723525 0.07819136 -0.1306292
000310 3a 56 4d bd 82 4c 81 3d fd 1b 9e bc e1 7e 9d bc
       -0.05013106 0.06313421 -0.019300455 -0.01922554
000320 9b 12 43 bc cd 77 6d bd 26 c3 bd bd 47 1e c0 bd
       -0.011906291 -0.05797558 -0.09265737 -0.09380775
000330 28 78 0e be 27 29 6c bc 18 97 42 3d 16 ac 00 3d
       -0.13913023 -0.014414108 0.047507375 0.031414114
000340 49 18 91 3d 1b 63 51 3d 29 c5 21 3d 69 c7 98 3d
       0.0708471 0.051119905 0.039494667 0.074599095
000350 fc b8 3d 3d d4 25 33 3c f8 ae 25 3d 49 7e cc 3b
       0.046318993 0.010934312 0.040450066 0.0062406403
000360 b6 75 6e bc 0a 1c f1 bc 4d 0a 35 bc ae a5 66 3d
       -0.014554432 -0.029432315 -0.011049819 0.05631035
000370 dc 16 a4 3c 8a 7e 83 bd 94 99 77 bd 66 45 5c bc
       0.020030431 -0.0642062 -0.060449198 -0.01344428
000380 5a 84 2e 3d 9f df 02 3e 10 e2 8d 3b a8 60 80 3d
       0.04260669 0.12780617 0.0043299273 0.06268436
000390 2e 76 87 3d d2 f8 24 bd 0b 70 0b 3e 45 35 35 3c
       0.06614338 -0.040276356 0.1361696 0.011060064
0003a0 aa 90 59 3c a1 9a 33 bd b4 00 84 3d 6c 12 ea bc
       0.0132791195 -0.043848637 0.064454466 -0.028573237
0003b0 ff f4 6f bd 65 f9 21 be 65 78 83 3d cc 14 05 bd
       -0.058583256 -0.15817793 0.06419448 -0.032490537
0003c0 dd 28 16 bf 98 e9 12 be 32 f9 4d 3d c7 0b 1c bd
       -0.586561 -0.14346921 0.05028648 -0.03809717
0003d0 d1 46 27 bd c1 25 a6 3c 44 83 8c 3d d3 50 97 3c
       -0.04083902 0.020281674 0.068609744 0.018471157
0003e0 1a 96 bb bc df 55 bf bc 39 4a 80 bd d7 28 8d bc
       -0.022898722 -0.023356376 -0.06264157 -0.017231388
0003f0 a7 2d b8 3d 21 22 52 bd 5f d4 92 bc 30 35 66 3d
       0.089930825 -0.05130208 -0.017923532 0.056203067

fc4.bias f4 [128]
000000 41 71 f2 bc 69 c6 4d 3e 52 67 12 3e 9b bd c6 3c
       -0.02959502 0.20095219 0.14297226 0.024260333
000010 4f 14 0b 3e 74 38 ef 3d e6 83 ea 3d de 5a c4 3d
       0.13581966 0.116806895 0.11450939 0.09587644
000020 0e ac a5 bd fe 45 2d 3e f6 5a 1e 3e c9 de 3c 3e
       -0.080894575 0.16921231 0.15464386 0.18444361
000030 56 3d 60 bd 70 51 af bc 65 44 0e 3e 71 11 81 bc
       -0.054745995 -0.021401137 0.13893278 -0.015755387
000040 d6 6d 52 3e b1 09 1d bd fe db f7 bc 89 36 3a 3d
       0.20549712 -0.03833932 -0.030256268 0.045462165
000050 42 69 9e bc 69 d2 c6 3d aa 8f 18 3e 8f c9 6f bd
       -0.0193373 0.09708101 0.14898553 -0.05854183
000060 28 e7 7b 3d 65 77 81 3d 6b e4 15 3e 3d 11 c9 bb
       0.061499745 0.06321601 0.14637916 -0.006136088
000070 d2 67 0c 3e 81 32 02 3d 26 aa 4c 3d e1 0e 69 bd
       0.1371148 0.031786446 0.049966954 -0.056898955
000080 48 60 8a 3d 7c 2b 25 3e b4 58 b3 bd 7e a2 6f 3d
       0.067566454 0.16129869 -0.08757153 0.058504574
000090 79 b3 9e 3d 33 95 0d 3e 19 fd 4d 3d 77 f9 a8 bd
       0.077490754 0.13826446 0.0502902 -0.08250707
0000a0 23 20 16 3e fe fb f1 3d f4 17 ee 3c 7b 75 c5 bd
       0.14660697 0.11815642 0.029064156 -0.09641548
0000b0 7e 5d 49 3e a8 74 56 be 45 a7 be bd 6d 1a d3 3d
       0.1966457 -0.20942938 -0.09309248 0.10307775
0000c0 1b f2 ef 3d 52 00 72 3d 2f 9d 20 3e 5b e2 0c 3e
       0.117161 0.059082337 0.15684961 0.13758223
0000d0 10 7d 1c 3d 90 d7 09 3e cb a9 07 3d 1c d3 0d 3e
       0.038205206 0.13461137 0.03312091 0.13850063
0000e0 9a 7e 9f 3d 87 bf b8 3d a2 cb a7 bb 48 95 c1 3d
       0.07787819 0.09020906 -0.0051207105 0.09452301
0000f0 1d 55 06 3e 07 9d 25 3e 69 31 8a bc 2d 5b 21 3e
       0.13118406 0.16173182 -0.016869264 0.15757437
000100 81 1c 14 bd 4f 09 2e 3e 27 52 b7 3d b5 48 0b 3e
       -0.036159996 0.16995738 0.08951216 0.13601954
000110 3e 54 37 3e 46 b5 10 3e 21 f4 b9 bd 8f a0 36 3e
       0.1790323 0.1413165 -0.09079767 0.17834686
000120 e7 f3 10 3e 75 3e ab 3c 32 ca 95 bd 0e 0c 9a bd
       0.14155541 0.020903805 -0.07313956 -0.075218305
000130 41 31 37 3e b7 4f b6 3d b6 19 53 3c 29 41 3e 3e
       0.17889883 0.08901923 0.012884548 0.18579544
000140 ee df fd 3d 20 3a 67 bd 4e ba ad bd 64 3a 42 3e
       0.12396227 -0.056451917 -0.084828004 0.18967587
000150 99 34 81 3c 0f 4a f4 3d c3 96 28 3e b7 7c e9 3d
       0.01577215 0.11928188 0.16463761 0.114007406
000160 41 fd 13 3e 3e aa 53 3c ec 09 c6 3d 80 a7 67 bc
       0.14452077 0.012919007 0.09669861 -0.014139056
000170 94 01 e5 3d 86 c0 3f bd 82 a2 f3 3d b5 03 65 3c
       0.11181942 -0.046814464 0.1189623 0.013977935
000180 67 ab 67 3d df 00 04 3e a9 be e9 3c f2 97 f0 3d
       0.056559946 0.12890957 0.028533297 0.11747731
000190 dc 9c 18 3e ef d5 5c bd f4 cd 4f bd 3d 98 04 3e
       0.14903587 -0.05391496 -0.05073352 0.129487
0001a0 31 60 60 3d 71 fb 12 3e 4e 76 bf bd a7 44 96 3a
       0.054779235 0.1435373 -0.09348737 0.0011464552
0001b0 ba a5 bb 3c 08 a0 13 3e a1 ab f4 3d 8e 04 e0 3d
       0.022906173 0.14416516 0.11946798 0.10938369
0001c0 4a dd 8a be 38 c8 ad bd a5 5d 8f bd 88 7a 85 3d
       -0.27121955 -0.08485454 -0.07000283 0.065175116
0001d0 f8 d6 5b bd 53 1a 6b bd a1 14 9b 3d a8 36 bf 3d
       -0.053671807 -0.05739815 0.07572294 0.09336597
0001e0 aa fb 3b 3d ac c0 73 3e 27 c8 2e 3d 2c ee 02 3d
       0.045894302 0.23803967 0.04267135 0.03196542
0001f0 94 1a 22 3e ce 7c e5 bb c4 f6 b4 bd 7c ee ee 3d
       0.15830451 -0.0070034033 -0.08836129 0.11666581
