checkpoints/checkpoint_qnetwork_target_WMT_V5.pth (torch_old, 340036 bytes, 10 tensors)

fc1.weight f4 [128, 13]
0	0xbea31234	-0.31849825
1	0x3e98e192	0.29859596
2	0x3e258232	0.16162947
3	0x3b39e3a8	0.0028364453
4	0xbe617dfe	-0.22020718
5	0xbdf2cb5e	-0.118551955
6	0xbe847806	-0.2587282
7	0x3e050890	0.12991548
8	0xbe572819	-0.2101139
9	0x3e0a03a3	0.1347795
10	0xbf892984	-1.0715795
11	0x3ede5c66	0.4342987
12	0xc0057eed	-2.085872
13	0xbdbb61b1	-0.091494925
14	0x3e8221e2	0.25416476
15	0x3d9b8019	0.07592792
16	0xbd5fb896	-0.054619394
17	0x3e02c45b	0.12770216
18	0xbeb3ac9b	-0.35092625
19	0xbd10f1e6	-0.035386942
20	0x3ea07be5	0.31344524
21	0x3e177d08	0.1479379
22	0xbe29bd6f	-0.1657617
23	0x3dbe92b4	0.09305325
24	0x3e1642fb	0.14673989
25	0x3eb8cc81	0.36093524
26	0xbd222f05	-0.039595623
27	0xbd43220f	-0.047639903
28	0xbe444784	-0.19167906
29	0xbda71278	-0.081578195
30	0xbdc5912d	-0.09646831
31	0x3da17463	0.07883527
32	0xbe18649a	-0.14882126
33	0xbea6f686	-0.32609957
34	0xbd5c4d81	-0.05378485
35	0xbf455733	-0.7708618
36	0xbe990311	-0.29885152
37	0x3f2cfc45	0.6757243
38	0x3ed37784	0.4130212
39	0x3c1c248d	0.009530199
40	0x3e1037a7	0.1408373
41	0xbdb49e27	-0.08819228
42	0x3dcc8d20	0.09987855
43	0xbe6c5502	-0.23079303
44	0xbde5c373	-0.112189196
45	0xbe0f01c7	-0.13965522
46	0x3d6e1bd4	0.058132008
47	0x3df7cac8	0.12099224
48	0xbe485cec	-0.19566697
49	0xbde4f16a	-0.111788586
50	0x3eb2f6aa	0.34953815
51	0x3efc1fc5	0.49242988
52	0x3dcede0b	0.10100945
53	0xbcbbabf0	-0.022909135
54	0x3daa38f8	0.08311647
55	0xbdec2928	-0.115312874
56	0xbd505030	-0.050857723
57	0xbd9be630	-0.07612264
58	0x3d527eb0	0.05139035
59	0xbddfabc0	-0.109214306
60	0x3db59f82	0.08868314
61	0x3d25c4cf	0.040470894
62	0xbce6c0a9	-0.02816804
63	0x3e6331c1	0.22186948
64	0x3ebd23c1	0.3694134
65	0x3e18399a	0.14865723
66	0xbe46ce55	-0.19414647
67	0xbe70c7ca	-0.23513713
68	0x3d627693	0.055288862
69	0xbe3a41fd	-0.18189235
70	0xbf0a42b2	-0.5400802
71	0xbea9cfdd	-0.331664
72	0x3f7443de	0.9541606
73	0x3f265b49	0.6498304
74	0x3e16c0cb	0.14721982
75	0xbe5592ac	-0.20856732
76	0xbe0b968c	-0.13631648
77	0xbf5bdcb4	-0.8588364
78	0x3dfdb6f8	0.12388414
79	0xbe823718	-0.25432658
80	0xbd9a16f1	-0.07523907
81	0xbc91c975	-0.017796258
82	0x3e6cc5ec	0.23122376
83	0xbed01be3	-0.40646276
84	0x3e0c693f	0.13712023
85	0xbddc1b6b	-0.10747417
86	0xbd20ea4c	-0.039285943
87	0xbebad2ed	-0.3648905
88	0xbea7254f	-0.32645652
89	0xbf18790a	-0.5955969
90	0x3e73e8aa	0.23819223
91	0x3e0c11e1	0.13678695
92	0xbe3b3d68	-0.18285143
93	0x3dfc87ef	0.12330615
94	0xbefae1e5	-0.4900047
95	0xbd21af7f	-0.039474007
96	0x3f03e15a	0.51515734
97	0x3d910e7f	0.07082843
98	0xbde223a3	-0.110419534
99	0xbe66e98b	-0.22550027
100	0x3e822038	0.25415206
101	0x3d34118c	0.043962047
102	0xbd72abf6	-0.059246026
103	0xbea46dcb	-0.32115015
104	0xbf36cde9	-0.71407944
105	0x3d29bfc4	0.041442648
106	0xbe28c455	-0.16481145
107	0xbed4d26e	-0.41566795
108	0xbe3911d9	-0.18073215
109	0xbddc0141	-0.10742427
110	0x3e6b74b3	0.22993736
111	0x3f07d705	0.5306247
112	0x3ef4aa74	0.47786295
113	0x3d6a971a	0.057273008
114	0x3eb1355b	0.3461102
115	0x3e47e3c4	0.1952048
116	0xbf0bd083	-0.5461504
117	0xbd1b5401	-0.03792191
118	0x3dcab1ab	0.09897169
119	0x3d73e241	0.059541944
120	0x3bfd4be2	0.007729993
121	0xbe4b83a1	-0.19874431
122	0x3e34eb13	0.17667799
123	0x3db90aa6	0.09035234
124	0xbe4f5ae1	-0.20249511
125	0x3ce9f161	0.028557481
126	0xbe74e1f1	-0.23914315
127	0xbedee10d	-0.43531075
128	0x3e7b7ea4	0.24560028
129	0xbe6700ab	-0.22558849
130	0xbd858109	-0.06518752
131	0x3ce905f1	0.028445216
132	0xbe039d1f	-0.12852906
133	0xbd0207d7	-0.031745758
134	0xbcd25fcb	-0.025680443
135	0x3d98c188	0.07458788
136	0x3d82e5f9	0.0639152
137	0x3dd40c37	0.10353892
138	0x3e43fbda	0.19139042
139	0x3e4662a9	0.19373573
140	0x3ea3cbbc	0.31991374
141	0x3ef07399	0.46963194
142	0x3ef6204f	0.48071525
143	0xbe553c62	-0.20823815
144	0xbeff129c	-0.49818885
145	0x3d14c442	0.03631998
146	0x3e6cd5b4	0.23128396
147	0x3e6d42fa	0.23170081
148	0x3e19fd1c	0.1503796
149	0xbd3daebc	-0.046309218
150	0xbc62ed67	-0.013850546
151	0xbeea7cb6	-0.45798272
152	0xbf2da2fb	-0.67826813
153	0x3e90df77	0.2829549
154	0xbe8989fb	-0.26863083
155	0xbfa13954	-1.259562
156	0x3df15878	0.11784452
157	0xbe4afda4	-0.19823319
158	0xbd08967d	-0.03334664
159	0xbe8e189f	-0.2775316
160	0xbc4d666c	-0.012536626
161	0xbe7c4d89	-0.24638952
162	0x3e1c6996	0.15274653
163	0xbd5a3929	-0.05327717
164	0xbe80cd18	-0.25156474
165	0x3cc6526f	0.02420923
166	0xbf1bc0b2	-0.60840905
167	0x3e26c0a3	0.16284423
168	0xbe22a173	-0.158819
169	0xbef0fa20	-0.4706583
170	0x3f0bcda7	0.54610676
171	0xbf3799bf	-0.7171897
172	0x3e718098	0.23584211
173	0xbe13348e	-0.14375517
174	0xbf426c68	-0.75946665
175	0xbe719afb	-0.23594277
176	0x3e84ff2f	0.2597594
177	0x3eb836ae	0.35979217
178	0x3f5942e4	0.8486769
179	0xbe23b476	-0.15986809
180	0xbddfc40c	-0.10926065
181	0xbef92c5a	-0.4866665
182	0xbe92f904	-0.2870561
183	0x3e6e292f	0.23257898
184	0xbd997e27	-0.07494765
185	0x3e371e77	0.17882715
186	0xbdbfb843	-0.09361317
187	0x3ec62c18	0.38705516
188	0x3ec00db6	0.3751046
189	0x3f228374	0.6348183
190	0x3f8835f9	1.0641471
191	0x3f8052fb	1.0025324
192	0xbd61876e	-0.055060796
193	0x3bf17f30	0.0073698983
194	0xbea07790	-0.3134122
195	0xbdda5356	-0.10660426
196	0xbf02095c	-0.5079553
197	0x3e741c3a	0.23838893
198	0xbe16dcd9	-0.14732684
199	0x3e17c39f	0.14820717
200	0x3ebc0401	0.36721805
201	0x3f369e2f	0.7133512
202	0xbeec44d2	-0.46146256
203	0xbdf6fc8c	-0.12059888
204	0xbe6e1ee8	-0.23253977
205	0xbccd5a53	-0.025067484
206	0xbd0d2d2b	-0.034466904
207	0xbf1fae21	-0.62375075
208	0x3e6a50bd	0.22882362
209	0x3db3253e	0.08747338
210	0x3d8c3d5d	0.068476416
211	0xbdf614f6	-0.12015717
212	0x3eddbab7	0.43306515
213	0xbe3320ec	-0.17493027
214	0x3dddf85c	0.108383864
215	0xbe5ed763	-0.21761851
216	0xbdff7239	-0.12472958
217	0xbed43603	-0.41447458
218	0x3dd305ec	0.10303864
219	0xbfb64f7a	-1.4243004
220	0x3f56aa0d	0.83853227
221	0x3bf13013	0.007360467
222	0x3dfdb85d	0.1238868
223	0xbe217af0	-0.15769553
224	0xbea6095c	-0.32429016
225	0x3dc5f1e2	0.09665276
226	0xbeaf791a	-0.3427208
227	0xbd27a0ef	-0.040924963
228	0x3dd6f4d4	0.10495916
229	0xbc097f3f	-0.008392154
230	0xbdc74071	-0.09729088
231	0x3dcd9e8f	0.10040008
232	0x3d201c07	0.03908923
233	0x3eb3f1a1	0.35145286
234	0xbe779c08	-0.24180615
235	0x3d2e2dba	0.042524077
236	0x3d808da0	0.06277013
237	0xbe93955f	-0.288249
238	0xbe826ce5	-0.25473705
239	0x3de8b360	0.11362338
240	0xbde6fd56	-0.11278789
241	0x3e804e2c	0.2505964
242	0x3d5297af	0.051414188
243	0x3ec12ff9	0.37731913
244	0x3f0c1da8	0.5473275
245	0xbeb92b5a	-0.36165887
246	0x3f23642f	0.63824743
247	0xbe184fba	-0.14874163
248	0x3e78bacc	0.24290007
249	0x3c80fd96	0.01574592
250	0x3e39a851	0.18130614
251	0x3d8925b3	0.06696644
252	0x3dfce9b5	0.123492636
253	0xbca0fc7f	-0.01965165
254	0xbe6425f3	-0.22280101
255	0xbdc50312	-0.09619726

fc1.bias f4 [128]
0	0x3e651e6e	0.22374889
1	0x3f1a77e1	0.6033917
2	0xbe99133b	-0.29897484
3	0x3f469549	0.7757154
4	0x3f5929ae	0.84829223
5	0x3ca1882e	0.019718256
6	0x3f06a323	0.52592677
7	0x3eb08e84	0.3448373
8	0x3acaf292	0.0015483669
9	0x3f6210fd	0.8830717
10	0x3f392946	0.72328603
11	0x3d55522b	0.052080315
12	0x3f653377	0.89531654
13	0xbf013f9f	-0.50487703
14	0xbf3bd3d2	-0.7337009
15	0x3e0978f6	0.13425049
16	0xbddcd458	-0.10782689
17	0x3f2595ce	0.6468171
18	0x3ef69a3d	0.4816455
19	0x3e9a3311	0.30117086
20	0x3d82a8d9	0.063798614
21	0x3f261c4e	0.6488694
22	0x3ca915dd	0.020640308
23	0x3eda5a27	0.42646906
24	0xbe4bfd1c	-0.19920772
25	0x3ef98f93	0.4874235
26	0x3f2d6fcd	0.6774872
27	0x3e9d3dce	0.30711216
28	0xbe5c10d1	-0.2149079
29	0xbe55ab2c	-0.20866078
30	0x3f3ef2a3	0.74588984
31	0x3f3a61c7	0.72805446
32	0x3f00d03d	0.50317746
33	0x3dd6f9fa	0.10496898
34	0x3d93d10c	0.07217607
35	0xbc9a0857	-0.018802805
36	0x3ed201e6	0.41017073
37	0xbf12bf3f	-0.5732307
38	0x3f1fad96	0.62374246
39	0xbd95debf	-0.07317876
40	0x3e098a09	0.13431562
41	0xbeb73dc8	-0.35789323
42	0x3ed2a9c7	0.41145155
43	0x3daac6ff	0.08338737
44	0xbea8c82f	-0.32965228
45	0x3f0df765	0.5545562
46	0x3f3f7a49	0.7479597
47	0x3f1cc2dc	0.6123483
48	0xbbfa9d18	-0.0076481216
49	0x3defd099	0.11709709
50	0x3f243794	0.64147305
51	0x3f0361bd	0.5132101
52	0x3f4a7341	0.79082114
53	0x3e8c0971	0.27350953
54	0x3f5536e6	0.83286893
55	0x3b25afbb	0.0025281745
56	0x3f586cbe	0.8454093
57	0x3c14fc5f	0.009093373
58	0x3df5a24f	0.119938485
59	0x3dbf1e71	0.09331978
60	0xbe85b345	-0.26113334
61	0x3ebf588a	0.37372237
62	0x3f726b93	0.94695395
63	0xbe34f682	-0.1767216
64	0x3ef5790e	0.4794392
65	0x3f98a834	1.1926332
66	0xbe447faf	-0.19189332
67	0x3f2dd959	0.6790977
68	0x3f656eea	0.89622366
69	0x3f286645	0.6578105
70	0x3f8af55f	1.0856131
71	0xbdff3a18	-0.124622524
72	0xbebd289f	-0.36945054
73	0xbeaaf03e	-0.33386415
74	0x3f34e426	0.70660627
75	0x3f110938	0.5665469
76	0xbec55506	-0.3854143
77	0x3f3f44dc	0.74714446
78	0x3de09c30	0.109672904
79	0x3e852a3a	0.2600878
80	0x3df71b29	0.12065727
81	0x3ef13a0f	0.47114608
82	0x3eff5382	0.498684
83	0xbea219fe	-0.31660455
84	0xbf11eb94	-0.5700009
85	0xbf141c1b	-0.57855386
86	0x3dc748b7	0.09730666
87	0x3f28ba97	0.65909714
88	0x3f79d974	0.9759743
89	0xbecdc17a	-0.40186673
90	0x3e978048	0.29590058
91	0x3e9d3980	0.30707932
92	0x3ec83e56	0.3911006
93	0xbcf1829e	-0.029481228
94	0xbec94da7	-0.39317057
95	0xbee1203f	-0.43969914
96	0xbdeff135	-0.117159285
97	0x3e8b6e6f	0.27232692
98	0x3e85d1f0	0.26136732
99	0x3e775bd6	0.24156126
100	0x3f66363e	0.89926517
101	0xbdd44fc1	-0.10366774
102	0x3ed9b37a	0.42519742
103	0x3f3d54fc	0.739578
104	0x3f05285d	0.52014714
105	0x3b875f21	0.0041312133
106	0xbf2658bb	-0.6497914
107	0xbe94dde9	-0.29075554
108	0x3e639fba	0.222289
109	0x3f922d50	1.1420078
110	0x3cdd15c9	0.026987927
111	0x3f13c320	0.5771961
112	0xbe812bb9	-0.2522867
113	0xbf22375a	-0.6336571
114	0x3f30b3f6	0.690246
115	0x3f51d40d	0.8196419
116	0x3f437423	0.76349086
117	0xbdd1b42e	-0.10239445
118	0x3f57a430	0.84234905
119	0xbeaffc35	-0.34372106
120	0x3f21d572	0.63216317
121	0xbecb2d6c	-0.39683092
122	0x3eabb4f7	0.33536503
123	0xbdd22fdc	-0.10263035
124	0xbf8a6cc0	-1.0814438
125	0x3f263c76	0.64936006
126	0x3f1a35ff	0.6023864
127	0x3f49cdbb	0.78829545

fc2.weight f4 [256, 128]
0	0x3e579f4b	0.21056859
1	0x3e5f9a59	0.21836223
2	0xbe0d173c	-0.13778394
3	0x3e8ccac2	0.27498442
4	0x3ecbf824	0.39837754
5	0xbe2bc488	-0.1677419
6	0x3e5e38b2	0.21701315
7	0x3dbae898	0.09126395
8	0xbe0826ee	-0.132961
9	0x3eadb599	0.3392761
10	0x3e931390	0.28725863
11	0x3df982d7	0.12183159
12	0x3ead45e5	0.33842388
13	0xbe5f5d25	-0.21812876
14	0xbecda77f	-0.40166852
15	0x3e3f9083	0.1870747
16	0x3e17b8eb	0.14816634
17	0x3e95be14	0.2924658
18	0x3e241306	0.16022882
19	0x385412ac	5.056213e-05
20	0x3db5deda	0.08880396
21	0x3e4b4df8	0.19853961
22	0x3de43a36	0.11143915
23	0x3e9f6644	0.3113271
24	0x3ca46e5d	0.020072157
25	0xbb302391	-0.0026876668
26	0x3cdcafb1	0.026939245
27	0x3e0ecfe2	0.13946488
28	0xbe4313e2	-0.19050553
29	0x3e307f69	0.17236103
30	0x3e760932	0.24026945
31	0x3e36e953	0.17862444
32	0xbdd35756	-0.103193924
33	0xbc3d34bd	-0.011548218
34	0xbe817019	-0.25280836
35	0x3e1c6124	0.15271431
36	0xbccccf01	-0.02500105
37	0xbd81edc2	-0.06344177
38	0xbe3a0e28	-0.18169463
39	0xbdd349c5	-0.10316805
40	0x3e3b39c9	0.18283762
41	0x3de2ba68	0.110707104
42	0x3e1a36a4	0.15059906
43	0x3ddd9c8e	0.10820876
44	0x3da54d2f	0.08071362
45	0x3e10fb1d	0.14158292
46	0x3e5a0f12	0.21294811
47	0x3dde9bab	0.10869535
48	0x3e660767	0.22463761
49	0x3c86348a	0.016382474
50	0x3e2fc7ba	0.17166033
51	0x3dad4675	0.08460704
52	0x3e0ab2ce	0.13544771
53	0xbd72c8fb	-0.0592737
54	0x3dcb2a62	0.09920193
55	0x3dc3c26c	0.095585674
56	0x3e2f4328	0.17115462
57	0x3e5955a1	0.21224071
58	0xbe905a5a	-0.28193933
59	0x3d6aadc9	0.05729464
60	0x3e26952b	0.1626784
61	0xbdb07aef	-0.08617198
62	0x3ee1f876	0.44134873
63	0x3dd565f6	0.10419838
64	0x3e5adc68	0.21373141
65	0x3f0119f2	0.50430214
66	0x3d5b1de8	0.053495318
67	0x3eb00d0e	0.3438496
68	0x3e3c16dc	0.18368095
69	0x3ebab16c	0.36463487
70	0x3e1de676	0.15419945
71	0x3e41f5b8	0.1894139
72	0xbee03420	-0.43789768
73	0xbe086f82	-0.13323787
74	0x3e590cc1	0.21196271
75	0x3dcb0f97	0.09915083
76	0xbeb1ac0b	-0.3470157
77	0x3e99f216	0.3006751
78	0xbe962c25	-0.29330555
79	0xbe66180d	-0.22470112
80	0x3d57ca61	0.052683238
81	0xbe8164ae	-0.25272125
82	0x3e2d565c	0.16927475
83	0x3eaa28cb	0.33234248
84	0xbe8fd33f	-0.28090855
85	0xbedd2e1b	-0.43199238
86	0x3c9a9539	0.018869983
87	0x3d493d45	0.049130697
88	0x3e4f6581	0.20253564
89	0xbca9ba4d	-0.020718718
90	0x3e48eb31	0.19620968
91	0xbe631f53	-0.22179918
92	0x3de65575	0.112467684
93	0x3e137dd8	0.14403474
94	0x3e45bc44	0.19310099
95	0xbe1af901	-0.1513405
96	0xbda04f45	-0.078276195
97	0xbdaa0b06	-0.08302884
98	0x3e8e488a	0.27789718
99	0x3e1c0367	0.15235673
100	0x3edb4d68	0.42832494
101	0xbee911ce	-0.45521396
102	0xbcc3b265	-0.023888776
103	0x3daa3c4d	0.08312283
104	0x3c9dfbd7	0.019285126
105	0x3dee222c	0.116276115
106	0xbd50a46c	-0.050938055
107	0x3e62f48d	0.22163601
108	0x3e66f993	0.22556143
109	0xbe696002	-0.2279053
110	0x3d2ab1fe	0.041673653
111	0x3ea3bc08	0.31979394
112	0x3dc3b930	0.09556806
113	0xbe398c58	-0.18119943
114	0xbe0bb343	-0.13642602
115	0x3e8e62c1	0.27809718
116	0x3e637bb7	0.22215162
117	0x3df43726	0.11924581
118	0x3e2518e1	0.16122772
119	0x3d7100dd	0.058838714
120	0x3e9efdbc	0.3105296
121	0xbe1f42da	-0.15552846
122	0x3e724a8d	0.23661251
123	0x3e5c3293	0.21503668
124	0xbeb33718	-0.3500297
125	0x3e930854	0.2871729
126	0x3c439205	0.011936669
127	0x3ebc303b	0.36755547
128	0xbe27b12b	-0.16376178
129	0x3e030605	0.12795265
130	0xbe0c6466	-0.13710174
131	0x3e8555d6	0.2604205
132	0x3e80522a	0.25062686
133	0xbdf0dff4	-0.11761466
134	0x3e4ae7f9	0.19815053
135	0x3c3fa4a3	0.011696967
136	0xbe04e8ed	-0.12979479
137	0x3da4f050	0.080536485
138	0x3e04c7b5	0.12966807
139	0xbe8b6cd8	-0.2723148
140	0x3e2618b7	0.16220365
141	0xbdf832f7	-0.12119096
142	0xbe6bac1b	-0.23014872
143	0xbc2219a0	-0.009893805
144	0x3e1ae8f8	0.15127933
145	0x3e26884d	0.16262932
146	0x3e895fe1	0.26830962
147	0xbe967313	-0.2938467
148	0xbe5fbe9e	-0.21850058
149	0xbdd783a0	-0.10523152
150	0xbe6244ab	-0.22096507
151	0x3d95a054	0.07305971
152	0xbe1c9dc5	-0.1529456
153	0x3dcbfd8d	0.0996047
154	0xbdb46b17	-0.08809488
155	0x3eaf6f87	0.34264776
156	0xbd5a4a46	-0.05329349
157	0xbd013165	-0.031541247
158	0x3ea96e7b	0.33092102
159	0x3e36e7b3	0.17861824
160	0x3d32e16b	0.043672007
161	0xbb8625d0	-0.004093863
162	0xbe7042ac	-0.23462933
163	0xbd9c728f	-0.07639038
164	0x3d4a761e	0.04942905
165	0x3d13aca4	0.036053315
166	0xbd8d7fcc	-0.06909141
167	0xbd96ed86	-0.07369523
168	0x3dc82eb1	0.09774531
169	0x3aeb9252	0.0017972684
170	0xbe6c47fb	-0.23074333
171	0x3cb34cfd	0.021887297
172	0x3de1cd94	0.11025539
173	0xbd775768	-0.06038609
174	0xbd2ac002	-0.04168702
175	0x3d285b41	0.04110265
176	0xbc1d673d	-0.009607133
177	0xbdba13b5	-0.0908579
178	0x3e108b47	0.1411563
179	0x3d10f93d	0.035393942
180	0x3e68d1a3	0.2273622
181	0xbd9a58ba	-0.075364545
182	0x3dd120cd	0.102113344
183	0xbdf7fe8f	-0.121091
184	0x3e047c0e	0.12937948
185	0x3e442623	0.19155173
186	0xbdea7cce	-0.11449586
187	0x3eb1e70e	0.34746593
188	0xbd3934ed	-0.04521649
189	0xbdd39960	-0.10331988
190	0x3e4751c4	0.19464785
191	0xbe00c265	-0.12574156
192	0x3db7e9df	0.08980154
193	0x3f0c9146	0.5490917
194	0x3d91c65f	0.071179144
195	0x3d57ecda	0.052716114
196	0xbddbd2c5	-0.107335605
197	0x3ee833b9	0.4535196
198	0xbe84fc8f	-0.25973937
199	0xbd4b74f7	-0.049672093
200	0x3d132941	0.035928015
201	0x3df3ea62	0.11909939
202	0x3d14d0a9	0.036331806
203	0x3ce94658	0.028475925
204	0xbe111e5d	-0.14171739
205	0x3b7ad7de	0.003827564
206	0xbea32e98	-0.31871486
207	0x3c468754	0.012117226
208	0x3ced29d6	0.028950613
209	0xbdc72861	-0.097244985
210	0x3d102545	0.035191793
211	0xbc5f84d5	-0.0136425095
212	0x3b6196da	0.003442219
213	0x3db38894	0.087662846
214	0xbde2d769	-0.110762425
215	0x3dd2a10b	0.10284623
216	0xbdfdc6dd	-0.12391446
217	0xbcf18c9a	-0.02948599
218	0x3e6088fc	0.21927255
219	0xbced4c80	-0.028967142
220	0xbe734deb	-0.23760192
221	0x3e27b887	0.16378985
222	0x3e947bab	0.290006
223	0x3dd18ecc	0.102323145
224	0x3c0bc280	0.008530259
225	0xbd810e37	-0.063015394
226	0x3df6ecc9	0.12056882
227	0xbda3b0af	-0.07992684
228	0x3e29dfc7	0.1658927
229	0xbe86b28a	-0.2630809
230	0x3ce5104d	0.027961874
231	0x3e014744	0.12624842
232	0xbe4b14ec	-0.198322
233	0xbd416805	-0.04721834
234	0xbea8cbe5	-0.3296806
235	0x3cf1afee	0.029502835
236	0x3d8b74bf	0.06809377
237	0xbec7f18f	-0.39051482
238	0xbcd7ffdc	-0.02636712
239	0x3f04e487	0.51911205
240	0x3dc63b21	0.09679247
241	0xbe9c09e0	-0.30476284
242	0xbe0b0424	-0.13575798
243	0x3ea9d10f	0.33167312
244	0x3e8458dd	0.25849047
245	0xbe793a67	-0.24338685
246	0x3dcb2df3	0.099208735
247	0x3e01c3ba	0.1267232
248	0x3e091779	0.1338786
249	0xbe3ce6a0	-0.18447351
250	0x3e0f544f	0.13997005
251	0x3e8dfd15	0.2773215
252	0x3d54cbdd	0.05195223
253	0x3e261ae4	0.16221195
254	0x3d51e5b6	0.05124446
255	0x3e096c54	0.1342023

fc2.bias f4 [256]
0	0x3f0849ab	0.5323741
1	0x3f06faf7	0.5272669
2	0x3f169325	0.58818275
3	0x3f0ee311	0.55815226
4	0x3ef4b81d	0.47796717
5	0x3ecd1512	0.40055138
6	0x3f023450	0.5086107
7	0x3d88443c	0.0665364
8	0x3f2c3792	0.67272294
9	0x3f3b95bc	0.7327535
10	0x3f3bbd13	0.7333538
11	0x3f166946	0.58754385
12	0x3f176cb4	0.5915024
13	0xbd8c5833	-0.0685276
14	0x3f140bfa	0.57830775
15	0x3ea92ae3	0.33040532
16	0x3f5a96ad	0.85386163
17	0x3f2fad6a	0.68623984
18	0x3eda26b9	0.42607668
19	0x3f00b3b0	0.5027418
20	0x3f147d71	0.5800391
21	0x3ef67770	0.48138
22	0x3ec2a482	0.38016135
23	0x3f09d3b9	0.5383869
24	0x3f0e4ef8	0.55589247
25	0x3eee532e	0.46547836
26	0x3f23fafe	0.6405486
27	0x3f523441	0.82110983
28	0x3f197a52	0.5995227
29	0x3ef85f42	0.48510176
30	0x3ef2e6a5	0.47441593
31	0x3f29bf7a	0.66307795
32	0x3f3cfdd3	0.73824805
33	0x3ef2094f	0.47272727
34	0x3e11f659	0.1425413
35	0x3f266ff6	0.6501459
36	0x3f294346	0.66118276
37	0x3f38e547	0.7222485
38	0x3ed0999a	0.4074219
39	0x3f2decdc	0.67939544
40	0x3f004d1b	0.50117654
41	0x3f0963b5	0.53667766
42	0x3e76a998	0.24088132
43	0x3f39f6a4	0.7264197
44	0x3edab790	0.42718172
45	0x3efd836b	0.49514326
46	0x3eef1dfe	0.4670257
47	0x3f187a19	0.59561306
48	0x3f25a990	0.64711857
49	0x3f31ed5c	0.69502807
50	0x3e86a398	0.26296687
51	0x3f1f5d45	0.62251693
52	0x3f0a53f7	0.5403437
53	0x3f26bd06	0.65132177
54	0x3f2fa115	0.68605167
55	0x3f06abb7	0.52605766
56	0x3f04881a	0.51770175
57	0x3f2ffc84	0.68744683
58	0x3eb8c389	0.3608668
59	0x3f3618fa	0.7113186
60	0x3f35897d	0.70912915
61	0x3eaab9c2	0.33344847
62	0x3f0e45b2	0.55575097
63	0x3f3abfd3	0.7294895
64	0x3ec50729	0.38482025
65	0x3efe78c0	0.497015
66	0x3f29d716	0.6634382
67	0x3ee30ead	0.44347134
68	0xbc4736b5	-0.012159039
69	0x3f08a51b	0.5337693
70	0x3f029ad1	0.5101748
71	0x3f0ddbe8	0.55413675
72	0x3f119114	0.56861997
73	0x3ef53059	0.4788845
74	0x3eec19e5	0.46113506
75	0x3f3a1b1b	0.7269761
76	0x3eec48c5	0.4614927
77	0x3f27a997	0.6549315
78	0x3f3ffa73	0.7499153
79	0x3f0f43be	0.5596274
80	0x3f19a4d8	0.60017157
81	0x3f0e184a	0.5550581
82	0x3f049f45	0.51805526
83	0xbd1f05b1	-0.038823787
84	0x3f07b0c8	0.5300412
85	0x3f4d78b0	0.8026228
86	0x3f2d4f84	0.67699456
87	0x3f58a39e	0.8462466
88	0x3e9ba24f	0.3039727
89	0x3f1429bf	0.578762
90	0x3f1ecef6	0.6203455
91	0x3f20452b	0.6260554
92	0x3f3137dc	0.6922586
93	0x3ed775ee	0.4208216
94	0x3f06825d	0.5254267
95	0x3ed53b14	0.41646636
96	0x3e6315c8	0.22176278
97	0x3f260e4b	0.6486556
98	0x3ed660ed	0.41870824
99	0x3f2aff12	0.66795456
100	0x3f191685	0.5979999
101	0x3eb64724	0.3560115
102	0x3ed2cc2e	0.41171402
103	0x3e6c1150	0.23053479
104	0x3f32bd74	0.6982033
105	0xbd7a5ca0	-0.06112349
106	0x3eb432f5	0.35195127
107	0x3f024ec0	0.5090141
108	0x3efb2611	0.4905248
109	0x3f13c5d7	0.57723755
110	0x3f15d5da	0.58529437
111	0x3eb7c2f3	0.35890922
112	0x3f419c73	0.7562935
113	0x3edd946d	0.43277302
114	0x3f255dc6	0.6459621
115	0x3f1065bd	0.5640524
116	0x3ed96e90	0.42467165
117	0x3f24ea6e	0.6442021
118	0x3f25f29a	0.64823306
119	0x3eafd508	0.34342217
120	0x3f2a0e09	0.66427666
121	0x3f0ea54c	0.55720973
122	0x3f2788e9	0.65443283
123	0x3ec3e2a9	0.38258865
124	0x3f07b987	0.5301747
125	0x3f023b3f	0.5087165
126	0x3ebb5576	0.3658864
127	0x3f0b7351	0.54472834
128	0x3f3099d8	0.68984747
129	0x3f552fb7	0.8327593
130	0x3f0b476a	0.54405844
131	0x3b5b2c24	0.0033443058
132	0x3e9388a6	0.28815192
133	0x3f4d990f	0.80311674
134	0x3f12d400	0.57354736
135	0x3ef78ac4	0.48348057
136	0x3f250ae3	0.64469737
137	0x3f2aab06	0.6666721
138	0x3ee4d8d0	0.44696665
139	0x3f1f2922	0.6217214
140	0x3f159cd9	0.58442456
141	0x3f0f3ed1	0.55955225
142	0x3eda59f2	0.42646748
143	0x3f1f4e61	0.6222897
144	0x3e918c16	0.2842719
145	0x3f1a2bd0	0.602231
146	0x3eca9687	0.39567968
147	0x3ecb59f5	0.3971707
148	0x3f0e3377	0.5554728
149	0x3f2040cc	0.6259887
150	0x3f1f59e8	0.6224656
151	0x3eec3117	0.46131203
152	0x3d9ce43f	0.07660722
153	0xbda82962	-0.08211018
154	0x3e8fe537	0.28104565
155	0x3f38cc64	0.72186875
156	0x3e81e079	0.25366572
157	0x3ee0ffca	0.43945152
158	0x3f07e63f	0.530857
159	0x3f01a9b2	0.5064956
160	0x3e906c9b	0.2820786
161	0x3f1c16ea	0.60972464
162	0x3f19f5af	0.6014051
163	0x3f2ebca7	0.6825661
164	0x3f0b1a43	0.5433695
165	0x3f199b3a	0.6000248
166	0x3f243e47	0.6415753
167	0x3f2d4264	0.6767943
168	0x3ef7b091	0.48376897
169	0x3f44cb7d	0.76873
170	0x3f3ab3bf	0.7293052
171	0x3f2bc96c	0.6710422
172	0x3efc0cac	0.49228418
173	0x3f622509	0.8833776
174	0x3f0b72f3	0.54472274
175	0x3f032177	0.5122294
176	0x3f1f6e1d	0.62277395
177	0x3eedd318	0.46450114
178	0x3f0ce618	0.55038595
179	0x3f1a675d	0.6031397
180	0x3e9093d5	0.28237787
181	0x3ee6fa68	0.4511292
182	0x3f1e46d7	0.61826843
183	0xbdd86d03	-0.10567667
184	0x3f003e06	0.5009464
185	0x3f2f406c	0.68457675
186	0x3ed4d489	0.415684
187	0x3eaa8187	0.33301947
188	0x3f16b793	0.5887386
189	0x3ee674e4	0.45011055
190	0x3ef4b801	0.47796634
191	0x3f1fb4cd	0.62385255
192	0x3efd1e07	0.49436972
193	0x3eb6c842	0.3569966
194	0x3f0a47c8	0.5401578
195	0x3f3ed8f9	0.74549824
196	0x3f415653	0.75522345
197	0x3f26d0fa	0.6516262
198	0x3f091f98	0.53563833
199	0x3ef18341	0.4717045
200	0x3f14605b	0.57959527
201	0x3ee72903	0.45148477
202	0x3f34e5d5	0.70663196
203	0x3ef8a694	0.4856459
204	0x3f2b2a67	0.66861576
205	0x3f15c44e	0.5850266
206	0x3ee69d13	0.45041713
207	0x3ef4ae07	0.47789022
208	0x3f393fe6	0.72363126
209	0x3f5631cc	0.83669734
210	0x3f332d68	0.6999116
211	0x3ee2fd3b	0.44333825
212	0x3f0f6a46	0.56021535
213	0x3efe9fb7	0.49731228
214	0x3f171675	0.5901864
215	0x3f15b94d	0.5848587
216	0x3efd1761	0.494319
217	0xbdbfef66	-0.093718335
218	0x3ef5a2f2	0.4797588
219	0x3f0a422f	0.5400724
220	0x3ef140e1	0.4711981
221	0x3ee16d91	0.44028905
222	0x3f036c3c	0.5133703
223	0x3f1e7a8b	0.61905736
224	0x3ee9f64d	0.45695725
225	0x3f2e4fbb	0.6809041
226	0x3f1bca5f	0.6085567
227	0x3f2b518a	0.66921294
228	0x3f204d84	0.6261828
229	0x3f2065ab	0.62655133
230	0x3f34de43	0.70651644
231	0x3eb33519	0.35001448
232	0x3f11c771	0.5694495
233	0x3f3bbcca	0.73334944
234	0x3f1e1948	0.61757326
235	0x3f2c59c4	0.6732447
236	0x3f2b2d05	0.6686557
237	0x3e786c86	0.24260148
238	0x3f258df9	0.6466976
239	0x3ef362e3	0.47536382
240	0x3ef33784	0.47503293
241	0x3f4ba621	0.7955037
242	0x3f0fd37a	0.5618206
243	0x3f226c1a	0.634462
244	0x3f05a91e	0.5221118
245	0x3f468828	0.7755151
246	0x3ee37362	0.44423968
247	0x3f02b4cb	0.5105712
248	0x3f2c1f46	0.6723522
249	0x3ec13c53	0.37741336
250	0x3eee6c28	0.46566892
251	0x3f3747b1	0.7159377
252	0x3f0ce4a0	0.55036354
253	0x3e84c700	0.25933075
254	0x3f02b2d8	0.51054144
255	0xbec7da8d	-0.3903393

fc3.weight f4 [128, 256]
0	0x3df227bc	0.11823985
1	0xbe33771c	-0.17525905
2	0xbbd199fc	-0.00639653
3	0xbe16ff12	-0.14745739
4	0xbe39c2fb	-0.18140785
5	0xbdc8a65f	-0.09797358
6	0x3ebf8077	0.37402698
7	0x3f91e25e	1.1397207
8	0x3da5db0a	0.08098419
9	0x3dd1f359	0.10251493
10	0xbdd6c5b6	-0.10486929
11	0x3f1c126a	0.609656
12	0xbd6ace33	-0.057325553
13	0xbcf9cc6c	-0.030492984
14	0xbf89841f	-1.0743445
15	0x3d3f5e51	0.046720807
16	0xbcc23280	-0.02370572
17	0xbe0e1c3e	-0.13877961
18	0xbe761f20	-0.24035311
19	0x3d319f4a	0.0433648
20	0x3ed8893a	0.42292196
21	0xbe8ab748	-0.27092957
22	0xbcb6f1bd	-0.022332067
23	0x3ef97b45	0.4872686
24	0x3ee6936d	0.45034352
25	0x3db6a38b	0.08917912
26	0x3de05ce1	0.10955215
27	0x3f17ad76	0.59249055
28	0x3e70f4ac	0.23530835
29	0x3d0af891	0.033928458
30	0x3ed1f404	0.41006482
31	0x3e611167	0.21979295
32	0x3d239979	0.039941285
33	0x3e001ebe	0.12511727
34	0x3f8b03bb	1.0860513
35	0x3f4ebc41	0.80756
36	0x3e946a84	0.28987515
37	0xbc84f6ae	-0.016230907
38	0xbd685da7	-0.05672994
39	0xbd9e941f	-0.077430956
40	0x3dcbccb7	0.09951156
41	0x3ee7c8d3	0.45270404
42	0xbe1d9eb5	-0.15392573
43	0xbdee9454	-0.11649385
44	0x3e8c31f7	0.2738187
45	0x3d26572f	0.04061049
46	0xbe260609	-0.1621324
47	0x3e8b7378	0.27236533
48	0x3e6bf9c4	0.23044497
49	0x3e07974c	0.13241309
50	0xbda066ee	-0.07832132
51	0x3dc4af12	0.096037045
52	0x3e91c968	0.28473973
53	0x3c4b5b46	0.012411898
54	0x3e0d7b33	0.13816528
55	0x3e2827be	0.1642141
56	0x3d9866cf	0.07441484
57	0xbf2f8704	-0.6856539
58	0xbd3eb5bd	-0.046560038
59	0x3f1e2f51	0.6179095
60	0xbdbdf09d	-0.09274409
61	0x3ec2a034	0.3801285
62	0xbe352e44	-0.1769343
63	0x3eb62ca6	0.3558094
64	0x3ec08981	0.37604907
65	0x3ddc5d7d	0.10760019
66	0xbe25c301	-0.1618767
67	0xbd4fd006	-0.050735496
68	0x3cab1764	0.020885177
69	0xbdf47983	-0.11937239
70	0xbdf2b87f	-0.11851596
71	0x3e5acf1c	0.21368068
72	0x3db35d76	0.08758061
73	0x3ec252d2	0.37953812
74	0x3d23928b	0.039934676
75	0x3d5dc618	0.054143995
76	0x3da084d7	0.07837837
77	0x3e4038ed	0.18771715
78	0xbde8d4a8	-0.11368686
79	0x3ecf5e84	0.40501797
80	0xbe489df3	-0.19591503
81	0x3e3ae8da	0.18252888
82	0xbbff00f0	-0.007782094
83	0x3f7ed3da	0.9954201
84	0x3deebf85	0.11657623
85	0xbda52833	-0.08064308
86	0x3f7a3f7b	0.97753114
87	0x3d5a3541	0.053273443
88	0xbc88e560	-0.016710937
89	0x3dc6dba7	0.09709864
90	0xbdac400b	-0.08410653
91	0x3c9b94f6	0.018991929
92	0x3ee363d7	0.4441211
93	0x3e3bf0ff	0.18353651
94	0xbde4564a	-0.11149271
95	0x3e44d0a7	0.1922022
96	0xbce66554	-0.028124489
97	0x3e1ca880	0.15298653
98	0x3edb493c	0.4282931
99	0xbe12e033	-0.14343338
100	0x3de501c2	0.11181976
101	0xbe222cdc	-0.15837425
102	0x3d055aa7	0.032557156
103	0xbe1c375e	-0.15255496
104	0x3eb40f31	0.3516784
105	0xbd7f88dc	-0.06238638
106	0x3e05fb71	0.13084199
107	0xbe90da9e	-0.28291792
108	0x3ecefd1d	0.40427485
109	0xbe070772	-0.13186434
110	0x3f303c51	0.68842036
111	0xbd7939be	-0.060846083
112	0xbdc9977f	-0.09843349
113	0x3ed5c8a2	0.41754633
114	0x3f18344c	0.594548
115	0x3d88ed83	0.06685927
116	0x3f8c89e8	1.0979586
117	0x3ee90725	0.45513263
118	0xbc0efb48	-0.008726902
119	0xbe29bfa4	-0.16577011
120	0x3c80785d	0.015682394
121	0xbe3b091b	-0.18265192
122	0xbcc580d7	-0.024109287
123	0x3d756606	0.05991175
124	0xbd58b86f	-0.052910265
125	0x3ea0f41d	0.31436244
126	0x3d9e959e	0.07743381
127	0x3cd51ddf	0.02601522
128	0x3e2c7479	0.16841306
129	0x3dbfb9b6	0.093615934
130	0x3ee1a49c	0.440709
131	0x3d009471	0.031391565
132	0x3eae878a	0.34087783
133	0xbd2336a4	-0.03984703
134	0x3e99a0f3	0.30005607
135	0x3f0dffcc	0.5546844
136	0xbe19ba40	-0.15012455
137	0x3d11f405	0.035633106
138	0xbe280531	-0.1640823
139	0xbeff3162	-0.49842364
140	0xbbc02eed	-0.005864969
141	0x3f005c0b	0.50140446
142	0xbcf2ac54	-0.029623188
143	0xbd63961b	-0.055563074
144	0x3eecede3	0.46275243
145	0xbc90b56d	-0.017664636
146	0xbe6676ce	-0.22506258
147	0x3ea9c6ec	0.33159578
148	0x3f439d32	0.76411736
149	0xbd51d6c4	-0.051230207
150	0x3ea20841	0.31646922
151	0xbdfabaf8	-0.12242693
152	0x3f9c745e	1.2223012
153	0xbd2b6584	-0.04184486
154	0x3e602153	0.21887712
155	0xbe4520a9	-0.1925074
156	0x3c971e0c	0.018446945
157	0x3dadb2f9	0.08481402
158	0x3ef44aec	0.4771341
159	0x3e3ea014	0.18615752
160	0xbcbcc29e	-0.02304202
161	0x3e31b75f	0.17355107
162	0x3ed2cb96	0.4117095
163	0x3ee76508	0.45194268
164	0xbdbfaa0c	-0.09358606
165	0x3e80447a	0.25052243
166	0xbdf77b46	-0.120840594
167	0xbef59029	-0.47961548
168	0x3d3b3d55	0.045712788
169	0xbd733239	-0.059374068
170	0x3d7f5e8d	0.06234603
171	0x3d9c632a	0.076361015
172	0x3c2213a5	0.009892379
173	0x3d078820	0.033088803
174	0x3e6f16fd	0.23348613
175	0xbeaa4c9e	-0.3326158
176	0x3e9733d4	0.2953173
177	0x3f4d8811	0.80285746
178	0xbe0fda61	-0.14048149
179	0xbe3ec378	-0.18629253
180	0x3f19e541	0.6011544
181	0x3dd6c224	0.10486248
182	0xbf16a545	-0.5884593
183	0x3c55c168	0.0130466
184	0x3dbbd9b4	0.09172383
185	0x3e96b96b	0.29438338
186	0x3f37d190	0.7180414
187	0xbf044e4e	-0.51681983
188	0xbca2d550	-0.019877106
189	0xbf2bf4e9	-0.6717058
190	0x3e924fe4	0.28576577
191	0x3ef71278	0.48256278
192	0xbf0d307b	-0.551521
193	0x3c205908	0.009786852
194	0x3eedf6e7	0.46477434
195	0x3edb4463	0.42825612
196	0x3d3efcd7	0.046627846
197	0x3c991abf	0.018689511
198	0x3f1e8722	0.61924946
199	0x3e7f87db	0.24954168
200	0x3e8d940a	0.27652007
201	0xbec0b7f7	-0.37640354
202	0x3dbbcea5	0.09170274
203	0xbd1a00b5	-0.03759833
204	0xbe5dd2e5	-0.21662481
205	0xbea72034	-0.32641757
206	0x3e74cb7f	0.23905753
207	0xbd9502ee	-0.072759494
208	0x3d2c7dde	0.042112224
209	0xbda112db	-0.078649245
210	0x3f020210	0.507844
211	0x3d72dcb8	0.059292525
212	0x3f373e4a	0.7157942
213	0x3d611228	0.054948956
214	0x3db5caaf	0.088765495
215	0x3e92a915	0.28644624
216	0xbd195f67	-0.0374445
217	0xbd3671ae	-0.044542007
218	0xbe32fb8f	-0.17478774
219	0xbdb1b21b	-0.08676549
220	0xbe2a280e	-0.16616842
221	0xbe877c1f	-0.26461884
222	0xbdf9b963	-0.12193563
223	0x3ea6b0c5	0.3255674
224	0x3e29957f	0.16560934
225	0xbe7d8b07	-0.24760066
226	0xbf34772e	-0.70494354
227	0xbd4b1fb5	-0.049590785
228	0xbe383b14	-0.17991287
229	0x3f145e63	0.5795652
230	0x3ac047a3	0.0014669787
231	0xbd72561f	-0.059164163
232	0x3e3558d0	0.1770966
233	0xbdf4d711	-0.11955083
234	0x3efb832b	0.4912351
235	0xbf0d3152	-0.5515338
236	0xbde78d41	-0.11306239
237	0x3f871dcd	1.055597
238	0x3caee184	0.021347769
239	0x3ecfb25a	0.4056576
240	0x3df076e1	0.11741424
241	0x3edc2786	0.42998904
242	0x3e2914cb	0.16511838
243	0xbdde5c6f	-0.10857474
244	0x3eb327fa	0.34991437
245	0xbdc0830e	-0.09399997
246	0x3f6e91d9	0.93191296
247	0xbef422ba	-0.47682744
248	0x3f452b2a	0.7701899
249	0x3f69f3bc	0.91387534
250	0x3e741115	0.23834641
251	0x3dcbb01b	0.09945699
252	0xbec95754	-0.3932444
253	0x3d111798	0.03542289
254	0x3e527aeb	0.20554702
255	0x3eb466d7	0.3523471

fc3.bias f4 [128]
0	0x3f0c4161	0.5478726
1	0x3e8912f7	0.26772282
2	0x3c78418d	0.015152347
3	0x3f6b9928	0.9203057
4	0x3f0c9020	0.5490742
5	0x3e6827d6	0.22671446
6	0x3ee536c6	0.4476835
7	0x3efff59f	0.49992082
8	0xbd85999d	-0.0652344
9	0x3eb9b12e	0.3626799
10	0x3f3684b7	0.71296257
11	0x3ede235a	0.43386346
12	0x3f3782da	0.7168404
13	0x3cf7284c	0.030170582
14	0xbda406c7	-0.08009105
15	0x3e8ea881	0.27862933
16	0x3e6dac67	0.23210298
17	0x3e9e97d1	0.30975202
18	0x3f52c0cf	0.8232545
19	0x3f728a24	0.94742036
20	0x3f2efbe9	0.68353134
21	0xbc9cc361	-0.019136133
22	0x3e7c997d	0.24667926
23	0x3c7a83af	0.015290185
24	0x3d03ebeb	0.03220741
25	0x3f3a0302	0.7266084
26	0x3ec71928	0.3888638
27	0x3f3b729d	0.7322176
28	0x3e720b1b	0.23637049
29	0x3c1647b4	0.009172369
30	0x3ecf132d	0.40444317
31	0x3e517d37	0.20457922
32	0x3c2a6b83	0.010401609
33	0x3f45a4d9	0.7720466
34	0x3f5b53b2	0.85674584
35	0x3f73384f	0.95007795
36	0x3f73fbc4	0.9530604
37	0x3e4bd8c6	0.19906911
38	0x3efdc114	0.4956137
39	0xbd35a00a	-0.04434208
40	0xbd8c11e3	-0.06839349
41	0x3e3304cf	0.17482303
42	0xbc806979	-0.015675293
43	0x3f6d9cf1	0.928176
44	0x3f06edd3	0.5270664
45	0x3e8389f3	0.25691184
46	0x3f2e4536	0.6807436
47	0x3f3584af	0.70905584
48	0x3f62fa47	0.8866314
49	0x3eaaa9c4	0.33332646
50	0x3e73fdd7	0.23827301
51	0x3f26262e	0.6490201
52	0x3e5f3675	0.21798117
53	0xbd4f8e78	-0.05067298
54	0x3ca6ae78	0.020346865
55	0x3edc09fb	0.42976364
56	0xbdb8a818	-0.09016436
57	0x3ec50a95	0.38484636
58	0x3f089378	0.5335002
59	0x3f383cd1	0.719678
60	0xbd01c90a	-0.031685866
61	0x3c86ca4d	0.016453886
62	0x3e9894f6	0.29801148
63	0xbcad077e	-0.021121737
64	0x3eb06fbf	0.34460256
65	0xbd8c3123	-0.068453096
66	0x3f0267a2	0.5093938
67	0x3f808252	1.0039771
68	0x3eb4c237	0.35304424
69	0x3e821221	0.25404456
70	0x3ebabfb7	0.36474392
71	0xbdbf91a6	-0.09353952
72	0x3f3a24fb	0.7271268
73	0xbd05c87d	-0.032661904
74	0x3e01a337	0.12659918
75	0x3c72ee40	0.014827311
76	0x3f57649e	0.84137905
77	0x3f8e8ae4	1.1136136
78	0xbd21c0bd	-0.03949045
79	0x3f85844a	1.0430996
80	0x3f34afbd	0.70580655
81	0x3f78b51f	0.9715137
82	0x3f1e3dd5	0.618131
83	0x3f724747	0.9464001
84	0x3f19db44	0.601002
85	0x3e44ed0d	0.19231053
86	0x3f7bc3c2	0.9834558
87	0x3d395010	0.04524237
88	0x3c08dd8f	0.008353605
89	0x3f32df02	0.6987153
90	0x3f1b2828	0.6060815
91	0xbd5ada1d	-0.053430665
92	0x3f268728	0.6504998
93	0xbc94d41a	-0.018167544
94	0xbdb62776	-0.08894245
95	0xbb25eb28	-0.0025317166
96	0x3f5c791a	0.86122286
97	0x3f3568ab	0.70862836
98	0x3f268a1b	0.6505448
99	0x3e83ae51	0.2571893
100	0x3eed9844	0.46405232
101	0x3f548c83	0.83026904
102	0x3f1272c5	0.57206374
103	0xbd7f987c	-0.06240128
104	0x3e9741a3	0.29542264
105	0x3f2ee2f5	0.6831506
106	0x3f02d673	0.51108474
107	0x3efc7670	0.4930911
108	0x3f4c99f4	0.79922414
109	0x3f63e033	0.89013976
110	0xbdb3646c	-0.08759388
111	0xbd537b5f	-0.051631328
112	0xbd809089	-0.06277568
113	0xbcaf6cc9	-0.021414177
114	0x39e69226	0.00043977908
115	0xbc0192c4	-0.007908527
116	0x3c8fdaa5	0.017560313
117	0xbc7a25f0	-0.015267834
118	0x3ed34fa7	0.41271707
119	0xbc4ac8c8	-0.012376972
120	0xbd938fe1	-0.07205177
121	0x3ede1b05	0.4337999
122	0xbd98b065	-0.074555196
123	0x3f33aec1	0.7018853
124	0x3e9149c9	0.28376606
125	0x3f218205	0.6308902
126	0x3d46292b	0.048379105
127	0x3e8b332b	0.27187476

fc4.weight f4 [128, 128]
0	0x3d2a6f6b	0.041610163
1	0xbd56cef2	-0.052443452
2	0xbd295a13	-0.041345667
3	0xbd644065	-0.055725474
4	0xbe025d7a	-0.12730971
5	0xbde113e2	-0.109901205
6	0xbcf6c2bd	-0.030122155
7	0xbd421a18	-0.047388166
8	0xbcd5b1c9	-0.026085751
9	0x3cfc6bf8	0.030813202
10	0xbd260a69	-0.04053727
11	0xbdce33ca	-0.10068472
12	0x3d1057a5	0.035239834
13	0xbc993535	-0.018702129
14	0x3ce503b6	0.027955871
15	0xbc92f3a0	-0.017938435
16	0x3bc058de	0.005869969
17	0x3d380fbf	0.04493689
18	0xbc9414b1	-0.018076273
19	0xbdd3e0ef	-0.10345637
20	0x3d38466f	0.044989046
21	0xbd3322a6	-0.043734215
22	0xbdb58f1e	-0.08865188
23	0x3d6b9f22	0.057524808
24	0xbda6cb17	-0.08144205
25	0xbba3cc2f	-0.004998706
26	0x3d08e55f	0.03342187
27	0xbdc7abe5	-0.09749583
28	0xbdce85d3	-0.10084119
29	0x3d9ad72e	0.075605735
30	0xbdf9cc17	-0.1219713
31	0xbbee7d86	-0.007278147
32	0x3c921cc7	0.017835988
33	0x3d73a1f1	0.05948061
34	0xbc3d824c	-0.01156671
35	0xbdaeb530	-0.085306525
36	0xbdf981df	-0.12182974
37	0x3ced4cd4	0.028967299
38	0xbd2b03dd	-0.04175173
39	0x3b9be0d0	0.0047570243
40	0x3c9b09f6	0.018925648
41	0x3d316c81	0.043316368
42	0x3cc6486c	0.024204455
43	0x3d2ad114	0.0417033
44	0xbc4d12ba	-0.012516672
45	0xbd9f5b73	-0.077811144
46	0x3ca500c8	0.020141974
47	0xbd77c48e	-0.060490184
48	0xbd5d722f	-0.054063972
49	0xbd3e8035	-0.046508987
50	0xbd7710dd	-0.060318816
51	0xba5c782f	-0.0008410243
52	0xbdceef4b	-0.10104235
53	0xbda3f5e4	-0.08005884
54	0xbd559671	-0.052145425
55	0x3c40ca26	0.011766946
56	0xbd6ac84b	-0.05731992
57	0xbdbbff93	-0.09179606
58	0xbc8ae132	-0.016953085
59	0x3d4a7e8e	0.0494371
60	0x3d89e348	0.067328036
61	0x3c0dbbac	0.0086507015
62	0x3bb377f3	0.0054769455
63	0xbce8c4a9	-0.028414087
64	0xbd132e39	-0.035932753
65	0xbc9ac5f0	-0.018893212
66	0x3c99120d	0.018685365
67	0x3c8cd14a	0.01718964
68	0xbd525666	-0.051351927
69	0x3d2d1b06	0.0422621
70	0xbd2fc6a1	-0.042914037
71	0x3d0412fb	0.032244664
72	0x3a62aa23	0.0008646568
73	0xbd0ab63a	-0.03386519
74	0x3ca579df	0.020199714
75	0xbcf1e0b9	-0.029526101
76	0xbdf9acd7	-0.1219117
77	0xbd2f8ff3	-0.04286189
78	0x3d33aea4	0.043867722
79	0x3d1823c4	0.037143484
80	0xbd78b6be	-0.06072115
81	0xbc6ccbec	-0.014452916
82	0x3ce93208	0.02846624
83	0xbd7c0e39	-0.061537
84	0x3cc6b9b4	0.024258472
85	0xbd5ef101	-0.054429058
86	0xbd85a93d	-0.0652642
87	0xbd523ef6	-0.051329575
88	0x3d15d9d3	0.036584686
89	0x3c1ccf18	0.009570859
90	0xbd265889	-0.040611777
91	0xbcdbc096	-0.02682523
92	0x3c544a67	0.012957192
93	0x3d9b6f87	0.075896315
94	0xbcad7040	-0.021171689
95	0xbd337bdc	-0.043819293
96	0xbd7b52b9	-0.061358187
97	0xbbb40494	-0.00549371
98	0x3c88cdef	0.01669976
99	0xbb431801	-0.0029768946
100	0xbdf4903b	-0.11941572
101	0xbdb6b7ff	-0.08921813
102	0xbd9ac78f	-0.07557594
103	0x3c58c6da	0.013231004
104	0x3c806590	0.015673429
105	0x3cc31be8	0.023817018
106	0xbd81c90a	-0.06337173
107	0xbc8825f7	-0.016619666
108	0xbbfb0880	-0.0076609254
109	0xbdab80dd	-0.08374188
110	0x3da093f4	0.0784072
111	0x3d5ece2a	0.054395832
112	0xbda840d2	-0.082154885
113	0x3d9f089d	0.07765315
114	0x3d30649e	0.043064706
115	0xbd9502fa	-0.07275958
116	0x3d4a72d6	0.049425922
117	0xbda9850c	-0.0827733
118	0x3c7e7b52	0.015532332
119	0xbc813882	-0.015774015
120	0xbcc3e85c	-0.023914509
121	0xbb7518f3	-0.0037398904
122	0x3d1d2cd8	0.038372844
123	0xbdd9343c	-0.10605666
124	0x3c43eaf1	0.01195787
125	0xbd8904a0	-0.06690335
126	0x3d7981de	0.060914867
127	0x3d3aafa1	0.04557765
128	0x3ea760c2	0.32691008
129	0xbe9573bf	-0.2918987
130	0xbcac636d	-0.021043504
131	0x3e4accb2	0.19804648
132	0x3e54c4f6	0.2077826
133	0xbeca4375	-0.3950459
134	0x3e4a8093	0.1977561
135	0x3e4960ee	0.19665882
136	0x3be7de30	0.0070760474
137	0x3e796dd3	0.24358301
138	0x3eb24186	0.34815615
139	0x3e8de26e	0.27711815
140	0x3e1add0d	0.15123387
141	0x3dc70fa4	0.0971978
142	0x3ca3b4bf	0.019983647
143	0xbe49af32	-0.19695738
144	0xbd92ef5b	-0.0717456
145	0xbdacfe65	-0.084469594
146	0xbd73e473	-0.059544038
147	0x3e586532	0.21132353
148	0x3ec46de1	0.3836508
149	0x3d3c4db2	0.045972534
150	0xbe87bb69	-0.2651017
151	0x3d322803	0.04349519
152	0xbd3bc8e3	-0.045845877
153	0x3e6332f3	0.22187404
154	0x3eb00fbc	0.34387004
155	0x3d36a388	0.04458955
156	0xbe32e3f4	-0.1746977
157	0xbd3409d3	-0.04395468
158	0x3ce41973	0.027844166
159	0xbe37e52e	-0.17958519
160	0xbd89fab9	-0.06737275
161	0x3eac2163	0.33619222
162	0xbdfb4f59	-0.12270994
163	0x3e1ced4a	0.15324894
164	0x3ea3e3a9	0.32009628
165	0xbe62aa52	-0.22135285
166	0x3ed79fbc	0.42114055
167	0x3d1113a8	0.035419136
168	0x3b0fc71e	0.0021938751
169	0xbf3508bf	-0.7071647
170	0xbcc5a842	-0.024128083
171	0x3e2305cd	0.15920182
172	0x3e68a8b3	0.22720604
173	0xbeb82b48	-0.3597052
174	0x3ecc70bf	0.39929768
175	0x3e6e28b1	0.2325771
176	0x3dce9977	0.10087865
177	0xbe0c73e9	-0.13716091
178	0xbed46b4f	-0.4148812
179	0x3eeaadc0	0.45835686
180	0xbeac7c58	-0.33688617
181	0xbca63c84	-0.020292528
182	0x3d830d43	0.06399014
183	0xbdf6bdd1	-0.12047923
184	0x3db6eeaf	0.08932244
185	0xbd905bd1	-0.070487626
186	0x3e13e3e3	0.144424
187	0x3ed2a7d8	0.4114368
188	0x3d809089	0.06277568
189	0x3d225cfd	0.03963946
190	0xbd44a436	-0.048008166
191	0x3ce35dd3	0.0277547
192	0x3e647299	0.2230934
193	0xbd80c739	-0.06287999
194	0x3e607bba	0.21922198
195	0x3e33ec9b	0.17570727
196	0xbd0641c7	-0.032777574
197	0xbdf8ac57	-0.12142246
198	0x3e1c3412	0.15254238
199	0xbd0128e1	-0.031533126
200	0xbc9ebdbe	-0.019377586
201	0xbd82ea1b	-0.06392308
202	0xbee3ca1c	-0.44490135
203	0xbdc39502	-0.09549905
204	0xbe1ca088	-0.15295613
205	0xbbef3deb	-0.0073010824
206	0x3d773405	0.060352344
207	0x3c8fc272	0.017548773
208	0x3e6ce541	0.23134328
209	0x3e76be8d	0.24096127
210	0x3ec1409b	0.37744603
211	0xbe23272f	-0.15932916
212	0x3ed7fb9f	0.4218416
213	0xbeabec3d	-0.33578673
214	0x3e96ad13	0.2942892
215	0x3b82e633	0.003994727
216	0x3ce14a93	0.02750138
217	0x3e87a90c	0.2649616
218	0x3df8e447	0.121529154
219	0x3dce5adb	0.10075923
220	0x3e869727	0.26287195
221	0xbd7e5ffa	-0.06210325
222	0xbdc732cd	-0.09726486
223	0x3d2917ab	0.041282337
224	0x3e93e492	0.28885323
225	0x3e8e7c48	0.27829194
226	0x3dae31da	0.08505602
227	0xbe08f7aa	-0.13375726
228	0x3eac59df	0.33662316
229	0x3cf5ecec	0.0300202
230	0x3ee45e8f	0.44603392
231	0x3c38ea81	0.011286379
232	0xbea1ff70	-0.31640196
233	0x3ddc1878	0.107468545
234	0x3e8e4981	0.27790454
235	0x3cf3eefd	0.029777044
236	0x3ec71e6b	0.38890395
237	0xbdc361c4	-0.09540132
238	0x3d2e0567	0.04248562
239	0xbd2edc3f	-0.04269051
240	0x3d61de5d	0.055143703
241	0xbd96ef2b	-0.073698364
242	0x3d3a656a	0.045506872
243	0xbd887030	-0.06662023
244	0xbd67caa8	-0.056589752
245	0x3c07acde	0.008280961
246	0x3e71fd32	0.23631743
247	0x3d01a1fa	0.031648614
248	0xbd4b45c8	-0.049627095
249	0xbc440508	-0.01196409
250	0xbd089357	-0.03334364
251	0x3d723b6b	0.059138697
252	0xbe82da58	-0.25557208
253	0x3dbccd6a	0.09218867
254	0xbc88fccf	-0.016722111
255	0xbe80cc87	-0.25156042

fc4.bias f4 [128]
0	0xbd81ffba	-0.06347604
1	0x3cd5b743	0.026088363
2	0x3f704906	0.93861425
3	0x3f0e0118	0.5547042
4	0x3ee76c1c	0.45199668
5	0x3eeba8a4	0.460271
6	0x3eda4d7c	0.4263724
7	0x3e116a9a	0.14200822
8	0xbba2552d	-0.0049540014
9	0x3b6377be	0.0034708823
10	0xbd53760d	-0.051626254
11	0xbd39b5a1	-0.04533923
12	0xbdb12632	-0.08649863
13	0xbcaf5940	-0.021404862
14	0xbe3131ea	-0.17304197
15	0xbca431bf	-0.020043252
16	0x3c5be7a5	0.013421928
17	0xbd2f64f8	-0.0428209
18	0xbd09eb19	-0.033671472
19	0x3d2d941e	0.042377584
20	0xbc9a5e17	-0.018843694
21	0x3e7a4e7f	0.24444006
22	0x3f75ce91	0.9601832
23	0xbd875ad7	-0.06609123
24	0x3ce6866e	0.028140273
25	0x3e30a946	0.17252073
26	0x3ec214de	0.37906545
27	0xbd1e2eaa	-0.03861872
28	0x3f62383d	0.8836706
29	0x3cc49ea1	0.024001421
30	0x3d89be99	0.06725807
31	0x3f4e167b	0.8050305
32	0x3d6f2d4d	0.05839281
33	0x3f806f46	1.0033958
34	0xbdeceb2c	-0.11568293
35	0x3d4421a1	0.047883634
36	0x3d8be6ea	0.06831153
37	0x3f1aae80	0.60422516
38	0x3d3f5325	0.046710152
39	0xbd2c3c5e	-0.042049758
40	0x3e290a8d	0.16507931
41	0x3f06377d	0.5242842
42	0xbbe653a7	-0.007029015
43	0xbdc21248	-0.09476143
44	0xbdbe1e8d	-0.09283171
45	0xbdd19ae5	-0.10234622
46	0xbde88241	-0.11352969
47	0x3ee52bf8	0.44760108
48	0x3f56682b	0.837527
49	0x3ead019b	0.33790287
50	0x3f059a9e	0.5218905
51	0x3ed8b58b	0.42326006
52	0x3cfd5e29	0.030928688
53	0x3e2f7333	0.17133789
54	0x3f42d37d	0.76103956
55	0x3e30811e	0.17236754
56	0x3f94f8fd	1.1638485
57	0x3eeef693	0.46672496
58	0xbc40222f	-0.0117269
59	0x3e5009cf	0.20316242
60	0x3f0e1d98	0.55513906
61	0x3f086ed6	0.5329412
62	0xbcc6dcdc	-0.024275236
63	0x3efa1406	0.48843402
64	0xbd389c60	-0.045071006
65	0x3eed7df3	0.46385154
66	0x3f73c989	0.95229393
67	0x3f1eb887	0.62000316
68	0x3f47a751	0.7798968
69	0xbdc67d3e	-0.09691857
70	0xbdc5e2db	-0.0966241
71	0x3e29acb5	0.16569789
72	0x3e30965d	0.17244859
73	0x3cc922e6	0.024552774
74	0xbdcd0aea	-0.10011847
75	0xbdabf9f6	-0.08397286
76	0x3f6da4b6	0.92829454
77	0x3f986230	1.1904964
78	0x3b7ac9ff	0.0038267372
79	0xbdbf14a6	-0.0933011
80	0xbd50c726	-0.050971173
81	0xbd60e11a	-0.054902174
82	0xbe0e5405	-0.13899238
83	0x3fac6d3d	1.3470837
84	0x3cd39a9e	0.025830563
85	0xbd1ffaa4	-0.03905739
86	0x3f00c2e1	0.5029736
87	0xbd06f15e	-0.03294503
88	0xbe342c68	-0.17595065
89	0x3b6307e3	0.0034642152
90	0x3e828754	0.25493872
91	0xbc9d01e1	-0.019165935
92	0x3d62f4f6	0.055409394
93	0xbd4cef91	-0.050033156
94	0x3d85d5e2	0.065349355
95	0xbd644dc5	-0.05573823
96	0x3d5367d6	0.051612698
97	0x3e90a37c	0.2824973
98	0x3cb74c6e	0.022375312
99	0x3f5efc60	0.87103844
100	0x3c72449e	0.014786867
101	0xbdb617d6	-0.08891265
102	0xbd63698c	-0.05552058
103	0x3e747b7b	0.23875229
104	0x3d4eb4b2	0.050465293
105	0x3edb480e	0.4282841
106	0xbdebed44	-0.11519864
107	0x3e334686	0.17507371
108	0x3c95be7a	0.018279303
109	0x3e5ce655	0.2157224
110	0xbdaaf197	-0.08346861
111	0x3f5ba94f	0.8580522
112	0x3f8f5ad2	1.1199591
113	0x3f9749f3	1.1819443
114	0x3ec74a8b	0.3892406
115	0x3d920cc8	0.07131344
116	0xbd5bd6f8	-0.053671807
117	0xbd77b8d6	-0.060479008
118	0x3ee6e4fa	0.4509657
119	0x3e87fb98	0.26559138
120	0x3d22f555	0.039784748
121	0xbd160c9b	-0.036633115
122	0x3d367dc7	0.044553544
123	0x3e06ebbd	0.13175865
124	0x3f6a62df	0.91557115
125	0xbbba2eba	-0.00568184
126	0x3eb63870	0.35589933
127	0x3e4c28c8	0.19937432

fc5.weight f4 [3, 128]
0	0x3befd547	0.007319126
1	0x3d15dba0	0.036586404
2	0x3e594cdc	0.21220726
3	0xbf9f0642	-1.2423785
4	0x3e8274f0	0.2547984
5	0x3eb57326	0.35439414
6	0x3c48925e	0.012241928
7	0x3d48d749	0.049033437
8	0x3cd5a229	0.0260783
9	0x3c881f22	0.016616408
10	0x3d3524f5	0.044224698
11	0xbb113266	-0.0022155284
12	0x3c8f33a0	0.017480671
13	0xbd1a69d5	-0.037698586
14	0x3d241e36	0.040067874
15	0x3c76ab4d	0.01505549
16	0xbc47520d	-0.0121655585
17	0xbcd77ad1	-0.02630368
18	0xbd9e0f6a	-0.07717784
19	0xbd5dfecf	-0.054198083
20	0xbc928e10	-0.017890006
21	0x3e218e19	0.15776862
22	0x3d4f8246	0.050661348
23	0x3d8ce0eb	0.06878837
24	0xbd18c3ed	-0.037296224
25	0x3e1283ab	0.1430804
26	0x3e25d29c	0.16193622
27	0x3d664406	0.056217216
28	0x3ea5faad	0.32417813
29	0xbc3a51e1	-0.0113720605
30	0x3d6e4d47	0.058179166
31	0x3eb9b50d	0.36270943
32	0x3d8a1229	0.06741745
33	0x3de52cc9	0.11190183
34	0xbd34faac	-0.04418437
35	0xbc9d53e8	-0.019205049
36	0xbd82d2aa	-0.06387837
37	0x3dc376a1	0.09544111
38	0xbca7ac61	-0.020467939
39	0xbda39966	-0.07988243
40	0x3d499e31	0.04922313
41	0xbf47ee3a	-0.7809788
42	0xbac78ca5	-0.001522441
43	0xbd1564a2	-0.036472924
44	0x3bbd9da3	0.005786614
45	0xbd29facf	-0.041498955
46	0xbc8248f8	-0.015903935
47	0x3e487d96	0.19579157
48	0x3ee0fc35	0.4394242
49	0x3e6545b3	0.2238987
50	0x3eb13d93	0.3461729
51	0x3ed9623a	0.42457753
52	0xbd91bf06	-0.07116513
53	0x3f74ad8c	0.9557731
54	0x3e8c56ce	0.27409977
55	0x3d87d129	0.06631691
56	0x3dfde466	0.12397079
57	0xbef79f75	-0.48363844
58	0x3ce5f1ff	0.028069494
59	0xbe03d127	-0.12872754
60	0x3e7f7597	0.249472
61	0x3ebf9344	0.37417042
62	0x3d99d946	0.07512145
63	0x3d96d481	0.07364751
64	0xbda2d9fe	-0.07951735
65	0x3e91854e	0.28422016
66	0x3ea1e9a9	0.3162358
67	0x3e5328ca	0.20621029
68	0x3e775867	0.24154817
69	0xbb7bcbfb	-0.0038421142
70	0x3d018e71	0.031629983
71	0x3d371c73	0.044704866
72	0x3ccb5651	0.024821432
73	0x3c812111	0.015762838
74	0xbd2c924d	-0.04213171
75	0x3d77b105	0.060471553
76	0x3d85f439	0.065407224
77	0x3bbeb065	0.0058193677
78	0x3bff07f4	0.0077829305
79	0x3d823a51	0.06358779
80	0x3cc8d30a	0.024514694
81	0xbc817530	-0.01580295
82	0x3cb04b70	0.021520346
83	0xbc7966cf	-0.015222265
84	0x3d96a06d	0.073548175
85	0x3b9bdad6	0.004756312
86	0x3e38bb35	0.18040164
87	0x3d3ba5bb	0.04581235
88	0x3b87668f	0.004132099
89	0x3d3350e3	0.04377831
90	0x3e3d6d62	0.18498757
91	0xbda1ff3c	-0.0791001
92	0x3d9b7c3e	0.07592057
93	0x3dad3e2e	0.084591255
94	0x3d795c7e	0.060879223
95	0x3b17f5d8	0.0023187306
96	0x3d864196	0.06555478
97	0x3e9f0cb0	0.31064367
98	0x3d1e4dea	0.038648523
99	0x3e9c9eb9	0.30589846
100	0x3cb8c7c8	0.0225562
101	0xbdafd3cb	-0.08585318
102	0x3d2ffd51	0.04296619
103	0x3ce2e5b6	0.027697425
104	0xbc7f07f3	-0.01556586
105	0xbed4bddf	-0.4155111
106	0xbc9c50f0	-0.019081563
107	0xbe6cd671	-0.23128678
108	0xbd0ae901	-0.033913616
109	0x3d892d4c	0.06698093
110	0x3aec7673	0.0018040672
111	0x3de73f43	0.11291363
112	0x3de9b397	0.11411207
113	0xc01c166c	-2.4388685
114	0x3f05e87d	0.52307874
115	0x3e19ee3a	0.15032282
116	0xbce0e596	-0.027453225
117	0x3cc39410	0.023874313
118	0x3eb3b4bb	0.35098824
119	0xbe12ddb9	-0.14342393
120	0xbceda2c4	-0.029008277
121	0xbab1c7cf	-0.0013563576
122	0x3cf88117	0.030334992
123	0x3c0dabc3	0.008646908
124	0x3e96829b	0.2939652
125	0x3d99120d	0.07474146
126	0x3edf3dcf	0.43601844
127	0x3e39bffc	0.18139642
128	0x3d458902	0.048226364
129	0xbe86a5a5	-0.26298252
130	0x3eb73c28	0.35788083
131	0xbd872d64	-0.066004544
132	0x3ddc9e85	0.10772423
133	0x3e7cf2fb	0.24702065
134	0xbd28cd73	-0.041211557
135	0xbedb8e4c	-0.42882
136	0xbc43cf9a	-0.011951352
137	0xbe38f603	-0.18062596
138	0xbd34f4d1	-0.044178788
139	0x3ba6c200	0.0050890446
140	0x3d95d355	0.07315699
141	0x3c17ba4c	0.009260725
142	0xbe396b68	-0.18107378
143	0x3d33dd83	0.043912422
144	0xbd95688a	-0.0729533
145	0x3c417607	0.011807925
146	0x3c09eb18	0.008417867
147	0x3d9aee9e	0.07565044
148	0xba4fcdf4	-0.0007927113
149	0xbe09e14a	-0.13464847
150	0x3ee69969	0.45038918
151	0x3b517f8c	0.0031966893
152	0xbd1f866b	-0.03894655
153	0xbec94b79	-0.39315394
154	0xbda219c8	-0.07915074
155	0x3d6647ee	0.05622094
156	0x3eb93cee	0.36179298
157	0xbc982f7d	-0.018577332
158	0xbeea53c8	-0.45767045
159	0x3f7b9364	0.98271775
160	0x3d68f770	0.0568766
161	0x3ed5ddcf	0.4177079
162	0xbd42ba41	-0.047540907
163	0x3c800abe	0.015630122
164	0xbc77c0a6	-0.015121615
165	0x3e092136	0.13391575
166	0x3cb09991	0.021557601
167	0x3d5fdf48	0.054656297
168	0xbe7a1234	-0.24421006
169	0xbf4e7679	-0.80649525
170	0x3c9170e7	0.017754031
171	0xbcc6dcdc	-0.024275236
172	0x3c8e4c34	0.01737032
173	0xbc1da5f2	-0.009622084
174	0x3ca3281d	0.019916588
175	0x3d21c93c	0.039498553
176	0x3e40335b	0.1876959
177	0x3d003871	0.031303827
178	0x3e1ff0c4	0.15619189
179	0x3e8c63e4	0.2741996
180	0x3d87956e	0.06620298
181	0x3e9ede25	0.31028858
182	0x3f852bd4	1.0404
183	0xbe9774b7	-0.29581234
184	0x3eecdb32	0.46260983
185	0xbf0878fa	-0.53309596
186	0x3d8e6f5c	0.06954834
187	0xbe73f6fe	-0.23824689
188	0x3e35a208	0.17737591
189	0x3e8f913b	0.2804049
190	0x3d7520c2	0.059845693
191	0x3da50481	0.080575
192	0x3d06baad	0.03289287
193	0x3e0ecfb3	0.13946418
194	0x3db748a2	0.089494005
195	0x3e4a6fb2	0.19769171
196	0x3e99d455	0.3004481
197	0xba8184a2	-0.0009881447
198	0xbce4f7fe	-0.027950283
199	0xbe78e737	-0.24306951
200	0xbd7ef340	-0.0622437
201	0xbd35c1e6	-0.04437437
202	0x3d285073	0.041092347
203	0x3ced9324	0.029000826
204	0x3e4c475c	0.19949096
205	0x3f0c6f06	0.5485691
206	0x3d1c0faf	0.038100895
207	0x3cd9c0dc	0.02658122
208	0xbeaf0d5d	-0.34189883
209	0xb9240aaf	-0.00015644239
210	0xbdc492ea	-0.09598334
211	0x3f0e83af	0.55669683
212	0xbdb194dc	-0.08670971
213	0x3c51a2fc	0.012795206
214	0x3c777f7c	0.015106078
215	0xbd926700	-0.07148552
216	0xbd977fb4	-0.07397404
217	0xbd8416e4	-0.064496785
218	0xbe074463	-0.13209681
219	0x3c11364e	0.008863045
220	0xbeab3a5c	-0.33442962
221	0x3d0a6048	0.033783227
222	0xbe451d2e	-0.19249412
223	0xbebfdec2	-0.37474638
224	0x3c76a37c	0.015053626
225	0x3c1d2f08	0.009593733
226	0x3d9d57d0	0.076827645
227	0x3eb4c002	0.3530274
228	0xbe7815a3	-0.24227004
229	0x3bad941e	0.005297198
230	0x3d9cbb90	0.07652962
231	0xbd97a5d8	-0.07404679
232	0x3d448349	0.047976766
233	0xbefec065	-0.4975616
234	0xbd9c80f9	-0.07641787
235	0xbf04f90b	-0.5194251
236	0xbca51068	-0.020149425
237	0xbecfc8ad	-0.4058279
238	0xbeee973b	-0.46599755
239	0x3eab9f44	0.33519948
240	0x3f062815	0.5240491
241	0xbfc04a3a	-1.5022652
242	0x3eb30bc9	0.3496993
243	0xbe6318aa	-0.22177377
244	0xbd748483	-0.059696686
245	0xbc50d3ad	-0.01274578
246	0x3e4207a1	0.18948223
247	0xbf07ee44	-0.5309794
248	0xbcad1b07	-0.021131052
249	0x3bbf2445	0.005833181
250	0xbeb60fe2	-0.35558993
251	0xbb60afa8	-0.0034284387
252	0x3eb4e02b	0.35327277
253	0x3c664406	0.014054304
254	0x3e70c343	0.23511986
255	0xbe48b1e7	-0.19599114

fc5.bias f4 [3]
0	0x3eccc648	0.39995027
1	0x3ef36edd	0.4754552
2	0xbe383aaf	-0.17991136
