checkpoints/checkpoint_qnetwork_target_WMT_V2.pth (torch_old, 340036 bytes, 10 tensors)

fc1.weight f4 [128, 13]
000000 80 15 08 bb 7c 5a 18 3e 0b c0 69 be f0 02 51 be
       -0.0020764768 0.14878267 -0.22827165 -0.20411277
000010 ce c5 da bd 20 51 98 3d 00 11 b4 bb 8e 2f 61 3e
       -0.106822595 0.07437348 -0.0054951906 0.21990797
000020 90 a1 c9 bc a8 4d 96 3d 34 a9 ab bd ac 4d 5f bd
       -0.024613172 0.073390305 -0.08381882 -0.054517433
000030 a0 a9 87 be 8f 44 08 bf 04 7c 67 be 7d 66 a3 3b
       -0.264966 -0.5322961 -0.22605902 0.004986583
000040 d7 d6 a7 3d 38 cb 24 3e 0b 46 23 bf c5 fb b9 be
       0.08195274 0.16093147 -0.6377875 -0.36324897
000050 d7 21 43 3e b0 00 c5 3e b7 ce 73 be 86 ec ca 3e
       0.19055878 0.38477087 -0.23809324 0.39633578
000060 e9 96 f2 3d 37 6d 00 3e cc 66 77 3e 65 4f 85 be
       0.1184519 0.12541662 0.24160308 -0.26037136
000070 34 8c 3c be 16 53 a3 bd 88 ee f0 bd 22 9f 6b 3e
       -0.18412858 -0.07974832 -0.11764246 0.23009923
000080 b0 d7 41 be 43 7f 0c be b4 2b 50 be 61 df 89 be
       -0.18929935 -0.13720421 -0.20329171 -0.26928237
000090 09 8c 2f be b9 62 6a 3e 71 f1 e9 3d e8 1f 02 39
       -0.17143263 0.22889222 0.114230044 0.00012409652
0000a0 c8 59 80 be a1 fd b8 be 7a 1b 72 bd ba e0 e4 be
       -0.25068498 -0.36131003 -0.059108235 -0.44702703
0000b0 56 62 98 be ca 57 7f be 4b c9 36 3d e6 da ca bd
       -0.29762524 -0.24935833 0.04462556 -0.09905033
0000c0 0d 46 3b be 5b 3c 31 bd 0f 3c cc 3e 94 ae b6 3e
       -0.18288441 -0.04327045 0.3988957 0.35680068
0000d0 e1 72 93 3e 86 a1 0c be a6 d8 e4 3e 94 25 c0 be
       0.28798583 -0.13733491 0.4469654 -0.3752867
0000e0 d2 7e ea bd 2f 19 84 be 86 88 5d be 30 56 96 be
       -0.1144997 -0.25800464 -0.21634111 -0.2936263
0000f0 e1 ca 19 3e 3a 72 2d 3e 1e 99 5b be 63 27 11 3e
       0.15018798 0.16938105 -0.21445128 0.14175181
000100 72 3d f5 3d d4 6d 34 3d 1e 6d c6 3c 9a 07 c4 3d
       0.119746104 0.044050053 0.024221953 0.095717624
000110 f5 17 75 bc 23 d3 f2 3e 1c 47 ff be c6 48 1a be
       -0.014959325 0.4742671 -0.4985894 -0.15066823
000120 fe 7d 36 3e c1 52 c7 3e e5 2e 7b 3e 94 3b 17 3e
       0.178215 0.38930324 0.24529608 0.14768821
000130 21 6c fb bc cb b7 41 bf 0b a0 a4 bd 76 4f c2 bb
       -0.030691208 -0.7567107 -0.08038338 -0.0059298826
000140 68 3e 8e be b5 28 a9 3e 1e a7 84 3e 41 75 1c bf
       -0.27781987 0.3303887 0.2590875 -0.61116415
000150 3c 00 13 3e 10 d9 3f be 84 f7 8a 3d ea f8 2a be
       0.14355558 -0.18735147 0.06785491 -0.16696516
000160 1b 61 4b 3e ce d7 ae be 36 2f 52 3e 4c 9b 2e bd
       0.19861262 -0.3414902 0.20525822 -0.04262857
000170 08 49 b3 3e ec 8b 15 3e 39 f1 01 bf 19 70 7a be
       0.35016656 0.14604157 -0.507587 -0.24456824
000180 72 9e 64 3e 55 fd 64 3d be af 82 be 7b 5d 09 be
       0.22326067 0.05590566 -0.25524706 -0.13414566
000190 0c ee f4 3e 25 93 83 3e 8c 58 6f be cb 69 67 be
       0.47837865 0.256982 -0.23373622 -0.2259895
0001a0 a3 45 87 be 40 5a a3 bb a6 df 55 be 00 12 5b be
       -0.26420316 -0.004985124 -0.20886096 -0.21393585
0001b0 e0 60 7a bc 98 91 2a 3d 58 9e e8 bd ea 85 28 3e
       -0.015281886 0.041642755 -0.11358327 0.16457334
0001c0 b6 d4 2c be 79 d9 80 3e 2e a1 42 3e 72 7f 6f be
       -0.16878018 0.25165918 0.19006798 -0.2338846
0001d0 9a 5e 8d bd ea 0a 4d 3c 58 bf 25 3d d4 b7 86 3d
       -0.069028094 0.012514809 0.040465683 0.06578031
0001e0 84 e7 de 3d a0 18 88 3c 2f 93 0a be 86 63 06 3e
       0.10884002 0.016613305 -0.13532709 0.13123903
0001f0 6a 37 88 be 22 55 28 be dc 30 8e bd e6 57 0a be
       -0.26604778 -0.16438726 -0.06942913 -0.13510093
000200 cc b5 c6 bd 24 c7 68 be 68 a0 a5 be 99 29 5f 3c
       -0.09702644 -0.22732216 -0.32348943 0.0136207575
000210 50 85 cf be a4 21 bd be 4f b9 31 3e 82 ac 73 bd
       -0.40531397 -0.36939728 0.17355846 -0.05949069
000220 29 fd c3 3c e5 e4 c8 be cf e0 2e 3d bf 08 41 bc
       0.023924427 -0.39237133 0.042694863 -0.01178187
000230 c5 ad 8f 3d cc ea 8d 3e 69 62 0e 3f 90 51 a4 bc
       0.07015566 0.27718198 0.5561891 -0.020058423
000240 10 21 7f be 19 a4 06 be aa 61 41 3e 00 a8 eb ba
       -0.24914956 -0.13148536 0.18884912 -0.0017979145
000250 16 2a 0d be 34 a3 59 be df e4 84 be 2d b4 6f be
       -0.13785586 -0.21253663 -0.25955865 -0.23408575
000260 84 6d 66 bd 3a c0 1b 3e ac 8b 19 3e d5 f3 88 be
       -0.056256786 0.15210047 0.14994687 -0.2674853
000270 d7 32 1c 3e e2 fd 72 be 2d d8 a1 bd 17 f7 07 be
       0.15253769 -0.23729661 -0.079025604 -0.13277851
000280 1c c8 96 bd 9e fa 98 bd 79 db 89 be 65 d2 84 be
       -0.073623866 -0.074696764 -0.26925257 -0.25941768
000290 f3 c6 82 bd 31 64 8a bc 2b f5 15 be 95 09 ac 3d
       -0.06385603 -0.016893478 -0.14644305 0.08400265
0002a0 d9 48 8a be 77 1c 59 3e a8 43 01 3f c5 91 b3 be
       -0.27008703 0.21202265 0.5049386 -0.3507215
0002b0 c3 8f 67 3e a4 91 b3 3e 98 8e 30 bf da 2c 9e 3e
       0.22613434 0.35072052 -0.6896758 0.30893594
0002c0 7c 0c f5 3d 23 52 8c be 32 8a 9b 3e 8e 86 b0 be
       0.11965272 -0.27406415 0.30378872 -0.34477657
0002d0 b2 d9 9e 3c 67 6d ff bd 02 e3 b1 3e c6 95 09 3c
       0.019390915 -0.12472039 0.34743506 0.008397525
0002e0 7a dc 52 3e 0d 2e 92 3e c0 f5 e3 3d 1e 4d 74 3d
       0.20591918 0.2855076 0.111308575 0.059643857
0002f0 59 7e 92 be 66 21 f0 3e 42 4b 37 3e 6c ac ed 3e
       -0.2861202 0.4690048 0.17899802 0.4642061
000300 30 8c e5 be 4d 83 1b be 58 1d 40 be b0 00 fb bd
       -0.44833517 -0.15186806 -0.18761194 -0.122559905
000310 3c 88 a0 bd 60 4d e9 3d 93 1d 7e be 1b c8 16 3c
       -0.07838485 0.11391711 -0.24815969 0.009202982
000320 b4 41 be 3c fa ed 74 3e be 3c 1b bf af 6b b7 be
       0.023224689 0.23918906 -0.6063956 -0.35824344
000330 72 c2 31 be 1f 18 7b 3e 06 cb 8f be 8a e5 95 3e
       -0.17359331 0.2452092 -0.28084582 0.29276687
000340 d4 65 cd 3d b8 d9 0f 3d 80 4e 07 bb fa 92 60 bd
       0.10029188 0.035119742 -0.0020646155 -0.054827668
000350 78 88 0e 3d e8 b3 81 bd 00 6e ff ba f0 f2 10 3d
       0.034798115 -0.063331425 -0.0019487739 0.035387933
000360 be 26 5e be 53 db 14 be be 55 65 3e 0a 7c 66 be
       -0.21694466 -0.1453679 0.2239599 -0.22508255
000370 c0 25 a3 bc 5a 9e 98 3e b9 c8 51 3e 8d 2d 01 bd
       -0.019915462 0.29808313 0.20486726 -0.03153758
000380 c6 08 0c bf 2b d2 99 3d d2 30 b5 be b6 f4 67 be
       -0.5470089 0.075107895 -0.3538881 -0.22651944
000390 39 04 b0 be 77 71 ee bd 1d e9 fa be 17 c2 f3 3e
       -0.34378222 -0.116427355 -0.49005976 0.47609016
0003a0 02 87 bb bd ae 2c 98 3e 9f 72 f4 3d 2d 39 29 bc
       -0.0915661 0.29721588 0.11935925 -0.010328573
0003b0 5a ba 12 3e c8 c2 fa bd bc 28 e5 bc f3 20 73 3e
       0.143289 -0.12244183 -0.027973525 0.23743038
0003c0 dd 2d 89 bc ea 64 23 3e c9 7c 97 bd 4d a9 8b 3e
       -0.016745502 0.15956464 -0.07396848 0.27277604
0003d0 ce f7 84 3e a9 3d 2e bf bd c4 b6 3e f2 d9 6a be
       0.2597031 -0.68062836 0.35696974 -0.22934702
0003e0 00 84 7a 3b bc 24 41 bd 1b 94 15 be 58 26 16 3d
       0.003822565 -0.047154173 -0.14607279 0.03665766
0003f0 ae d9 6a 3e 92 0a a6 bd ec 9c 28 be c2 12 d2 bd
       0.229346 -0.08107485 -0.16466111 -0.10257484

fc1.bias f4 [128]
000000 64 7b b6 bd 70 79 42 3e 01 a6 39 be f9 9e 9d 3e
       -0.08910254 0.18991637 -0.18129732 0.3078535
000010 32 26 14 3e d4 63 a1 bd d4 4a 9c 3d 60 95 4f b9
       0.14467695 -0.07880369 0.0763146 -0.00019796705
000020 68 97 27 be 00 7f 1e bb 6a 14 c2 bc 68 35 80 bd
       -0.1636635 -0.0024184585 -0.023691375 -0.062601864
000030 70 5e 7b 3e 5e a7 22 be e9 98 c9 be 87 1b 54 be
       0.24547744 -0.15884158 -0.39374474 -0.20713626
000040 83 ca 83 be 22 f1 8d 3e 6f 41 96 be c2 d1 47 be
       -0.25740442 0.27723032 -0.29346797 -0.1951361
000050 40 15 08 be 42 13 82 be 82 5b 14 be 5c f5 58 3c
       -0.13289356 -0.25405318 -0.14488032 0.013242092
000060 49 0c c3 be a0 af aa 3d 2b 43 5e 3c df 40 1c bc
       -0.3809531 0.08334279 0.013565819 -0.009536951
000070 c0 d8 ba 3d 78 9b fa be ee d6 83 3e 83 7d 3b 3e
       0.09123373 -0.48946738 0.25749916 0.18309598
000080 2f 46 32 3d 75 67 81 3e 98 a3 a8 be b7 d6 be 3d
       0.043523964 0.25274244 -0.32937312 0.09318297
000090 66 72 bf bc bb 5a 96 be 49 2d 72 bd 2f d9 ef bd
       -0.02336998 -0.29366097 -0.05912522 -0.11711346
0000a0 73 1b 28 3d 4b 56 61 be e4 7b 1b 3e 03 69 b4 be
       0.041041803 -0.22005574 0.1518398 -0.35236368
0000b0 ab 17 a9 bd 4a 19 1c bd 10 26 8a 3e ef d3 c3 3d
       -0.082564674 -0.038110055 0.26982164 0.095619075
0000c0 87 0d c8 bd 6a 20 06 bd 2f ab e2 3d 31 a8 25 bd
       -0.09768205 -0.032745756 0.11067807 -0.040443603
0000d0 4d 5f 16 bc 13 98 af bb ba dc 05 3e f0 ad 4d be
       -0.009177995 -0.005358705 0.13072482 -0.20085883
0000e0 a8 60 b4 3e 1e c7 5c be 7b 07 6a be a9 45 04 bd
       0.35229993 -0.21560332 -0.22854416 -0.032292996
0000f0 e9 8c 85 bb 05 3a 4c bd cb 26 5b 3e 74 67 2c be
       -0.0040756357 -0.04986002 0.21401517 -0.16836339
000100 29 c1 3a 3d 7a 43 6a be 63 65 fa bc 0c 37 2b 3e
       0.045594368 -0.22877303 -0.030565923 0.16720217
000110 28 98 a1 3c 38 d5 1f 3e f7 40 09 3e 9a 86 33 bd
       0.019725874 0.1560868 0.13403688 -0.043829538
000120 68 4e 94 3d ce 58 ed bd 70 d7 58 3e ac a6 ed 3d
       0.07241517 -0.11589204 0.21175933 0.11604056
000130 b2 3f 68 be f4 6d e6 3e 37 59 a8 bd 5e 81 52 bd
       -0.22680548 0.45005763 -0.082201414 -0.051392905
000140 13 d0 d7 bd 54 12 5e be de 29 19 bd 2e da c1 be
       -0.10537734 -0.21686679 -0.037393443 -0.3786177
000150 a8 17 84 be 1f 4b 12 be e8 10 62 bd b9 60 0a 3e
       -0.25799298 -0.14286469 -0.055191904 0.1351346
000160 94 14 8b 3e 34 14 34 be 6d 0a 6d bc 9c a2 ca bd
       0.27164137 -0.17585832 -0.014467818 -0.098942965
000170 2a ec 73 be 02 e5 60 bd 23 f1 82 be 32 bf 1e 3e
       -0.23820558 -0.0549059 -0.25574598 0.15502623
000180 9c 94 7f be 43 bb 19 be 0e 70 9b be 90 07 44 bd
       -0.24959034 -0.15012841 -0.30358928 -0.047858775
000190 d8 a6 8b 3e d7 6d 0b be c5 68 be bd 0e 43 1c 3e
       0.2727573 -0.1361612 -0.09297327 0.15259954
0001a0 49 89 c3 bd d1 d7 5c be cb 65 57 be e9 24 7e be
       -0.095476694 -0.21566702 -0.21034925 -0.24818768
0001b0 96 b0 96 be 30 4e f7 3d 1c 91 7c bd 54 d0 74 3e
       -0.294316 0.1207546 -0.061661825 0.23907596
0001c0 3d 82 21 be c0 cd ac bd b2 d5 af bd c1 c2 49 3e
       -0.15772338 -0.08437681 -0.08585681 0.19703199
0001d0 06 62 be 3e a4 f3 59 bd 73 8c 1c be 70 7d fe bd
       0.3718416 -0.05321087 -0.15287952 -0.12426269
0001e0 ea 9b 86 3e c6 9f 24 be 05 60 2b be 5e f1 86 be
       0.26290828 -0.16076574 -0.16735847 -0.26356024
0001f0 b8 83 88 be 64 a5 a1 3c 70 5b b4 bc 3f c3 5a 3e
       -0.26662993 0.019732185 -0.022016257 0.21363543

fc2.weight f4 [256, 128]
000000 ed 0a 90 3d b0 5a c1 bb 18 e7 df 3c c4 29 97 bd
       0.07033334 -0.0059007034 0.027331874 -0.07381013
000010 44 9c 47 3d 85 c0 bf 3b 73 66 16 bd e9 2c 39 bd
       0.04873301 0.0058518075 -0.036718797 -0.045208845
000020 78 4f 58 3c 00 9c cd 39 71 89 89 bd 18 16 a8 3c
       0.013202541 0.00039216876 -0.06715668 0.020518348
000030 a8 a1 ae bd fb 59 7f 3d e5 4a b4 bc b1 7b a6 bd
       -0.08526927 0.06234167 -0.022008369 -0.08129061
000040 af b2 2b bd 01 52 72 bc 98 ca cb bd a6 dc 38 3d
       -0.041918453 -0.014790059 -0.09950751 0.0451323
000050 e0 a6 88 bb 80 c8 4c 3e f6 6b b5 3c 3e bb c9 3c
       -0.0041702837 0.1999836 0.022146206 0.024625417
000060 68 ee b8 3d 8e a0 36 3b 3a 9b 6b 3c e8 5f 1b be
       0.090298474 0.0027866694 0.014380271 -0.15173304
000070 5e 5a ee bc fb e0 a8 bc f1 1d 26 bd c4 c8 83 bd
       -0.029095825 -0.020615092 -0.040555898 -0.064347774
000080 c9 95 68 be c4 4d bc bc 56 8e 10 bd 9c 7d 98 3d
       -0.22713389 -0.0229863 -0.035291992 0.07445833
000090 82 de 3a be 45 ea 8f 3c b2 82 f3 bd 8f 1d b7 bd
       -0.18248942 0.017567763 -0.118901625 -0.08941185
0000a0 c7 24 e6 bd 6e 47 3f bc 4d 28 77 bc 12 b6 44 bd
       -0.112374835 -0.011674745 -0.015085292 -0.0480252
0000b0 99 4c 44 3e 34 3d ed 3c 64 ab a0 3c ed 7a c8 3b
       0.19169845 0.028959848 0.019612975 0.0061181695
0000c0 05 de da bd 00 74 5e be 97 ad 10 bc d3 bd 28 bd
       -0.10686878 -0.21723938 -0.00883045 -0.041196655
0000d0 8a 5d 9e bd e9 d8 f1 bd 82 07 74 bc ff fa 87 bd
       -0.07732685 -0.118089505 -0.014894368 -0.066396706
0000e0 65 d2 04 bc ff 95 ca bd 96 d1 51 bd f0 b1 1b bc
       -0.008106803 -0.09891891 -0.051225267 -0.009502873
0000f0 5e b3 2d 3d 42 02 8c 3d d4 57 e4 3c f5 49 49 3c
       0.042407386 0.06836368 0.027873911 0.012285699
000100 a3 20 3d 3d d7 4b 66 bd c2 6f c4 bb a2 b4 32 3d
       0.046173703 -0.05622467 -0.005994768 0.043629296
000110 54 1d 8e bd c2 96 28 3d 9c 5c b3 ba 8b 6d 0d 3d
       -0.06939188 0.0411594 -0.0013684216 0.034528296
000120 a7 1d 29 bd 44 d4 3f bd 30 32 af bc 47 ef 07 bc
       -0.041288044 -0.04683329 -0.021386236 -0.008296794
000130 b0 9d 12 be 4c 4a 63 bd 31 c5 1d 3c dc 0e 22 3d
       -0.14317966 -0.055490777 0.009629534 0.039564952
000140 88 08 09 be 34 ed 4f bd 2e 7e db bd b8 67 1b bd
       -0.1338216 -0.050763324 -0.10717426 -0.03794071
000150 80 12 0c 3c 5b 70 89 bd 06 6c d4 bc 60 da 11 be
       0.008549333 -0.06710883 -0.025930416 -0.1424346
000160 2c 9b 4f bc 3b 16 97 bd a8 63 55 bd 1a e1 e0 bd
       -0.012671273 -0.07377287 -0.052096993 -0.10980435
000170 6e 68 24 3c 6c 91 96 bd 2f 7d 54 3d e0 79 7b bd
       0.010034664 -0.07351956 0.051877197 -0.061395526
000180 86 32 c9 bd 31 10 c3 bd b1 a4 5f bd ff 71 09 3d
       -0.0982409 -0.09524573 -0.05460042 0.03355598
000190 0b b2 0c bd c0 d0 da bb 0f 28 87 be 51 08 a7 bd
       -0.034349483 -0.006677717 -0.2639775 -0.08155883
0001a0 1c 0d 3d bd 5d b4 b4 bd a1 e9 69 3d cf 65 70 bd
       -0.04615508 -0.08823464 0.05710757 -0.058690842
0001b0 e0 9c df 3c 8c d8 ce 3c 39 90 12 bd 84 a9 03 3d
       0.027296484 0.025249742 -0.035782073 0.032144085
0001c0 96 41 86 3c 7a 27 fd bd c4 a6 97 bd 54 68 b3 bd
       0.016388696 -0.12361045 -0.07404855 -0.087601334
0001d0 37 ca dc bd d4 f6 d0 3c 20 f4 b9 3b e3 7b 9c bd
       -0.10780757 0.025508322 0.005674854 -0.07640817
0001e0 aa 9c 7d bd c9 cd 42 bd 2a 69 74 3d e7 84 b3 3d
       -0.061916985 -0.047559533 0.059670605 0.087655835
0001f0 e0 13 86 3b cb 54 33 3c e2 d3 32 3c a3 58 17 3d
       0.0040917248 0.010945509 0.010914775 0.036949765
000200 d6 29 de bc da e7 8d bf 62 b7 9e 3a f5 a3 6a bf
       -0.027119558 -1.108638 0.0012109096 -0.9165643
000210 70 82 05 3d 1a 42 c2 3d 7e 06 af 3d 78 fe d7 bb
       0.032595098 0.09485264 0.0854616 -0.0065916143
000220 20 6c 49 3b 00 3f 1d 3b 56 ee c1 be d8 40 9e bd
       0.0030734614 0.002399385 -0.37877148 -0.07727212
000230 2a 8b e0 3c fb 49 92 3e fb 20 e7 3d 16 26 40 bf
       0.027410109 0.28572068 0.112855874 -0.75058115
000240 6e 9b 18 3d 1c fe c6 bf 3d ef 5b be 9c 1a 9f bd
       0.037257604 -1.5546298 -0.21477981 -0.07768747
000250 02 00 35 3d bd 8d 3f 3d 4a ec 64 bd 31 ba a2 3c
       0.04418946 0.04676603 -0.055889405 0.019864174
000260 57 95 5d be ca 87 15 bf 08 3d 65 3e aa c9 e0 be
       -0.21639 -0.5841032 0.22386563 -0.43903857
000270 8f ea 54 be f2 2d 95 bd c7 fc 2b 3e cf e5 d3 3e
       -0.20792602 -0.07284154 0.16795646 0.41386268
000280 89 3f 59 bf 24 68 e0 bc ee a1 02 bd eb a0 a2 bd
       -0.8486257 -0.027393408 -0.03189271 -0.07940849
000290 82 01 f5 3d 3e 81 1a bd 7c 3f ef 3d ae b6 5c bd
       0.11963178 -0.03772091 0.116820306 -0.053885154
0002a0 1c 35 05 bf c0 1b 74 bb 0f 67 7a bf 93 a6 47 3e
       -0.52034163 -0.0037247986 -0.97813505 0.19497137
0002b0 d5 0c 3f 3c 98 84 7d bd 6d ac 5f bf 8c ba 6f 3e
       0.011660774 -0.06189403 -0.87372476 0.23411006
0002c0 f3 af 89 bf 3a 96 73 be 71 89 89 be b0 97 d4 bf
       -1.075682 -0.23787776 -0.26862672 -1.6608791
0002d0 01 bb ae 3c cc 62 19 3f 2a b1 81 bf b9 46 2c be
       0.021329405 0.5991638 -1.0132191 -0.16823854
0002e0 71 bb 72 bf ae 21 19 bf 58 b6 c2 3d 4f b0 fa bd
       -0.9481726 -0.59817016 0.095074356 -0.122406594
0002f0 ea 04 ce be 26 90 0f bd c5 b9 96 be 40 e6 73 bd
       -0.40238124 -0.03504958 -0.29438606 -0.059545755
000300 9c a5 d1 3e 56 1c 87 bd 74 03 e3 bf 3c 45 f2 bd
       0.40946662 -0.065972015 -1.7735429 -0.11829612
000310 f9 47 06 be 9a 26 83 3d b4 8f 24 3e bb ec 17 bf
       -0.13113393 0.06403847 0.16070443 -0.593456
000320 1a c4 67 3d c8 6a 62 bc ac 81 b3 3e 23 31 8c 3d
       0.0565835 -0.013819404 0.3505987 0.068453096
000330 bd fa c5 bf 3d 6f 45 3e 7b cd 0a bf e1 df 30 3e
       -1.5467144 0.19280715 -0.5421979 0.17272903
000340 2b f5 5b bc 1d 02 35 be a4 6d d4 be 33 3e ab 3d
       -0.013425152 -0.17676587 -0.414899 0.08361473
000350 be 8d 61 3d 3f 82 14 bd 70 a9 1e bc 37 cb 43 bc
       0.055066817 -0.036257025 -0.009683952 -0.011950306
000360 fb 78 d0 3d 19 43 a9 3d 26 ff 77 bd 5c 6b 47 be
       0.10179325 0.08264751 -0.060546063 -0.19474548
000370 34 14 b4 bc 33 38 75 bc a3 51 e0 bb 10 93 2e 3c
       -0.02198229 -0.014967012 -0.0068456694 0.01065518
000380 c3 ce 8b be 88 dd 0a bd de 53 33 3d 8f 8b 1d 3f
       -0.27306184 -0.033902675 0.043781154 0.61541075
000390 91 21 a8 be 42 da 5e bd f9 80 1c bf c7 d8 1b bf
       -0.3283811 -0.054407366 -0.61134297 -0.6087765
0003a0 3e 06 6f be 42 15 4f be 89 10 32 bf a5 79 d0 be
       -0.23342225 -0.20222953 -0.6955648 -0.40717807
0003b0 2b 44 11 3e 9f 73 6f 3d 10 16 b7 bc f4 c7 d1 be
       0.1418616 0.058459874 -0.022349387 -0.40972865
0003c0 67 cb 0f bd 7d 02 8c 3e 04 77 76 bd 33 ca 29 be
       -0.03510609 0.27345648 -0.060172096 -0.16581039
0003d0 b7 6c a7 bf 50 80 2f 3d e3 92 95 3e c0 09 b8 bb
       -1.3080052 0.042846978 0.29213628 -0.0056163967
0003e0 47 82 7a be 80 b1 e9 ba 49 62 5f be bf 91 b1 3d
       -0.2446376 -0.0017829388 -0.21814837 0.08670377
0003f0 26 2a 30 3d 30 6a 09 be 78 e1 13 bf d6 6c 55 be
       0.043008946 -0.13419414 -0.57765913 -0.20842299

fc2.bias f4 [256]
000000 30 d1 1b be e1 aa 50 be 8c ea 8d bd 45 bf ce 3b
       -0.15216517 -0.20377685 -0.06929502 0.006309422
000010 6f 03 5c be 9c 94 8d be da 9d 12 be 6f b3 c9 bd
       -0.21485685 -0.27652442 -0.14318028 -0.09848677
000020 d1 3b b0 bd c9 30 38 3e 6f 10 48 be 84 4f bd bd
       -0.08605159 0.1798736 -0.19537519 -0.09243682
000030 d9 ff 28 be 33 58 8c bd 04 e4 59 bd 0d da cb bc
       -0.16503848 -0.0685276 -0.05319597 -0.024884248
000040 86 42 07 bd ff be 17 be 4d 35 0c be 0e d4 3f bd
       -0.033022426 -0.14818953 -0.13692208 -0.04683309
000050 9a 5e 10 3e 1e 34 bd bc c1 29 1b 3d 89 58 26 be
       0.14098588 -0.02309614 0.037881617 -0.16244711
000060 41 cf a7 bd c0 8a b0 bd 30 3f fb bd e5 0c 5b be
       -0.081938274 -0.086202145 -0.122679114 -0.21391638
000070 3c fa 29 bd ed 9f 5b bd 8a fa 31 be eb 0c 18 be
       -0.041498408 -0.053619314 -0.1738073 -0.14848678
000080 9c a1 d9 bd 22 ee 3a be c0 9d ae bd ce ee 6e bc
       -0.10626528 -0.18254903 -0.08526182 -0.014583303
000090 fb 09 62 bd 5c c1 e2 bd 72 5e 60 be c9 05 9d bd
       -0.0551853 -0.110720366 -0.21911028 -0.07667119
0000a0 7e 55 72 bd 78 83 9c bb 3e 50 fc bd f1 ec 01 be
       -0.059163563 -0.0047764145 -0.123199925 -0.12688042
0000b0 54 51 af bd 64 c7 8d be 97 a9 e6 bd 8e b4 ee bd
       -0.08560434 -0.27691185 -0.112628154 -0.11655532
0000c0 d2 e3 a0 be 9e 63 c6 bc 23 22 eb bd 58 31 2a be
       -0.31423813 -0.024217423 -0.114811204 -0.16620386
0000d0 72 29 9d 3d 3f ae a5 3d a9 eb cc bd 3d 8f ed bd
       0.07673921 0.080898754 -0.10005886 -0.11599586
0000e0 3a a5 14 be 0f 3f 18 3c 82 ee 32 be 76 27 b6 bd
       -0.14516154 0.009292378 -0.17473796 -0.08894245
0000f0 87 b1 92 3e 3b d3 c5 bd e3 c3 3b bc ce 0b af bd
       0.28651068 -0.0965943 -0.011460277 -0.085471734
000100 8a 80 3c 3d 7b e0 9f 3d 15 6c 6d bd c3 20 f5 bd
       0.046021022 0.07806488 -0.057964403 -0.119691394
000110 d8 42 e0 bd 40 9c 14 be 38 64 0b 3e 2b 7d 74 be
       -0.109502494 -0.1451273 0.13612449 -0.23875873
000120 1a 77 2e bd 1e 01 bf bd cd e5 9e bd 2c 59 8b be
       -0.042594053 -0.09326385 -0.07758675 -0.2721647
000130 5c 82 d9 bd 06 84 14 be a1 2f 5e be cc 6f 1c bd
       -0.10620567 -0.14503488 -0.21697856 -0.038192555
000140 43 42 da bd 23 ae 8c bd b6 9b ec bc ba 69 8f be
       -0.1065717 -0.068691514 -0.028882843 -0.2801035
000150 28 fb 90 be 2d 58 6c 3e de ec b5 be fa 13 89 bd
       -0.28316617 0.23080511 -0.35532278 -0.06693263
000160 12 93 b4 3d 49 ab 7a 3d 0d 30 db bd 9e d8 2c be
       0.08817114 0.061198507 -0.10702524 -0.16879508
000170 e3 0d e2 bd 82 99 14 be a9 f4 a1 3a 2c a6 c6 bb
       -0.11037805 -0.14511684 0.001235624 -0.0060622897
000180 0a 30 14 be 32 61 3d bd 6e e0 ac bd 63 b1 1f bc
       -0.1447145 -0.04623527 -0.08441244 -0.009746882
000190 ef c7 7c 3d e2 d6 5e bd e2 db f5 bd 9e 07 e5 bd
       0.06171411 -0.054404147 -0.1200483 -0.111830935
0001a0 9e 07 e5 bd 37 f1 c0 bd a8 0e 70 3c 9b 33 1b 3e
       -0.111830935 -0.09421008 0.014651932 0.15156405
0001b0 77 46 ab 3d 3d a4 0b be ad e4 90 be 83 f6 7d be
       0.083630495 -0.1363687 -0.28299466 -0.24801068
0001c0 81 25 82 bc 07 75 ad be e8 54 e1 bd 13 b7 54 be
       -0.015887024 -0.33878347 -0.11002523 -0.20772962
0001d0 aa 7e f4 3b 0a ce e7 3b f9 08 c8 bd 60 c9 1b bd
       0.0074613886 0.0070741223 -0.097673364 -0.038033843
0001e0 81 46 fe bd 00 ac b8 bd c3 3c 62 be ca 4c 47 be
       -0.12415791 -0.090171814 -0.22093491 -0.19462886
0001f0 19 31 74 bc 00 59 0c be 1c 5c da 3d 98 d6 cd bc
       -0.014904284 -0.13705826 0.106621 -0.02512674
000200 71 fb 92 bd 19 25 30 be 8e eb cb 3d be 25 29 bd
       -0.07176865 -0.17201652 0.09957038 -0.04129576
000210 b2 80 1e be 46 67 90 bd c1 32 73 bd a6 71 f9 3d
       -0.15478781 -0.07050948 -0.059374575 0.1217988
000220 d7 c0 dd bc 99 fa 70 bc 12 52 9c bd f4 56 bf bd
       -0.027069492 -0.014708185 -0.07632841 -0.09342757
000230 2e ff 85 bd 08 42 16 3d 8c 9e 27 be 1c 2c 38 be
       -0.06542812 0.036684066 -0.16369075 -0.17985576
000240 47 e2 80 be 4a d7 8b be 9f 10 1d be e7 00 5d be
       -0.25172636 -0.2731269 -0.15338372 -0.21582375
000250 37 91 1a be ff 22 b2 bd a6 fb 24 be 46 44 64 3d
       -0.15094458 -0.08698081 -0.16111621 0.055729173
000260 9a 97 e9 bd 4e 3c 90 bd ef 56 87 bd 85 ee 91 be
       -0.11405869 -0.07042752 -0.06608378 -0.28502288
000270 02 4a 1e bd 88 08 89 bd 8a 09 d6 bc 88 59 1b 3e
       -0.038644798 -0.0669108 -0.026127595 0.15170872
000280 47 87 25 3d f0 81 4c be 3e 4f bf bd 65 6a ef bd
       0.040412214 -0.19971442 -0.09341286 -0.11690215
000290 ad 92 f8 bd eb 74 82 bd c0 b2 10 be 05 b7 a9 bd
       -0.12137351 -0.063699566 -0.14130688 -0.08286861
0002a0 03 13 87 be 64 63 2b bd d5 d5 0e 3d 1b 16 52 3e
       -0.26381692 -0.041842833 0.034871895 0.20516245
0002b0 50 c3 f8 bd 29 7b 20 3d 2c 47 58 bd e4 46 e7 bd
       -0.12146628 0.039179955 -0.05280225 -0.11292818
0002c0 20 88 2d bc 54 1d 0e be 48 d8 12 bd 0e 3b d2 bd
       -0.010591537 -0.13878375 -0.035850793 -0.1026517
0002d0 58 81 04 be e0 c4 28 be d7 cc 33 3e e2 8b e9 bd
       -0.12939966 -0.16481352 0.17558609 -0.11403634
0002e0 5c 0b 25 be 55 de 40 be 52 b1 b3 bc e7 f5 e5 bd
       -0.16117615 -0.18834813 -0.021935139 -0.11228543
0002f0 33 18 72 be d2 1c 05 be 2f a4 98 3c 3e 04 92 bc
       -0.23642044 -0.12999275 0.018632976 -0.017824288
000300 27 90 11 be 5a 56 7d bd 3f 2d 53 bd 52 20 ea bd
       -0.14215146 -0.06184993 -0.051556822 -0.11431946
000310 49 2c e1 39 07 33 f0 bd ab ea c5 bd e9 ff d5 bd
       0.0004294834 -0.11728483 -0.096639 -0.104492016
000320 b3 42 c5 bd 1b 9a f1 bc 16 1e 9c bd 7f 83 86 be
       -0.096318625 -0.029492429 -0.07622926 -0.262722
000330 8b d6 f4 bd c5 c1 20 be 9b 10 00 bd 5f a7 29 be
       -0.11954983 -0.15698917 -0.031265836 -0.16567753
000340 9a 23 8b bc ac d4 62 bd 32 c5 9d bd c1 6a cc bd
       -0.01698475 -0.0553786 -0.07703628 -0.09981299
000350 21 d8 cc bd 91 fc 0b 3e 97 b1 19 3b b2 75 27 bd
       -0.10002161 0.13670565 0.00234518 -0.040883727
000360 aa 22 fd 3d 42 af 81 be 60 8d b7 3d 42 4b 15 bd
       0.12360127 -0.25329024 0.08962512 -0.036448725
000370 34 a4 7f bd 02 77 01 be 89 43 2e be e4 54 23 be
       -0.062412456 -0.12643054 -0.1701795 -0.15950352
000380 5f 6a 5d be 32 aa 1f be 05 59 59 3d 9c 32 a9 bc
       -0.21622609 -0.15592268 0.05306341 -0.020654015
000390 b0 0f 1c bd 5e f1 06 bc 96 25 4c 3d ed 26 8c 3d
       -0.0381009 -0.008236257 0.049840532 0.06843362
0003a0 fb 47 bb bd cc 3b ca bd e3 e4 d8 3c 6c d6 bc bc
       -0.091445886 -0.098746866 0.02647633 -0.023051463
0003b0 4f aa 1c be fa 9f fa bd 46 2f b6 bd dc 64 7a be
       -0.15299343 -0.12237544 -0.088957354 -0.24452537
0003c0 f8 42 70 be 55 ae 23 be 37 5f 97 be 1b 03 6e bd
       -0.23463047 -0.15984471 -0.2956483 -0.05810843
0003d0 f4 34 67 bd 12 61 c2 bd 11 0b 0c be e5 a0 d0 bd
       -0.056446984 -0.09491171 -0.13676096 -0.10186938
0003e0 e8 cb a5 bc 3e 78 34 be 8c 96 c6 bd 84 22 38 be
       -0.020238832 -0.17623994 -0.09696683 -0.17981917
0003f0 68 71 b8 bd 17 95 82 3c 1a ca df bc 53 29 0c bd
       -0.090060055 0.015940232 -0.02731805 -0.034219097

fc3.weight f4 [128, 256]
000000 08 27 f2 3b 24 b5 59 bd 90 02 29 3c dc 0e 1f bf
       0.007389907 -0.053151265 0.010315552 -0.6213205
000010 c6 ed 8b 3e d7 c0 92 be 9b 1f 82 bd 78 74 99 3c
       0.27329844 -0.2866275 -0.063536845 0.018732294
000020 04 67 d9 bb 2a e4 ee bd 63 31 f7 be 72 53 05 bd
       -0.006634595 -0.116646126 -0.48279867 -0.032550283
000030 c8 12 a1 3e 6c cc f9 bc ee a6 a4 bc 34 7f 77 be
       0.3145964 -0.030492984 -0.02009913 -0.24169618
000040 6b f3 04 bf 03 1d 50 bf 15 7f dc 3e 45 7e 85 3e
       -0.51933926 -0.8129427 0.43065706 0.26072899
000050 8a 82 5c 3e 2d 29 c5 3e 35 dc 01 3d 29 f8 71 be
       0.21534172 0.38507977 0.031704146 -0.23629822
000060 c3 fa a3 bf 62 3a 9f 3d 92 3d 15 bf 95 d7 50 be
       -1.2810901 0.077748075 -0.58297074 -0.20394738
000070 40 68 d4 3b ab 15 f1 be b9 e0 60 be 02 cd 8b 3d
       0.006482154 -0.47086844 -0.21960725 0.068262115
000080 ab 00 b4 3c 74 76 85 be a7 2b fb bc ea 31 31 3d
       0.021972975 -0.26066935 -0.030660463 0.043260492
000090 ef a2 7a bd 9c b9 31 be f5 ce 05 bf e0 df 56 bc
       -0.06119054 -0.1735596 -0.52268916 -0.013114899
0000a0 9a cc 0b bf 16 c7 17 bf 0b 48 50 3e 4d bc 1b bd
       -0.5460907 -0.59288156 0.20339982 -0.038021374
0000b0 71 dc c3 be bd 10 bf 3d 8d b1 2c bc 99 57 01 bf
       -0.3825412 0.093293644 -0.010540378 -0.5052429
0000c0 bf 4b e0 be fe 0e 42 bf df 7f 24 3d 34 be 97 bf
       -0.4380779 -0.75804126 0.04016101 -1.185492
0000d0 5e e0 8a be 7e 5d 89 3e a5 7b 51 bd d2 1e 3c bd
       -0.27124304 0.2682914 -0.051143307 -0.04592783
0000e0 93 4f 59 3d b7 9d 25 be 61 26 c5 bf 2c 45 b3 3d
       0.053054404 -0.16173445 -1.5402337 0.08753428
0000f0 eb 42 22 3e 4c b3 05 bd 79 7b da bd 67 0c b3 be
       0.1584584 -0.032641694 -0.10668082 -0.349704
000100 a8 6a db bd f5 3a cf 3d 57 f6 70 bf a6 c3 1a bd
       -0.107137024 0.10118667 -0.94125885 -0.03778424
000110 75 a9 57 3d ef 3b ee be 32 50 67 be 4f 09 89 3e
       0.05265184 -0.465301 -0.22589186 0.26764914
000120 f0 e2 1e bf fa 69 a7 be 1c 78 c9 be 06 f4 19 be
       -0.6206503 -0.3269804 -0.3934945 -0.15034494
000130 55 8e 10 3d 9c b7 a9 be c1 80 3a 3f 9b 0d eb 3e
       0.03529199 -0.33147895 0.7285271 0.45908818
000140 ad d9 e6 be 62 3a 1e bd 7e 58 46 bc fe b8 a2 bf
       -0.45087948 -0.038629897 -0.012106059 -1.2712705
000150 7e 99 5b bf 66 d9 91 3e e1 2f ce be 4b 27 22 be
       -0.85781085 0.28486174 -0.40270904 -0.15835302
000160 31 37 a0 bf 27 ed 50 be 00 db 70 bc 5e 09 ca be
       -1.2516843 -0.20402966 -0.014700651 -0.39460272
000170 ae 37 87 3d 0e 13 67 bc 7b 48 8c 3e 7e 79 36 3d
       0.06602417 -0.014103664 0.27399048 0.044549458
000180 e3 ac ce bd 48 72 83 3b 3d ab 5a 3d b8 68 69 3d
       -0.10091569 0.004011426 0.05338596 0.056984633
000190 e8 99 f4 3e 53 51 b4 3e aa cb 5d be 04 ed 45 3d
       0.4777367 0.35218295 -0.21659723 0.04832174
0001a0 f9 9d d7 bc 60 df 89 bd 80 fe 06 be 95 f3 3e bf
       -0.026320444 -0.067320585 -0.13183022 -0.74590427
0001b0 77 72 73 3d 7f 35 19 3e 1e 17 eb bd 09 36 13 be
       0.059435334 0.14961813 -0.11479019 -0.14376082
0001c0 56 8c d2 bd 18 3d 49 bf 09 95 0b 3d 4d 01 16 3d
       -0.10280673 -0.78608847 0.034077678 0.036622334
0001d0 ff b5 80 be 0d ea ef 3e 7c f6 b3 3e 47 56 9a 3b
       -0.25138852 0.46858254 0.3514899 0.004709992
0001e0 c1 cb df bd 04 46 ca bc 1d 30 77 3d 81 22 b2 3c
       -0.10927535 -0.02469159 0.06034862 0.021744968
0001f0 82 c2 03 bd 55 e8 8e bc 74 2b 05 3f b3 83 84 bf
       -0.03216792 -0.017444769 0.5201943 -1.0352691
000200 ca 55 ba 3c 3a 52 df be fc 7a 06 3f 21 7b b4 3e
       0.022745986 -0.4361742 0.5253141 0.3525019
000210 18 03 cd bd a8 18 b9 3c ea 3e 7d 3d 71 98 ac 3e
       -0.10010356 0.022594765 0.061827578 0.33710054
000220 db 8a af bd eb c6 ac bb ef d9 81 be db d7 62 be
       -0.085714065 -0.0052727363 -0.25361583 -0.22152655
000230 da 4d 82 bc e8 0d 3d 3d 69 9c 0f bf b2 6d 3d bd
       -0.015906263 0.04615584 -0.5609804 -0.04624719
000240 3f 35 02 bd 84 83 6d bf 79 35 ef be 7d 9b 22 3e
       -0.03178906 -0.927788 -0.46720484 0.15879627
000250 63 01 3d be 03 ef f0 bd 9b 9c fc be 78 ab 56 3e
       -0.1845756 -0.11764338 -0.4933823 0.20963848
000260 e7 77 5e 3d 3e 22 57 bd 31 bf 9e bc 0d a0 8f 3e
       0.054313567 -0.05252289 -0.019378277 0.28051797
000270 0a d0 ce 3b 4a c5 2c bd a1 63 9d 3d c5 5b 22 bf
       0.0063114213 -0.042180337 0.07685018 -0.6342128
000280 66 9d c2 3e 7b 6a 70 bd 30 6c 5e bc 78 9d 84 be
       0.3801071 -0.058695298 -0.013575599 -0.2590139
000290 19 25 60 3e 85 aa d1 bc de 38 ac be b4 18 5f bc
       0.21889152 -0.025594005 -0.33637136 -0.0136167295
0002a0 1a e5 80 be 7f b5 14 3d 1e 79 4b bf de 8d ea b9
       -0.2517479 0.0363059 -0.79481685 -0.00044737657
0002b0 0d 7a 21 be d1 b4 09 bf d9 fc eb 3e ff 50 70 3d
       -0.15769215 -0.5379153 0.46091345 0.058670994
0002c0 e2 7f 64 be 08 46 34 bd 1f 22 a4 bd af 15 9b bc
       -0.22314408 -0.0440121 -0.080143206 -0.018931238
0002d0 79 ba 9a bf 12 7f 52 b9 60 02 28 bd c7 1c 12 b9
       -1.2088157 -0.00020074498 -0.04101789 -0.00013934365
0002e0 13 2b f4 3e 66 38 7a bf e5 33 44 bf f0 e0 a2 bc
       0.47689113 -0.9774231 -0.76641685 -0.01988265
0002f0 1f 6b c2 bd 31 b3 20 bd 1e f3 58 be c3 33 94 be
       -0.09493088 -0.03923339 -0.21186492 -0.2894574
000300 8b 4d 76 bd 70 f0 9b bd a5 43 77 3d b5 6a 77 bd
       -0.060132544 -0.07614219 0.060367245 -0.060404498
000310 61 e5 33 bc d0 5d 9c 3c 70 8a 97 3b f5 39 5a 3c
       -0.010979981 0.019087702 0.0046246573 0.013319482
000320 c0 d3 93 3c 27 0d 92 be 1f cc 34 3e 5a 32 b4 3d
       0.018045306 -0.2852566 0.17655991 0.08798666
000330 3a 28 94 bc 81 f2 94 bd 4d d0 85 bd 22 82 be 3d
       -0.018085588 -0.072728164 -0.06533871 0.093021646
000340 bc 7d 50 bc fa 4a dd 3e d4 b1 aa 3c bb d9 6b bc
       -0.01272529 0.43221265 0.020836748 -0.014395173
000350 fe 07 54 3d fc 03 c5 3e 5a 71 32 3f 6f f0 9b 3c
       0.051765434 0.38479602 0.6970421 0.019035546
000360 01 a8 e0 bd 34 2e f3 3c 47 a0 31 be 1e d6 26 bd
       -0.10969544 0.029685117 -0.17346297 -0.04073154
000370 fc cb e4 3c 1b ae 7e be 65 ea 47 3d b2 44 0e be
       0.027929299 -0.24871103 0.04880752 -0.13893393
000380 2b 79 63 3e 7c 30 bf bd 5f ba 0d bd d7 ec 91 be
       0.2221419 -0.093354195 -0.034601565 -0.28501007
000390 0c 09 77 bc 02 7d 4e 3d ce 0a e0 3d 17 d3 3c 3d
       -0.015077841 0.050412185 0.10939561 0.04609975
0003a0 bd e7 05 3d 8c bd d6 be 15 8d 2a 3d d8 d6 00 bc
       0.032691706 -0.41941488 0.041638453 -0.007863723
0003b0 73 a3 82 3d d3 29 33 3e 0a 1f 9e 3c fb f6 8a be
       0.06378832 0.17496423 0.01930191 -0.27141556
0003c0 bd 40 3e 3e 1e ab a2 bd 6c 0b 65 bf ad 81 5e be
       0.18579383 -0.07942794 -0.89470553 -0.21729155
0003d0 11 a7 90 be e6 c8 8e 3e cb 08 80 bd 8e 57 e6 3e
       -0.28252462 0.27887648 -0.06251677 0.44988674
0003e0 9b e6 ff bc 32 58 75 bf 5f a2 b7 bc f0 2a 8c be
       -0.031237891 -0.958377 -0.022416292 -0.2737651
0003f0 6f 7b 6f bd b9 eb 24 be 8d 48 4e be 44 9c c7 3c
       -0.058467325 -0.16105546 -0.20144863 0.024366505

fc3.bias f4 [128]
000000 72 bb 9a 3e 1b 85 19 bd a8 a9 25 3f 27 8e 1d 3e
       0.30221134 -0.037480455 0.64712 0.15386258
000010 cd 7a 97 3e 03 9c 1c 3e 11 7d 9c bd 29 23 80 bd
       0.29585877 0.15293889 -0.07641042 -0.06256706
000020 18 cb 3c be 8a 07 02 be 02 27 38 bd 4e 2d 6f bd
       -0.18436849 -0.12698188 -0.044959076 -0.058392815
000030 41 ff 30 bc ae 21 19 be 89 45 71 be c1 c9 b7 bd
       -0.010803045 -0.14954254 -0.23561682 -0.089740284
000040 01 35 ab be c8 1f bb bd bb 6c b2 be 08 33 84 be
       -0.33438876 -0.09136921 -0.3484858 -0.25820184
000050 36 28 22 bd 19 25 b9 bd f1 96 a3 3d bf 4d 11 bd
       -0.03958913 -0.09040279 0.07987774 -0.035474535
000060 7d 15 e6 3e 1f 4a 0a 3e 63 25 7e bd 64 dd 17 be
       0.4493827 0.13504837 -0.062047374 -0.14830548
000070 46 55 3d bd 57 9c 2d 3f bf d0 90 bd 9c ea d3 3d
       -0.0462239 0.6781668 -0.07071065 0.103474826
000080 8f d8 90 bd be 82 c8 bd fd 95 2c bd fd 6c 10 3d
       -0.07072555 -0.09790562 -0.042135227 0.03526019
000090 38 07 bb bd 8d 43 1d bd 73 fd 66 3d 5d 37 b4 bd
       -0.09132236 -0.0383945 0.05639405 -0.08799622
0000a0 d6 46 ee bd 06 9e ac bd a9 f1 4b bd 84 d0 c5 3d
       -0.11634605 -0.08428578 -0.049791012 0.09658912
0000b0 67 21 1b bd ec 08 96 3e bb ac 66 be 92 83 16 be
       -0.03787365 0.29303682 -0.22526829 -0.14698628
0000c0 00 e0 83 3e 4b a1 92 be 0a cb 5a 3f cc 03 95 be
       0.25756836 -0.28638682 0.85466063 -0.2910446
0000d0 36 46 d7 be ef ad 6c be 91 ca 5b bd 98 e7 c2 3d
       -0.42045754 -0.23113225 -0.05365998 0.09516829
0000e0 11 50 b9 bd bd 77 d1 bd 41 14 ae be 3f bb c9 bd
       -0.090484746 -0.102279164 -0.33999828 -0.098501675
0000f0 32 d0 94 bd 5c 05 d9 bd 55 9f 86 3e 91 3d 8a 3e
       -0.072662726 -0.10596725 0.26293436 0.27000096
000100 bf 0a 40 be 5f 09 ca bd 95 81 b4 bd 0c e8 9d be
       -0.187541 -0.09865069 -0.08813778 -0.308411
000110 08 9c 3b 3e 83 14 80 bd af 06 7a bd bf d0 10 be
       0.1832124 -0.06253912 -0.06104153 -0.1414213
000120 75 a5 bd bd 5e 70 dc bd 3e fb f7 bd 64 6c 1e 3f
       -0.09260074 -0.1076362 -0.121084675 0.6188414
000130 4d e2 bf be 56 9e f0 3c db 70 bc bd e3 3d 90 3e
       -0.3747734 0.029372375 -0.09201213 0.28172216
000140 a6 a6 c8 3d 43 64 d6 3c 7d cd a9 3d e4 6f 00 3c
       0.09797411 0.026170855 0.08291147 0.007839177
000150 da 17 fd bd f9 26 d6 bd 40 46 94 bd 8f f8 98 bc
       -0.12358065 -0.10456652 -0.072399616 -0.01867321
000160 c7 a5 10 bd 0e 8e 19 bf bf 84 45 3c 52 e6 ba 3c
       -0.035314348 -0.59982383 0.012055575 0.022814903
000170 64 75 d2 3d 72 12 bb be 23 b0 e1 bd 79 7f 9a bd
       0.10276297 -0.3653751 -0.110199235 -0.07543845
000180 34 8c bc bd f0 87 b3 3d 2e 60 c6 3d fa df e1 bc
       -0.09206429 0.087661624 0.096863136 -0.02757262
000190 b2 53 bb bd 84 69 54 3d ef e2 fa bc d1 1f c3 bd
       -0.09146823 0.05185844 -0.030625788 -0.09527553
0001a0 b4 cb 37 be 26 a8 f3 3c ac 94 29 bc fa fa 67 3e
       -0.179488 0.029743265 -0.010350388 0.22654334
0001b0 b0 3f e2 3e 43 01 e1 bd 86 4e b6 bd 5d 6b e4 bd
       0.44189215 -0.10986569 -0.08901696 -0.111532904
0001c0 50 d7 10 3f 17 98 c9 bd 77 e3 eb bd 4e 4e ee 3e
       0.5657854 -0.09843462 -0.11517995 0.46544117
0001d0 16 ab 35 3d a4 5a a9 3e a8 0b 0a 3c 81 8e 9d bd
       0.044352613 0.33076966 0.008425631 -0.07693196
0001e0 c2 1f a7 bd 97 dd 60 bd 20 ac f0 bd 08 3c 92 bd
       -0.08160354 -0.054898825 -0.1175158 -0.07140356
0001f0 63 6f d6 3e c6 59 9c 3d c9 8c fd 3e 3d fa a3 bd
       0.41881856 0.076343104 0.49521473 -0.080067135

fc4.weight f4 [128, 128]
000000 fd 13 52 3d 44 cf 29 bd 81 94 1c bd 73 eb 6a bd
       0.051288594 -0.04145743 -0.03822756 -0.057353448
000010 5f fe d2 bd 5d 53 a1 bd c0 56 d7 3a e9 fd 00 bc
       -0.10302424 -0.078772284 0.0016429052 -0.007873037
000020 74 1d c6 bc 3b 1b 8b 3d 70 c3 38 bd 06 c9 79 bd
       -0.024183966 0.06792303 -0.04510826 -0.060982727
000030 c6 b0 07 3d a4 63 ca bc e0 d3 b3 3c 38 87 b0 3c
       0.03312757 -0.024705715 0.021951616 0.021548852
000040 f2 27 16 3d d3 d3 96 3d d0 b9 b7 bc 0a c9 81 bd
       0.03665919 0.07364621 -0.02242747 -0.06337173
000050 cf c4 2e 3d a6 22 33 bd 5f 43 79 bd ed 19 82 3d
       0.04266816 -0.043734215 -0.060855266 0.06352601
000060 d7 2f f9 bd 3a ac e1 3c d4 50 97 3d 61 5c 8a bd
       -0.12167328 0.027547944 0.073884636 -0.06755901
000070 ff ef 90 bd ea c6 74 3d 76 c0 a3 bd 8d b1 ac 3c
       -0.070770256 0.05976001 -0.079956934 0.021080757
000080 ac 5e cd 3c 1d 9c 8c 3d 39 01 b0 3c 3d 4a 47 bd
       0.025069557 0.06865714 0.021484958 -0.048654784
000090 01 9b c2 bd 82 c0 78 3d 74 ff 83 bb d0 e0 9b 3b
       -0.09502221 0.060730465 -0.004028255 0.0047570243
0000a0 81 a1 e8 3c d9 83 a6 3d 6c 48 c6 3c 20 4e 80 3d
       0.028397324 0.08130617 0.024204455 0.06264901
0000b0 08 41 ef 3c a5 fe 50 bd c9 71 a7 3b 3f 0f 11 bd
       0.029205814 -0.051024098 0.00511 -0.03541493
0000c0 58 65 71 bc d6 44 99 bc 34 b3 20 bd 50 3b 89 bb
       -0.014733635 -0.018709581 -0.0392334 -0.004187979
0000d0 f8 91 92 bd e4 f5 a3 bd 90 60 88 bd 55 72 23 3d
       -0.071567476 -0.08005884 -0.06659043 0.039903957
0000e0 44 30 4b bd 50 35 54 bd c9 d8 b9 bc 9e ec 68 3d
       -0.049606577 -0.051808655 -0.022686379 0.05686628
0000f0 11 12 9d 3d d2 9c c3 3b 4b 4e 0d 3d fe 85 db bc
       0.076694615 0.005969622 0.034498494 -0.02679729
000100 f0 40 6e bc f0 c5 9a bc 0a 26 77 3d 1d b8 6e 3c
       -0.0145418495 -0.018893212 0.06033901 0.014570263
000110 0e e5 b5 bc 41 c1 a2 3d 00 6b 86 b9 0a 0c 24 3d
       -0.022203948 0.079470165 -0.00025638193 0.040050544
000120 a6 60 2b 3d a4 aa c5 bc b2 86 74 3d 3d b6 d1 bc
       0.041840218 -0.02412922 0.059698768 -0.025599593
000130 ef fc c0 bd 3c d9 44 bd ce f9 1d 3d 48 ee 80 3c
       -0.09423243 -0.048058733 0.03856831 0.015738621
000140 c0 58 88 bd 69 92 9d bc 99 1f 61 3d 2b 00 0d bd
       -0.06657553 -0.019234853 0.054961774 -0.03442399
000150 b4 b9 c6 3c 38 db 52 bc f2 2d 95 bd f0 51 2c bd
       0.024258472 -0.012869649 -0.07284154 -0.04207033
000160 d3 d9 15 3d 76 66 dd 3b 8b 9c c5 bc 82 18 ea bc
       0.036584686 0.006756599 -0.024122497 -0.02857614
000170 43 07 04 3c 60 40 9d 3d 40 70 ad bc a6 6a 5b bd
       0.008058372 0.07678294 -0.021171689 -0.053568505
000180 b5 1a 5a bd 0e 9c e5 ba 51 8d 7b 3d e4 44 b5 3c
       -0.053248126 -0.0017517821 0.061414067 0.022127576
000190 e9 49 a3 bd ba d4 73 bd bc 38 aa bd dc 6a bd 3c
       -0.079730816 -0.059529044 -0.083116025 0.023122244
0001a0 fa cf 32 3d 19 66 85 3d bb 5a 16 bd 30 8d 43 3c
       0.043655373 0.06513614 -0.03670762 0.011935517
0001b0 61 bf 72 bc 1c 2e a2 bd a0 6b 9b 3d 2a ce 5e 3d
       -0.014816136 -0.07918951 0.07588887 0.054395832
0001c0 f4 c0 03 be 9d 08 9f 3d 9e 64 30 3d f6 a3 8f bd
       -0.12866575 0.07765315 0.043064706 -0.07013695
0001d0 59 04 0b 3d 00 5c 9b bd 50 6f 39 3d d0 a4 90 bb
       0.033939693 -0.07585907 0.04527217 -0.0044141784
0001e0 5c e8 c3 bc 87 db a5 3c a5 97 3e 3d 65 c7 82 bd
       -0.023914509 0.02024628 0.04653134 -0.06385688
0001f0 ad 10 23 3d 68 5c c7 bc c3 c8 83 3d 0b 8e b4 3d
       0.039810825 -0.024336055 0.06434777 0.08816155
000200 be f3 af bd e5 52 80 3e eb 65 96 be 1a 84 90 bf
       -0.08591412 0.25063244 -0.29374632 -1.1290314
000210 ec 3c d8 be 9d 29 0a 3e d0 7b de bd e5 0a 86 bd
       -0.4223398 0.13492437 -0.10863459 -0.06545047
000220 6c 03 20 bf a1 d3 7b bd 6b 4a 01 bc b4 9d d9 bc
       -0.6250522 -0.061481122 -0.007891278 -0.026564457
000230 1f f5 9a 3e 32 a9 30 3e d3 9e 16 bd 76 73 73 bd
       0.30265138 0.17252043 -0.03677256 -0.059436284
000240 ec c0 32 be 8d d9 94 be 16 35 6c be b5 24 74 3b
       -0.17456406 -0.29072228 -0.23067126 0.0037253324
000250 7b d5 4c bd 51 3a 02 3d 18 fe 87 3e 7a cf 8b 3d
       -0.05000828 0.031793896 0.26561046 0.068266824
000260 d2 44 b5 be d8 1d b8 be 53 2e 84 3d 9e 7c 95 be
       -0.35404068 -0.3596027 0.06454148 -0.29196638
000270 ef 1d cb bd 6c be 46 3e 4b c0 96 3c ab b5 94 3d
       -0.09917819 0.19408578 0.01840224 0.07261213
000280 3a bb 82 bc 20 6c 42 3d 19 07 5e 3e 80 60 b9 3c
       -0.015958417 0.047466397 0.21682395 0.022629023
000290 5c 2f 92 3d 1e 48 3c be 44 c9 1a 3e f6 2d dc 3d
       0.07137939 -0.18386886 0.15115839 0.10750954
0002a0 4a 56 e1 bb 51 81 7d bd d6 cc 10 bd 69 5d 04 3e
       -0.0068767415 -0.061890904 -0.035351597 0.12926258
0002b0 f5 9a 6d bd aa df 72 bd 7c 55 8e bf 98 a9 6d 3d
       -0.058009107 -0.059295334 -1.1119838 0.058023065
0002c0 02 03 05 bf 6f 3d 9a 3c eb 4a 44 3e a1 f7 40 be
       -0.51957715 0.018828122 0.19169204 -0.18844463
0002d0 ba cb f9 be c1 f1 42 be 4c ec 7b 3e 76 aa c9 3e
       -0.48788244 -0.19037534 0.24601859 0.39387864
0002e0 f3 2e 63 3d 03 94 3c bd 75 c2 f8 bc b2 30 01 3d
       0.055464696 -0.046039592 -0.030366162 0.03154058
0002f0 ca c1 44 bc cb 8c 8d be 33 09 53 bd 15 ef 78 bf
       -0.012009094 -0.2764648 -0.051522445 -0.9723981
000300 53 86 75 bc a1 10 4e bd 76 38 ac 3c d0 6d 8b bf
       -0.014985639 -0.050308827 0.021023016 -1.0892887
000310 13 4c 50 3e 4e 1a 24 3d fe 07 54 bd a7 96 37 3d
       0.2034152 0.04006415 -0.051765434 0.044821408
000320 36 4b 87 bc a5 4c 99 bc e3 e4 a8 3c 6b e6 46 bf
       -0.016515356 -0.018713305 0.020616954 -0.7769534
000330 b2 d6 3a be ac 55 20 bf 90 60 88 3d 30 e2 10 bf
       -0.18245962 -0.62630725 0.06659043 -0.56595135
000340 19 25 65 bc 00 b2 99 3e 2d d4 58 3e 2e 3e 2d bf
       -0.013985896 0.30018616 0.21174689 -0.67673004
000350 1c 4a 0f 3d 6f c9 37 ba 54 0a 0f 3e 1f ca d9 3e
       0.034982786 -0.0007010912 0.13968784 0.4253702
000360 6c ec 2a bd 43 b3 d1 3e 88 64 06 bf 03 e3 8b be
       -0.041729376 0.40957078 -0.5249715 -0.27321634
000370 d8 80 c3 3e 51 40 01 bf 41 04 61 bd a6 e8 63 3e
       0.38184237 -0.50488764 -0.054935697 0.22256717
000380 e3 f5 9e 3d 76 67 de be 43 44 90 3e d2 f2 de be
       0.07761743 -0.4343831 0.2817708 -0.43544632
000390 86 05 e6 3c cb 46 24 3c 5f 32 6d be f1 7e 39 bc
       0.028078806 0.010026644 -0.23163746 -0.011321769
0003a0 5b d3 81 3e 93 0c 25 3d 1a ce 15 3e 89 1c 91 be
       0.25356564 0.040295195 0.14629403 -0.28342083
0003b0 c5 f5 83 3e c6 05 3a bf 24 27 e3 3b 2b 95 50 bc
       0.25773445 -0.7266506 0.006932156 -0.012730877
0003c0 fb a1 24 bd 67 9e 9b bd 4b 21 aa 3c 1f 5e 23 bf
       -0.04019354 -0.07598572 0.020767828 -0.6381549
0003d0 f7 b4 14 bf 90 d3 03 bf 56 4c 63 3e 75 4f 21 3d
       -0.5808863 -0.51494694 0.22197089 0.039382417
0003e0 d1 01 01 3b d6 82 b5 bd 71 56 a7 bd ee 02 80 bd
       0.001968492 -0.088628456 -0.08170784 -0.06250559
0003f0 47 27 64 3d 31 b0 22 bf d6 5e d7 be 69 aa 60 3d
       0.05570152 -0.63550097 -0.42064542 0.054850016

fc4.bias f4 [128]
000000 61 db 5f bd 2f 38 6b 3e b1 92 f8 3d 2d 38 0b 3f
       -0.054652575 0.22970651 0.12137354 0.5438259
000010 ff 5d f0 bd 78 37 25 be d8 07 93 3d bd b3 0f 3f
       -0.11736678 -0.16134441 0.071792305 0.56133634
000020 ad 3c cf 3e 65 17 ab bd 6d a9 ea be f9 7a 9d bd
       0.4047598 -0.083540715 -0.45832387 -0.07689471
000030 4d d6 04 be 3b 13 41 3f 88 7a 4c be 2e b1 86 3f
       -0.12972374 0.7541997 -0.19968617 1.0522821
000040 2f 1e 15 3e 04 75 8a 3f d0 4a 75 3f e3 67 2e 3f
       0.14562295 1.081696 0.9581728 0.6812727
000050 db 3c 0c be 9f ff 90 be b2 29 5f 3f a2 06 59 3f
       -0.1369509 -0.28320023 0.87172997 0.84775746
000060 15 fe b0 3e 5a 81 0b be 93 82 3b be 96 86 ac bd
       0.3456885 -0.13623562 -0.18311529 -0.08424108
000070 4f 4c 8b 3f da d2 d6 bc 2b f7 ea bd 8b db 12 3f
       1.0882663 -0.026223589 -0.11472925 0.57366246
000080 5e 41 8c 3f 3f ef f9 bd 31 c3 ec 3e 5f 61 bd 3e
       1.0957448 -0.12203836 0.4624267 0.3698835
000090 cb 5b e5 3e 38 5f 89 3f 6a 4b 64 3f 39 67 dc bd
       0.44796595 1.0732183 0.8917757 -0.10761876
0000a0 8f 3e 65 bd 61 77 f3 be 57 61 69 3f 20 2a 1a be
       -0.055967864 -0.47552016 0.91164154 -0.15055132
0000b0 27 90 f5 3e 11 f7 14 3e f5 57 8c bf d1 b8 ee be
       0.47961542 0.14547373 -1.0964342 -0.4662538
0000c0 53 c6 79 3f c1 d1 58 3d 10 27 9f bd 61 f3 a2 3f
       0.97568244 0.052934412 -0.077711225 1.2730523
0000d0 a4 01 78 3f 69 89 7b bd d6 9e 08 3f 2f f2 fb be
       0.96877503 -0.06141034 0.53367364 -0.4920821
0000e0 19 fe 41 3f 8d 7b e4 bd 0c 3f 2e 3f 36 08 d7 be
       0.7577835 -0.11156378 0.6806495 -0.41998452
0000f0 b8 91 ad be 35 13 9e 3f 86 ce 49 3f ab 8b 7e 3f
       -0.33900237 1.2349612 0.78830755 0.99431866
000100 9a 30 d7 bd b7 6d 9a bd b5 95 5d 3e d6 a7 77 3f
       -0.10507317 -0.07540458 0.2163914 0.9674047
000110 a9 de 00 be 73 05 03 be 39 91 fb bd 89 9f 64 3f
       -0.12584938 -0.12795047 -0.122835584 0.8930593
000120 4d 93 d7 bc ef d1 11 3f 34 a2 2a be 10 ba 2b 3f
       -0.026315356 0.5696096 -0.16663438 0.67080784
000130 af ed 1d 3f bc 3e 72 3f ea d4 50 3f ce 5b f1 3e
       0.616908 0.94626975 0.8157488 0.47140354
000140 70 0e de bd 46 65 12 3f 3b 56 19 bf b9 33 0c 3f
       -0.108425975 0.5718578 -0.598972 0.5476642
000150 0f 94 11 bd d2 6d 0b be 85 9f c3 be 2c 45 b3 bd
       -0.03554159 -0.13616112 -0.3820764 -0.08753428
000160 af 4d 88 3e 47 63 66 bd f8 1f 1e be f1 b8 70 3f
       0.26621768 -0.056247022 -0.15441883 0.940322
000170 5f 77 ca bb 2f 80 92 3f 16 57 88 be e3 7d 16 bd
       -0.006178781 1.1445369 -0.2662894 -0.03674115
000180 15 61 17 3f 3d 8d 18 be 99 45 8d 3f ad 4f 90 3f
       0.5913251 -0.14897628 1.1036865 1.1274315
000190 f6 a3 0f bd 1d 5d da bd a4 04 50 be bc 49 a0 bd
       -0.035068475 -0.10662291 -0.2031427 -0.07826564
0001a0 8a 07 9a 3e e9 16 cd 3e 7e 45 06 be 64 9c ff be
       0.30083877 0.40056542 -0.13112447 -0.49924004
0001b0 45 ba 37 3f d7 78 80 3e 10 9f 08 be 00 57 79 3f
       0.717686 0.25092193 -0.13341928 0.97398376
0001c0 c2 46 0b be 15 b5 3d be 74 62 ec bd 63 c1 09 3f
       -0.1360121 -0.18526109 -0.11542216 0.5381071
0001d0 d2 a7 ba bd 1a fd 2c 3f d8 49 e5 bd 76 5f 90 bd
       -0.091140404 0.675737 -0.11195725 -0.07049458
0001e0 5c 2c 3d bd a2 b5 95 3e 9c 83 97 bd ce 7c e5 be
       -0.046184883 0.29240137 -0.07398149 -0.4482178
0001f0 a1 31 99 3f 56 8e 90 bd 74 17 c7 bc 95 20 a9 3d
       1.196827 -0.070583984 -0.024303176 0.08258168
