checkpoints/checkpoint_qnetwork_target_WMT_V4.pth (torch_old, 340036 bytes, 10 tensors)

fc1.weight f4 [128, 13]
00000000: 8015 08bb 7c5a 183e 0bc0 69be f002 51be
00000010: cec5 dabd 2051 983d 0011 b4bb 8e2f 613e
00000020: 90a1 c9bc a84d 963d 34a9 abbd ac4d 5fbd
00000030: a0a9 87be 185b ddbe 4ec4 ea3d d7b1 c4be
00000040: e6bf fbbd fe6c 993e 1a8a 8cbf 82ea f2be
00000050: f025 503e 655b 243e 3ae6 b9be 0099 953e
00000060: f01a c7be bd63 973d 1ef1 333f 009e 0bbe
00000070: 96da 83be 0186 fdbe 13ce b6be f145 823f
00000080: 0c6f 6bbe 0043 fcbe 46e5 363d b8cc d53d
00000090: 9217 86be 318a 8f3e 7b65 813e 048c 12be
000000a0: f869 58be 382f c4be 8c59 a5bd 44b4 bcbe
000000b0: 23c0 04bf 2960 5fbe 90a9 27bc 1be1 dc3d
000000c0: c050 cabe 455b 10be ecb2 153f 29f7 333f
000000d0: cfae 8c3d 47b4 dd3d b041 c33e ded5 24bf
000000e0: 714c 1c3e 83af 08bf dac2 14bf 6db3 d4be
000000f0: e6f2 c93e 995b ab3e c85a 2fbf 7d5a d7bc
00000100: d5a2 0e3f b829 c2bd 3f8c 11bd e407 e3bd
00000110: 3d06 ef3c a66f 533e b0f3 aebe f007 38be
00000120: d247 753d ecc9 173e 0fd3 383e 4307 043e
00000130: c41e 20be 943e e3be d3c4 f53d 3e87 99be
00000140: 3624 a3be 7771 543e 902d 263e a37a 03bf
00000150: 659f a23c 2b90 58be 7dc2 063d 2a0e e0be
00000160: 05ba 993d 9e16 86be 78ae a63d 3021 393e
00000170: 2676 f93d 95b9 0ebd c21b 7dbf 017d 80be
00000180: 3bf6 7f3d 9c17 0dbe 4d33 eebe 3226 31be
00000190: b624 4a3e 5cf9 da3e b353 bbbe 0909 b0be
000001a0: a345 87be 405a a3bb a6df 55be 0012 5bbe
000001b0: e060 7abc 9891 2a3d 589e e8bd ea85 283e
000001c0: b6d4 2cbe 79d9 803e 2ea1 423e 727f 6fbe
000001d0: 9a5e 8dbd ea0a 4d3c 58bf 253d d4b7 863d
000001e0: 84e7 de3d a018 883c 2f93 0abe 8663 063e
000001f0: 6a37 88be 2255 28be dc30 8ebd e657 0abe
00000200: ccb5 c6bd 24c7 68be 811a 03bf 8544 acbd
00000210: 9288 38bf 16b7 07bf 1206 e23e c46d 703c
00000220: a6af 34be 0560 dcbe e472 5b3e 2e25 f1bc
00000230: 2430 b13d 1675 af3e 4aa6 c33e 9051 a4bc
00000240: 1021 7fbe 19a4 06be aa61 413e 00a8 ebba
00000250: 162a 0dbe 34a3 59be dfe4 84be 2db4 6fbe
00000260: 846d 66bd 3ac0 1b3e ac8b 193e d5f3 88be
00000270: 05af 223e c049 67be 054e 8fbd f877 fabd
00000280: f877 7abd 616d 80bd c53f 85be 30c2 7abe
00000290: 717a 68bd 1930 30bc ddad 0ebe 47a0 b83d
000002a0: f72b 87be 48b1 9b3a 1015 133f 16f1 82bd
000002b0: 23a6 433f c996 9b3e 8a3b 20bf b138 cd3e
000002c0: 481c d03c 736e 18bd a461 f53d 5a6b 8abf
000002d0: d547 353e a745 1e3e 20a8 d73e 094c 6a3e
000002e0: 7feb a53e f1b6 e53e 7e46 af3a c114 60bd
000002f0: 58ef 7dbe 143c 5b3e b2d9 ce3e 6047 183f
00000300: 78c0 ecbd a3bb ccbe 0529 48be b076 2ebe
00000310: 5613 65be d882 b93d fcc9 33be 693c 013d
00000320: 1859 e93c d412 3e3e 79f3 4cbe 273c cabe
00000330: c4a6 97bd bd10 3f3e 08b9 12be 7688 493e
00000340: d465 cd3d b8d9 0f3d 804e 07bb fa92 60bd
00000350: 7888 0e3d e8b3 81bd 006e ffba f0f2 103d
00000360: be26 5ebe 53db 14be be55 653e 0a7c 66be
00000370: c025 a3bc 8214 803d b9f4 0a3e c55d c7bd
00000380: 22ff 30bf 4b7d 45be 9e77 19bf bbdd 95be
00000390: 3441 17bf 1db3 76be a552 98be 07cc 5d3e
000003a0: 14ef 6cbe d361 8d3e 6410 683e c8fa fdbd
000003b0: 3881 fd3d 6785 d7bd 61cf 96bd 0a37 5b3e
000003c0: 7e95 8d3d 32ac 783e 96de f2bd 8c55 f33b
000003d0: 65bf 843f cff8 68bf 08cf 613e f2d9 6abe
000003e0: 0084 7a3b bc24 41bd 1b94 15be 5826 163d
000003f0: aed9 6a3e 920a a6bd ec9c 28be c212 d2bd
-0.0020764768 0.14878267 -0.22827165 -0.20411277 -0.106822595 0.07437348 -0.0054951906 0.21990797
-0.024613172 0.073390305 -0.08381882 -0.054517433 -0.264966 -0.43233562 0.114632234 -0.3841693
-0.12292461 0.29965967 -1.0979645 -0.4744454 0.20326972 0.16050489 -0.3630846 0.29218292
-0.3888774 0.073920704 0.7028979 -0.13634491 -0.25752705 -0.495163 -0.35704097 1.0177594
-0.2299158 -0.49269867 0.044652246 0.10439438 -0.26189858 0.2803512 0.25272736 -0.14311224
-0.21134174 -0.38317275 -0.0807372 -0.36856282 -0.5185568 -0.21814026 -0.010233298 0.10785123
-0.39514732 -0.14097317 0.5847614 0.7029901 0.068692796 0.10825401 0.38136053 -0.64388835
0.15263535 -0.5339281 -0.5810982 -0.4154314 0.3944313 0.3346832 -0.68497896 -0.026288265
0.5571721 -0.094806135 -0.03553414 -0.110854894 0.02917778 0.20648059 -0.34170294 -0.17971778
0.059882946 0.14823121 0.18049262 0.12893395 -0.15636736 -0.4438368 0.12000432 -0.29985994
-0.31863564 0.20746408 0.16228318 -0.51359004 0.019851396 -0.21148746 0.032900322 -0.43760806
0.075061835 -0.2618913 0.08138746 0.18079066 0.12180738 -0.034844954 -0.9887048 -0.2509537
0.062490683 -0.13778538 -0.46523514 -0.17299727 0.19740567 0.4276837 -0.36587295 -0.34381893
-0.26420316 -0.004985124 -0.20886096 -0.21393585 -0.015281886 0.041642755 -0.11358327 0.16457334
-0.16878018 0.25165918 0.19006798 -0.2338846 -0.069028094 0.012514809 0.040465683 0.06578031
0.10884002 0.016613305 -0.13532709 0.13123903 -0.26604778 -0.16438726 -0.06942913 -0.13510093
-0.09702644 -0.22732216 -0.51212317 -0.084115066 -0.7208339 -0.5301374 0.44145256 0.014674608
-0.1764513 -0.43042007 0.21430546 -0.029436674 0.0865176 0.34269017 0.38212806 -0.020058423
-0.24914956 -0.13148536 0.18884912 -0.0017979145 -0.13785586 -0.21253663 -0.25955865 -0.23408575
-0.056256786 0.15210047 0.14994687 -0.2674853 0.15887077 -0.22586727 -0.06997303 -0.122299135
-0.061149567 -0.06270862 -0.26025215 -0.24488139 -0.056757394 -0.010753655 -0.13933511 0.090149455
-0.2640073 0.0011878395 0.57454014 -0.0639364 0.7642538 0.30388477 -0.6259085 0.40082315
0.02540411 -0.037214708 0.11981514 -1.0814011 0.17703183 0.15456258 0.42120457 0.22880568
0.32406232 0.44866136 0.0013372449 -0.054707292 -0.24798334 0.21409637 0.40400463 0.5948391
-0.11560148 -0.39986905 -0.19546898 -0.17037463 -0.22370657 0.090581596 -0.1755752 0.031551752
0.028484866 0.1856187 -0.20014752 -0.39499018 -0.07404855 0.18658729 -0.14328396 0.19680962
0.10029188 0.035119742 -0.0020646155 -0.054827668 0.034798115 -0.063331425 -0.0019487739 0.035387933
-0.21694466 -0.1453679 0.2239599 -0.22508255 -0.019915462 0.062539116 0.13569917 -0.09734682
-0.691393 -0.19286077 -0.59948146 -0.2927073 -0.5908387 -0.24091764 -0.29750553 0.21659862
-0.23138076 0.27613696 0.22662503 -0.12401348 0.12378162 -0.10523491 -0.07363773 0.21407714
0.06913279 0.24284437 -0.11858861 0.0074259695 1.0370909 -0.9100465 0.22051632 -0.22934702
0.003822565 -0.047154173 -0.14607279 0.03665766 0.229346 -0.08107485 -0.16466111 -0.10257484

fc1.bias f4 [128]
00000000: 647b b6bd 18bc 9bbd 56b2 b1bd df70 103f
00000010: 1d33 af3e acbb 0dbe 8726 cb3d f128 1dbd
00000020: 6897 27be 007f 1ebb 2ddf 783d 6835 80bd
00000030: 3075 803e b11c f4bd 809c 23bf af1b 1abe
00000040: 83ca 83be 2b7d 0d3e a17c 0dbf c2d1 47be
00000050: 7533 b4bd 10bd 4abe 825b 14be 9d35 563e
00000060: 8f0e a2be cb92 0cbd fd8b 673e bf8e 20bd
00000070: 1b01 c43e 5ee8 e4be 7c90 ab3d 1e11 2e3e
00000080: 50c5 553d 7567 813e f312 1abf b2e7 30bd
00000090: 5786 653e 2e7c 86be bc83 cfbd d837 8cbe
000000a0: 8c28 93bd 4b56 61be 5848 a03e 5a05 d0be
000000b0: 512a 93bd a364 95bd 73fd 813e 8efe 1f3d
000000c0: cbf9 9ebe 5893 08be 44a7 be3d c639 86bd
000000d0: 1687 533d 3ab1 25be 21f7 1e3e 00ef 9dbd
000000e0: 029a 3b3e b32d b7be f025 7abe 2332 ce3d
000000f0: 6aa1 833e 0d0c 0e3e 7698 123f d5d8 2fbd
00000100: 4ce2 313e 7f30 66be dd43 f43c 4788 c53e
00000110: d7a3 2d3e 3033 993e 239d 963d 447b 063e
00000120: 684e 943d ce58 edbd 211f f13e 10a4 003e
00000130: c984 1cbf 610d bb3e 58a0 54be b2ad 01bd
00000140: f84b 4bbe 300e 95be 9523 f43d 7934 c8be
00000150: a817 84be 1f4b 12be e810 62bd 5440 483e
00000160: ff3f 2e3e ad7d 34be 52a6 aebd 7d40 0ebe
00000170: e05e 8d3c cd14 85bd e12a d6be 32bf 1e3e
00000180: cb36 07be aacc b1be e302 ebbe faf4 053e
00000190: 91d4 013f d76d 0bbe d168 13bd 3114 053e
000001a0: ddf1 3bbc 84fb 75be 3840 97bd 92a9 f8bd
000001b0: c61d 99be 304e f73d 1c91 7cbd 18bd e13e
000001c0: 3d82 21be 70d0 943d 2392 1fbd 164d 243e
000001d0: 3c1d 643e 984b fa3d c5d2 44bd 707d febd
000001e0: d54f 103e c69f 24be 9264 27be 3c8a 75be
000001f0: b883 88be 3ed5 7b3e fe90 d2bc 7921 bc3e
-0.08910254 -0.076042354 -0.08676593 0.5642223 0.34218684 -0.13841122 0.09919458 -0.038369123
-0.1636635 -0.0024184585 0.060759712 -0.062601864 0.25089407 -0.11919535 -0.63910675 -0.15049623
-0.25740442 0.13817279 -0.55268294 -0.1951361 -0.08798877 -0.19798684 -0.14488032 0.2091889
-0.31651732 -0.03431968 0.22611995 -0.039198633 0.38282093 -0.44708532 0.083771676 0.16998717
0.052190125 0.25274244 -0.60185164 -0.043189712 0.22414528 -0.26266617 -0.10132548 -0.27386355
-0.07185468 -0.22005574 0.31305194 -0.40629083 -0.071858056 -0.072945856 0.2538868 0.03906112
-0.31049952 -0.13337457 0.09309247 -0.06553988 0.0516425 -0.16180888 0.1552396 -0.07711601
0.18320468 -0.35777053 -0.24428535 0.100681566 0.25709087 0.13871785 0.57263887 -0.042931397
0.17371482 -0.22479437 0.029817516 0.38580534 0.16957031 0.29921865 0.0735419 0.1313296
0.07241517 -0.11589204 0.47094062 0.12562585 -0.61140114 0.36533645 -0.20764291 -0.03165979
-0.19853199 -0.29112387 0.11920849 -0.39102533 -0.25799298 -0.14286469 -0.055191904 0.19555789
0.170166 -0.17626067 -0.08527817 -0.13891788 0.017257154 -0.06498108 -0.4182959 0.15502623
-0.13204496 -0.3472646 -0.4590064 0.13081732 0.50714976 -0.1361612 -0.035988633 0.12995984
-0.011471239 -0.24021727 -0.07385296 -0.12141718 -0.29905528 0.1207546 -0.061661825 0.4408958
-0.15772338 0.07266319 -0.038957726 0.16045031 0.22276777 0.122214496 -0.048052568 -0.12426269
0.14092954 -0.16076574 -0.16346958 -0.23978513 -0.26662993 0.24593064 -0.025703903 0.36744288

fc2.weight f4 [256, 128]
00000000: ed0a 903d e67d 5d3e 0f1d 3e3e 84fe 113d
00000010: f4b7 c63e 9bfd f4bb c1c3 0b3e 3e8c 11bf
00000020: 784f 583c 009c cd39 8b1e 3d3e 1816 a83c
00000030: bde7 85bd 91ac 183e f108 16bf af37 07be
00000040: afb2 2bbd 1b36 763e 75d2 7fbe a6dc 383d
00000050: 78a9 ae3c ac29 6d3e f66b b53c 8f30 f8be
00000060: 21ab 49be 1d84 be3e 39d6 14be d6c3 6c3f
00000070: 7c49 45bd 8cb2 b3be 614b 143c c745 cb3c
00000080: 0deb 343e c44d bcbc 3284 5abf e504 873d
00000090: 3a72 c7bf 95c4 05bd 7833 fbbc a78a 213f
000000a0: f2e9 3fbe 6e47 3fbc d5c6 8a3e ad26 22bf
000000b0: f139 13bd 96ed 3e3e 9263 0e3e 76f5 023e
000000c0: e21c 03be 9111 b9bd 3409 bdbe 7a25 a8bc
000000d0: a973 c4bd c3f7 3b3e cf1b 42be edd7 3c3e
000000e0: cdf8 973d 8d61 953e a30a cfbe 8573 133f
000000f0: c6e4 3bbe bf1c 6bbf 28e9 d53d f9f9 13bf
00000100: 6be8 4dbe 8cb7 2b3d c646 25bf 9f80 af3e
00000110: 6810 973d 95b9 97bd 74f0 623e fe10 aebe
00000120: a71d 29bd 44d4 3fbd 05db 753e 8cc3 a9be
00000130: c21c ccbe 1121 013e 5e20 3fbf 9d07 653e
00000140: c3b1 09c0 b285 09bf 3de8 c93e 89e8 80bf
00000150: 8012 0c3c 5b70 89bd 066c d4bc 2696 90be
00000160: 091f 1ebf 5b64 97bd 0fa8 173f e8dc 9bbe
00000170: 3b99 28be 8892 55bd ead0 1dbf e079 7bbd
00000180: 73a4 ad3e e8ec a2be e64f 2cbd 05fa 57bf
00000190: 38af 213e c0d0 dabb e3d3 b2bd 5a77 98be
000001a0: 98cc b0be 3fdc aebd 4791 e1bd d0b0 38bf
000001b0: acb0 16bb 8cd8 ce3c 3990 12bd dca5 ac3d
000001c0: 8d72 853c 8a7b 72be f405 2abe 1548 2c3e
000001d0: 6f95 073d 1c24 25be cc07 993e e37b 9cbd
000001e0: 1962 8b3d c9cd 42bd bd06 ed3e 5862 7b3d
000001f0: e013 863b fd9a 6a3e 8ae5 95bd dd03 bf3e
00000200: d629 debc 0235 8bbe 3cb7 123f 8cf7 5f3e
00000210: 1b20 b73e eff1 49bc 2a2f 45be 7bb4 ecbd
00000220: 206c 493b 003f 1d3b 825e 36bd d840 9ebd
00000230: 88c5 373c af7f 0b3f 7433 6ebe 680c fbbc
00000240: 6e9b 183d 4873 55bc 6439 9ebf 9c1a 9fbd
00000250: c06a ccbd c296 a8bc 4aec 64bd 8fc7 c33d
00000260: 3455 723f 3e54 37be d7bd 943d f277 bebd
00000270: 730e 133e 26a1 07bf b10e 153d 72e4 9dbe
00000280: a637 f93b 2468 e0bc 1013 85be 4b77 c6bc
00000290: 922c 853e 6451 5abd 5bfe 0b3e 370f 3a3d
000002a0: 51e2 a5be c01b 74bb aafe a9be f2c5 23bd
000002b0: e189 143d 138c 84be c1c5 673e 5000 403d
000002c0: 828a 73be d738 1b3d bd6c 5a3d b30a 6b3d
000002d0: 519c 1c3e 8ef2 8cbe f6d2 093e 2f32 bcbd
000002e0: bc70 84bd 4557 86be e9ba 2fbf d35f 693f
000002f0: 3988 c3bd 42de ef3e 1f9c 303f 4344 833c
00000300: 3705 7bbd 76c0 a3bb f9b4 cb3a 8b33 3e3e
00000310: da7f 223f 9fef b53e 913d 95be f579 54bc
00000320: 1ac4 673d c86a 62bc 368f 17be 17cc f93d
00000330: a829 2ebf 9831 5e3e a365 63be 317c 4d3c
00000340: 1209 a3bd 8410 1bc0 6b7a 013f 0afe 943e
00000350: be8d 613d 3f82 14bd 70a9 1ebc 2365 bcbd
00000360: 9635 08bf 1943 a93d 274a a3be ec68 043e
00000370: a878 683d 552f 523c a941 e93c 1093 2e3c
00000380: ad6e 493d 95e0 e3bf 3d7c a2be 5e56 90bc
00000390: ddba 85bf 42da 5ebd 2e76 073e ff42 afbe
000003a0: 2d34 7d3f 4c37 183e 521e ab3f f482 23bf
000003b0: 4cd2 5abc 9f73 6f3d 1016 b7bc 6f3c 033f
000003c0: 67cb 0fbd 7472 123e f17e b9be ab6d 453b
000003d0: 63cd 0c3e 261c d03e b8d1 cf3e c009 b8bb
000003e0: 1d30 f7bc 80b1 e9ba 8e3e 463f 3bfa 293d
000003f0: 262a 303d a0e2 863e 1946 1e3e 1acc 3d3e
0.07033334 0.21630058 0.18565772 0.035643116 0.3881222 -0.007476521 0.13648893 -0.5685462
0.013202541 0.00039216876 0.18468682 0.020518348 -0.06538341 0.14909579 -0.58607394 -0.13204835
-0.041918453 0.24044077 -0.24982627 0.0451323 0.021321043 0.23160428 0.022146206 -0.48474547
-0.19694187 0.3721017 -0.14534844 0.9248632 -0.048165783 -0.35097158 0.009051175 0.024813546
0.1766779 -0.0229863 -0.85357964 0.065927304 -1.5581734 -0.03265818 -0.03066419 0.6310219
-0.18741587 -0.011674745 0.27104822 -0.63340265 -0.03594393 0.1864532 0.1390517 0.12788948
-0.12803987 -0.09036554 -0.36921084 -0.020525683 -0.09592373 0.18356232 -0.1895592 0.18441744
0.07420502 0.29175988 -0.40437803 0.57598144 -0.18348989 -0.9184074 0.10444862 -0.57803303
-0.20108192 0.04192309 -0.64561117 0.34277818 0.07376176 -0.07408444 0.22162038 -0.3399734
-0.041288044 -0.04683329 0.2400933 -0.33157003 -0.3986569 0.1261027 -0.74658763 0.22366185
-2.1514747 -0.5371963 0.39434996 -1.0070964 0.008549333 -0.06710883 -0.025930416 -0.28239554
-0.61766106 -0.07392188 0.5924081 -0.30441976 -0.16464703 -0.052141696 -0.616469 -0.061395526
0.33914527 -0.3182137 -0.042068385 -0.84365875 0.15789497 -0.006677717 -0.087318204 -0.29778558
-0.34531093 -0.08538102 -0.110140376 -0.72144794 -0.0022993488 0.025249742 -0.035782073 0.08430073
0.016289974 -0.23679939 -0.16603833 0.16824372 0.033101495 -0.16127056 0.2988876 -0.07640817
0.0680582 -0.047559533 0.46294203 0.061373085 0.0040917248 0.22910686 -0.07319172 0.37307635
-0.027119558 -0.2718888 0.57310843 0.21871775 0.35766682 -0.012325748 -0.19256273 -0.115578614
0.0030734614 0.002399385 -0.044523723 -0.07727212 0.011216529 0.54491705 -0.23261815 -0.030645564
0.037257604 -0.0130279735 -1.2361264 -0.07768747 -0.099812984 -0.0205797 -0.055889405 0.09559547
0.9466126 -0.1790323 0.072627716 -0.093002215 0.1436098 -0.5298027 0.036390964 -0.30838352
0.0076055108 -0.027393408 -0.25991106 -0.024226805 0.26010567 -0.053300276 0.13671248 0.045424666
-0.32399228 -0.0037247986 -0.33202106 -0.039983697 0.036264304 -0.25888118 0.22634031 0.046875298
-0.23783305 0.037896004 0.053326357 0.05738325 0.15294005 -0.27528805 0.13459381 -0.09189259
-0.06466815 -0.26238456 -0.6864458 0.9116184 -0.09547467 0.46849257 0.6898822 0.01602376
-0.06128427 -0.0049973084 0.0015541605 0.1857435 0.63476336 0.3553438 -0.29148534 -0.01296853
0.0565835 -0.013819404 -0.14800724 0.1219713 -0.6803231 0.21698606 -0.2220674 0.012541817
-0.079607144 -2.422883 0.5057742 0.29100066 0.055066817 -0.036257025 -0.009683952 -0.09198978
-0.53206766 0.08264751 -0.3189251 0.1293065 0.05675569 0.012828668 0.028473692 0.01065518
0.049177814 -1.7802912 -0.3173541 -0.017619308 -1.0447651 -0.054407366 0.13228676 -0.342308
0.9890774 0.14864844 1.3368628 -0.63871694 -0.013355803 0.058459874 -0.022349387 0.5126409
-0.03510609 0.14301473 -0.3622966 0.0030125182 0.13750224 0.40646476 0.4058969 -0.0056163967
-0.03017431 -0.0017829388 0.774392 0.041498404 0.043008946 0.26344776 0.15456428 0.1853489

fc2.bias f4 [256]
00000000: 551f 01bf 67b1 9ebe 56b9 c3be 9408 12be
00000010: 7323 45be 90de a1be 600c 0ebf 5164 c2bd
00000020: e5bc bdbd 6dc0 03be b0ab 1dbc 0161 93bd
00000030: 4a73 b5bd 8f0d f0bd 7831 07be 2f5a 1abd
00000040: 0fe3 cf3d cfe8 86be dfc6 ecbe 546f fa3d
00000050: 518b a6bd aaf6 c3bd 2e51 a43d e0fb 273e
00000060: 9eb2 75be 2eb5 58bd 5593 dabe 1cfc 46be
00000070: 88d0 2ebd aee1 fbbe 6994 f2bd 08c6 5ebe
00000080: 0118 c3bd 7645 97be 6d76 77bd 990f 72bd
00000090: 688e b9bd 6bde 5dbd 2311 75be ff18 cabd
000000a0: 037a 4abe 46a1 3fbd ac94 a9bd 34e7 bb3b
000000b0: c445 04be 617d d3be c93f ccbd f8e7 81be
000000c0: da7c babd 29ab 4abf 51ef 9abe 2a89 c0be
000000d0: 8f5c 56bf 15ab c4bd 1637 b6bd c53f 05be
000000e0: b41e 04bd ca17 c13c 20aa d7bb 92a0 7dbd
000000f0: cee1 a2bd e528 c8bd 0a59 cdbd b612 86bc
00000100: 880f 563c c610 48be 1067 2ebd 6866 a9be
00000110: a0e8 91bc 40c2 c6be 0dbe 51bd c62a e5bd
00000120: 2af2 07bf 1839 95bb 8d2f bcbe 4086 12bd
00000130: 9db7 c7bd 7a96 94bc 777d f4bd 4790 c9bd
00000140: bd06 b3bd 8426 04bd 8a1a e03d 6586 28bf
00000150: 0aaf e9bc d05d 4cbe 1b82 a0be 60b9 5b3e
00000160: b754 69be b669 be3c aa8f b1bd 79ae 00bf
00000170: 084d 88be ddb8 05be 3230 cd3d b65e 793a
00000180: c35e cebd 5719 f2bb a04f aebd c823 df39
00000190: e948 d83d bdcb 18be 67b1 e6bd c656 b4be
000001a0: 161b c9bc 7e0b 2f3e 4d8b 88be b988 00bd
000001b0: bc6a c2bc cb6c 3bbe 30e3 94be 24d3 26bd
000001c0: a26b 70be e55a 7ebe f96e c2be 3452 0dbe
000001d0: 8de7 93be 06fd 1f3e c2b1 1ebf 8837 c1bc
000001e0: f12a f2bc 3441 17be d6de aabc 12f3 0bbf
000001f0: b92e 3abe 8c95 c8be d443 b5bc f5a9 8ebe
00000200: 6788 adbd 2637 d2bd c264 cdbd 09c5 523d
00000210: 3121 b9bd b6c9 35be 7e18 23bd 174f 79bd
00000220: 86eb 71be 7341 34bd 4e17 77be e0c4 a2bd
00000230: 3164 8abd 102a 65bd 1732 65be f106 89be
00000240: e89d b7be 648f e4be e41b 863d 1393 cbbd
00000250: 74d2 a0bd d73d 3d3e 0f95 58be 4d6c dd3d
00000260: 2965 0fbe a1fa dfbd 1a3b a7bd 709c 3abe
00000270: ef3a 9abd 2eb0 ddbe 23aa 55be 3457 a0be
00000280: fdf0 97bd a92a 3ebe 7d31 edbd 1881 dd3d
00000290: 96b3 0fbe 41e3 7bbd 82c0 03bf 5153 4cbd
000002a0: f073 94be 74b6 b3bd 2425 c53c 5438 a8bd
000002b0: ad16 a2bd 24fc eebb b272 95bd db8f 5fbf
000002c0: b710 41bd 8de6 e3bd 9060 08bd eb58 95bd
000002d0: a2ce 03bf a1c6 afbd 09d1 d5bc 872c cabd
000002e0: 423d b4be 07f9 c0bd 4dcc 1bbf 4cbc ecbd
000002f0: 159b 8d3b d812 5abe 6185 43be ec9b 31bd
00000300: 64df 553e 7613 94bb 5a9f 4dbd 90ea d4be
00000310: d2c7 8abb 221b 1ebe 6352 e1bd 6a36 02be
00000320: a869 d4bd ce73 bbbe 894b 84be 22f2 98be
00000330: 265d 36be 0a19 d8be b4cf 343c fc43 12bf
00000340: 8ed6 f5bb e68c 573e 9793 febd c141 13be
00000350: 398a d1be ef34 1bbd f718 6ebd 82de babc
00000360: 4659 abbc 52ff 48be 798d 28bf 8cf8 3abc
00000370: d101 81bd 6c20 db3c bd88 c7be 72d3 a7bd
00000380: dcf8 d1bd ee59 933e a156 4b3d 1fb2 edbe
00000390: 9a23 8bbc 90b0 25bc 8c0b cfbe 3ee8 2cbd
000003a0: b539 e3bc 17f4 883d 5816 7bbe 38eb c1bc
000003b0: 0fea c3bd fe7e 4fbe d79f adbd 4db4 18be
000003c0: 1b50 a43c 4d98 abbe e54a 34be 5fdc e6bd
000003d0: 0c04 a03e a3db 963b 20b7 29be 7c6f c6be
000003e0: ca55 bab8 fc95 83bc 888b 08be 378c a9be
000003f0: 2a7c 20be 6cd6 bcbd 82da c4bd 03c1 1fbd
-0.50438434 -0.30994722 -0.38227338 -0.14261085 -0.19251804 -0.31615114 -0.5548763 -0.0949179
-0.092645444 -0.12866373 -0.009623453 -0.071962364 -0.0885988 -0.11721336 -0.13202465 -0.037683662
0.1015073 -0.26349494 -0.46245477 0.122282654 -0.08132041 -0.09568532 0.08023296 0.16404676
-0.23993918 -0.05290716 -0.4269053 -0.1943211 -0.04267934 -0.49195617 -0.11844713 -0.2175523
-0.09526063 -0.29545182 -0.060415674 -0.059096906 -0.09060365 -0.054167192 -0.23932318 -0.09868049
-0.19773106 -0.04678466 -0.0828031 0.0057343487 -0.12917238 -0.41306594 -0.099731036 -0.2537229
-0.09105845 -0.7916742 -0.3026071 -0.37604648 -0.83734983 -0.09602944 -0.088972256 -0.13012607
-0.032255843 0.023570914 -0.00658156 -0.06192071 -0.07953225 -0.09773425 -0.100267485 -0.016366344
0.013065226 -0.19537649 -0.042578757 -0.33085942 -0.01781112 -0.38820076 -0.051206637 -0.11189799
-0.5310389 -0.0045539252 -0.36755028 -0.035772562 -0.09751818 -0.018138159 -0.11937993 -0.09841972
-0.087415196 -0.032263294 0.10942562 -0.6583007 -0.028525848 -0.19957662 -0.31349263 0.21457434
-0.22786222 0.023243766 -0.0866998 -0.50266224 -0.2662127 -0.13058801 0.10018958 0.0009512709
-0.10076668 -0.0073882747 -0.08511281 0.00042560534 0.105607815 -0.1492147 -0.112643056 -0.35222453
-0.024549048 0.17094228 -0.26668778 -0.03138039 -0.023732536 -0.1830322 -0.2907958 -0.040728703
-0.23478559 -0.24839361 -0.3797529 -0.13800889 -0.28887597 0.15623865 -0.61989987 -0.02358605
-0.029561492 -0.14770967 -0.02085821 -0.5466777 -0.18181886 -0.39176595 -0.02212707 -0.27864042
-0.08473282 -0.10264425 -0.10028984 0.05145744 -0.09039534 -0.17752728 -0.03981828 -0.06086644
-0.23625001 -0.04400773 -0.24129984 -0.07947707 -0.06757391 -0.055948317 -0.22382389 -0.26763108
-0.3586266 -0.44640648 0.065482885 -0.099401616 -0.07852641 0.18480621 -0.21150611 0.10811672
-0.14003433 -0.109364755 -0.081655696 -0.18223739 -0.07530772 -0.43298477 -0.20865683 -0.3131653
-0.07419012 -0.18570961 -0.11581705 0.10815638 -0.1403335 -0.061496023 -0.5146562 -0.049884144
-0.28994703 -0.087750345 0.024065562 -0.08213869 -0.07914481 -0.007293241 -0.07297267 -0.8732888
-0.04713508 -0.111279584 -0.033295214 -0.072923504 -0.5148717 -0.08582807 -0.026100652 -0.09871774
-0.35202986 -0.09422498 -0.60858613 -0.11559352 0.0043214657 -0.21296251 -0.19093849 -0.04336159
0.20885998 -0.0045189215 -0.050200798 -0.41585207 -0.004235246 -0.15440038 -0.11002042 -0.1271607
-0.10371715 -0.3661179 -0.2583888 -0.29872233 -0.17808971 -0.42206603 0.011035848 -0.57134986
-0.0075023836 0.21049842 -0.12430494 -0.14380552 -0.40925768 -0.03789228 -0.058129277 -0.022811178
-0.020916592 -0.19628647 -0.6584087 -0.011411797 -0.062991746 0.026748858 -0.3897151 -0.08194627
-0.10252544 0.28779548 0.049643163 -0.46424958 -0.01698475 -0.010112897 -0.40438497 -0.04221367
-0.027737478 0.066871814 -0.24520242 -0.023671731 -0.095661275 -0.20263287 -0.08477753 -0.1491253
0.020057729 -0.33514634 -0.17606695 -0.11272501 0.31253088 0.0046038195 -0.16573763 -0.3875693
-8.8851506e-05 -0.016062729 -0.13334477 -0.33114788 -0.15672365 -0.09220585 -0.096119896 -0.03900243

fc3.weight f4 [128, 256]
00000000: 0b2a f7be f0b5 6cbf 1c2e a23d 4aac 7dbe
00000010: 4077 f1bc f2b8 29bf 5c04 853e a175 8b3c
00000020: 229a 73bb 5db9 2cbf 5bf7 d43e bfcc e6bc
00000030: 0163 68be baec a8bc 0b3e 85bb de13 9abb
00000040: 1c3e dabe ab1c a13d d9e6 053f a213 243e
00000050: a70e 40bf c4a6 17bc eda4 9d3e 1842 28be
00000060: 679a f1be 08cc b7bd 002f b8be 40f2 1c3d
00000070: 2c88 04bd 21bc 5fbe 0d2a 5cbd d0c4 2e3d
00000080: 9159 823c 6cc0 bbbe 1bac a9bb 8a8a 813d
00000090: 539b 15bf 4dba 17bf 595a 27be 1282 14bd
000000a0: e914 55bf a861 00bd 7db3 65bc 433a a0be
000000b0: b761 1cbd 7cfa e43e 7654 99bd ef17 65be
000000c0: 64bc 16bc 9c61 ab3d 5473 2abf 6ca6 1dbd
000000d0: b87f debe 396d 05bf 8415 0ebd 3596 2cbd
000000e0: 5718 ddbe 0b29 813d f547 1f3c a762 873d
000000f0: d33a 29bc 7f23 9abc 908e b93c a747 683d
00000100: 7f40 d5bc 9ff9 113e 376e c13b fcf4 57bd
00000110: 400f e03e 8344 463e d49b 3cbd 1ee5 d1bc
00000120: 6cad 03bd da44 453c 18b8 27bf 184c 9dbb
00000130: 4a4b 6a3d c032 afbe 6fa9 aabe 8705 e63d
00000140: dbf0 993e 6f6d 1c3d 1310 52be c96c afbe
00000150: d829 fa3d 61a7 20be d253 a43e 4c7e 1c3f
00000160: ab39 a0be 9c11 0ebe 3e15 103d 6708 60be
00000170: 1074 7a3e 2d39 35bd ae28 e63d 9503 ad3d
00000180: dcbb 69bd 0b77 8ebe 72fc 603d e2ec 7c3d
00000190: ba39 b1be 4f9d a33d d540 ef3c ab96 7ebe
000001a0: b8c2 2f3c 050b df3e 24a1 21bf ef3b e83a
000001b0: 44db 9cbe 4807 123e a093 d0be c884 72bf
000001c0: 15f0 5ebe 150d 9ebd e06f 7cbe 4457 a1bd
000001d0: 6ed3 52be ded8 a5be 4bca 3cbf 0b42 58bd
000001e0: 9348 0c3d 3c4a 47bc d93c bb3e e857 5fbe
000001f0: bd32 ab3d a3d6 8a3e 3c76 c5be 27eb 253e
00000200: 2a2a cd3d 5a5a a7be 6035 263d c467 bdbe
00000210: 91b7 72bd e075 7b3e 549a 0e3d 3d2c 853d
00000220: 4933 a73d 1a9a 7a3e 0cf8 53be 0349 17bf
00000230: da4d 82bc 5175 01bf f314 313e e3b1 c63c
00000240: 1fed 2fbe b3f1 a03e f513 3d3e 0779 36bf
00000250: 765f 90bc 7a30 9ebc ba3a e63d 0445 05be
00000260: 4add 8abe 31d6 93bd 8199 14bd d74b d0be
00000270: d2c8 9f3c a441 a23d 12ad 0dbe a0bc 1a3f
00000280: d810 303b ee3e acbe cd7c e53c 1eb3 853d
00000290: 35a9 773d fc6d 183b 2d10 48be 368b b5bd
000002a0: 2995 093d 31d0 14bc 1091 38bf 4ecb 79be
000002b0: b852 7bbb f0e6 08be 1ccd b6bd c80b 9cbe
000002c0: d7f3 a0be ce20 cabc 0ff1 fabc 0b58 463d
000002d0: 8389 b3be 9842 543d 795d 823e c71c 123d
000002e0: 30f7 41bf bc93 be3d e086 71bd 0d36 da3b
000002f0: 1107 5d3c 20f1 9ebf f65a bfbc 717f 92be
00000300: b01b 88be bfea 383e 2995 893d 04b5 a13d
00000310: c31e bc3d 4b72 ce3d fb6e 1fbc 3292 3bbd
00000320: 074f 5d3d 7ede 7abf 9656 fcbd 1948 73be
00000330: 7b49 d33e 17f5 023f 7a8c 3abd fb1a 583e
00000340: d8d7 113f 5d5a 8cbf 92af 1ebf b9c7 273d
00000350: 42a9 f5be 9b06 173e 0700 6b3e 77c0 a33d
00000360: 326c 3ebf f6ce 82be a493 55bf 59aa 7dbe
00000370: c785 f93c 5ab0 433b c495 213e 2de9 973d
00000380: 7e61 c1bd 6169 e03c b1bf 0e3e 1a80 cdbe
00000390: c87f fabc c91d e03c d960 cdbd c64b 4abc
000003a0: ccd2 f03d 95d2 9b3c caba 9cbe d0e7 1bbd
000003b0: 26d7 d3be 1471 f2be 47c8 233b 7e1f 703a
000003c0: 202b d1be a3dd ebbd 5126 69be 19e7 dfbc
000003d0: bac0 ed3d 5312 173d 335d 04be 81ef 303f
000003e0: 9b06 97bc cc2c 483d 5656 36bd f0cd 08bf
000003f0: 9619 f93d 0b40 833d 590b 1ebf 194e 723d
-0.48274264 -0.92465115 0.07918951 -0.24772754 -0.029475808 -0.6629783 0.25979888 0.017023863
-0.0037170728 -0.6747034 0.41594967 -0.028173802 -0.22694017 -0.020620693 -0.004066234 -0.0047020754
-0.4262551 0.07866796 0.5230537 0.16023114 -0.7502236 -0.009256069 0.3078989 -0.16431463
-0.47188112 -0.08974463 -0.35973358 0.038316965 -0.032356426 -0.21849109 -0.05375104 0.042668164
0.01591185 -0.36670244 -0.0051779873 0.06325252 -0.5844013 -0.5926865 -0.16343059 -0.036256857
-0.8323503 -0.031343132 -0.014019844 -0.3129445 -0.038179126 0.44722354 -0.07486813 -0.22372411
-0.009200189 0.08368227 -0.66582227 -0.03848879 -0.43456817 -0.52119786 -0.034688488 -0.042135436
-0.43182632 0.063066565 0.009721746 0.06610613 -0.010328966 -0.018815754 0.022650987 0.056708958
-0.02603173 0.14255379 0.005903031 -0.05272387 0.43761635 0.19362073 -0.046047047 -0.025621947
-0.03214781 0.012040341 -0.6551528 -0.004800331 0.057200707 -0.34218407 -0.33332393 0.11231523
0.3006657 0.0381903 -0.20513944 -0.34262684 0.12215012 -0.1568885 0.320952 0.61130214
-0.31293997 -0.13873905 0.035176508 -0.21878205 0.24458337 -0.04424398 0.11238228 0.08447949
-0.057063922 -0.27825198 0.05492825 0.061749347 -0.34614354 0.079889886 0.029205719 -0.24862163
0.010727577 0.43563095 -0.63136506 0.0017718057 -0.30636036 0.1426059 -0.4073763 -0.9473386
-0.21771272 -0.07717339 -0.24652052 -0.07877973 -0.20588467 -0.3239202 -0.73746175 -0.05279736
0.0342489 -0.012163695 0.3656986 -0.21810877 0.08359287 0.2711688 -0.38566768 0.16202985
0.10017808 -0.3268612 0.040578246 -0.3699323 -0.059257094 0.24556684 0.034815148 0.065025784
0.08164079 0.24472848 -0.20700091 -0.5909578 -0.015906263 -0.50569636 0.17293148 0.024254745
-0.17180298 0.31434402 0.18464644 -0.71278423 -0.017623644 -0.019310225 0.1124167 -0.13014609
-0.27121955 -0.07218588 -0.036279205 -0.4068286 0.019504938 0.07922676 -0.13835552 0.6044407
0.0026865508 -0.33641762 0.028013611 0.065283045 0.060464103 0.0023258915 -0.1953742 -0.08864443
0.033589516 -0.00908284 -0.7209635 -0.24393961 -0.0038348865 -0.13369346 -0.0892584 -0.30477738
-0.31436035 -0.024673846 -0.030632524 0.048423808 -0.3506585 0.05182132 0.2546194 0.035671975
-0.75767803 0.09305522 -0.058966517 0.0066592754 0.013490454 -1.2417336 -0.023358803 -0.28612855
-0.26583624 0.18058299 0.06717903 0.07895854 0.09185555 0.100803934 -0.00973105 -0.04579372
0.054030444 -0.97995746 -0.123212025 -0.23757972 0.41267 0.5115523 -0.045544125 0.21104042
0.56969976 -1.0965077 -0.6198665 0.040961955 -0.47980696 0.14748614 0.22949229 0.07995694
-0.7438384 -0.25548524 -0.83428407 -0.24772014 0.030459298 0.0029859752 0.15779787 0.074175216
-0.09442423 0.027393999 0.13940312 -0.40136796 -0.030578509 0.027357953 -0.10028238 -0.012347167
0.11758956 0.019021312 -0.3061126 -0.03806287 -0.41375083 -0.47351897 0.00249912 0.0009159966
-0.40853214 -0.11516883 -0.22768523 -0.027331876 0.11609025 0.03688271 -0.12926178 0.69115454
-0.018435767 0.048870847 -0.04451593 -0.53439236 0.12163083 0.064086996 -0.61736065 0.05915651

fc3.bias f4 [128]
00000000: 5ee8 98be 37a1 a3bd d1ba 1e3f 41a2 a9be
00000010: 6a81 a7bd bda9 873e 0d07 a2bd 4a38 3ebc
00000020: 7a30 a93e 6d15 e4bd d7fe efbd 3d08 66bd
00000030: 6eea d2bd 4e92 1c3f 4de3 95bd 63b1 1fbe
00000040: 60e9 70be d1e5 c5bc 0ab6 a4bd 6ab9 24bf
00000050: a751 f7be b199 6abe bf56 19be 232a 03bf
00000060: f206 b1bd 1faf c5bd 0a4c 01be d80f 9abe
00000070: cbf9 903d e542 abbe a365 fbbe 0744 d4be
00000080: fa9c 0abf 2b00 0dbe 1682 dbbd 6135 523e
00000090: 8c9d 15bf c916 13be 44a2 95be ec4c 17be
000000a0: 1675 0fbe a232 babd dd1c 3dbf 2df0 aebd
000000b0: 777f fcbe 27af 9e3e 16f1 fc3e 26d3 023c
000000c0: 65cf 03bf e985 a5be a21e ffbe b375 67bd
000000d0: 8e1d 9abd e9e3 e8bd b963 32be 40f8 ea3d
000000e0: 54a2 55be 6506 b5bd 68cd d9be e710 70be
000000f0: 8c8b c63e 2145 f63e 64ba 6e3e 60ef 593f
00000100: b324 03be 4ed6 a9be 6c18 9e3f 9762 dd3e
00000110: 5e3a 96be 48ae c43c 681e ff3d 2724 07be
00000120: aef4 443e f927 44bf ee85 3fbe 8e4f 16bf
00000130: e986 91be 9c60 f13d ada6 edbd 0760 32be
00000140: 4996 6abd 973f d7be abcf 87be 6abf 2a3e
00000150: 5b88 d8bd 0e8f 19be d7d7 87be c72d 88bd
00000160: 0676 13bf 8ca9 8cbe a874 4bbd 9791 23be
00000170: ecd9 8dbe 8376 89be 045c a7bd afa6 a63e
00000180: 5048 d5bd e2c3 43bd 6d50 273f 1247 8f3e
00000190: fe55 a43e 1ccf 073f ced9 bbbe cca7 06bf
000001a0: 1ba5 0bbf cafa 0f3d 4c8f 16bf cabb 9a3d
000001b0: 1d23 fdbe 93a5 24be ce60 f8bd 1210 0bbe
000001c0: cf85 46bf ae05 acbd 65fd e8bd 137f ed3e
000001d0: ec94 b1be 1a19 f33d 7439 f6be 484a 1cbe
000001e0: 7d90 abbd 1c0e 523f 268d eebd 78ab d1bc
000001f0: 7016 6bbe fb74 4fbd ca29 9f3d 0984 343d
-0.29864782 -0.07989734 0.6200381 -0.33131602 -0.08178981 0.26496688 -0.07911501 -0.0116101
0.33044797 -0.11136899 -0.11718529 -0.0561602 -0.1029862 0.61160743 -0.07318745 -0.15595011
-0.23526525 -0.024157437 -0.08042534 -0.6434542 -0.48304483 -0.22910191 -0.14974497 -0.5123617
-0.08643903 -0.09652542 -0.12626663 -0.30090213 0.07078894 -0.33449474 -0.4910098 -0.4145815
-0.5414578 -0.13769595 -0.10718171 0.20528175 -0.5844352 -0.1436416 -0.2922536 -0.14775437
-0.14009508 -0.09091689 -0.73872167 -0.08541904 -0.49315998 0.30993006 0.49402684 0.007984912
-0.51488334 -0.32328728 -0.49828058 -0.05650873 -0.07525168 -0.113715954 -0.17420854 0.11473131
-0.20862705 -0.0883911 -0.42539525 -0.23443948 0.3877834 0.48099616 0.2331329 0.8513088
-0.12806968 -0.33171314 1.2351203 0.4323928 -0.29341406 0.024008885 0.124569714 -0.13197385
0.19233963 -0.76623493 -0.18703434 -0.5871514 -0.2842324 0.11786005 -0.116040565 -0.17419444
-0.05727223 -0.42040703 -0.26525626 0.16674581 -0.10572883 -0.14995977 -0.2653186 -0.06649356
-0.57601964 -0.27473104 -0.0496718 -0.15973507 -0.27705324 -0.2684823 -0.081718475 0.32549044
-0.10414183 -0.04779423 0.65357095 0.2798391 0.32096857 0.530504 -0.3668961 -0.5259979
-0.54548806 0.03515128 -0.58812404 0.07555349 -0.49440852 -0.16078787 -0.12127839 -0.13580349
-0.77547926 -0.08399521 -0.11376456 0.46386012 -0.3468393 0.11870022 -0.48090708 -0.15262711
-0.08377168 0.8205278 -0.11648016 -0.025594458 -0.22957778 -0.05064867 0.077716425 0.04407123

fc4.weight f4 [128, 128]
00000000: ceae c03e 95b3 8fbd 9825 4bbe f488 29bd
00000010: 9438 64bd 87a8 1bbd 36c5 64bc b6e1 78be
00000020: 6bee 7fbf 9538 643d 620f 613f fa2b ce3c
00000030: 5cdf 65bf df2d 84bf 85c3 433f 73ee 8d3c
00000040: 2161 093f 7912 e3bc c894 83be 472f 8abe
00000050: 55c1 193e 2998 6fbe 384a 003d 3998 8c3d
00000060: 2c34 3dbd 58df fb3c 9f9f 4b3d 04fd c2be
00000070: 18da 28bf 781b b8be 4b21 24bf a5eb 05bf
00000080: 672e 81be 975e c13d e7ed 91bc cfbc e0bc
00000090: ee35 17be 46ca 783d deda b33b d0e0 9b3b
000000a0: fe3a 363d 0f35 d33d c9dc fcbe dd8b 513c
000000b0: 3f59 18bf 7044 3cbe 8bb9 f23e 6594 ba3e
000000c0: 26b4 d2bd 193b ebba 7200 8bbd 5d94 bf3c
000000d0: b2c8 b6bd ec97 bcbd dfb1 333d 9328 413f
000000e0: cd2c 48bd 24c0 50bd e6b5 463f d5cf c1be
000000f0: 75ac ddbe 94b6 9fbe 066c f7be 07db 36bc
00000100: 04ea 58bb 9d0b 8fbe 4139 6abf 17ae 42be
00000110: 4d89 2b3e 83e8 9f3e f928 43bf 36b7 113d
00000120: 4b3c 05be df58 40bd 6998 9c3d bf2b 253d
00000130: a946 333e 635d 08be 5949 313d c1dd f6bb
00000140: 3ce2 0a3d 0061 933d 7d29 193d cb98 eebe
00000150: f8ba 4b3d ca26 82bd 1a42 f4bd 34cf 8dbd
00000160: a729 99be 3153 14bf c6d9 40bc 05d1 8ebd
00000170: 8d7f 51be 1057 aabe 22e6 1dbf 366b 103e
00000180: 0d01 23bd 6d13 8f3c 64d8 f1bd 6d15 64be
00000190: 2264 64bd 7351 7c3c 8caa d8be ecf5 d8bd
000001a0: c628 90be 585d 20be 6053 01be b399 1fbf
000001b0: 1e24 ce3e 7fda c9bd ba39 b13d a148 283d
000001c0: 3169 5cbe 50a2 9b3d 16a7 ecbe fe70 d9be
000001d0: d90a 313e b95d 5f3d 5290 1ebe 7a86 3bbd
000001e0: 4ee8 48bd 95ba 1bbe 3619 ac3d e33a b3be
000001f0: be2f cfbe 4886 8e3e f501 86be 214b aa3d
00000200: ab8a 0f3d 361e 243d 067b 14bb a4e0 8e3e
00000210: 6145 95bd 3ca7 b33e 1067 aebd 0c00 003f
00000220: c6be 8cbf acbb 0dbd 9309 893e 60da 113e
00000230: 2e85 43be e0f2 85bf 76ff 08bf 1925 393e
00000240: e27e 343e 5de5 053f 8d4d e8be 21a7 183d
00000250: ff70 813e b480 80be 4097 88bf 1f5c 17bf
00000260: 0aaf e9bd 663c 9abc ca6d 7d3d e788 37be
00000270: 1fe1 97be 2bd6 6e3e 8e19 a0be 3fa8 53bd
00000280: 8218 3abe 2bde 203e 6e75 70bd 76e2 0fbf
00000290: 289d 19bf c8e9 af3c 47af b2be eddb db3b
000002a0: 7ff0 373d 97b2 08be 8e7c 06bf 185f 83bf
000002b0: ae07 6abe a390 11bf 7965 d6be 99bf 413f
000002c0: 4120 cbbe 211c b1bd 6bca 8cbd 0128 d0bc
000002d0: ec92 a2be 6d4d 3ebd 5288 fbbe da37 14bf
000002e0: 5f0e c93d 5ecf 1abd 7b69 1fbf ce39 8d3d
000002f0: fa3a ad3e cc2f bb3e 91ba 5e3d eaff f9be
00000300: f980 9cbd e1a3 233e aae4 60bb 084c c8bf
00000310: c88e 69bf 7849 f4be 5d96 5b3e b646 36bd
00000320: acd7 b03d 7a21 7ebf ef3f 92bc 8725 8abe
00000330: f363 6fbf dc10 173f 1a69 583d a633 2ebe
00000340: ccbb b23e a65b b4bf 8847 b03d 7442 34be
00000350: 9392 2a3d ec4e ecbd 9ab3 563d 2d82 053d
00000360: f06d 5bbe c706 24bf f8f4 fa3c e1a1 d73c
00000370: 1a0b b9be 98ad 96bf 1bab 8cbe 8d45 cc3e
00000380: a143 b03d 4dd7 523d 92f3 6bbd 406a 25bf
00000390: 651b 1b3e 2407 db3e ade7 0e3e b3fc 15bf
000003a0: 9147 f6be c319 c23e 177b 19bf d846 f0be
000003b0: a14e 27bf d5dd 6fbd e251 ba3c 408d 5fbb
000003c0: 4830 e53c 8890 80bd 7830 903e 9fc8 18bb
000003d0: be96 4d3f 3474 cb3e 3c01 933e 25cb c73d
000003e0: f832 54bd 1396 aa3e ff5b 1bbd ec68 eb3e
000003f0: 491d c73e d289 da3e d1cf 2c3e bbbd febe
0.37633365 -0.070166744 -0.1983856 -0.041390374 -0.05571802 -0.038002517 -0.013963034 -0.24304852
-0.9997317 0.055718023 0.879141 0.025167454 -0.89793944 -1.0326499 0.76470214 0.017325616
0.5366383 -0.02771877 -0.2569945 -0.26989195 0.15015157 -0.23397888 0.03132078 0.06864972
-0.046192333 0.030746147 0.049712773 -0.3808366 -0.65957785 -0.35958457 -0.641133 -0.5231269
-0.25230715 0.0944187 -0.017813636 -0.027433781 -0.14766666 0.060739778 0.0054887375 0.0047570243
0.044489853 0.103128545 -0.49387196 0.012789694 -0.5951118 -0.18385482 0.47407183 0.3644134
-0.10288267 -0.001794669 -0.06787194 0.023386175 -0.08924998 -0.09208664 0.043870803 0.75452536
-0.04887085 -0.05096449 0.77621305 -0.37853876 -0.43295637 -0.31193984 -0.48324603 -0.011160619
-0.0033098469 -0.27938548 -0.9149361 -0.19011723 0.16751595 0.3123208 -0.76234394 0.035575114
-0.13011281 -0.046959754 0.076462574 0.040324923 0.17507423 -0.13316874 0.04328284 -0.0075337593
0.03390716 0.07196236 0.037393082 -0.46600947 0.049738854 -0.06355055 -0.1192667 -0.069242865
-0.2991459 -0.5793944 -0.011770671 -0.06973461 -0.20458813 -0.33269548 -0.6167928 0.14103398
-0.039795924 0.017465318 -0.11808851 -0.22273798 -0.055759557 0.015400278 -0.42317617 -0.10593781
-0.28156108 -0.15660608 -0.12629461 -0.623439 0.4026193 -0.09856128 0.086535886 0.04108489
-0.21524502 0.07599318 -0.46221226 -0.4246902 0.17289294 0.05453274 -0.15484741 -0.045782544
-0.049049668 -0.15207894 0.08403246 -0.35005865 -0.40466112 0.27836823 -0.26173368 0.08315111
0.035044353 0.040067874 -0.0022656335 0.27905762 -0.072886236 0.35088527 -0.08515751 0.5000007
-1.099572 -0.034602806 0.26765117 0.1424346 -0.19093773 -1.0464745 -0.535148 0.18080558
0.17626527 0.52303106 -0.45371667 0.03726876 0.25281522 -0.25098193 -1.0671158 -0.5912494
-0.11410339 -0.018827628 0.06187228 -0.17923318 -0.2966394 0.23323886 -0.31269497 -0.051674124
-0.18173411 0.1570975 -0.05870574 -0.56204927 -0.60005426 0.02147378 -0.3489935 0.006709567
0.04490709 -0.13349377 -0.52533805 -1.0263395 -0.22854492 -0.56861323 -0.41874292 0.7568298
-0.39673045 -0.08647943 -0.06874546 -0.0254097 -0.31752717 -0.046460558 -0.49127442 -0.5789772
0.09817194 -0.037795417 -0.62270325 0.06895791 0.33834058 0.36559904 0.054377142 -0.4882806
-0.07641787 0.15980484 -0.0034315982 -1.5648203 -0.9123349 -0.47712302 0.21444078 -0.04450103
0.08634886 -0.9926983 -0.017852752 -0.26981756 -0.93511885 0.590101 0.052834608 -0.1701189
0.34908903 -1.4090469 0.086073935 -0.17603475 0.04164369 -0.11538491 0.052417375 0.03259485
-0.21428657 -0.6407284 0.030634388 0.026322307 -0.36141282 -1.1771727 -0.27474293 0.39896813
0.08606649 0.051474858 -0.057605334 -0.6461525 0.15147169 0.42778885 0.13955565 -0.58588713
-0.48101476 0.3791028 -0.59953445 -0.4692905 -0.65354353 -0.058561165 0.022744123 -0.0034111291
0.027977124 -0.06277567 0.2816198 -0.002331294 0.8030814 0.39737093 0.2871188 0.097555436
-0.05180642 0.33317623 -0.03792953 0.45978487 0.3888953 0.42683274 0.1687615 -0.49754128

fc4.bias f4 [128]
00000000: 7879 db3e 717f 61bf 4899 093d 6270 cabe
00000010: d2fc cdbe 7f95 a3be 7b32 f4bd 02ec 303f
00000020: 1575 21bf 5c8d 4c3d 3032 afbe 5f03 943f
00000030: c5e6 72bc 6810 a5bd 776a 4e3f 2ef3 7dbe
00000040: cb4f 3bbe e8c3 4dbf 98d7 58bf e9a7 963f
00000050: 3d1d 64be c245 a83e c683 063e cb95 0a3f
00000060: 2a3d 343f d295 943e 0f80 7bbc b44c 7cbe
00000070: 4f2e 953e 89a2 cdbc e164 6abf aa1e 17bf
00000080: 0fc9 b23c 549d 8c3e 237b 8cbf 1bac 2939
00000090: a66a e1be 9bbc e13e 3c88 a0be 6987 26be
000000a0: 0102 363e beba 9bbb 0f3a f63e 1275 8dbe
000000b0: 2c9f 8d3f b521 9c3f 4ac7 b9be 22be 2d3e
000000c0: 470d 6b3e 6004 16bc 8d68 f03e 8f37 743f
000000d0: ca69 05bf 31af afbd ed12 52be ee45 d23e
000000e0: 0375 33bc 3cb0 c03e 8c4f 6f3f 0e64 c5be
000000f0: d6b1 813f 4d8d 483f da5a 9abf fda2 003f
00000100: ea4d 18bd ca44 44be 0bbb 2bbf e8cd bb3f
00000110: 62cc 07be b28d 14be e720 43bf bb19 303e
00000120: e6ed ab3b fcda 8cbe 31c7 72be 8489 6cbe
00000130: f6d8 e33e 67b6 cb3e 5800 1c3e 58a8 9abe
00000140: c259 b7bd eee8 42bf da26 9ebe 8de2 a93f
00000150: 3035 0abe f302 b8be 219a 733e 09b3 13be
00000160: 7b3e 323f 81c8 ccbc 6050 a83f 4319 ccbe
00000170: bb83 723f 5eb4 6d3d e037 343e 8b62 16be
00000180: d462 263d 3392 3bbe a81c ecbe 0201 803d
00000190: 5700 023f fbeb 1fbe 0cdd aabf 9cbb b93d
000001a0: a8bf 2ebe c226 d73d 7f28 34bf 2194 4bbf
000001b0: af3d a63e 339d 20bf 7513 69bf 5f70 2c3e
000001c0: 1366 d4bf d450 97be 0c63 3dbe 56bd 0b3f
000001d0: 63de 82be 0eac 0abf 0f47 bf3e 5734 cabe
000001e0: b96c 13be 54c6 2d3f 91ce 96bd e6b2 553f
000001f0: faee bd3f d754 58bf ec8c eebd 86b7 063f
0.4286611 -0.88085085 0.033593446 -0.39538866 -0.4023195 -0.31949994 -0.11923691 0.6911012
-0.6306928 0.0499395 -0.34217978 1.1563529 -0.014825528 -0.0805977 0.806312 -0.24799797
-0.18292157 -0.80377054 -0.8470397 1.1769992 -0.22276779 0.3286572 0.13136205 0.54134816
0.7040583 0.29020554 -0.015350356 -0.24638635 0.29136893 -0.025101917 -0.9156018 -0.59031165
0.021824388 0.27463782 -1.0975078 0.0001618121 -0.4402668 0.44089207 -0.3135394 -0.16262592
0.17774202 -0.004752486 0.4809117 -0.2762838 1.10642 1.2197787 -0.36284858 0.16967061
0.22954284 -0.0091563165 0.46954766 0.95397276 -0.52114546 -0.08578337 -0.20515032 0.41068977
-0.010953191 0.37634456 0.93480754 -0.38552898 1.0132396 0.7834061 -1.2058976 0.502487
-0.03718368 -0.19166866 -0.6708228 1.4672213 -0.1326156 -0.14507177 -0.7622208 0.17197315
0.0052468656 -0.27510822 -0.23708798 -0.23099333 0.44501466 0.397876 0.15234506 -0.3020656
-0.08952667 -0.7613667 -0.30889016 1.3272263 -0.13496852 -0.3593975 0.23789264 -0.14423765
0.6962659 -0.024997951 1.3149529 -0.39863023 0.94732255 0.05803334 0.1759944 -0.14686029
0.040621594 -0.1831749 -0.46115613 0.06250192 0.5078177 -0.15617363 -1.3348708 0.09068987
-0.17065299 0.10505439 -0.7037429 -0.795229 0.32468936 -0.62739867 -0.91045314 0.16839741
-1.659365 -0.29553854 -0.18494815 0.5458578 -0.25560293 -0.54168785 0.373589 -0.39493057
-0.14396943 0.6788075 -0.07363618 0.834761 1.4838555 -0.84504455 -0.116479725 0.52623785

fc5.weight f4 [3, 128]
00000000: 9ce8 9fbd cfa3 e83d 9079 7e3e 2dc6 e1bc
00000010: 14d9 123d 29fb 943d b5e7 f7bb 7940 09bd
00000020: 41b4 a7be 8431 113e 6688 2d3d a5dd 833e
00000030: c573 47be f971 fbbb 65a9 daba fb50 b83d
00000040: b901 573d e765 f33d dcdf a5be 6fa8 ce3e
00000050: 9f11 d5bd f357 c0bc c8fc 8abe fdeb ba3d
00000060: ea37 d6bd 8b49 b0bc 491c f5bd 29aa 813d
00000070: e665 8b3e 9dc5 fa3d b4ea 8ebd dc12 6dbe
00000080: e9e4 63bc 1547 373e 4556 24be 9387 333e
00000090: ffd1 fabd f088 6b3d 4fd6 cbbc c617 1abd
000000a0: a505 143e 6ddf c5be 20f6 863b 6f18 e53d
000000b0: 676f 5c3d 4c9c e33e ee5b 97be ac03 ab3d
000000c0: d5dc 63bf 5e3c 7f3e 0894 213e 3c7c 6c3e
000000d0: 3933 8bbf 28f8 f1bc 44b5 063e d60c 843e
000000e0: 85a9 f83d 0ef9 28bd fedd 0f3f 252f 88bd
000000f0: ec2a 0abd 8281 4b3d 6299 dbbe 6b1a 293e
00000100: e996 793e 50f2 383c 23c5 1cbe d11f 713c
00000110: 6012 a53d e16d 303e 2761 40bc b43f 3f3f
00000120: 176b 373e c424 46bd 6f0c 89be c2a9 f3bb
00000130: 49dc 283e 385a bb3d caf5 193e 6630 203e
00000140: a56a 45be 0c82 063d 0b47 503c 028e a7be
00000150: b843 31be d0b2 8cbe 62c2 953c c3a1 1f3a
00000160: 8646 3abe 4e09 2e3e c4d6 a3bd 212c 88be
00000170: 08ec 03bd d356 813e b841 ae3d 78f3 cc3c
00000180: 7c08 1d3d f609 1b3b b419 abbf b86c 93be
00000190: 10c5 a1be e82c b9bc 4340 9fbe 2439 d0bd
000001a0: ff56 36be b82f 223d 0c69 7cbc 2e0f 92bd
000001b0: b4e1 c039 0e42 8ebe 3da9 92be 7b41 5dbe
000001c0: cb82 0ebf 28eb a53c 3ef3 233c 6189 fa3e
000001d0: 49bd f33d 9db7 2cbf 8e19 943c 0e8b 6f3b
000001e0: c611 1b3c c14a 16bd a045 00be a6a3 b73e
000001f0: c1fa ed3e 7215 273e 7c3a a23d c938 a63e
00000200: 1594 86bd 1646 243d b652 b63d d70f a9be
00000210: 465c 7a3d a29e 443e 7b3b 16bd 501c 6cbe
00000220: 6635 a1be 065b 893e baf9 82bd 7584 9c3e
00000230: dfc4 77be d6bb 9a3b 0a2f fdbc 47d3 383e
00000240: ef1f 7b3d f43d 63bd 21e0 a5be 3876 ed3e
00000250: 52eb 323e 020b d2bc 3f44 96be f912 67be
00000260: d5fb 67bd 6b72 f7bd e6e2 a6be 6b10 ec3e
00000270: c342 533e 0789 66bd 6885 f5bd 2a8d 62be
00000280: cf23 153e 132a 9a3e 2d86 0fbe 6afa fdbd
00000290: d269 57be 380c a7be c25e ce3a 2c6c 173d
000002a0: 7078 2f3d 7a64 dbbe e397 78bc aa2d 033e
000002b0: 80ba 003e 54e1 e83e f1f0 bbbe b7be c23d
000002c0: 2455 4bbf db33 873e 4f63 363e c1e1 873e
000002d0: bd98 2f3e 3a28 14bd 3995 fc3c e133 7d3e
000002e0: d356 96ba d35e 91bd 6aed 043f 7a7c 10be
000002f0: 854e eebc 6a9f 34bd 6ba6 cabe 8d3d 273e
00000300: 7633 6a3e 7726 2fbc c568 0dbe e303 69bd
00000310: 9ca7 e63d b12a 36be f870 86bc a624 093f
00000320: 4bb5 423e 8e5b c5bc d28b 4d3c 0eb2 d33c
00000330: 59e8 213e 32a3 e839 63d7 db3d 23fc 043e
00000340: 085f aebe 4b67 463c 1486 05be efdf 98be
00000350: 1caf 8fbd c11e 2cbe 118f 603d 94a3 a0bd
00000360: f17d 64be 982f 893e efed f2bd 67ea 47be
00000370: 4b9e c9bd 024d 5d3e f31f e8bb ebc4 1f3c
00000380: 2749 c939 c910 94bd 6c35 66be 382e 13be
00000390: 598d c9be 2f76 87bc 5503 a9be c9d0 85be
000003a0: b608 5d3e 95b7 973d 519d 89bd e028 3cbe
000003b0: ec1a 27bc 8acb b5be 49c9 84be 4023 b43d
000003c0: 8144 18bf 4678 86b9 cef3 e63c 854d b83d
000003d0: 569f 06be 4e94 653e b101 68bd 769e b73d
000003e0: 373c 663c 8f0c 46bd 4a4c 39be c8cc ab3e
000003f0: c8b0 df3e 81bb 833d d377 573e c072 ac3e
-0.078080386 0.11359369 0.2485106 -0.027560318 0.035851553 0.072744675 -0.0075654634 -0.03350875
-0.3275471 0.14179045 0.042366408 0.2575504 -0.19477756 -0.0076734987 -0.0016682564 0.08999821
0.052491877 0.11884671 -0.32397354 0.4036288 -0.104037516 -0.023479437 -0.27145982 0.091270424
-0.104598835 -0.021519443 -0.119682856 0.063312836 0.2722618 0.12244723 -0.0697836 -0.23151726
-0.013909557 0.1789821 -0.16048534 0.17532186 -0.12247085 0.05750364 -0.024882464 -0.03762033
0.14455278 -0.38647023 0.004118696 0.11186301 0.05381718 0.44455183 -0.29562324 0.0835031
-0.8900884 0.24925372 0.15779126 0.23094267 -1.0875007 -0.029537275 0.13155085 0.25791043
0.12141708 -0.041253142 0.5619811 -0.06649617 -0.03373234 0.049684055 -0.4289046 0.16513984
0.24373974 0.011288241 -0.15309577 0.014717058 0.080601454 0.17229415 -0.011741913 0.7470658
0.17911945 -0.048374906 -0.267673 -0.007436008 0.16490282 0.09148067 0.15035167 0.15643463
-0.19278963 0.032838866 0.01271225 -0.3272553 -0.17310989 -0.27480173 0.018281166 0.0006089473
-0.18190965 0.16995737 -0.07999948 -0.26596168 -0.03220752 0.25261554 0.085086286 0.025018439
0.03833817 0.002365706 -1.3367219 -0.28793883 -0.3159566 -0.02260442 -0.31103715 -0.10167149
-0.17806624 0.03959629 -0.0154059045 -0.071318015 0.00036789256 -0.2778477 -0.28644744 -0.2160701
-0.55668324 0.020253733 0.010006724 0.48932937 0.11901338 -0.6746767 0.018078592 0.003655139
0.009464687 -0.036692385 -0.1252656 0.3586704 0.46480373 0.16316774 0.07921311 0.324652
-0.06571213 0.0401059 0.089024946 -0.33019897 0.061123155 0.19201139 -0.03667782 -0.23057675
-0.31486052 0.26827258 -0.06395288 0.30569807 -0.24196194 0.004722099 -0.030906219 0.18049346
0.06130975 -0.055479005 -0.3239756 0.46379256 0.1747258 -0.025640015 -0.29348943 -0.22565831
-0.05663665 -0.1208237 -0.32594985 0.46106276 0.20630936 -0.056283023 -0.11988336 -0.22124162
0.14564441 0.30110225 -0.14016028 -0.12401278 -0.21036461 -0.3262651 0.0015744793 0.036968395
0.042839468 -0.42850095 -0.015172931 0.12810388 0.12571144 0.45484412 -0.3670726 0.09509032
-0.7942679 0.2640675 0.1781132 0.26539424 0.17148109 -0.036171176 0.030832874 0.24726821
-0.0011469967 -0.070981644 0.51924765 -0.14109984 -0.029090175 -0.04409734 -0.39580092 0.16332074
0.22871193 -0.010690323 -0.13809498 -0.056888472 0.11262438 -0.17789723 -0.01641129 0.53571546
0.1901447 -0.024091508 0.012545543 0.025841739 0.1581129 0.00044372078 0.10734441 0.12986808
-0.34056878 0.012109588 -0.13039428 -0.29858348 -0.07015821 -0.16808607 0.05482394 -0.078437
-0.22313668 0.26794124 -0.118617885 -0.19523011 -0.09844645 0.21611407 -0.007083887 0.009751539
0.0003839221 -0.07229764 -0.22481316 -0.143731 -0.39365652 -0.016535847 -0.33010355 -0.26135853
0.21585354 0.07408062 -0.06719459 -0.18374968 -0.01019929 -0.3550685 -0.25934818 0.08795786
-0.5947953 -0.00025648082 0.028192427 0.08999161 -0.1314672 0.22419855 -0.056642238 0.08965771
0.014052442 -0.04835182 -0.18095508 0.33554673 0.4368956 0.06432248 0.21041803 0.33681297

fc5.bias f4 [3]
00000000: 70d5 1f3f 7999 573e c62e 69bf
0.62435055 0.21054639 -0.91086996
