checkpoints/checkpoint_qnetwork_local_WMT_V3.pth (torch_old, 340036 bytes, 10 tensors)

fc1.weight f4 [128, 13]
000000 80 15 08 bb 7c 5a 18 3e 0b c0 69 be f0 02 51 be
       -0.0020764768 0.14878267 -0.22827165 -0.20411277
000010 ce c5 da bd 20 51 98 3d 00 11 b4 bb 8e 2f 61 3e
       -0.106822595 0.07437348 -0.0054951906 0.21990797
000020 90 a1 c9 bc a8 4d 96 3d 34 a9 ab bd ac 4d 5f bd
       -0.024613172 0.073390305 -0.08381882 -0.054517433
000030 a0 a9 87 be 77 cb 08 bf ed 5e 64 be 24 23 17 bb
       -0.264966 -0.5343546 -0.22301836 -0.0023061717
000040 9c 26 a8 3d 09 d3 20 3e 92 63 24 bf 6c 89 b9 be
       0.08210489 0.15705504 -0.6421443 -0.36237657
000050 f0 cc 4b 3e 88 34 c4 3e de bf 75 be ea d7 ca 3e
       0.19902396 0.38321328 -0.23998973 0.39617854
000060 4f 32 ef 3d a2 25 02 3e 9c 65 77 3e 60 52 85 be
       0.116795175 0.12709668 0.24159855 -0.2603941
000070 09 8d 3c be 54 54 a3 bd 6b f0 f0 bd 2f 9e 6b 3e
       -0.18413176 -0.07975069 -0.11764606 0.23009561
000080 64 d9 41 be ed 7f 0c be 79 2e 50 be 63 e0 89 be
       -0.18930584 -0.13720675 -0.20330228 -0.26929006
000090 c8 8c 2f be 0e 5e 6a 3e fb ed e9 3d c2 bf 0e ba
       -0.17143548 0.22887442 0.11422344 -0.0005445444
0000a0 6b 2c 8b be 36 ab bb be a5 58 68 bd a5 12 e4 be
       -0.27182326 -0.3665406 -0.056725163 -0.44545475
0000b0 21 7a 93 be a1 cd 70 be b2 6a 59 3d 3f 62 ad bd
       -0.28804114 -0.23515941 0.05308027 -0.084660046
0000c0 43 0b 32 be 40 63 25 bd 8f 12 cd 3e 1b ff b9 3e
       -0.17387109 -0.040377855 0.40053222 0.36327443
0000d0 46 f0 8f 3e d8 2e 0d be 67 49 e4 3e 88 bf c5 be
       0.28113002 -0.137874 0.44587252 -0.3862269
0000e0 ea 12 ec bd 02 3c 83 be 20 43 57 be 81 e1 94 be
       -0.11527045 -0.2563172 -0.210217 -0.29078296
0000f0 65 df 24 3e 17 3c 2c 3e b6 83 62 be 5e 2e 16 3e
       0.16100843 0.16819797 -0.22120556 0.14666125
000100 52 65 f9 3d 4a d9 02 3d e9 0b 94 3c 38 6f b4 3d
       0.121775284 0.031945504 0.018072085 0.08810276
000110 4a 1b 5d bc c2 36 f4 3e 11 79 00 bf 67 8a 20 be
       -0.013495276 0.47698027 -0.5018473 -0.15677796
000120 a9 e7 36 3e a8 ed ca 3e 74 51 7b 3e 39 56 11 3e
       0.17861809 0.39634442 0.2454279 0.14193048
000130 20 d2 10 bd 3e b6 41 bf 32 00 a8 bd a5 7d 95 bc
       -0.03535664 -0.75668705 -0.08203162 -0.018248389
000140 18 8b 8d be 57 4d a8 3e 8f c1 82 3e 1a 9f 1f bf
       -0.27645183 0.32871506 0.25538298 -0.62352145
000150 51 26 07 3e 87 e3 4a be 19 5f 6d 3d 4d ac 28 be
       0.1319821 -0.19813357 0.05795202 -0.16471978
000160 ce 54 48 3e b5 a1 b1 be 4a 57 4b 3e 13 fe 29 bd
       0.195636 -0.34693685 0.19857517 -0.04150207
000170 2e 55 b2 3e 3b 71 14 3e 65 03 03 bf 4d 7a 7f be
       0.34830612 0.14496319 -0.51177055 -0.24948998
000180 43 99 6d 3e 8f 3c 67 3d 81 67 84 be de 2e 0d be
       0.23202996 0.056454238 -0.25860217 -0.1378741
000190 4d 5d f4 3e 6a 05 82 3e 91 b4 6c be d2 c6 63 be
       0.47727433 0.25394756 -0.23115756 -0.22243813
0001a0 a3 45 87 be 40 5a a3 bb a6 df 55 be 00 12 5b be
       -0.26420316 -0.004985124 -0.20886096 -0.21393585
0001b0 e0 60 7a bc 98 91 2a 3d 58 9e e8 bd ea 85 28 3e
       -0.015281886 0.041642755 -0.11358327 0.16457334
0001c0 3e d4 2c be 79 d9 80 3e 2e a1 42 3e 72 7f 6f be
       -0.16877839 0.25165918 0.19006798 -0.2338846
0001d0 9a 5e 8d bd c0 0a 4d 3c 58 bf 25 3d d4 b7 86 3d
       -0.069028094 0.01251477 0.040465683 0.06578031
0001e0 84 e7 de 3d a0 18 88 3c 2f 93 0a be 86 63 06 3e
       0.10884002 0.016613305 -0.13532709 0.13123903
0001f0 6a 37 88 be 22 55 28 be cc 30 8e bd e6 57 0a be
       -0.26604778 -0.16438726 -0.06942901 -0.13510093
000200 bc b5 c6 bd 24 c7 68 be 0d 77 a9 be af 1c 12 3a
       -0.09702632 -0.22732216 -0.3309864 0.0005573732
000210 38 6a d3 be 86 1f c5 be e2 2f 20 3e 30 ba 90 bd
       -0.41291976 -0.38500613 0.15643266 -0.070667624
000220 c6 75 4f 3c 6d 20 cb be 35 c6 07 3d ac 34 a2 bc
       0.012662357 -0.39673176 0.03314801 -0.019800507
000230 6f fb 48 3d d2 0c 8e 3e ec 8c 0b 3f 90 51 a4 bc
       0.04906791 0.27744156 0.54511905 -0.020058423
000240 10 21 7f be 19 a4 06 be aa 61 41 3e 00 a8 eb ba
       -0.24914956 -0.13148536 0.18884912 -0.0017979145
000250 16 2a 0d be 34 a3 59 be df e4 84 be 2d b4 6f be
       -0.13785586 -0.21253663 -0.25955865 -0.23408575
000260 84 6d 66 bd 3a c0 1b 3e ac 8b 19 3e d5 f3 88 be
       -0.056256786 0.15210047 0.14994687 -0.2674853
000270 f0 30 1c 3e b6 00 73 be a5 d9 a1 bd d1 f9 07 be
       0.15253043 -0.2373074 -0.079028405 -0.13278891
000280 c5 c8 96 bd 90 fa 98 bd 85 de 89 be af d3 84 be
       -0.073625125 -0.07469666 -0.2692758 -0.25942752
000290 c2 c6 82 bd 1a 64 8a bc ad f6 15 be 1d 07 ac 3d
       -0.06385566 -0.016893435 -0.1464488 0.08399794
0002a0 2b 4c 8a be 45 1c 60 3e f3 b5 03 3f 3c d0 ab be
       -0.27011237 0.21885784 0.5144951 -0.33557308
0002b0 3d 4a 6e 3e 95 81 b4 3e 6a 55 2f bf f0 ee a0 3e
       0.23270507 0.35255113 -0.68489707 0.31432295
0002c0 b9 92 ec 3d 7a 26 8c be e7 8d 98 3e 3c 76 ae be
       0.115514226 -0.27373105 0.29795763 -0.3407458
0002d0 ce 52 ad 3c 06 f1 fb bd f7 0c b2 3e 6e 47 15 3c
       0.021157648 -0.12301831 0.34775516 0.009111268
0002e0 47 8f 54 3e ba 24 90 3e e4 47 e6 3d 98 15 61 3d
       0.20757781 0.2815302 0.11244181 0.054952234
0002f0 23 8e 90 be 27 19 ef 3e 23 ca 36 3e 9a 7d ed 3e
       -0.28233442 0.46698877 0.17850547 0.4638489
000300 fc ca e7 be c4 3b 1a be 2c 58 41 be 83 01 fb bd
       -0.45272052 -0.15061861 -0.18881291 -0.12256148
000310 5a 8b a0 bd cc 4b e9 3d 93 1f 7e be 91 c4 16 3c
       -0.07839079 0.1139141 -0.24816732 0.0092021385
000320 e8 3d be 3c 3a ec 74 3e 3e 3a 1b bf 19 6e b7 be
       0.023222879 0.23918238 -0.60635746 -0.35826185
000330 49 c2 31 be aa 14 7b 3e f0 cc 8f be 03 e4 95 3e
       -0.1735927 0.24519601 -0.28086042 0.29275522
000340 d4 65 cd 3d b8 d9 0f 3d 80 4e 07 bb 44 92 60 bd
       0.10029188 0.035119742 -0.0020646155 -0.05482699
000350 78 88 0e 3d e8 b3 81 bd 00 6e ff ba f0 f2 10 3d
       0.034798115 -0.063331425 -0.0019487739 0.035387933
000360 be 26 5e be 53 db 14 be 4a 55 65 3e 0a 7c 66 be
       -0.21694466 -0.1453679 0.22395816 -0.22508255
000370 c0 25 a3 bc a2 5c 9b 3e ff 22 51 3e 17 87 f5 bc
       -0.019915462 0.3034411 0.20423506 -0.029971642
000380 73 f3 0a bf 2d 6c aa 3d 5f 37 b4 be 2d 70 6b be
       -0.54277724 0.08321414 -0.35198495 -0.2299201
000390 81 bb ad be 71 e3 e5 bd f3 37 fc be d6 3b f5 3e
       -0.33932117 -0.11225022 -0.49261436 0.47897214
0003a0 f7 ab b4 bd 1b 82 99 3e 31 59 ef 3d c2 ff 0a bc
       -0.08821862 0.29982075 0.11686934 -0.008483829
0003b0 27 cc 1a 3e 35 9d ff bd d5 e4 d2 bc 87 5c 74 3e
       0.1511694 -0.12481157 -0.025743881 0.23863421
0003c0 b7 8c bf bc 7b 2b 20 3e 45 de a4 bd d2 df 8b 3e
       -0.023382528 0.15641586 -0.08050207 0.273192
0003d0 d6 3a 83 3e b3 ad 2e bf 63 85 b5 3e f2 d9 6a be
       0.25630826 -0.68233794 0.35453328 -0.22934702
0003e0 00 84 7a 3b bc 24 41 bd 1b 94 15 be 58 26 16 3d
       0.003822565 -0.047154173 -0.14607279 0.03665766
0003f0 ae d9 6a 3e 92 0a a6 bd ec 9c 28 be c2 12 d2 bd
       0.229346 -0.08107485 -0.16466111 -0.10257484

fc1.bias f4 [128]
000000 64 7b b6 bd e0 a1 40 3e 36 a7 39 be 1a d8 9e 3e
       -0.08910254 0.1881175 -0.18130192 0.31024247
000010 cf c4 13 3e 07 97 ab bd 7d 2f 94 3d ed 95 b7 b9
       0.14430545 -0.083784156 0.0723562 -0.00035016183
000020 68 97 27 be 00 7f 1e bb 06 dd 0e bd 68 35 80 bd
       -0.1636635 -0.0024184585 -0.034878753 -0.062601864
000030 d0 5b 7b 3e c4 2b 1f be b5 77 ca be d1 1d 54 be
       0.24546742 -0.15544039 -0.39544454 -0.20714499
000040 83 ca 83 be 7d 30 8f 3e 2a 7b 97 be c2 d1 47 be
       -0.25740442 0.2796668 -0.29586154 -0.1951361
000050 80 3e 06 be 46 16 82 be 82 5b 14 be 2d 66 a2 3c
       -0.1310978 -0.25407618 -0.14488032 0.019824112
000060 77 0c c3 be b3 27 a6 3d b1 1d 9b 3c 07 86 2a bc
       -0.38095447 0.08113041 0.018935056 -0.010407931
000070 66 60 c7 3d 4c bc fa be 8d 7d 83 3e 88 74 3f 3e
       0.097351834 -0.48971784 0.25681725 0.18696797
000080 62 16 2e 3d 75 67 81 3e 0d 3e a9 be 1f fe c3 3d
       0.042501815 0.25274244 -0.33055153 0.09569954
000090 dc 71 bf bc 16 5e 96 be 16 22 70 bd b2 d9 ef bd
       -0.023369722 -0.29368657 -0.058626257 -0.11711444
0000a0 d7 84 2a 3d b8 55 61 be 9b e6 15 3e 9c 70 b3 be
       0.041630592 -0.22005355 0.1463875 -0.35046852
0000b0 28 17 a9 bd 9d f6 01 bd 36 7b 8a 3e f6 a8 c7 3d
       -0.0825637 -0.03172933 0.27047127 0.097490236
0000c0 2c 8b c5 bd b9 bf 11 bd 18 81 d8 3d 5b fb 25 bd
       -0.096456856 -0.03558323 0.10571498 -0.040522914
0000d0 ff 69 6f bc 62 0d de bb b0 1b 05 3e 34 8f 4f be
       -0.014612674 -0.0067764977 0.12998843 -0.20269471
0000e0 c9 3b b4 3e 12 1e 4d be 4e 09 6a be 86 cd 00 bd
       0.35201862 -0.20031002 -0.22855112 -0.031446002
0000f0 35 0d d9 bb 25 f2 56 bd f5 18 53 3e 66 4e 2f be
       -0.006623889 -0.05247702 0.20614989 -0.1711975
000100 ee 92 34 3d 99 44 6a be 8d c1 1b bd 7d 0e 24 3e
       0.044085436 -0.2287773 -0.03802638 0.16021152
000110 51 6c dc 3c ff 62 24 3e b8 25 07 3e 50 d6 25 bd
       0.026907118 0.16053389 0.13197982 -0.040487587
000120 68 4e 94 3d ce 58 ed bd a8 14 53 3e df a4 ed 3d
       0.07241517 -0.11589204 0.20613348 0.11603712
000130 a0 11 63 be cd cd e8 3e 53 cf a3 bd f5 80 52 bd
       -0.22174692 0.45469514 -0.07998528 -0.051392514
000140 67 d1 db bd 75 21 5a be 51 4e 0f bd 44 ad c2 be
       -0.107333 -0.21301825 -0.034986798 -0.38022816
000150 a8 17 84 be 1f 4b 12 be e8 10 62 bd d9 4e 0b 3e
       -0.25799298 -0.14286469 -0.055191904 0.13604297
000160 28 74 8b 3e 5c 14 34 be 6f 0a 6d bc 74 b1 cc bd
       0.27237058 -0.17585891 -0.01446782 -0.09994784
000170 49 ed 73 be 3a e5 60 bd a6 96 83 be de be 1e 3e
       -0.23820986 -0.054906107 -0.25700873 0.15502498
000180 c9 13 7e be 6b 4d 1b be 89 2f 9c be c2 03 3c bd
       -0.24812235 -0.15166251 -0.30505016 -0.04590202
000190 1b 3b 8b 3e d7 6d 0b be f8 69 be bd 7d e4 20 3e
       0.2719353 -0.1361612 -0.09297556 0.15712161
0001a0 25 8b c3 bd 0a e0 5e be e7 40 57 be dc 1b 7f be
       -0.09548024 -0.21765152 -0.21020852 -0.24912971
0001b0 1c 82 94 be 30 4e f7 3d 1c 91 7c bd 51 b2 72 3e
       -0.29005516 0.1207546 -0.061661825 0.23700835
0001c0 f9 84 21 be e1 6f b0 bd 0f 84 b2 bd ac 00 54 3e
       -0.15773381 -0.08615089 -0.087165944 0.20703381
0001d0 67 c9 bd 3e c5 f5 59 bd 98 3d 1d be 70 7d fe bd
       0.3706772 -0.0532129 -0.15355527 -0.12426269
0001e0 62 5e 83 3e c6 9f 24 be 0b 72 29 be 60 f2 86 be
       0.25657946 -0.16076574 -0.1654741 -0.26356792
0001f0 8c 83 88 be 06 a4 a1 3c 58 43 9e bc 71 5c 5f 3e
       -0.26662862 0.019731533 -0.019319221 0.21812607

fc2.weight f4 [256, 128]
000000 ed 0a 90 3d f8 5b c1 bb 2d e3 df 3c 9e 2a 97 bd
       0.07033334 -0.005900856 0.027330006 -0.073811755
000010 0e 99 47 3d de bd bf 3b 36 69 16 bd cb 2e 39 bd
       0.04872995 0.0058514914 -0.03672143 -0.04521064
000020 78 4f 58 3c 00 9c cd 39 73 89 89 bd 18 16 a8 3c
       0.013202541 0.00039216876 -0.067156695 0.020518348
000030 47 a1 ae bd c7 58 7f 3d fd 4a b4 bc 44 7c a6 bd
       -0.08526855 0.062340524 -0.022008413 -0.081291705
000040 af b2 2b bd ee 51 72 bc 4c cd cb bd a6 dc 38 3d
       -0.041918453 -0.014790041 -0.09951267 0.0451323
000050 29 a8 88 bb df c5 4c 3e a8 6b b5 3c ca b6 c9 3c
       -0.004170437 0.19997357 0.022146061 0.024623293
000060 76 ea b8 3d 60 9e 36 3b 1b 99 6b 3c 47 62 1b be
       0.09029095 0.0027865395 0.014379765 -0.15174209
000070 89 5c ee bc f1 e2 a8 bc b8 1d 26 bd 91 cb 83 bd
       -0.029096859 -0.020616027 -0.040555686 -0.064353116
000080 7a 98 68 be c4 4d bc bc d3 8f 10 bd ec 79 98 3d
       -0.22714415 -0.0229863 -0.03529341 0.0744513
000090 5f e1 3a be 3a e6 8f 3c 77 82 f3 bd e4 1e b7 bd
       -0.18250035 0.017565835 -0.118901186 -0.08941439
0000a0 7d 24 e6 bd f0 46 3f bc 9a 29 77 bc 3f b9 44 bd
       -0.11237428 -0.011674628 -0.015085602 -0.048028227
0000b0 43 49 44 3e 05 39 ed 3c 39 ac a0 3c 4c 77 c8 3b
       0.19168572 0.028957853 0.019613372 0.006117737
0000c0 05 de da bd 17 75 5e be 62 b0 10 bc bc bd 28 bd
       -0.10686878 -0.21724354 -0.008831115 -0.04119657
0000d0 89 5e 9e bd 2b d9 f1 bd fb 07 74 bc 58 fe 87 bd
       -0.07732875 -0.11809 -0.014894481 -0.06640309
0000e0 61 d3 04 bc 36 96 ca bd 65 d1 51 bd 0b b4 1b bc
       -0.008107037 -0.09891932 -0.051225085 -0.009503375
0000f0 30 b0 2d 3d 86 ff 8b 3d 28 56 e4 3c d9 45 49 3c
       0.042404354 0.068358466 0.027873114 0.012284719
000100 9c 1e 3d 3d cc 4b 66 bd 0a 72 c4 bb 89 b1 32 3d
       0.04617177 -0.05622463 -0.00599504 0.043626342
000110 c1 1e 8e bd f2 95 28 3d 82 5e b3 ba 5e 6b 0d 3d
       -0.069394596 0.041158624 -0.0013684782 0.03452622
000120 a7 1d 29 bd 44 d4 3f bd 0b 32 af bc f3 f0 07 bc
       -0.041288044 -0.04683329 -0.021386167 -0.008297193
000130 da 9e 12 be 3d 4c 63 bd f0 c0 1d 3c 6c 0b 22 3d
       -0.1431841 -0.05549263 0.009628519 0.039561674
000140 b3 09 09 be f8 ec 4f bd 22 81 db bd fc 69 1b bd
       -0.13382606 -0.0507631 -0.107179895 -0.03794287
000150 80 12 0c 3c 5b 70 89 bd 06 6c d4 bc 90 da 11 be
       0.008549333 -0.06710883 -0.025930416 -0.14243531
000160 1f 9c 4f bc fc 12 97 bd 4c 61 55 bd 7f e3 e0 bd
       -0.0126714995 -0.07376668 -0.052094743 -0.109808914
000170 03 65 24 3c e4 91 96 bd 1c 7a 54 3d e0 79 7b bd
       0.010033849 -0.07352045 0.051874265 -0.061395526
000180 27 33 c9 bd 53 13 c3 bd 6e a5 5f bd 60 6e 09 3d
       -0.0982421 -0.0952517 -0.054601125 0.033552527
000190 fd b4 0c bd c0 d0 da bb da 2a 87 be 42 08 a7 bd
       -0.03435229 -0.006677717 -0.2639988 -0.08155872
0001a0 58 0e 3d bd 46 b4 b4 bd 81 e7 69 3d 53 66 70 bd
       -0.046156257 -0.08823447 0.057105545 -0.058691334
0001b0 89 9a df 3c 8c d8 ce 3c 39 90 12 bd b1 ac 03 3d
       0.027295368 0.025249742 -0.035782073 0.032147113
0001c0 b9 42 86 3c 8c 2a fd bd 15 a9 97 bd d9 69 b3 bd
       0.016389238 -0.12361631 -0.07405297 -0.08760423
0001d0 f4 ca dc bd 5f f3 d0 3c e6 f1 b9 3b e3 7b 9c bd
       -0.10780898 0.025506673 0.0056745885 -0.07640817
0001e0 e7 9c 7d bd b9 cd 42 bd 7d 66 74 3d e7 84 b3 3d
       -0.06191721 -0.047559474 0.059668053 0.087655835
0001f0 e0 13 86 3b ce 50 33 3c c5 d2 32 3c f2 57 17 3d
       0.0040917248 0.010944558 0.010914509 0.036949106
000200 d6 29 de bc b4 73 8f bf 26 ba 9e 3a 64 9f 6a bf
       -0.027119558 -1.1207185 0.001210992 -0.9164946
000210 20 54 2b 3d 71 8a c4 3d 27 ec a7 3d 3a 0d 27 bc
       0.041828275 0.09596718 0.08199339 -0.010196025
000220 20 6c 49 3b 00 3f 1d 3b 20 f5 c1 be d8 40 9e bd
       0.0030734614 0.002399385 -0.37882328 -0.07727212
000230 63 8c e0 3c 8c 1c 91 3e 0a 25 f1 3d 3a 22 40 bf
       0.027410692 0.28342092 0.11774643 -0.75052226
000240 6e 9b 18 3d fd f8 c7 bf e6 9e 5c be 9c 1a 9f bd
       0.037257604 -1.562286 -0.2154499 -0.07768747
000250 3f b7 68 3d e0 8a 3f 3d 4a ec 64 bd 7e c5 6e 3c
       0.056815382 0.0467633 -0.055889405 0.014573453
000260 84 96 5d be 59 85 15 bf 38 7e 62 3e bb ca e0 be
       -0.21639448 -0.584066 0.22118461 -0.4390467
000270 4a e7 54 be 0c 2f 95 bd 01 11 2c 3e 09 99 d2 3e
       -0.20791355 -0.07284364 0.16803361 0.41132382
000280 c8 96 59 bf 24 68 e0 bc ab 44 07 bd dd 51 b4 bd
       -0.849957 -0.027393408 -0.03302447 -0.08804677
000290 ed ff f4 3d 12 7f 1a bd b6 a6 e7 3d 07 b5 5c bd
       0.119628765 -0.03771884 0.113110945 -0.05388358
0002a0 a8 09 06 bf c0 1b 74 bb ef 9c 7b bf b0 4e 46 3e
       -0.52358484 -0.0037247986 -0.98286337 0.19365954
0002b0 6d 08 3f 3c 7a 4c 98 bd 8f b3 5f bf fc b1 7e 3e
       0.011659724 -0.07436462 -0.8738336 0.24872583
0002c0 5d f0 8c bf 3a 99 73 be 2d 8a 89 be 51 01 d4 bf
       -1.1010853 -0.2378892 -0.26863232 -1.6562902
0002d0 19 fe af 3c bf c9 1b 3f da 7b 84 bf fc ea 31 be
       0.021483468 0.60854715 -1.0350296 -0.17374796
0002e0 48 ae 79 bf 61 21 19 bf bb b2 c2 3d ed 22 01 be
       -0.9753156 -0.5981656 0.095067464 -0.1261098
0002f0 d7 06 ce be cc b4 12 bd 11 b5 9a be e7 8e 78 bd
       -0.40239593 -0.035816953 -0.30216268 -0.060683157
000300 cf ab d2 3e 93 1f 87 bd f4 c1 e2 bf 4a b6 ee bd
       0.41146705 -0.06597819 -1.771544 -0.11655863
000310 30 c0 0a be 4c d0 88 3d fc e7 21 3e 33 01 1b bf
       -0.13549876 0.066803545 0.15811151 -0.60548705
000320 1a c4 67 3d c8 6a 62 bc 11 62 b1 3e b3 33 8c 3d
       0.0565835 -0.013819404 0.3464513 0.06845798
000330 28 fc c6 bf 34 20 45 3e c5 37 0b bf 0b de 30 3e
       -1.5545702 0.19250566 -0.5438197 0.17272203
000340 60 17 ea 3b 6d f5 35 be 57 37 d0 be d7 8e a8 3d
       0.0071439 -0.17769404 -0.4066722 0.082303695
000350 be 8d 61 3d 3f 82 14 bd 70 a9 1e bc a4 0e 67 bc
       0.055066817 -0.036257025 -0.009683952 -0.014102612
000360 7d af ca 3d 19 43 a9 3d 08 ff 77 bd 38 f5 3f be
       0.09896753 0.08264751 -0.06054595 -0.18745887
000370 a0 15 b4 bc 46 39 75 bc 57 e3 3b bb 10 93 2e 3c
       -0.021982968 -0.014967268 -0.002866944 0.01065518
000380 53 04 8d be 5f b8 0f bd d7 30 20 3d 2a ae 1d 3f
       -0.27542362 -0.03508794 0.039109077 0.6159388
000390 98 1d a8 be 42 da 5e bd 19 83 1c bf 05 eb 21 bf
       -0.32835078 -0.054407366 -0.6113754 -0.63249236
0003a0 e3 05 6f be fe 14 57 be 01 8b 35 bf 59 25 cf be
       -0.2334209 -0.21004102 -0.7091523 -0.40458182
0003b0 f0 8b 12 3e 42 73 6f 3d 10 16 b7 bc f3 3a d1 be
       0.14311194 0.058459528 -0.022349387 -0.40865287
0003c0 67 cb 0f bd c7 02 8e 3e 2d 67 77 bd 6e 8f 23 be
       -0.03510609 0.27736494 -0.06040113 -0.15972683
0003d0 38 65 a8 bf e1 7d 2f 3d 9b d7 95 3e c0 09 b8 bb
       -1.315589 0.042844657 0.29266056 -0.0056163967
0003e0 48 fd 82 be 80 b1 e9 ba db 63 5f be bf 91 b1 3d
       -0.25583863 -0.0017829388 -0.21815436 0.08670377
0003f0 26 2a 30 3d 06 6d 09 be 14 4d 0f bf 38 3a 6c be
       0.043008946 -0.13420495 -0.55976987 -0.23069084

fc2.bias f4 [256]
000000 95 d1 1b be 02 e2 52 be a7 ed 8d bd 0c e9 d1 3b
       -0.15216668 -0.20594028 -0.06930094 0.006405955
000010 b2 66 51 be bb 95 8d be ed 6e 13 be cc b3 c9 bd
       -0.20449331 -0.27653298 -0.14397784 -0.09848747
000020 1d 3f b0 bd 00 b8 29 3e 0d 6a 47 be 12 52 bd bd
       -0.08605788 0.16574097 -0.19474049 -0.09244169
000030 02 b1 2e be 09 58 8c bd e0 e5 59 bd 01 0d 29 bc
       -0.1705971 -0.06852729 -0.05319774 -0.010318042
000040 7b e3 15 bd e8 bb 11 be 62 47 18 be 42 d4 3f bd
       -0.036593895 -0.14231837 -0.1487098 -0.046833284
000050 c7 93 0c 3e e7 e5 cc bc 88 37 1a 3d d7 5b 26 be
       0.13728248 -0.02501197 0.037650615 -0.16245972
000060 7e 32 9e bd fc 4c ac bd 55 40 fb bd 4f 0f 5b be
       -0.07724474 -0.08413121 -0.1226813 -0.21392559
000070 b9 f9 29 bd 21 2c 32 bd d5 23 31 be 33 57 19 be
       -0.04149792 -0.043499116 -0.17298825 -0.1497467
000080 df a2 d9 bd 13 f1 3a be 7e 9e ae bd 52 ef 6e bc
       -0.10626768 -0.18256025 -0.08526324 -0.014583426
000090 0d 0d 62 bd 57 6e f8 bd 8a 49 64 be fc 06 9d bd
       -0.055188227 -0.12130421 -0.22293678 -0.07667348
0000a0 f8 fe 95 bd bc 45 8a bb 00 80 04 be 57 43 e9 bd
       -0.07324022 -0.0042197388 -0.12939453 -0.11389797
0000b0 98 55 be bd 54 c8 8d be 5a aa e6 bd 41 a1 fc bd
       -0.092936695 -0.276919 -0.11262961 -0.12335444
0000c0 87 1f a1 be f9 d8 c4 bc c8 23 eb bd d1 57 2e be
       -0.31469366 -0.024029242 -0.11481434 -0.17025687
0000d0 09 43 9f 3d 28 29 b8 3d 0a ee cc bd 4c 90 ed bd
       0.07776458 0.08992225 -0.1000634 -0.11599788
0000e0 60 a6 14 be b0 d7 21 3b 72 3a 3a be ef 27 b6 bd
       -0.14516592 0.002469521 -0.18186358 -0.088943355
0000f0 3b 05 95 3e 7a d3 c5 bd 6a b1 f7 bb 18 08 c2 bd
       0.29105553 -0.096594766 -0.007558991 -0.094742
000100 8e 01 12 3d 65 e8 a3 3d 33 6d 6d bd 42 20 f5 bd
       0.035646014 0.0800331 -0.05796547 -0.11969043
000110 21 75 e2 bd 04 33 0a be 34 87 0b 3e da c1 7c be
       -0.11057497 -0.13496023 0.13625795 -0.24683324
000120 f6 05 fc bc f3 01 bf bd b2 92 9e bd b0 f0 8d be
       -0.030764561 -0.09326544 -0.07742824 -0.27722692
000130 42 84 d9 bd 99 57 10 be 1b d2 60 be bd 0c 21 bd
       -0.10620929 -0.14095916 -0.21955149 -0.03931879
000140 12 58 f6 bd c4 ad 8c bd 38 dc e7 bc 3a 22 91 be
       -0.12028517 -0.06869081 -0.02830325 -0.28346425
000150 a4 63 95 be e5 c1 6b 3e c4 ec b5 be 43 f5 79 bd
       -0.29177582 0.23023184 -0.355322 -0.061024915
000160 0a 5c bd 3d d8 2a 82 3d 8d 32 db bd 41 d9 2c be
       0.09246071 0.06355828 -0.10703001 -0.16879751
000170 20 10 e2 bd 4b 9b 14 be c9 5b 5c 3a 6f a6 c6 bb
       -0.11038232 -0.14512365 0.0008406011 -0.006062321
000180 08 33 14 be 12 87 28 bd af e0 ac bd c6 b3 1f bc
       -0.14472592 -0.041144438 -0.084412925 -0.009747451
000190 9b aa 7d 3d 1b fe 5d bd 0e a2 fb bd a7 08 e5 bd
       0.06193028 -0.054197412 -0.12286769 -0.11183291
0001a0 55 09 e5 bd 03 f1 c0 bd cc 21 7b 3c 92 03 1d 3e
       -0.111834206 -0.09420969 0.015327882 0.15333393
0001b0 68 de ad 3d 7d 7a 03 be 74 62 92 be 12 f6 7d be
       0.08489686 -0.12839694 -0.2859074 -0.248009
0001c0 62 ac b7 bb 59 12 ae be e5 67 ee bd 43 7b 65 be
       -0.0056052664 -0.33998373 -0.1164091 -0.22410302
0001d0 b8 79 f2 3b b7 b7 36 3b b4 6d cc bd 7b cc 1b bd
       0.007399764 0.0027880499 -0.09981862 -0.038036805
0001e0 2a 9e f3 bd e5 ac b8 bd 24 3d 62 be 11 d7 43 be
       -0.11895402 -0.09017352 -0.22093636 -0.1912501
0001f0 ef 11 13 bc 8c 24 0d be d2 81 d2 3d e6 03 d8 bc
       -0.008976444 -0.13783473 0.102786675 -0.026369046
000200 12 fb 92 bd 23 bd 35 be 94 dc d9 3d 94 19 e1 bc
       -0.07176794 -0.17747931 0.10637775 -0.027478017
000210 09 81 1e be 16 6a 90 bd 39 35 73 bd 1e e5 00 3e
       -0.1547891 -0.07051484 -0.05937693 0.12587401
000220 2c 1c 02 bd e5 c5 54 bc 2d 35 a4 bd 1d ad d5 bd
       -0.031765148 -0.012986635 -0.08017955 -0.10433409
000230 e5 fe 85 bd 5c cb eb 3c b4 4b 21 be 6b 37 49 be
       -0.06542758 0.028783493 -0.15751535 -0.19650047
000240 0d e5 7e be b8 d8 8b be be 10 27 be a0 00 5d be
       -0.24892063 -0.2731378 -0.1631498 -0.2158227
000250 8f 9a 1a be 31 9a ac bd 05 e2 24 be 7f 88 47 3d
       -0.15098022 -0.08427847 -0.16101845 0.048714157
000260 e0 99 e9 bd e1 3c 90 bd 02 5a 87 bd c1 40 98 be
       -0.114063025 -0.07042862 -0.066089645 -0.29736903
000270 ba 4c 1e bd e8 09 89 bd 3e ea 09 bd 26 cf 1d 3e
       -0.03864739 -0.066913426 -0.033670656 0.15411052
000280 93 73 1b 3d 37 92 47 be 2c 4f bf bd 4d 24 f4 bd
       0.037952017 -0.1948937 -0.09341273 -0.11920986
000290 27 6b f8 bd 3f 77 82 bd d2 e5 1c be ef eb 87 bd
       -0.12129813 -0.06370401 -0.15322044 -0.06636798
0002a0 00 de 87 be 00 6d 81 bd c5 9d d2 3c a6 ff 4b 3e
       -0.2653656 -0.06319618 0.025709996 0.19921741
0002b0 06 50 fe bd 85 79 03 3d c9 45 71 bd 3e e4 ea bd
       -0.12417607 0.032098312 -0.058904443 -0.11469315
0002c0 3f 81 c8 bb 0b 20 0e be 05 d8 12 bd f4 3b d2 bd
       -0.006118923 -0.13879411 -0.035850544 -0.102653414
0002d0 30 82 0b be 5b d7 21 be df 89 43 3e 4a 8c e9 bd
       -0.13623881 -0.15804808 0.19095562 -0.11403711
0002e0 af c6 18 be ac 7a 4d be 41 b1 8e bc 2e f5 e5 bd
       -0.14919542 -0.20066327 -0.017418506 -0.11228405
0002f0 9c 93 70 be 26 b3 0b be e1 ae ab 3c ac 73 09 bc
       -0.23493809 -0.13642558 0.020957412 -0.008389395
000300 2d 93 11 be 9a 55 7d bd db 2f 53 bd e5 1f ea bd
       -0.142163 -0.061849214 -0.05155931 -0.11431865
000310 61 44 86 bb 6f 32 f0 bd 9b eb c5 bd 15 02 d6 bd
       -0.004097507 -0.117283694 -0.09664079 -0.10449616
000320 b0 42 c5 bd b2 93 63 bd 2f 3e 94 bd 22 de 86 be
       -0.0963186 -0.055560775 -0.07238423 -0.2634135
000330 4a d6 f4 bd 25 fb 23 be 1b 13 00 bd fc 88 1e be
       -0.11954935 -0.16013773 -0.03126822 -0.15481943
000340 85 23 8b bc 4c 4a 5e bd 20 c6 9d bd 23 6a cc bd
       -0.01698471 -0.054270074 -0.07703805 -0.099811815
000350 95 d7 cc bd 86 e8 0e 3e b8 9c 82 3b 76 76 27 bd
       -0.100020565 0.13955888 0.0039859675 -0.040884458
000360 36 4f f7 3d 89 14 6e be 83 11 a1 3d 96 3c ce bc
       0.12075655 -0.23250021 0.07864668 -0.025175374
000370 31 a4 7f bd 83 79 01 be 5f fe 2f be 25 bf 2b be
       -0.062412445 -0.1264401 -0.17186879 -0.16772135
000380 ad 6c 5d be 15 8b 23 be 6a 5f 77 3d a8 47 08 bd
       -0.21623488 -0.15971024 0.06039373 -0.03327146
000390 ee 0f 1c bd 86 f1 06 bc a7 9a 53 3d 2f e6 55 3d
       -0.03810113 -0.008236295 0.05166116 0.052221473
0003a0 e6 49 bb bd 86 4c b9 bd 45 0c d4 3c d5 d7 bc bc
       -0.091449544 -0.09047799 0.025884757 -0.023052135
0003b0 65 8b 25 be aa fc 08 be 32 31 b6 bd 84 41 88 be
       -0.16166456 -0.13377634 -0.08896102 -0.26612484
0003c0 51 1a 6b be 92 61 19 be 01 ca 9c be 10 cd 5e bd
       -0.22959258 -0.14978626 -0.30622867 -0.05439478
0003d0 c8 88 71 bd cc 34 c1 bd 07 14 0c be c6 a1 d0 bd
       -0.058968335 -0.09433898 -0.13679515 -0.10187106
0003e0 0e cd a5 bc 8b a8 31 be 22 96 c6 bd 1a 0f 35 be
       -0.02023938 -0.1734945 -0.09696604 -0.17681542
0003f0 ff 70 b8 bd e2 1b 8b 3c 1c cb d9 bc 39 2c 0c bd
       -0.09005927 0.016981069 -0.026586108 -0.03422186

fc3.weight f4 [128, 256]
000000 cf 23 f2 3b 5b b7 59 bd 90 02 29 3c 46 97 28 bf
       0.0073895226 -0.053153377 0.010315552 -0.65855825
000010 73 2d 8d 3e 01 c0 92 be 67 e8 83 bd 78 74 99 3c
       0.27573738 -0.28662112 -0.064408116 0.018732294
000020 f9 68 d9 bb e9 20 dc bd 04 d8 f8 be 72 53 05 bd
       -0.006634828 -0.107484646 -0.48602307 -0.032550283
000030 20 7a a1 3e 6c cc f9 bc ea a3 a4 bc 88 0f 6c be
       0.31538486 -0.030492984 -0.020097692 -0.230528
000040 2d 70 00 bf 06 ae 43 bf 0d 97 d7 3e 0e 7e 85 3e
       -0.50171167 -0.76437414 0.4210743 0.26072735
000050 0a 70 6c 3e fa ae c7 3e b9 9f f6 3c a3 fa 71 be
       0.23089615 0.39000684 0.030105459 -0.23630767
000060 89 95 a3 bf 85 9c 92 3d d3 3e 15 bf 6e d9 50 be
       -1.278001 0.0715876 -0.5829899 -0.20395443
000070 40 68 d4 3b d9 0f e5 be e7 42 5e be ae 34 95 3d
       0.006482154 -0.44738653 -0.21705209 0.072854385
000080 32 fe b3 3c b4 74 85 be 13 27 fb bc dc 32 31 3d
       0.021971796 -0.260656 -0.03065828 0.043261394
000090 f4 9e 7a bd a9 56 30 be 60 b2 05 bf e0 df 56 bc
       -0.061186746 -0.17220558 -0.52225304 -0.013114899
0000a0 f2 61 0b bf e0 99 15 bf 84 53 51 3e 18 74 05 bd
       -0.5444633 -0.5843792 0.20442015 -0.03258142
0000b0 86 5e c6 be d5 0c bf 3d b1 ad 2c bc 22 e7 f5 be
       -0.3874399 0.093286194 -0.010539458 -0.48027903
0000c0 82 af e2 be 23 c3 41 bf c6 7f 24 3d 7d ba 97 bf
       -0.44274527 -0.7568838 0.040160917 -1.1853787
0000d0 48 8c 8c be 81 02 8d 3e b8 7c 51 bd c6 1a 3c bd
       -0.27450776 0.27540973 -0.05114433 -0.04592397
0000e0 7d 4b 59 3d 75 1e 2a be 8d db c3 bf c6 44 b3 3d
       0.053050507 -0.16613181 -1.5301377 0.08753352
0000f0 8e 92 1f 3e 3b b8 05 bd 0c b8 c3 bd fa c0 ac be
       0.1558325 -0.0326464 -0.095565885 -0.3374098
000100 1b 15 e6 bd 9b eb cc 3d 14 f4 70 bf a4 c0 1a bd
       -0.11234494 0.10005876 -0.94122434 -0.037781373
000110 f5 a2 57 3d 08 9c 04 bf cc b1 6d be e0 8d 88 3e
       0.052645642 -0.51800585 -0.23212355 0.26670742
000120 8e d1 1e bf a2 6b a7 be 59 58 cb be 76 f1 1d be
       -0.62038505 -0.32699305 -0.3971584 -0.15424141
000130 70 8a 10 3d d5 68 aa be 54 7e 3a 3f 19 a9 ef 3e
       0.035288274 -0.33283105 0.7284901 0.468087
000140 0e 5b e6 be 40 3b 1e bd d0 e9 b2 bc d9 95 a2 bf
       -0.44991344 -0.038630724 -0.021840006 -1.270198
000150 8c 7d 5b bf 5c 1f 98 3e 13 2d ce be f4 d0 16 be
       -0.85738444 0.29711425 -0.40268764 -0.14728147
000160 d9 87 a0 bf 66 30 50 be 76 db 70 bc 4b 07 ca be
       -1.2541457 -0.20330963 -0.014700761 -0.3945869
000170 be 33 87 3d bd 0e 67 bc ba 8f 8e 3e ff 7a 36 3d
       0.06601666 -0.014102635 0.2784403 0.044550892
000180 18 ad ce bd d4 61 26 ba 86 aa 5a 3d 6a 67 69 3d
       -0.10091609 -0.0006346975 0.05338528 0.05698339
000190 a3 ae f1 3e 41 91 b9 3e a2 97 63 be 04 ed 45 3d
       0.4720355 0.36243632 -0.22225812 0.04832174
0001a0 b4 9b d7 bc b6 de 89 bd e7 99 0f be 25 82 3e bf
       -0.026319362 -0.06731932 -0.14023553 -0.74417335
0001b0 9d e7 70 3d 45 14 10 3e 20 04 05 be 3b 37 13 be
       0.058814634 0.14070232 -0.12989855 -0.14376538
0001c0 23 ee ca bd cc 64 47 bf ae a3 0b 3d 48 b7 26 3d
       -0.09908702 -0.7788818 0.034091644 0.040702134
0001d0 ec 57 87 be 66 b5 e8 3e 03 fe b1 3e d1 56 9a 3b
       -0.26434267 0.45450896 0.34764108 0.0047100564
0001e0 0a cd df bd 04 46 ca bc 83 31 77 3d 8a 58 af 3c
       -0.1092778 -0.02469159 0.060349952 0.021404523
0001f0 8f b2 c1 bc 1f 7e 8c bc 28 fb 07 3f d2 9b 85 bf
       -0.023644714 -0.017149983 0.5311761 -1.0438178
000200 69 56 ba 3c ae cb db be ba 46 03 3f 18 25 b4 3e
       0.022746282 -0.42928833 0.51279795 0.3518455
000210 f1 00 cd bd a8 18 b9 3c ba 3e 7d 3d 6b 9b aa 3e
       -0.10009945 0.022594765 0.0618274 0.333217
000220 ff 13 bb bd 79 cb 84 bb e4 72 81 be 3f 98 69 be
       -0.09134673 -0.004052576 -0.25282967 -0.22811984
000230 8c 4d 82 bc 62 3a 26 3d c9 51 10 bf 3a 6b 10 bd
       -0.015906118 0.040583022 -0.56374794 -0.03525851
000240 32 a0 f4 bc f3 7e 6d bf b5 60 f2 be 36 99 22 3e
       -0.029861543 -0.92771834 -0.47339407 0.15878758
000250 02 00 3d be a0 ca 0e be 1e 0b 03 bf 6a f4 55 3e
       -0.18457034 -0.13944483 -0.5118884 0.20894018
000260 06 75 5e 3d 3e 22 57 bd 90 bb 9e bc 66 9f 8f 3e
       0.05431082 -0.05252289 -0.019376546 0.280513
000270 e6 cb ce 3b 4a c5 2c bd 71 81 8c 3d b3 b6 22 bf
       0.0063109277 -0.042180337 0.068606265 -0.63560027
000280 6c 24 c0 3e 1c 0d 6a bd 76 6b 5e bc d5 0b 8a be
       0.37527788 -0.05714141 -0.013575425 -0.26962152
000290 3e 8a 55 3e ba aa d1 bc 4b 47 ae be c4 e7 72 3c
       0.20853516 -0.025594104 -0.34038767 0.014825765
0002a0 e4 f0 7a be bd 9c d0 3c f3 bc 48 bf 24 8f 5b 3b
       -0.24505955 0.025465364 -0.78413314 0.0033502067
0002b0 1f 00 21 be 2c a2 08 bf e4 13 e8 3e 18 4a 82 3d
       -0.15722702 -0.53372455 0.45327675 0.063617885
0002c0 86 1c 75 be 08 46 34 bd 9e 21 a4 bd 59 18 9b bc
       -0.23936662 -0.0440121 -0.080142245 -0.018932508
0002d0 ec 5a 99 bf c4 57 97 3c 6c 54 12 bd bd 19 12 b9
       -1.1980872 0.018474467 -0.035725042 -0.00013933233
0002e0 0f d9 f1 3e b8 df 77 bf 3a f4 44 bf f0 e0 a2 bc
       0.47235915 -0.9682574 -0.7693516 -0.01988265
0002f0 ac 7a 4e bd 54 4c c5 bc 79 47 4c be 9c 1c 97 be
       -0.050409958 -0.024084248 -0.1994914 -0.29514015
000300 a8 4c 76 bd 8d f1 9b bd de 42 77 3d 12 6a 77 bd
       -0.0601317 -0.076144315 0.060366504 -0.06040389
000310 6c 54 a0 bc 21 61 9c 3c 70 8a 97 3b ce 3c 5a 3c
       -0.019571505 0.019089283 0.0046246573 0.013320161
000320 c0 d3 93 3c e0 09 92 be d7 8f 54 3e 63 cf b4 3d
       0.018045306 -0.2852316 0.20757996 0.088286184
000330 ed 29 94 bc fc c0 9e bd cb d0 85 bd 85 fd c4 3d
       -0.018086398 -0.077516526 -0.06533965 0.096186675
000340 18 7f 50 bc 0c b7 ee 3e cf af aa 3c a0 da 6b bc
       -0.012725614 0.4662403 0.020835785 -0.014395386
000350 a2 03 54 3d 29 22 c5 3e 08 3d 32 3f 2a ed 9b 3c
       0.051761277 0.38502625 0.69624376 0.019033987
000360 fe 95 dd bd 8f 9d 8a 3d b4 a0 3d be 48 70 42 bd
       -0.10819624 0.06768333 -0.18518335 -0.04747036
000370 fc cb e4 3c 57 af 7e be 9d ed 47 3d 80 c2 16 be
       0.027929299 -0.24871574 0.04881059 -0.14722633
000380 2b 75 63 3e d2 5e c8 bd c4 20 f3 bc 3a 5f 8d be
       0.22212665 -0.097837105 -0.02967871 -0.27611715
000390 90 07 77 bc 02 7d 4e 3d b4 d1 ee 3d a5 3c 3b 3d
       -0.015077487 0.050412185 0.116610914 0.045712132
0003a0 62 e9 05 3d d9 e0 de be 3a 37 76 3d 91 d4 00 bc
       0.032693274 -0.4353092 0.060111262 -0.00786318
0003b0 cf 15 c1 3d b2 25 33 3e ed 1f 9e 3c 79 35 83 be
       0.09427988 0.17494848 0.019302333 -0.25626734
0003c0 e3 d4 36 3e 0b ab a2 bd 1d 6f 66 bf 73 b2 5d be
       0.17854647 -0.0794278 -0.90013295 -0.21650104
0003d0 29 98 91 be ae 59 8c 3e 17 0b 80 bd de 54 e6 3e
       -0.284364 0.2741217 -0.06252115 0.44986624
0003e0 53 e4 ff bc c4 a7 70 bf c8 a1 b7 bc dc f3 8f be
       -0.031236803 -0.9400599 -0.02241601 -0.28115737
0003f0 d6 7b 6f bd 57 3f 34 be f6 e7 48 be 42 99 c7 3c
       -0.05846771 -0.17602287 -0.19619736 0.024365071

fc3.bias f4 [128]
000000 12 15 9e 3e 87 f6 43 bd 4f 76 25 3f d1 dc 1f 3e
       0.3087545 -0.04784253 0.6463365 0.15611579
000010 51 ff 91 3e 8d fc 0f 3e 18 7f 9c bd eb 24 80 bd
       0.28515103 0.14061184 -0.07641429 -0.062570415
000020 9f 49 43 be f4 08 02 be c5 4c 50 bd 63 2d 6f bd
       -0.19071053 -0.12698728 -0.050854463 -0.058392894
000030 6f 32 56 bc e7 23 19 be 77 83 74 be 02 0a bc bd
       -0.013073548 -0.14955102 -0.23878275 -0.09181596
000040 eb 89 a8 be 11 b7 c7 bd 85 d8 b4 be 75 2f 81 be
       -0.32917723 -0.09751714 -0.3532144 -0.2523152
000050 0c ca 71 bd 1a 27 b9 bd ec 11 9a 3d 86 4f 11 bd
       -0.059030578 -0.09040661 0.075229496 -0.03547623
000060 45 83 e6 3e be 41 f8 3d 50 28 7e bd b3 43 19 be
       0.45022026 0.12121914 -0.062050164 -0.14967231
000070 9f 35 fe bc f9 56 2e 3f 64 d3 90 bd e8 ef ce 3d
       -0.031031428 0.6810146 -0.070715696 0.10104352
000080 99 da 90 bd be 85 c8 bd 8f a1 41 bd 73 8e 5a 3d
       -0.07072944 -0.09791134 -0.047273215 0.053358506
000090 91 b7 c2 bd 79 5e 0c bd 70 2a 52 3d 66 3a b4 bd
       -0.09507669 -0.034269784 0.051310003 -0.08800201
0000a0 ae 46 ee bd de 9f ac bd 3b f2 4b bd d1 1c b5 3d
       -0.11634575 -0.0842893 -0.049791556 0.08843387
0000b0 bb 21 1b bd 49 ae 91 3e ca 82 73 be 81 d2 1e be
       -0.037873965 0.28453282 -0.23780361 -0.15509988
0000c0 2e 9e 84 3e 24 c4 93 be 9b df 5a 3f f9 0d 95 be
       0.25901932 -0.2886058 0.85497445 -0.29112223
0000d0 00 56 d5 be ac 13 6c be 5a 5c 44 bd 20 12 b6 3d
       -0.41667175 -0.23054379 -0.047939636 0.08890176
0000e0 92 52 b9 bd e0 77 d1 bd 51 26 ae be a7 bc c9 bd
       -0.09048952 -0.102279425 -0.34013608 -0.09850436
0000f0 3a d3 94 bd cf 04 d9 bd 7f e5 87 3e 6c 52 8b 3e
       -0.07266851 -0.1059662 0.2654228 0.2721132
000100 a8 0d 40 be eb 0a ca bd f6 81 b4 bd 0a b5 99 be
       -0.1875521 -0.09865364 -0.088138506 -0.30020934
000110 32 3c 38 3e 02 17 80 bd 6f 06 7a bd 4f d1 10 be
       0.17991713 -0.062543884 -0.06104129 -0.14142345
000120 87 a5 bd bd 07 70 dc bd f0 fd f7 bd c5 85 1e 3f
       -0.092600875 -0.10763555 -0.121089816 0.61922866
000130 69 e8 c0 be 54 61 c5 3c ce 70 bc bd 11 e4 8f 3e
       -0.37677315 0.024094261 -0.09201203 0.28103688
000140 af 2a c8 3d fd 47 28 3d f8 c2 9f 3d f0 53 18 bb
       0.09773766 0.04108428 0.07800859 -0.002324339
000150 93 1a fd bd a1 26 d6 bd 4c b0 95 bd b8 a5 c3 bc
       -0.12358584 -0.10456587 -0.073090166 -0.023882732
000160 65 a7 10 bd 47 eb 18 bf 3a 6b 0c 3d fe e7 ba 3c
       -0.03531589 -0.59734005 0.034281947 0.0228157
000170 8a 5a e5 3d 51 af bd be f0 b1 e1 bd a5 32 96 bd
       0.111989096 -0.37047818 -0.11020267 -0.073338784
000180 ca 8e bc bd ae c0 a7 3d 2a 51 d7 3d 2c ca bc bc
       -0.09206922 0.081910476 0.10513528 -0.023045622
000190 55 50 bb bd 66 be 61 3d 79 04 07 bd b4 20 c3 bd
       -0.091461815 0.05511322 -0.03296325 -0.09527722
0001a0 da 73 36 be 91 30 0e 3d f0 96 29 bc 7a 2d 5d 3e
       -0.17817631 0.034714285 -0.010350928 0.21599379
0001b0 bb 57 e2 3e c2 de ed bd 1c 50 b6 bd 86 6c e4 bd
       0.44207558 -0.11614753 -0.089019984 -0.11153512
0001c0 df ae 10 3f aa 98 c9 bd 9a ee eb bd 4c 6e ef 3e
       0.5651683 -0.098435715 -0.11520119 0.46763837
0001d0 af fd 2b 3d ed e4 a9 3e 73 4b 1b 3c 1a 8f 9d bd
       0.04198998 0.3318247 0.009478438 -0.0769331
0001e0 b4 21 a7 bd a9 4b 53 bd 73 ad f0 bd bd 3e 92 bd
       -0.08160725 -0.051585827 -0.11751833 -0.07140873
0001f0 32 a5 d4 3e af d7 98 3d 83 ac fc 3e a0 1f a4 bd
       0.41532284 0.074630134 0.49350366 -0.080138445

fc4.weight f4 [128, 128]
000000 41 13 52 3d 14 cf 29 bd 5f 96 1c bd 66 eb 6a bd
       0.051287893 -0.04145725 -0.038229343 -0.0573534
000010 27 fe d2 bd cc 53 a1 bd c0 56 d7 3a a0 fd 00 bc
       -0.10302382 -0.07877311 0.0016429052 -0.007872969
000020 92 1e c6 bc 3b 1b 8b 3d d3 c3 38 bd 06 c9 79 bd
       -0.024184499 0.06792303 -0.045108628 -0.060982727
000030 17 b0 07 3d a4 63 ca bc e0 d3 b3 3c 38 87 b0 3c
       0.033126917 -0.024705715 0.021951616 0.021548852
000040 e0 26 16 3d 02 d2 96 3d 34 b9 b7 bc 2d ca 81 bd
       0.036658168 0.073642746 -0.022427179 -0.0633739
000050 2c c1 2e 3d a6 22 33 bd d4 42 79 bd ed 19 82 3d
       0.04266469 -0.043734215 -0.060854748 0.06352601
000060 a6 30 f9 bd e5 a7 e1 3c 73 50 97 3d f5 5e 8a bd
       -0.12167482 0.027545879 0.07388391 -0.06756393
000070 9a f0 90 bd 94 c3 74 3d a4 bd a3 bd 31 ae ac 3c
       -0.07077141 0.05975683 -0.079951555 0.021079155
000080 ac 5e cd 3c 1d 9c 8c 3d f0 00 b0 3c c4 49 47 bd
       0.025069557 0.06865714 0.021484822 -0.048654333
000090 66 9c c2 bd 82 c0 78 3d 97 00 84 bb b0 e0 9b 3b
       -0.09502487 0.060730465 -0.0040283906 0.0047570094
0000a0 70 a1 e8 3c d9 83 a6 3d 38 48 c6 3c 24 4a 80 3d
       0.028397292 0.08130617 0.024204358 0.06264141
0000b0 08 41 ef 3c d8 01 51 bd d3 6e a7 3b 6c 0f 11 bd
       0.029205814 -0.05102715 0.005109647 -0.035415098
0000c0 58 65 71 bc d8 47 99 bc 0f b5 20 bd 50 3c 89 bb
       -0.014733635 -0.018711016 -0.03923517 -0.004188098
0000d0 ff 93 92 bd e4 f5 a3 bd be 60 88 bd b3 6f 23 3d
       -0.07157134 -0.08005884 -0.06659077 0.039901447
0000e0 44 30 4b bd 50 35 54 bd 3c d9 b9 bc 9e ec 68 3d
       -0.049606577 -0.051808655 -0.022686593 0.05686628
0000f0 11 12 9d 3d 70 9c c3 3b f8 49 0d 3d 37 88 db bc
       0.076694615 0.0059695765 0.03449437 -0.02679835
000100 f0 40 6e bc f0 c5 9a bc 0a 26 77 3d 12 b7 6e 3c
       -0.0145418495 -0.018893212 0.06033901 0.014570015
000110 c3 e5 b5 bc 41 c1 a2 3d 00 6b 86 b9 0a 0c 24 3d
       -0.022204285 0.079470165 -0.00025638193 0.040050544
000120 a6 60 2b 3d a4 aa c5 bc b2 86 74 3d 27 b6 d1 bc
       0.041840218 -0.02412922 0.059698768 -0.025599552
000130 db fd c0 bd 7b dc 44 bd ce f9 1d 3d 27 eb 80 3c
       -0.09423419 -0.04806183 0.03856831 0.01573713
000140 b5 58 88 bd 0a 92 9d bc be 1c 61 3d 4c 01 0d bd
       -0.066575445 -0.019234676 0.05495905 -0.034425065
000150 6c b9 c6 3c 38 db 52 bc 31 30 95 bd f0 51 2c bd
       0.024258338 -0.012869649 -0.072845824 -0.04207033
000160 ae d9 15 3d 08 62 dd 3b fa 9e c5 bc b0 1a ea bc
       0.03658455 0.006756071 -0.024123657 -0.028577179
000170 89 05 04 3c d4 3c 9d 3d 40 70 ad bc 2c 6c 5b bd
       0.00805796 0.07677618 -0.021171689 -0.053569958
000180 93 1a 5a bd db 9c e5 ba 8d 8f 7b 3d 09 43 b5 3c
       -0.053248 -0.001751806 0.061416198 0.022126691
000190 e9 49 a3 bd bf d7 73 bd 41 3a aa bd 5c 6a bd 3c
       -0.079730816 -0.059531923 -0.08311892 0.023122005
0001a0 66 cc 32 3d 19 66 85 3d 88 5a 16 bd f7 88 43 3c
       0.04365196 0.06513614 -0.03670743 0.01193451
0001b0 c8 c0 72 bc a2 2b a2 bd 4f 6b 9b 3d 2a ce 5e 3d
       -0.01481647 -0.079184785 0.07588827 0.054395832
0001c0 1e c3 03 be 9d 08 9f 3d 9e 64 30 3d 74 a5 8f bd
       -0.128674 0.07765315 0.043064706 -0.070139796
0001d0 1f 00 0b 3d f7 5d 9b bd e5 6c 39 3d d0 a4 90 bb
       0.033935662 -0.07586282 0.045269866 -0.0044141784
0001e0 5c e8 c3 bc ca d9 a5 3c 72 97 3e 3d 65 c7 82 bd
       -0.023914509 0.020245451 0.04653115 -0.06385688
0001f0 6b 0c 23 3d 68 5c c7 bc e6 c5 83 3d 0b 8e b4 3d
       0.039806765 -0.024336055 0.064342305 0.08816155
000200 2c 33 99 bd 00 13 7e 3e 3b 92 98 be 86 d9 90 bf
       -0.074804634 0.24811935 -0.29799065 -1.1316383
000210 fc f9 d2 be d4 83 0d 3e 67 7b de bd f2 08 86 bd
       -0.41206348 0.1381982 -0.10863381 -0.06544675
000220 d5 05 20 bf b2 d5 7b bd ee bd db bb fb 9f d9 bc
       -0.625089 -0.061483093 -0.006705991 -0.026565542
000230 d7 ef 9a 3e 7d ab 30 3e c9 1e 3b bd 6d aa 73 bd
       0.30261108 0.17252918 -0.045683656 -0.059488703
000240 d6 0a 38 be 05 0c 96 be dc 97 6f be a2 5b b0 ba
       -0.17972884 -0.29306045 -0.23397774 -0.0013455043
000250 6f 01 35 bd ed 37 02 3d 72 7e 84 3e 52 d0 8b 3d
       -0.04419082 0.031791616 0.2587772 0.06826843
000260 26 29 b2 be 93 5a b0 be 3d 2d 84 3d 95 83 95 be
       -0.3479702 -0.34444103 0.06453941 -0.29201952
000270 46 1a d9 bd 2b 87 4e 3e 1d bd 96 3c e3 3a b2 3d
       -0.106007144 0.2016875 0.018400723 0.08702638
000280 d3 b9 82 bc 66 6a 42 3d 9f 8c 4d 3e 5e f6 74 3c
       -0.015957749 0.04746475 0.20073174 0.014951317
000290 4c 1c 8a 3d 6c 53 3d be f5 39 13 3e 41 2d dc 3d
       0.067436785 -0.18488854 0.14377578 0.10750819
0002a0 5f 52 e1 bb b1 7f 7d bd 07 cb 10 bd 65 1a 05 3e
       -0.0068762745 -0.061889354 -0.035349872 0.1299835
0002b0 89 9a 6d bd e6 ee 6d bd 16 d6 8e bf e1 b1 20 3d
       -0.058008704 -0.05808916 -1.1159084 0.03923214
0002c0 82 87 0a bf 03 75 5e 3c 7b e5 47 3e 3c ed 3d be
       -0.5411302 0.013577702 0.19521134 -0.18547529
0002d0 2d 9a f2 be 5b 78 40 be 06 3d 6e 3e f1 a9 ce 3e
       -0.47383252 -0.18795912 0.23265466 0.4036403
0002e0 2f 2d 63 3d b4 91 3c bd 60 c1 f8 bc b2 32 01 3d
       0.055463012 -0.04603739 -0.030365646 0.031542487
0002f0 f1 bf 44 bc fb 89 8d be 62 e9 10 bd 19 be 79 bf
       -0.012008653 -0.27644333 -0.03537882 -0.9755569
000300 eb 83 75 bc c0 0d 4e bd 29 3b ac 3c 74 69 8b bf
       -0.014985065 -0.05030608 0.021024304 -1.0891557
000310 d0 7f 55 3e c3 19 24 3d 10 05 54 bd 3a 99 37 3d
       0.20849538 0.04006363 -0.05176264 0.044823863
000320 0c 48 87 bc 4b 48 99 bc b9 e6 a8 3c 5a a3 44 bf
       -0.016513847 -0.01871123 0.02061783 -0.76811755
000330 44 d6 3a be f7 ed 22 bf 8c 62 88 3d 16 6c 0c bf
       -0.18245798 -0.63644356 0.06659421 -0.54852426
000340 dd 49 de bc da f8 95 3e 08 e9 55 3e d9 3a 2d bf
       -0.02713483 0.2929142 0.20889676 -0.6766792
000350 dd 46 0f 3d d1 c8 37 ba 8e 8d 06 3e 63 88 d9 3e
       0.03497969 -0.000701082 0.13139936 0.42486867
000360 bd eb 2a bd 2c 2d d2 3e 42 81 05 bf c1 e2 8b be
       -0.041728724 0.41050088 -0.52150357 -0.27321437
000370 5a d8 c4 3e 7d 3f 01 bf 7f 03 61 bd 15 83 6b 3e
       0.38446313 -0.504875 -0.054934975 0.22999223
000380 f8 f7 9e 3d 39 6e de be d9 df 93 3e ca e0 dc be
       0.0776214 -0.43443468 0.2888172 -0.4314025
000390 df 02 e6 3c 9d f1 3d 3c a1 12 6a be 0d 81 39 bc
       0.02807754 0.01159325 -0.22858669 -0.011322272
0003a0 a1 4b 7c 3e 2c 6d 12 3d 97 cb 15 3e 22 1f 8b be
       0.24638225 0.035748646 0.14628445 -0.2717219
0003b0 9b 94 86 3e 81 0d 3d bf a1 26 e3 3b 7b 93 50 bc
       0.26285252 -0.7384873 0.006932095 -0.012730475
0003c0 38 43 0d bd 13 9d 9b bd 24 1f aa 3c 3d ff 24 bf
       -0.034487933 -0.07598319 0.020766802 -0.6445196
0003d0 08 e4 17 bf d9 89 fe be 81 fb 60 3e 0d 4f 21 3d
       -0.59332323 -0.49714544 0.21970941 0.03938203
0003e0 3c 04 01 3b 3d 69 c8 bd 65 52 a7 bd 4e 00 80 bd
       0.0019686362 -0.097856976 -0.081700124 -0.06250058
0003f0 5c 6f 56 3d e2 54 1b bf e3 66 d5 be 2f a7 60 3d
       0.052352294 -0.60676396 -0.4168006 0.05484694

fc4.bias f4 [128]
000000 09 dc 5f bd c9 bb 6e 3e 9f 69 fd 3d f4 6d 0b 3f
       -0.0546532 0.23313822 0.12373661 0.5446465
000010 2e 5f f0 bd f2 36 25 be 9d 16 88 3d e7 12 0e 3f
       -0.11736904 -0.16134241 0.06644938 0.5549759
000020 42 1a d1 3e 69 18 ab bd 12 bc e9 be c6 7c 9d bd
       0.40840346 -0.08354265 -0.456513 -0.07689814
000030 6b d8 04 be 48 40 41 3f 27 7e 4c be 61 06 87 3f
       -0.12973182 0.7548871 -0.19969998 1.0548822
000040 84 ac 0f 3e 3b a8 8a 3f be 95 75 3f fc a1 2e 3f
       0.14030653 1.083259 0.95931613 0.6821592
000050 4f 3e 0c be b4 02 91 be 3c 4a 5f 3f 55 6a 59 3f
       -0.13695644 -0.28322375 0.8722265 0.84927875
000060 2d 15 a8 3e e2 82 0b be 45 85 3b be 51 89 ac bd
       0.32828656 -0.13624147 -0.18312557 -0.084246285
000070 92 64 8b 3f 5a d3 d6 bc 2d fa ea bd e7 11 11 3f
       1.0890067 -0.026223827 -0.114734985 0.5666794
000080 71 70 8c 3f cf ef f9 bd 44 54 e7 3e c0 23 be 3e
       1.0971814 -0.12203943 0.45181477 0.3713665
000090 20 c2 e3 3e e0 77 89 3f 7c eb 63 3f a5 0f dd bd
       0.44484043 1.0739708 0.89031196 -0.107939996
0000a0 8a d9 80 bd ae 53 f3 be a4 b0 69 3f 35 ad 1a be
       -0.06291492 -0.4752478 0.9128516 -0.15105136
0000b0 69 93 f1 3e b9 f0 18 3e 20 76 8c bf 35 8f f3 be
       0.47182778 0.14935578 -1.0973549 -0.47570196
0000c0 bf 1a 7a 3f 3c 78 5e 3d da 06 a6 bd c4 36 a3 3f
       0.9769706 0.054313883 -0.081067756 1.2751088
0000d0 4b cd 78 3f e5 88 7b bd 1f 05 0a 3f 98 fd fb be
       0.9718825 -0.06140985 0.53914064 -0.49216914
0000e0 3a 87 43 3f 85 b2 cd bd e7 a4 2e 3f b6 36 d8 be
       0.76378214 -0.100438155 0.6822037 -0.4222924
0000f0 9f 22 aa be 7c 3e 9e 3f c9 2b 4a 3f 47 cf 7e 3f
       -0.3322954 1.2362819 0.7897306 0.9953503
000100 2e 30 d7 bd dd 6e 9a bd ec ad 5f 3e a8 d7 77 3f
       -0.105072364 -0.07540677 0.2184369 0.9681344
000110 6d df 00 be a7 07 03 be 49 94 fb bd a9 ef 64 3f
       -0.1258523 -0.12795888 -0.122841425 0.8942819
000120 70 2c d1 bc ba 6f 11 3f c9 a4 2a be 09 51 2a 3f
       -0.025533885 0.56811106 -0.16664423 0.665299
000130 f2 4f 20 3f 45 74 72 3f 2b 1a 50 3f 58 00 f2 3e
       0.62621987 0.94708663 0.8128993 0.47265887
000140 a5 0e de bd 2e 8b 10 3f 85 a8 19 bf a6 40 15 3f
       -0.10842637 0.5646237 -0.60022765 0.5830177
000150 b1 95 11 bd 9a 6e 0b be b8 3f c2 be 3c 46 b3 bd
       -0.035543147 -0.1361641 -0.3793924 -0.087536305
000160 0a b6 8e 3e 59 63 66 bd 23 1f 22 be 9c ef 71 3f
       0.2787326 -0.05624709 -0.1583219 0.9450624
000170 0e 1a 47 bc 34 a4 92 3f bb d3 88 be 3a 81 16 bd
       -0.012152208 1.1456361 -0.26724038 -0.036744334
000180 e3 97 17 3f c0 8c 18 be f4 65 8d 3f e0 8b 90 3f
       0.59216136 -0.14897442 1.1046739 1.1292686
000190 4e a4 0f bd 4e 5e da bd 1a 07 50 be 16 4d a0 bd
       -0.035068803 -0.106625184 -0.20315209 -0.07827203
0001a0 27 6b 9c 3e 98 67 ce 3e 82 45 06 be 60 9f ff be
       0.305505 0.4031341 -0.13112453 -0.4992628
0001b0 99 20 36 3f 3d ec 80 3e 12 a2 08 be 85 7f 79 3f
       0.7114349 0.25180236 -0.13343075 0.97460204
0001c0 92 48 0b be a8 b5 3d be 84 63 ec bd a8 26 0a 3f
       -0.13601902 -0.18526328 -0.115424186 0.53965235
0001d0 86 a8 ba bd 04 42 2d 3f ad 38 e4 bd a2 62 90 bd
       -0.091141745 0.67678857 -0.111436225 -0.07050063
0001e0 b9 2d 3d bd ad 35 92 3e b7 83 97 bd 53 7d e5 be
       -0.046186183 0.28556576 -0.073981695 -0.44822177
0001f0 4a 5c 99 3f 17 90 90 bd 26 18 c7 bc 67 e0 90 3d
       1.1981289 -0.07058733 -0.024303507 0.07074051
