checkpoints/checkpoint_qnetwork_local_WMT.pth (torch_old, 339524 bytes, 10 tensors)

fc1.weight f4 [128, 12]
00000000: 716b 3dbc 81f3 143e 67f1 7bbe b627 63be
00000010: 13e2 f6bd 033f 8b3d 12d8 78bc 93cc 603e
00000020: 6c57 0fbd 0079 b73d c4df c5bd 9d6c 87bd
00000030: 838c 3abf f8cc d4be 840a b73d cfc4 4fbd
00000040: b5df 373d 2e3f e93e c9c1 30bf 8364 34bf
00000050: 6c37 9b3e ca60 0d3f bbf5 24be 7eed 913e
00000060: e62d 57bd ce0a c93c aec1 823e 1cb4 89be
00000070: 723b 40be 62f8 a1bd acbf f2bd d640 793e
00000080: c7bf 45be ac38 0ebe 44ab 54be d27f 8dbe
00000090: 57f1 1fbe 05ba 933e cfeb f43e d7fe 9b3e
000000a0: 21dd f0be 74cc a2bc e67f 8e3e 663a 85bf
000000b0: d38a a4be c8fb b2be e0b1 c43e 1633 b53d
000000c0: bf47 05bf 1dee 48bf ff24 d63e 7e2a 213f
000000d0: 814d 063f 3e10 2d3b 169c c43e 4aee f1be
000000e0: 4334 59bb 90fd aabe e4a4 84be a58c 99be
000000f0: 4496 8dbc 121d 093d 5307 60be b249 c13d
00000100: 8c76 d73e 765e 29be b761 9abd fc5f 37be
00000110: 004c 783e 43b2 c73e f3d5 56be d9f1 8fbe
00000120: 8ab7 ff3d dbd3 a73e 055a c03d 8de9 623e
00000130: a02b 07be fd41 a2be f436 d23b 23eb fabd
00000140: 6e71 a4be 3665 a93e ac71 2d3f e303 0abf
00000150: b11f 15bf 8106 983d 1e1f c4be d681 8fbe
00000160: 5285 383f 117f dabb d960 d53e 40de 953e
00000170: 60be d93e e0b3 fd3d 6e41 0bbf 1d3a 04bf
00000180: 89c8 e13e a650 953e fb21 863d a39d 1bbf
00000190: a746 0d3f 0f2c c33e 96e6 3e3d f8f7 04bf
000001a0: a6bd 28be bfb0 863e 966e dfbe fa35 90be
000001b0: 78a1 b63c 33d4 e63b 4d51 17bf 2db8 483c
000001c0: 0bf2 48bf 0355 1d3f 7ac4 d63e c85d 7cbe
000001d0: 24da 8dbe ca77 99be 8062 ca3e 0cb3 55be
000001e0: 9801 e83d 50a7 8d3c be3b 10be 52e0 0b3e
000001f0: 51c7 8dbe c134 2fbe 26ff 93bd 09fe 0fbe
00000200: e6d2 cebd 6c48 72be 6884 7bbd 98bf 7c3d
00000210: 7267 5cbe e09f 11be d1b1 013e be49 013e
00000220: 1b1c 07bd 8283 0b3d c830 a53d d3c3 3e3e
00000230: 9e86 6f3e da21 693e 3fff 063f e969 43be
00000240: ffc5 84be 8923 0cbe 2247 493e 0047 f5ba
00000250: b6ed 12be 3a86 62be 0c52 8abe dc7d 79be
00000260: 3cd6 6fbd 541c 223e b8d0 1f3e 6d8b 8ebe
00000270: edd0 2c3e 18bd 72be 9823 94bd 5e6f 03be
00000280: 0007 89bd 243b 8bbd f26a 8abe cf67 85be
00000290: c753 67bd 1d1a f8bb 72dc 11be 208e c73d
000002a0: 0cde b4be e0c6 3d3e 4d77 c83e 2066 3cbe
000002b0: 61ee 923e 16b0 f83c 6c87 edbd 39f8 e33e
000002c0: 274a 513e 2321 a0bc 714e 2c3f 544a 0dbf
000002d0: f861 10be 250f 1cbe e880 16bc a1e6 12bb
000002e0: abe5 2d3e 8b5a f8bb a483 a2be 8786 e3bd
000002f0: f815 02bf 9072 0e3f 8ce5 173f 1d11 f43d
00000300: bfae 86bc f534 063e 903a 22bf 9783 773e
00000310: eeef 4dbe 5a24 153f f892 10bf 4ba7 9e3e
00000320: e373 fdbe fbc5 073f a7a7 50be 4d17 e3bd
00000330: f3a9 46bf 0e2c 0dbd 31f5 1abf 588a c33e
00000340: 601e bd39 ffa6 98be 9a2f a4be dccb 08bd
00000350: f8fa 923e 4d47 6e3d ac40 243d 611c 293e
00000360: dc4a ebbe acb0 f6be 65dd 123f cd9f 3abe
00000370: 7c20 52bd 2cb5 db3e b846 dc3e 8345 923e
00000380: 4acc f8be b3d2 083f 3c7c 70be 4bd8 5fbe
00000390: 3f4e 87bd 5ced dcbe 2485 8abe 9ae0 353e
000003a0: e4bc e8bd ffd2 333e 56f8 273e 4b91 abbf
000003b0: bdd2 003f e98f 90be 3df4 6abc 7296 9b3e
000003c0: 4c1e ca3d f51c 493e d235 ebbd 6747 afbc
000003d0: c6d1 033e 7d0d 89be 556d 403e 6b4c 85be
000003e0: 2ba0 90bc ab26 8cbd 75f9 2dbe da87 8d3c
000003f0: c349 463e e98f 04be 4da6 5dbe 2c7a 1bbe
-0.011561261 0.14546014 -0.24603806 -0.22183117 -0.12054839 0.06799128 -0.015188234 0.21953039
-0.03499548 0.08958626 -0.096618205 -0.06612513 -0.72870654 -0.4156263 0.089375526 -0.0507248
0.044891078 0.45556015 -0.6904569 -0.7046587 0.3031572 0.55225813 -0.16109364 0.28501505
-0.052534007 0.024541285 0.2553839 -0.26895225 -0.18772677 -0.079087034 -0.11852965 0.24341139
-0.19311439 -0.13888806 -0.20768458 -0.27636582 -0.15619408 0.2885286 0.47836158 0.30467865
-0.47043708 -0.019872881 0.27831954 -1.0408447 -0.32137164 -0.3495772 0.38416958 0.088476345
-0.520626 -0.7848833 0.418251 0.6295546 0.5246201 0.0026407386 0.38400334 -0.47252113
-0.0033142723 -0.33396578 -0.25907052 -0.29990116 -0.017283566 0.03347499 -0.21877794 0.094378844
0.42082632 -0.1653994 -0.07538169 -0.17907709 0.24247742 0.3900319 -0.20980053 -0.28114203
0.12486179 0.3277882 0.0939217 0.22159405 -0.13200235 -0.3169097 0.0064152423 -0.1225188
-0.3211779 0.3308503 0.67751575 -0.5391218 -0.5825148 0.074231155 -0.3830499 -0.28028744
0.7207843 -0.0066679795 0.4167545 0.29271126 0.42528057 0.12387824 -0.5439671 -0.51651174
0.4409831 0.29163092 0.0654945 -0.6078741 0.5518593 0.38119552 0.046606623 -0.5194087
-0.16478595 0.26306722 -0.43639058 -0.2816618 0.022293791 0.007044339 -0.5910843 0.012250942
-0.7849433 0.6145784 0.41946775 -0.2464515 -0.2770549 -0.29974204 0.39528275 -0.20869082
0.11328429 0.017291695 -0.1408529 0.1365979 -0.2769113 -0.17109968 -0.072264 -0.1406175
-0.100988194 -0.23660439 -0.06140557 0.061706156 -0.21523836 -0.14221144 0.12665488 0.12625787
-0.032985788 0.034060962 0.08065945 0.18629389 0.23391196 0.2276682 0.52733225 -0.1908337
-0.2593231 -0.1368543 0.19656041 -0.0018713176 -0.14348492 -0.22121516 -0.27015722 -0.24364418
-0.05855392 0.15831119 0.15606964 -0.27840748 0.16876574 -0.23704946 -0.072333515 -0.12835452
-0.06690788 -0.067983896 -0.27034718 -0.26055762 -0.05647638 -0.0075714723 -0.1424425 0.09743905
-0.35325658 0.18532896 0.3915352 -0.18398333 0.28697494 0.030357402 -0.11598095 0.44525316
0.20438443 -0.01954705 0.6730719 -0.5519154 -0.14099872 -0.15240152 -0.009186007 -0.0022415298
0.16982143 -0.007579153 -0.3174106 -0.111096434 -0.5081477 0.5564356 0.59334636 0.119173266
-0.016440747 0.13106139 -0.6337061 0.24171291 -0.20111057 0.58258593 -0.56474257 0.3098701
-0.49502477 0.5303647 -0.20376454 -0.11088429 -0.7760307 -0.034465842 -0.6053038 0.38191485
0.0003607152 -0.29814908 -0.32067567 -0.03339754 0.287071 0.058173466 0.04010074 0.16514732
-0.4595555 -0.48181665 0.5736907 -0.18225022 -0.05130051 0.4291166 0.43022704 0.28568658
-0.4859336 0.534465 -0.23484892 -0.21859853 -0.06606721 -0.4314984 -0.27054703 0.1776146
-0.11364153 0.17560957 0.16403326 -1.3403715 0.5032156 -0.28234795 -0.0143404575 0.30388218
0.0986906 0.19639952 -0.11484875 -0.021396352 0.12872991 -0.26768103 0.18791707 -0.26034865
-0.017654499 -0.06843313 -0.16989692 0.017276693 0.19364075 -0.12945522 -0.2164547 -0.15183324

fc1.bias f4 [128]
00000000: a2c8 d7bd 3f5d 753e 1737 f93d 4b84 293e
00000010: f15b cd3e 1f52 f1be 4d7d f1bc eb42 e03d
00000020: deea da3d 2467 b73e 40ee 9b3b f133 fabe
00000030: 3f2c 22be 84e7 c43d 66de 63be 5677 ddbd
00000040: 7a61 303e 07f1 863e ab87 d93c f4b1 5f3e
00000050: 5db7 3ebe 4244 93be 7434 5ebe 8069 cfbe
00000060: e37e 513e 7394 3b3e bd69 b6be 93c8 c5be
00000070: 8dd8 4ebe e312 a8be 0478 4d3d 2425 a8be
00000080: aa9c 5bbe 9fad a63c f65c 8ebe 9390 28be
00000090: 1860 c33e 1779 a3be be08 f6bd 5978 ccbd
000000a0: 40e4 f13d 8641 cfbe 07f8 033e bbc8 043f
000000b0: 78af 123e 0d1d 163d 93c7 aabe d027 243e
000000c0: 8fa4 913e faaa 1fbe f66c 74be f2a9 39be
000000d0: 0dd1 033d afb8 f4bd c499 a93d fb50 043e
000000e0: 0201 80be 84e3 97be 3f64 d63e 2ff3 7fbc
000000f0: c7b8 a5be 38a9 ab3e 9c4d 053e df9a 36be
00000100: 48ca 46be 0e05 f33e c2fc 363e 48c1 02be
00000110: 3ea8 c4bb 9080 a13d 75b6 ef3d d2b0 02be
00000120: b406 39be 0b7e 94bc 8fed 86bd c9c3 003d
00000130: 1b69 06be 772c 143d da09 6fbe ba8d a43e
00000140: f240 693d ae54 a0bd ec5c a0be 008b 89ba
00000150: befb 66be 453d 86be 2d14 51be dd9d 993e
00000160: 685a a53e f46a 483e 4b12 093e 1562 8b3e
00000170: ba5c 263e d4c8 433e 1420 22bd 904f 16bd
00000180: 1025 933e c02d 2f3e 5858 40be 7140 36be
00000190: c1bd 063e f7fe cb3e 07c2 5d3e 8799 193d
000001a0: 6ad3 093e d12c 17bf 895d b0be 2238 8ebe
000001b0: 8a68 1a3e 0c76 453d 6a1d 08be 8741 4f3e
000001c0: 88ab d8be 5fa3 f1be e846 fdbd d0e1 8dbc
000001d0: 3d2b 59be 70ec cebe 6280 613e c878 c73e
000001e0: 9ef0 f33d 257a 14be 0b88 0ebe 128e 69be
000001f0: aaa0 66be a0e0 ccbe aeed 783d 602a 123e
-0.105363145 0.23961352 0.12168711 0.16554372 0.40109208 -0.47132966 -0.029478693 0.109502636
0.106893286 0.35820878 0.004758626 -0.48867753 -0.15837191 0.096144706 -0.22252807 -0.10813777
0.17224684 0.26355764 0.02655395 0.21845227 -0.18624635 -0.28763014 -0.21699697 -0.40510178
0.2045856 0.18318348 -0.35627547 -0.38629588 -0.20199795 -0.3282691 0.050163284 -0.32840836
-0.21446481 0.02034646 -0.278053 -0.164614 0.3815925 -0.31928322 -0.12013386 -0.09983892
0.11811113 -0.40479678 0.12887584 0.5186879 0.14324749 0.0366488 -0.33355388 0.16030812
0.2844586 -0.15592566 -0.2386969 -0.18131235 0.03218179 -0.11949288 0.082812816 0.12921517
-0.2500077 -0.29665768 0.41873357 -0.015621944 -0.32367536 0.3352754 0.13017887 -0.17832516
-0.19413102 0.47464794 0.17869857 -0.12769043 -0.0060015013 0.078858495 0.11704723 -0.12762764
-0.18068963 -0.018126508 -0.065882795 0.031436715 -0.13126032 0.036175217 -0.23343602 0.3213938
0.056946702 -0.07828651 -0.31320894 -0.0010493696 -0.2255697 -0.2621862 -0.20417853 0.30003253
0.32295537 0.1957205 0.13385884 0.27223268 0.1624631 0.19119579 -0.039581373 -0.03669697
0.28739214 0.17107296 -0.187837 -0.1779802 0.13158323 0.3984296 0.21656047 0.03749993
0.13459554 -0.5905276 -0.34446362 -0.277772 0.15078941 0.04820828 -0.1329247 0.2023984
-0.42318368 -0.47194955 -0.1236704 -0.01731959 -0.212079 -0.40414762 0.2202163 0.38959336
0.119111285 -0.1449972 -0.13919084 -0.22808102 -0.22522226 -0.40015125 0.060773544 0.14273977

fc2.weight f4 [256, 128]
00000000: 4f67 93bc 05a6 e43d 397b 49bd 9cf1 e83e
00000010: f3e5 3dbf 4db1 2abe b661 bbbe 0c96 0ebf
00000020: e197 17bf dfad 033e 3015 c13c b6f0 b0be
00000030: 7196 ad3d b915 c6bc 6ce4 13bf 1f40 41be
00000040: d528 8fbf 1169 b23e f061 c4be a1e6 c43c
00000050: c1e6 253c 5148 93bd 901e 3dbd 7d44 64be
00000060: 8b1b d73e 3d8b 4ebf 95b3 393e e3bc 773c
00000070: af91 69be 7216 2f3d 39b1 963e cb87 9fbf
00000080: 8af0 a0be 53a7 803d 9954 a3bd 3002 1fbc
00000090: 7d7a 2ebe d5b5 96be f62d 303d 977b 163e
000000a0: 952b 00bf 4ab7 c4be 98f3 f23d fef4 223f
000000b0: c30f ed3d ece9 5e3d 4b45 28bf a51e f9be
000000c0: 00d0 943e 0363 57be c234 4b3d 5144 a5be
000000d0: 9ad2 6ebe 0595 d0bc f23c cfbd 64aa eabe
000000e0: e82c 38bf 8027 9d3d 7dbe 5f3e 6668 dfbf
000000f0: c7f3 8e3d d060 3a3e f320 86be 96fe 90bf
00000100: 17ae 64bd 2951 5cbf 9b41 be3e 5264 15be
00000110: ee8c 61bd f1f4 803e b6dd 1c3e 5c0c debf
00000120: 859b eb3c 5e45 83bf 2218 4e3d 9d95 c1be
00000130: a288 18be 448a 303d 40ea abba 42b5 dcbc
00000140: ccb2 3ebf 9f1c d6be c72f 33bf 56be 30bd
00000150: 6e0d 40be f0d8 48bd e416 90bc adf0 ddbd
00000160: 8338 6fbe 8fad 76be 4cf8 cebd 9cdb 8fbd
00000170: e5ad 41bd 80a7 7ebc cd0a 893e 9a5c 4a3d
00000180: d321 1fbb 30c1 85be ba4d 4cbd f91c 69bf
00000190: dac0 12bf 133f 423e 566c a9be ea60 a93d
000001a0: 233a 0a3e 0ae9 d4be 8094 87bf 4aea fdbc
000001b0: 5730 78bf 49e1 843e fcfa a0bc 97ff 9ebe
000001c0: 88f0 0dbe 3c0d aebe 6d09 d7be 75ad d93e
000001d0: 4717 b9bf 8905 fcbe 43ba 77be def5 8d3d
000001e0: 61b9 863e fada 51bd f47b 0fbf 0e84 99be
000001f0: 97d1 52bf 5d57 9ebe 612e 133b 6344 69be
00000200: d8a0 9d3d 78b1 7ebe 4dab f13c b61e 8dbf
00000210: 95f2 b6bf 8406 93be 7663 37be e018 8bbf
00000220: fb8a 6e3e b02a e0be cf5e 83bd a57d 7d3d
00000230: 5513 85bd bb51 593d af3a 16bd 062f e7bb
00000240: 653e 68bf 969d 35be 5a45 83bf 484b 9bbe
00000250: 40b0 e73c a2fa 4c3d a86b b53c 9db5 073d
00000260: 4fed 29bf caab 72be 7cdf 84bd a11c 9abe
00000270: 949f 49bf d305 e6bf ab97 b2bf aeb8 ccbe
00000280: d986 69be 50d6 933e 9fc1 d33c d3de 9b3d
00000290: 78d4 e6be 3a56 993c b7c3 abbd 2b5d c6bf
000002a0: 9165 69bf 8e27 c4be 676c 2d3f 4052 92be
000002b0: e739 823e 8b05 863d 689b b5bf 423c 33bf
000002c0: 7d51 f13d 529e 5ebf 88e0 3abc ebfc 1cbf
000002d0: 738d 9e3d 90db a9bd 3060 5d3e c05e 17be
000002e0: f950 dd3e f5fc 3d3e 7438 f43e 96cb 0bbf
000002f0: 0c4b 8c3d 86c9 bcbf 571e af3e 8258 f1bc
00000300: 66aa e33d 9982 1c3e 30b8 863f 3737 173f
00000310: a749 5bbe d917 3f3f 0aaf 1ebf e2de bfbe
00000320: 7c26 40bd 9b17 59bd 4272 4bbe 7376 773e
00000330: 92bf b8bd dc10 18be d522 9a3d d2e4 033f
00000340: 23a6 afbd 16b8 f03d 5d69 0c3e ea2f 53bd
00000350: ccfc 20be 168d 84bf 066c d4bc b525 c0be
00000360: 0500 253e 0c11 35bd 8f64 19bf 30d5 f33e
00000370: c09d b63c 1e54 8bbd 45b0 02bd e079 7bbd
00000380: 9db4 b4bd 2aef b0bf b852 593c 2dbb e5bd
00000390: 2c32 6b3d 61c2 79be 6c38 8dbd 400f 10bd
000003a0: 2605 ea3d 7b85 2dbe b5ee 97be c630 363d
000003b0: 47ea fdbe 1d3b bc3e 3990 12bd e45f a43c
000003c0: 7fe5 713e 560f 0cbe 6a3b 913e 7761 25bf
000003d0: 2dfe 7ebe 1a07 da3d db38 a2bc 19e5 3c3d
000003e0: 6a6d a63e b9cd 42bd 7dcf f7bc 7fd9 31be
000003f0: 183a 02c0 516e 53be d5af 443d 8445 fd3d
-0.017993597 0.11164478 -0.04918978 0.45496833 -0.74179 -0.16669197 -0.36597985 -0.55697703
-0.59216124 0.12859295 0.023569673 -0.34558648 0.0847596 -0.02418028 -0.5777042 -0.18872117
-1.1184336 0.34845784 -0.3835597 0.024035754 0.010125817 -0.07191528 -0.046171725 -0.22291751
0.420132 -0.8068121 0.18134911 0.015120718 -0.2280948 0.042746015 0.29432085 -1.2463316
-0.31433517 0.062819146 -0.0797512 -0.009705111 -0.17038913 -0.29435602 0.04301258 0.14695583
-0.500665 -0.38421088 0.11862868 0.6365508 0.11575272 0.054422304 -0.6573073 -0.48656192
0.2906494 -0.21033864 0.04961086 -0.32278684 -0.23322526 -0.025461683 -0.10119046 -0.45833123
-0.7194352 0.0767355 0.2185001 -1.7453735 0.069800906 0.18200994 -0.26197013 -1.1327693
-0.055830088 -0.8606134 0.37159428 -0.1458905 -0.05506604 0.25186875 0.15318951 -1.7347522
0.02876068 -1.0255544 0.050315984 -0.37809458 -0.14895871 0.04310061 -0.0013116077 -0.0269419
-0.7449157 -0.4181871 -0.6999478 -0.04315027 -0.18755123 -0.049035013 -0.01758904 -0.10836921
-0.23361401 -0.24089645 -0.101059526 -0.07024309 -0.04728498 -0.015542865 0.26766053 0.049404718
-0.0024281635 -0.26123953 -0.049878813 -0.91059834 -0.5732552 0.18969373 -0.33090466 0.08270438
0.1349874 -0.41584045 -1.0592194 -0.030995507 -0.9694876 0.2595313 -0.019650929 -0.31054375
-0.13861287 -0.33994472 -0.4199938 0.4251515 -1.4460229 -0.49222973 -0.24192147 0.06931661
0.26313308 -0.051234223 -0.5604851 -0.29983562 -0.8235106 -0.30926028 0.0022458064 -0.22779994
0.07696694 -0.24872386 0.029500628 -1.1024997 -1.429278 -0.2871591 -0.17909035 -1.0866966
0.23295204 -0.43782568 -0.06414568 0.061887402 -0.06497828 0.05305646 -0.03667706 -0.007055166
-0.90720206 -0.17735896 -1.025554 -0.30330873 0.028282285 0.05004371 0.022146061 0.033132184
-0.6637773 -0.23698345 -0.06487939 -0.30099967 -0.7875912 -1.7970527 -1.3952535 -0.3998465
-0.22805347 0.28874445 0.025849162 0.0761086 -0.45083976 0.018717874 -0.08386939 -1.5497183
-0.91170603 -0.38311428 0.67743534 -0.28578377 0.254348 0.06544026 -1.4188051 -0.7001382
0.11783121 -0.8696033 -0.0114060715 -0.6132342 0.07741823 -0.08293831 0.21618724 -0.14782238
0.4322584 0.18553527 0.4769932 -0.5460752 0.068502516 -1.4749 0.34202835 -0.02946115
0.11116485 0.15284194 1.052496 0.59068626 -0.21414815 0.74645764 -0.6198584 -0.37474734
-0.0469117 -0.053001028 -0.19867805 0.24166279 -0.09020914 -0.14850181 0.07526175 0.5152103
-0.0857661 0.117538616 0.13712068 -0.051559366 -0.15721434 -1.0355556 -0.025930416 -0.37528768
0.16113289 -0.04420571 -0.59919065 0.47623587 0.022292018 -0.068031535 -0.031906385 -0.061395526
-0.08823512 -1.3822987 0.013264351 -0.112173416 0.057420895 -0.24390556 -0.06895527 -0.035170794
0.11426763 -0.1694545 -0.29674307 0.044480108 -0.49592802 0.3676385 -0.035782073 0.020065255
0.23622702 -0.13677725 0.28365642 -0.64601845 -0.24901648 0.10645886 -0.019802501 0.046116922
0.3250535 -0.047559474 -0.030250305 -0.17368124 -2.0347958 -0.20647551 0.04801925 0.12366775

fc2.bias f4 [256]
00000000: 4278 993c 35a7 c23d ac89 aabe 78cf a5be
00000010: 543e 9fbd 879c 843e 5b07 0fbe 6de7 62bd
00000020: dcba 65bd 859f 6d3d 5c80 97bd 4e01 4b3d
00000030: d0b6 063e a588 1bbd f323 ca3e 33b6 2cbe
00000040: 74f3 0dbd 1e6b 3bbe 71e8 c6bc f633 86be
00000050: f384 50bc 20ff c7bd 9296 b43e cd28 1abd
00000060: 9fb8 93bc 410f 30bc 73e7 adbd 048e df3d
00000070: 3151 cabb 4ae9 aabd 7c75 8f3e dbf2 83bd
00000080: bccc 523d 7a62 893d e77f 6ebc 9eb3 e93d
00000090: 1a2b 9e3e 8a43 f03d 180f 88bd f092 1d3e
000000a0: a207 2c3e 1d0b 583e b720 bb3d 6748 7abd
000000b0: d3d0 d1be a409 2e3d 876c cabd 9502 b0bd
000000c0: a531 b7bd 3122 083e a9d4 1c3e 9826 f23e
000000d0: cd01 44be 055a 1d3e 7b36 1f3e faec 3d3e
000000e0: df75 0a3e 9fd8 f1bd 29ab e43c a996 7dbe
000000f0: cf79 cebb 6633 02be 8d9b bd3c 79ed 6abe
00000100: cdbe 013f ab8d b83e 6f81 61bd a9b8 b43e
00000110: 9321 833d b08f c4bc a811 9b3e f3fb 67bc
00000120: a99f 313e c82a 5ebd 9540 d43e da6e f73d
00000130: 8e36 ed3c 4316 463e 430a 31bc 4d15 5e3e
00000140: 7233 ec3c 1204 073e b3ae b53d db82 733b
00000150: 6a84 d3bd 4a53 aebe ec4b 223e bc43 e5bd
00000160: cc17 27be 7491 8c3e ebdb a93e 3a26 07be
00000170: 3fc3 0e3e 6b97 bfbd df34 a6bd ef7c babd
00000180: 0b98 ed3d 0c3a 123d 752b c93d 0765 473d
00000190: 234d 35be 5178 babd 960b d3bd cf6f 85be
000001a0: 50ee 9bbd 4cba c5bd c416 b6bd 6d1e 6f3e
000001b0: 43e5 73bd 7b28 aa3e 9ef7 b6be 2db3 f63e
000001c0: b9c9 debd 4c5e 87bb 3356 49be 5c41 1f3e
000001d0: 4d88 c3be b622 0abe 0fd2 37bd b4e2 a1bd
000001e0: 3de7 86bd 268b f03c badc 853d c881 6abe
000001f0: 02f2 743c 2096 05be cfc3 2abe b3af bfbd
00000200: ac28 a33c 98b0 3cbd d839 23be d0d1 31bc
00000210: 2b2b abbd 0d44 cc3d de70 83be 4b48 893d
00000220: 9b00 c8be a210 323e 5ab2 f2bc 18ca ba3e
00000230: 3ffc 08bd 8cb9 bebd 387e 7abe c8e3 0e3e
00000240: c99d 43bd 75af 603e 56a2 313d a07d 5b3d
00000250: 092b 2dbe e359 0cbe cd03 993e 1519 04bd
00000260: 78d3 f2bc 5dcb 823d 2474 5abc 6988 79bd
00000270: 1fcc 5abe db8e b0bd a433 d7bd 3208 10be
00000280: 066c 9a3e e453 7ebe a892 c1bd 5ffd 14be
00000290: 3ae8 b43c 357d d33b 65ed 6d3d a57e 013c
000002a0: efb2 1fbe 6f00 d43e 0d02 20be a288 873e
000002b0: 83e6 dabd f516 553e 1c1d c1bd a078 d5be
000002c0: fc91 543e ff3f 173e 6deb edbd 7654 f53d
000002d0: c1ef 12be 3c8b 3e3e 7e2e 9cbd 7b58 b1bd
000002e0: 79dc 7dbe 8170 f43e 6195 44bd 80f4 98be
000002f0: 472c c23e 3725 ba3b 3cf7 58be 08ae 2b3e
00000300: 178d 153f 34dc b43d 03ab 333c 3606 dabb
00000310: 68c1 6cbe edcc 99bd 39ea 9ebe 9aef ba3d
00000320: d3fc a1bd 6d7c b43d a146 153e f474 6b3e
00000330: 25db 66be 5787 4b3e e576 9f3e d625 ae3e
00000340: c9f6 4a3e d653 a5bc bc17 923e 4aae 8e3e
00000350: d71d a63e bae2 2139 e0d6 4bbe dfc7 dd3d
00000360: 2c52 92bd f13e b63e 4fa0 77bd 016a 2dbe
00000370: 8b9a 34ba 49af c2bd 1587 9c3d 1d2f bf3e
00000380: ace9 383e 4958 a03d acf3 62bd e2b8 473c
00000390: a340 c73d 5c6d ddbd 2988 43be f7ce 83be
000003a0: 499a 5abe fa9e fb3c 55ba c83e 9bb1 8a3d
000003b0: eabf 1f3e 5e17 97be b37c 2cbd 4bbd dbbd
000003c0: 8b7f 36be cfd3 a83e 3c59 203e 8bd9 cd3c
000003d0: 998d f7bd b82d 9c3c a52f c2bd 5354 8c3d
000003e0: 0b40 d3bc de23 acbd 945c 37bd 8698 473d
000003f0: 097e b4bd ca28 cebd 7003 bdbd d66b babd
0.018734101 0.095045485 -0.3330816 -0.3238485 -0.0777556 0.2590067 -0.1396765 -0.055396486
-0.056086406 0.058013458 -0.073975295 0.04956179 0.13155675 -0.03797211 0.39480552 -0.16866378
-0.034656003 -0.1830258 -0.024280759 -0.26211518 -0.01272701 -0.09765458 0.35271126 -0.037636567
-0.01803237 -0.010745824 -0.08491411 0.10915759 -0.0061742296 -0.083452776 0.2801932 -0.064428054
0.05146478 0.06708236 -0.0145568615 0.114112124 0.3089226 0.11731632 -0.06643504 0.15388083
0.16799787 0.2109799 0.09137099 -0.061104205 -0.40979633 0.042489663 -0.09883981 -0.085942425
-0.08945016 0.13294293 0.15315498 0.4729507 -0.19141312 0.15366371 0.15548126 0.1854743
0.13521527 -0.11808895 0.027913647 -0.24764504 -0.006301142 -0.1271492 0.023145461 -0.22942151
0.50681764 0.36045584 -0.055055078 0.35297135 0.06402888 -0.023994297 0.30286908 -0.0141591905
0.17346062 -0.054240018 0.41455522 0.1208169 0.028956678 0.1934443 -0.010805669 0.21687813
0.028833125 0.13185146 0.08871212 0.0037156853 -0.1032799 -0.3404792 0.15849274 -0.1119456
-0.16317672 0.27454722 0.33175597 -0.13198176 0.13941668 -0.093550526 -0.08115553 -0.091058604
0.116012655 0.03569989 0.09822742 0.04868033 -0.17705207 -0.0910498 -0.10304944 -0.26061866
-0.07613814 -0.09654674 -0.08891061 0.2335145 -0.059544813 0.3323401 -0.35735792 0.48183575
-0.10878319 -0.004131114 -0.19661789 0.15552276 -0.38189927 -0.13489804 -0.04487806 -0.07904568
-0.06587074 0.029363226 0.06536241 -0.2290107 0.014950277 -0.1304555 -0.16676258 -0.09359684
0.019916855 -0.04606685 -0.15940034 -0.010853246 -0.08357843 0.09973917 -0.25672048 0.06703242
-0.39062962 0.17389157 -0.02962606 0.3648231 -0.033443686 -0.09312734 -0.24462211 0.13954079
-0.047757898 0.21941932 0.043367706 0.053586602 -0.16910948 -0.13706164 0.29885712 -0.032250483
-0.029641852 0.06386445 -0.013333354 -0.060921106 -0.21366929 -0.086209975 -0.105078965 -0.14065626
0.3016054 -0.24836689 -0.094518006 -0.14549778 0.02208339 0.006454135 0.058087725 0.00790373
-0.15595601 0.4140658 -0.15625782 0.2647143 -0.10688498 0.20809539 -0.0942938 -0.41693592
0.20758814 0.14770506 -0.116171695 0.11979 -0.14349271 0.18607801 -0.07626055 -0.086594544
-0.24791135 0.47742084 -0.04799402 -0.2987404 0.37924406 0.005680706 -0.21188062 0.16765606
0.5841841 0.08831063 0.010966065 -0.0066535724 -0.23120654 -0.075097896 -0.31038073 0.091277316
-0.079095505 0.08812795 0.14577724 0.22993833 -0.22544535 0.19875847 0.31145397 0.34013242
0.19820704 -0.020181578 0.28533733 0.27867347 0.3244464 0.00015438619 -0.19906187 0.10829138
-0.07144579 0.35594895 -0.060455617 -0.16934969 -0.0006889484 -0.09506089 0.07642952 0.37340632
0.18057889 0.07829339 -0.055408165 0.012190076 0.09729125 -0.10811874 -0.1909491 -0.2574384
-0.21347918 0.030715454 0.3920466 0.06772157 0.15600553 -0.29510015 -0.04211111 -0.10729464
-0.17822091 0.32974097 0.1565904 0.025128147 -0.120875545 0.01906477 -0.09481744 0.06852021
-0.025787374 -0.084052786 -0.044766024 0.048729442 -0.08813102 -0.10066374 -0.09229171 -0.09102599

fc3.weight f4 [128, 256]
00000000: 59b4 e63c 7aa0 003f 392b f13d 3ecf 8c3e
00000010: 6b01 95bc 5365 d1bd f129 ac3d 7d53 433e
00000020: 52d1 773d 528d f6be eb92 0dbd 73f5 643e
00000030: 6a93 b23e 71b2 9a3d 77eb 963e e700 d83d
00000040: 6d14 6cbc 0506 8c3c 7afb 12bf 175c 183d
00000050: 5988 7dbb 63b1 f93e fa24 8d3d 20a9 e6bc
00000060: 8e8f 29bd c8b3 12ba eaa4 00bf d577 1dbe
00000070: 8833 22bf 57ea 26bd 4b52 95be c49c a53d
00000080: e275 523b 7e96 93bf d32a 3dbe 7669 933e
00000090: ecd7 853e 1640 7ebe 9d0b ab3e b67a d53e
000000a0: 68f1 b3bf 9975 883e e1a7 7f3d 3d36 81be
000000b0: f88a 213f 1f9c b53d 12f9 c7b9 e974 ccbb
000000c0: 82dd 363f fc69 633c 9246 8fbd 5be7 163e
000000d0: 90a4 ebbe e12b 90bc 76ed e1bd 4303 ec3d
000000e0: 5c19 b23e 1ddd 2bbd 664a e53c 8368 503e
000000f0: c552 9bbc e97c f3bd 0c22 adbd 8838 233e
00000100: 6953 a33e d395 603e f44a 1a3f 0feb b4bd
00000110: a9c4 cbbd 27c5 39bf e1bf 8f3e 615f 13bd
00000120: 9709 e13b 3305 413e b618 dd3e 163a df3d
00000130: bb65 9c3e ae4c 603e 8bd3 653d 40c8 ccbc
00000140: 7ee1 20bd a8d7 fabd 29a0 403f fcae 103f
00000150: 1121 1a3f a503 32bf d65d 733e 54f7 493d
00000160: 6abd 273e bfb1 10bf a158 b73d 1140 46bd
00000170: 07d8 43be 4c4c 913d ed26 03bd 92bf 6f3e
00000180: d943 3b3e d47d 183e ede3 9dbf eabe ca3c
00000190: 7572 813e 62d1 1e3d e41c 04bc 3a6c 643c
000001a0: 601b fbbc b204 513a 62d9 4abc ce7e a63e
000001b0: 91b8 a13b 04dc 4d3e 9511 6bbf 6658 4f3e
000001c0: 342a 79bc ac7a 443e 3561 9abe 4ca9 54be
000001d0: dfca 9e3e 6515 16be da5a 16bd c1c5 82bd
000001e0: 7a67 d03b 7a62 1c3f c8ca 00be bfe5 80bd
000001f0: 9749 d6be 58d1 07bd 421d 4abe 9703 463d
00000200: 528d e8bc ca7c 7c3d b176 92bd 89cf a0bd
00000210: bf3e 43ba 54e2 613e 674f 1d3f 7c02 133e
00000220: 3718 1fbb f120 243e 10a3 87be 424f 283e
00000230: 4db5 a63d bad9 bebb c7d0 c13e 60b6 1cbf
00000240: b97c d6bc fc98 ee3b df15 773e c866 8cbd
00000250: ce37 9e3d a7f3 5abe bc5a 0a3f f012 833e
00000260: 957c bdbc 0441 5d3d 8136 8bbf 8780 0abd
00000270: b5fa 17bf 1043 813c d639 cebc de8d 01bd
00000280: 8bf3 9c3e 112c 1f3e 03e2 2e3e 436c 443e
00000290: 7f1a 413d cfc1 173d 0463 d8bb 1edc a53d
000002a0: 7a24 253e 17bb 403e 8cba d63e 5eca d9bb
000002b0: c597 dfbc 059a eebd 1ff6 d0bc 390a 553f
000002c0: aa07 c3be 31ca c13d 72e0 3b3d ce61 4bbf
000002d0: 9e50 2c3e 73b6 63be d077 3e3d f4ea 53bd
000002e0: 08ca 273e b447 4c3e afb8 83bd 33f8 793d
000002f0: a869 413e 47cd 4e3e 2337 4bbf 8a44 503e
00000300: bab4 3a3e 3b41 603e 1fea 8dbd a234 833d
00000310: f929 81bf 5242 a4bd 124d 72bc 53c9 ce3c
00000320: 3ac4 26bf c198 883d 1d7c 8cbd 2d7b a6bd
00000330: 875e 4b3d 2eac 7a3d 6544 e73e be22 273c
00000340: 0ac9 87be 3a71 2e3d 1dd8 cd3d 3653 abbd
00000350: 3a50 c53e 523d 133f 9a95 483e 34e4 893e
00000360: 6d54 c53e 83f4 8f3e a423 133c 2339 873f
00000370: e28b 49bd 63cb fcbc 299e 853e 4032 993e
00000380: 1097 493e f612 3fbf 5243 b13c 6013 783e
00000390: 8fdb b93d 19ba 8d3d 83ef 433e 0f63 b73d
000003a0: 996b 07bf 2539 fa3d 9066 4a3e 7ccb 023f
000003b0: 9fbb a03e 0e40 d0bf 8cd0 5b3d db42 febc
000003c0: b28b e73e 402f 0b3f af66 563d f3f4 103f
000003d0: 378f b7be ae4e b73d 2398 b339 c346 693c
000003e0: cb96 c13e cca0 e43b e96a 073d a511 05be
000003f0: 4aaf 8cbe 4c64 773e f78f c8be 0d7f 8e3c
0.028162168 0.5024487 0.11775822 0.27501863 -0.018189153 -0.10224404 0.08406437 0.19074817
0.060502358 -0.48154694 -0.03456394 0.22359256 0.34878093 0.07553566 0.2947652 0.10547047
-0.014409167 0.017092714 -0.5741497 0.0371972 -0.0038686006 0.48768148 0.06891818 -0.028156817
-0.04139667 -0.00055962475 -0.5025164 -0.15377744 -0.6335988 -0.040750828 -0.29164347 0.08086541
0.003211372 -1.1530302 -0.18473367 0.28791398 0.26141298 -0.24829134 0.33407298 0.41695184
-1.4058046 0.2665222 0.06241596 -0.25236693 0.63102674 0.08867668 -0.0003814181 -0.0062395227
0.71431744 0.013880249 -0.06995882 0.14736693 -0.4602399 -0.017599048 -0.1103162 0.115240596
0.34784973 -0.041958917 0.027989578 0.20352368 -0.018960366 -0.11889059 -0.084537596 0.15939534
0.31899574 0.21932153 0.6027062 -0.08833896 -0.09949619 -0.72566456 0.2807608 -0.035979632
0.0068675983 0.1884964 0.43182915 0.10899751 0.30546364 0.21904251 0.056109946 -0.02499783
-0.039277546 -0.122481644 0.75244385 0.56517005 0.60206705 -0.6953681 0.23766264 0.049308136
0.1638085 -0.5652122 0.089524515 -0.048400942 -0.19125377 0.070946306 -0.032019544 0.23412922
0.182876 0.1489175 -1.2335182 0.024749238 0.25282636 0.0387739 -0.008063529 0.013941819
-0.030652702 0.0007973417 -0.01238093 0.3251862 0.004935332 0.2010346 -0.91823703 0.20248565
-0.015207816 0.1918742 -0.30152288 -0.20767707 0.31014153 -0.14656599 -0.036707737 -0.06385375
0.0063599916 0.61087763 -0.12577355 -0.062938206 -0.4185302 -0.03315863 -0.19737723 0.048343267
-0.0283877 0.061642446 -0.07151545 -0.07852084 -0.00074480096 0.22058994 0.61449283 0.14356416
-0.0024275908 0.16028191 -0.26491594 0.16436484 0.08140049 -0.005824295 0.37854597 -0.6121578
-0.02618252 0.0072814208 0.24129437 -0.068555415 0.07725488 -0.21382008 0.540447 0.25600386
-0.023130694 0.05401708 -1.0876008 -0.03381398 -0.59366924 0.015779048 -0.025174063 -0.031629436
0.3065456 0.15544154 0.17078404 0.19181924 0.04714441 0.037050065 -0.0066036005 0.08098625
0.16127196 0.18821369 0.419392 -0.0066464385 -0.027294049 -0.11650471 -0.025507985 0.83218724
-0.38091785 0.09462393 0.045868345 -0.79446113 0.16827628 -0.22237568 0.04650098 -0.05173774
0.16385663 0.19949228 -0.0643171 0.061027717 0.18887961 0.20195495 -0.79381007 0.20338646
0.18233004 0.21899883 -0.06929421 0.06406523 -1.0090934 -0.08020462 -0.014788883 0.025242483
-0.6514317 0.066697605 -0.0685961 -0.08128963 0.049650695 0.06119936 0.45169368 0.010201154
-0.26520568 0.04258845 0.10050986 -0.083654806 0.3853777 0.5751544 0.19588318 0.26931918
0.38540974 0.28116235 0.008980665 1.0564312 -0.04920567 -0.030858701 0.2609723 0.2992115
0.19686532 -0.7463831 0.021638546 0.24226141 0.090750806 0.06920261 0.19134335 0.08954441
-0.52898556 0.12217931 0.19765687 0.5109174 0.31393144 -1.6269548 0.053665683 -0.031037739
0.45223767 0.5436897 0.05234402 0.5662376 -0.35851452 0.08950554 0.0003425489 0.014238062
0.37810358 0.0069771763 0.03306094 -0.12995012 -0.27477485 0.24159354 -0.39172336 0.017394567

fc3.bias f4 [128]
00000000: c964 0d3f 344c 153f 14b4 a23e 561b 143f
00000010: 2347 113f 3dfb 333f cdcb 403d fdd2 803e
00000020: 29ab c9bd 45e9 533d fbde 133e bca5 c03c
00000030: 8f9e 173f a1f6 3fbc e375 98bd 11b1 f23e
00000040: 22fe 0d3f 72cb 063f f110 8e3c 8e74 293f
00000050: bbad 193f cdc2 a83d 00c0 9fbd b838 3ebd
00000060: 83ea 573e 270f abbd c0c5 4d3c 6d9e a7bd
00000070: 015a 3f3f aa1b 0c3f 4b14 3c3f 82bb b6bd
00000080: 3bcf 2bbe a55e babd fcf4 dcbe 9de8 1f3f
00000090: f91a c7bd cd73 dabd de35 eebd b374 da3b
000000a0: 2bba 40bd b4b0 dc3c a9bb 15be 493f 41bd
000000b0: 7288 1f3f 4b3e be3e 2ae6 0e3e b7cd 98bd
000000c0: c0a3 8ebd 47b3 24bd 71d9 263f 7d90 253f
000000d0: ab6a 923c 29e4 0e3f f486 a3bd 6cd5 243f
000000e0: a02d 9cbe 54b5 243f b423 e53e 0259 e63c
000000f0: 3f2e 2c3f 8f09 5cbd 70f8 223f ee1c 623e
00000100: 0bc1 0bbd 3001 323f 8dab 81bd 6c8c 96bd
00000110: a884 ca3e a11a 1e3f 42b5 9dbd ca2e e23e
00000120: af98 1a3f 5aaa 0a3d f61e c23e d3b5 e7be
00000130: db8d 5fbd 8dce c5bd e075 85bd a77e b3bc
00000140: 1601 f93e 307f 0e3f 6338 193f c83a 093f
00000150: 3947 203d f886 153f 9d4a 4d3e 3298 6f3e
00000160: 2a01 e13e 22a8 fe3e 3dfc 123f 038c 2dbd
00000170: 4b6c c0bd a68e c1bc c523 f83e a710 7fbd
00000180: b5db 3e3f 9f51 c8bd 57c1 a7be 75d0 2bbe
00000190: a31d 273f 4f18 19be e31b dc3e d5e4 a73e
000001a0: 4c65 c1bd 6781 0abe 59b2 0e3f 69e0 dd3e
000001b0: 0401 f73e 2367 b6bd ffc7 103f afae 0cbd
000001c0: fad6 93be fa0f 093f 25bf 743e a3c4 c7be
000001d0: a128 943e daa3 1cbd 9a0e 413d c5be 0dbc
000001e0: 6bfc a43d bac6 d5bd e60c 9abc a6df 073f
000001f0: deb6 423f 6404 8f3e 6638 8fbd 3ef6 febc
0.5523191 0.583194 0.31778014 0.5785421 0.5674917 0.70305234 0.04706936 0.2516097
-0.09847099 0.051736135 0.14440529 0.023516528 0.59226316 -0.011716516 -0.0744436 0.47400716
0.554659 0.5265418 0.017342063 0.66193473 0.60030717 0.0824028 -0.07800293 -0.04644081
0.21085553 -0.083524995 0.012559354 -0.08184514 0.7474671 0.5472971 0.73468465 -0.08922483
-0.16778271 -0.09100083 -0.43155658 0.62464315 -0.097219415 -0.106666185 -0.11631368 0.0066667437
-0.047052544 0.026939727 -0.14622368 -0.047179494 0.62317574 0.371569 0.13954988 -0.07461112
-0.069648266 -0.040210035 0.6517554 0.64673597 0.017873129 0.55816895 -0.07984725 0.64388156
-0.3050356 0.64339185 0.44753802 0.028118614 0.67258066 -0.053720053 0.63660336 0.22081348
-0.034119647 0.6953306 -0.06331549 -0.07351002 0.39554334 0.6175938 -0.07700588 0.44176322
0.60389227 0.033853866 0.37914246 -0.45255908 -0.054578643 -0.09658537 -0.065166235 -0.021910978
0.4863364 0.5566282 0.59851664 0.5360532 0.039130423 0.5840907 0.20047994 0.23397902
0.439462 0.4973765 0.57416135 -0.042369854 -0.09395655 -0.02362759 0.4846479 -0.06227174
0.74553996 -0.09781193 -0.32764694 -0.16778739 0.652796 -0.14950679 0.42990026 0.32791772
-0.09443149 -0.13525926 0.55740887 0.43335274 0.48242962 -0.089063905 0.5655517 -0.03434628
-0.28874952 0.53540003 0.23901041 -0.3901721 0.28937247 -0.0382422 0.047133066 -0.00865144
0.080559574 -0.10438295 -0.018804979 0.53075635 0.76060283 0.27933037 -0.06993179 -0.031123277

fc4.weight f4 [128, 128]
00000000: d799 493e 6c72 a23e 0c21 f63c dd15 ba3e
00000010: ddef 9e3e f103 b23e ee9d cbbd c854 323f
00000020: f06d 013c a61a dfbd 7a4c 50be e8c3 23be
00000030: 6a46 923e 6b01 c13c ed37 93bd 74d4 923e
00000040: 6dfe 553e b126 513e da50 aebc 2877 353e
00000050: 0c05 463f fcdb b13d fa0c 0bbd c8e9 2bbe
00000060: 8fe8 9f3c 2c58 6e3d 0e97 883f e2ca 153d
00000070: 7325 5d3e 3d7a b53e f080 c93e 5bf9 d5bd
00000080: 369f 01be 048c 58bd c3de 40bf ed25 ad3e
00000090: 4923 403d ec53 abbd e57f a93d 462a c1bd
000000a0: dcb8 e4bd 166b 333d 0fb5 48be 1975 543d
000000b0: 40ff 9a3e e177 8040 ff67 ad3e 694f 7b3d
000000c0: 7518 fa3c 0298 f53d 5cae 343f 4fd3 3e3e
000000d0: cbe5 9abd 2f45 ab3e 5342 643c ba11 d93e
000000e0: ab7f a5be 6798 943e 1afd 0a3e dedf 73bd
000000f0: 4486 9b3e d7d8 b9be 9845 da3e 1847 593f
00000100: c430 74bd 64d3 693e 23dc 443d 20e5 d33d
00000110: b033 873d ee64 c03e ae4f da3d 8a97 89bd
00000120: ed71 a33e a530 07be 0731 9d3f b9bc 0cbf
00000130: 6b3b 8cbc bad1 9b3e d1f5 9bbd 2cac 36bc
00000140: 6845 3c3e 8c1e d43e abff 6f3e ef8b d23e
00000150: adab 6abb ae9d 113e 8dd8 533e c492 b33d
00000160: 76a7 173e 510f 373e 8bf7 c43e b13c 8dbd
00000170: 1604 983c 0196 983c 4e30 033e ee12 743d
00000180: d761 813e 1be0 4f3d 7c4d 62be 2db6 28bc
00000190: 9c6b 333f 1129 54bf c36b 853d 1bc6 fbbd
000001a0: 7d09 8c3d 6076 69bf 536c a43e 45e8 923c
000001b0: 483e 4d3e c48d babe 4c1a 173e b000 0abd
000001c0: d171 d8bf 4bd9 303e c59c 303f e864 8ebe
000001d0: 7b62 a33d dbb5 ed3c f5f5 173f e97e 0bbe
000001e0: 2af5 49be cf5b c63d ecef 77bc e0bf 4d3e
000001f0: d368 b73e 43d3 1e3f d951 be3d 6ada 7a3d
00000200: 7b3a a53d 7084 03bd 3fe9 debc d4de 70bd
00000210: b6ba ddbd f84e b3bd c544 2abc 9e03 a6bc
00000220: e48c 92bc c0ec 763d 9df9 24bd 9145 92bd
00000230: ffae 2a3d 4fc9 9fbc a7f4 4b3c 21fc 6eba
00000240: 4572 e93c 3ed5 8a3d 2177 80bc ad1e 9abd
00000250: ba0f 123d baf0 78bd 2b09 5ebd 39c0 843d
00000260: f2af b8bd 343b 063d 7a5e 753d f93e 41bd
00000270: 6593 91bd 68e2 843d 509d cabd c8be 103d
00000280: f919 953c 1d9c 8c3d f000 b03c 9406 84bd
00000290: 02ba a1bd ebce 873d 40ed 9c3a b0e0 9b3b
000002a0: 70a1 e83c 1c76 b93d 6dee d73c bf8c 9a3d
000002b0: 0dd1 6d3c a920 13bd 5901 f23c 3cf8 95bc
000002c0: 5e02 0fbc a4f6 19bc 921c 0dbd 9990 133c
000002d0: 264c 94bd a1bb d0bd ede3 30bd d6db 3b3d
000002e0: 4350 81bd dd48 8fbd 3477 d0bc bf68 3b3d
000002f0: f584 813d 563d e7bb b14f cb3c f1e4 ecbc
00000300: 9569 adbc ebda 10bd c077 643d 2805 e53c
00000310: 0a76 afbc 2aac 7e3d 689e e8bb c9b0 de3c
00000320: e8f4 a83c ae32 18bd b0fb 2c3d ee35 d1bc
00000330: a035 a2bd ead5 62bd cef9 1d3d 1f44 103d
00000340: e6dd f2bc 0370 c3bc 7029 5f3d b4bc 23bd
00000350: a384 3a3c 0dec 0bbd 9c02 51bd 4b7a d1bc
00000360: a291 2b3d 0d25 2bbb 449d 5cbc 145a 69bc
00000370: 6052 c53c 2584 a83d 5381 15bd 2645 10bd
00000380: e422 91bd 29f7 1a3c 7e29 743d f637 163d
00000390: 5fab a7bd 1444 59bd 91e5 a1bd b400 1c3c
000003a0: 5e81 6f3d 15bd 593d 13df 1dbd 4061 d53c
000003b0: 93b8 1bbc 1cc0 c0bd a87d 823d 44ac 343d
000003c0: 59d5 b2bd de9c 833d 07ab ef3c 36b7 88bd
000003d0: ecc5 333d 4f9d 9bbd 28d8 343d 4778 5dbc
000003e0: dcb4 0cbd dcaa e13c cc20 5d3d 8ab8 87bd
000003f0: ef0e 273d 686a 1cbd 75c6 903d 9292 ad3d
0.19687591 0.31727922 0.030045055 0.36344805 0.31042376 0.34768632 -0.09942232 0.69660616
0.007899746 -0.10893755 -0.20341673 -0.15992701 0.28569347 0.023560246 -0.07188401 0.28677714
0.20897837 0.20424916 -0.021278787 0.17721236 0.7735145 0.08684537 -0.033947922 -0.16788399
0.019520072 0.058189556 1.0671098 0.036570437 0.21596317 0.35444823 0.39356184 -0.104479514
-0.1265839 -0.052867904 -0.7533991 0.33817998 0.04690865 -0.08365616 0.08276347 -0.09431891
-0.11168072 0.043803297 -0.19600318 0.051869486 0.30272865 4.0146337 0.33868405 0.06135503
0.03052924 0.11991884 0.7057855 0.18635295 -0.07563361 0.3345122 0.013931829 0.42396337
-0.32323965 0.29022524 0.13573113 -0.05953967 0.30375874 -0.36298248 0.4263122 0.84874105
-0.05961682 0.22834545 0.0480615 0.103464365 0.066016555 0.37577003 0.10659729 -0.06718357
0.31922856 -0.1320215 1.2280587 -0.5497547 -0.017118176 0.30433446 -0.07615245 -0.011149447
0.18385851 0.41429555 0.23437373 0.41122386 -0.0035807893 0.14220306 0.20688076 0.08768228
0.14809975 0.17876936 0.3847011 -0.068963416 0.018556636 0.018626215 0.12811396 0.059588365
0.25269958 0.050750833 -0.2209987 -0.01029734 0.70086074 -0.8287516 0.065146945 -0.12293645
0.06837747 -0.9119625 0.32113895 0.01793302 0.2004329 -0.36436284 0.14756125 -0.033692062
-1.6909734 0.1727039 0.6898921 -0.2781136 0.07977768 0.02901738 0.59359676 -0.13622631
-0.19722429 0.0968548 -0.015132885 0.20092726 0.35822162 0.6204111 0.09292955 0.061243452
0.08067795 -0.032108724 -0.02721083 -0.058806255 -0.10826628 -0.087552965 -0.0103923725 -0.020265397
-0.017889448 0.060284376 -0.040277112 -0.07142175 0.041670796 -0.019505171 0.012448466 -0.00091165496
0.02849687 0.06778954 -0.015681805 -0.07525382 0.03565953 -0.06077645 -0.054207962 0.06481976
-0.09017934 0.032771304 0.059904553 -0.047179196 -0.071081914 0.06488496 -0.09893286 0.035338193
0.018200861 0.06865714 0.021484822 -0.06446567 -0.07896806 0.06631263 0.0011972561 0.0047570094
0.028397292 0.09055731 0.026358807 0.075463764 0.014515174 -0.03591982 0.029541658 -0.018306844
-0.008728592 -0.009397183 -0.034451075 0.009006643 -0.07241087 -0.101920374 -0.043186117 0.04586395
-0.06314137 -0.069963194 -0.025447465 0.04575419 0.06324188 -0.0070568724 0.024818273 -0.028917762
-0.02116851 -0.035365026 0.055778265 0.02795656 -0.02141859 0.062175907 -0.0070989616 0.027183907
0.020624593 -0.037157707 0.042232215 -0.025538411 -0.079203844 -0.055379786 0.03856831 0.035221215
-0.029646825 -0.023857122 0.054482877 -0.039974883 0.011384162 -0.034160662 -0.05102788 -0.02557101
0.041886933 -0.0026114613 -0.013465229 -0.014242668 0.024087131 0.082283296 -0.036500286 -0.035222195
-0.07086733 0.009458342 0.059609883 0.036674462 -0.08186983 -0.05304344 -0.079051144 0.009521652
0.058472984 0.05315884 -0.03854282 0.026047349 -0.009504455 -0.09411642 0.06371623 0.044109598
-0.08732099 0.064264044 0.029256357 -0.0667557 0.043889925 -0.075983636 0.044151455 -0.013517446
-0.03435217 0.027547292 0.053986356 -0.06626995 0.040785726 -0.038187414 0.07069103 0.08475222

fc4.bias f4 [128]
00000000: e2b6 1d3f 2b87 183d d4f3 1c3f c4e1 883d
00000010: 66b5 adbd 538a 293e 77c6 293f 0332 85be
00000020: ea8a 88be 061f c63c 7a1a b9bd 0c0b 083f
00000030: a5be 303f cb4c b3bd 2304 c6bd 454d 113f
00000040: 930f c03e c2e0 09bf b9bd d53e af37 403f
00000050: 0cd2 a5bc 3b4b 333f a14b 3a3f 4bb7 8fbe
00000060: 3a0b 9bbd b54f 313f 9e29 9ebd 1323 6d3e
00000070: d897 52bd 51e4 4fbd 0f88 29be b5fa 67bc
00000080: fdba 2c3f 8e4d 443f 3594 a5be 8ba0 04bd
00000090: 64b0 213f 46c4 553c 7f78 503f 6726 043e
000000a0: 7126 a8bd 0bdf b0bb e87f d8bd 80e5 f9be
000000b0: 14a9 8dbd 6725 043f ccf3 f13b 010b 593d
000000c0: d21b 563f fc32 413f 969d 6fbe ca4d a9bd
000000d0: eca4 c4bd f5e4 9bbe 62f2 c1bd 6755 27bd
000000e0: e4a0 91bd 2e72 3e3d c152 c7bd 4523 62bd
000000f0: ca67 233f 02d8 c6bd 1779 753e 81e3 453f
00000100: 3eba 1a3f b2e0 d1bd 5f29 92be 5251 253f
00000110: e573 293f 20f8 dfbe 5343 2cbd 7a2e adbd
00000120: f7e2 413f 0aea c43c ab1b e63b d761 a3bd
00000130: 1c63 3a3f 69db 253f 545f 273f 7286 d3bd
00000140: f3f8 1f3d a2c8 3d3f 3627 143e c66d dcbd
00000150: eb56 163f a486 c6bc 9ea1 2abe e957 efbd
00000160: afb9 51bd 79a0 693f 4258 263f 9736 0b3f
00000170: f545 3c3f 222f 91bd 1953 92be 3aa5 0b3f
00000180: f65e 43be 5663 443f f5e1 9cbd 38f8 2e3f
00000190: 78e1 5cbd a882 e63e afb7 2d3f 4a46 f83e
000001a0: 4e25 583f 0c72 dc3b 1a53 bdbd 7b95 473d
000001b0: 71e4 313f ccb6 4c3f 7b66 9bbd ae16 3f3f
000001c0: 705b 1a3f 6393 1d3e b0fd ecbd f4fa 5c3e
000001d0: ecb1 c1bd 6db9 cabd ab93 243d f889 563e
000001e0: 41a4 6dbd 11f2 5cbd c061 0abd acae d5bc
000001f0: 3ec1 353f e41e 393e ed2c 78be 3884 91bd
0.6160718 0.03723828 0.6130955 0.066836864 -0.08481865 0.16556673 0.6631846 -0.26014718
-0.26668483 0.024184715 -0.09038253 0.53141856 0.690409 -0.087548815 -0.09668758 0.5675853
0.37511882 -0.5385858 0.4174631 0.75084966 -0.02024176 0.7003667 0.7277165 -0.2806953
-0.07570501 0.6926225 -0.077227816 0.23157911 -0.05141434 -0.05075485 -0.16555808 -0.014158894
0.6747282 0.7668084 -0.32339635 -0.03237967 0.63159776 0.0130472835 0.8143386 0.12905274
-0.08210457 -0.0053976825 -0.10571271 -0.48807907 -0.06917015 0.5161957 0.007383799 0.05298901
0.836362 0.7546842 -0.23399958 -0.0826679 -0.09601769 -0.30448118 -0.09470059 -0.04085293
-0.071107656 0.04649561 -0.09732581 -0.055209417 0.63830245 -0.09709169 0.23971973 0.7730027
0.60440433 -0.10247935 -0.2854719 0.6457721 0.66192466 -0.43743992 -0.042056393 -0.0845613
0.75736946 0.02403738 0.0070223412 -0.07977646 0.7280748 0.6478792 0.65379834 -0.10328378
0.039055776 0.74134266 0.14468083 -0.10763125 0.58726376 -0.024234124 -0.16663215 -0.116866894
-0.051202472 0.91260487 0.6497842 0.5438017 0.73544246 -0.07089068 -0.28579023 0.5454899
-0.19079193 0.76714075 -0.076602854 0.683475 -0.05392596 0.45021558 0.67858404 0.48491126
0.8443192 0.0067274626 -0.09244366 0.04872654 0.694892 0.79966426 -0.07587906 0.7464398
0.6029577 0.15388255 -0.115718246 0.21580106 -0.09457764 -0.098986484 0.04017989 0.20951068
-0.058017973 -0.05394179 -0.033784628 -0.026084267 0.7099799 0.1807819 -0.24235888 -0.07105297

fc5.weight f4 [3, 128]
00000000: 5198 f73e ca76 533d 3209 893e 0928 383d
00000010: 308e bdbb e682 acbf dd7c 4340 38e0 9dbe
00000020: 7e85 b6bf 2212 2f3d ba52 5cbd 6231 013e
00000030: 05d6 c93e b853 7cbc f485 f33c 6162 ff3e
00000040: 45d5 8a3d f98c 65bf 6148 30bd 5d87 e73e
00000050: e979 9dbb 7888 ac3e 6a94 a03e c4b1 c1bd
00000060: ef22 9f3d 944e 953e 450f 9e3d 4aca 1fbf
00000070: 252d 5f3d bdda da3b f385 d6bd d07e 48bc
00000080: a7af 2c3f cd7f 9e3e e5bf 07bf 15dc 3e3d
00000090: cd58 b73e 4232 9d3d 3124 013f 1136 0dbc
000000a0: 944f 323d b6bc 01bd eb9a 913b b437 9cbf
000000b0: 8df5 b63d 4302 0a3d 382a 9dbd ea41 473d
000000c0: 9643 823f ef6f cc3f 267e 383e 810b 813c
000000d0: c16d 243d ef62 bebe 93ca 08be e39a b53c
000000e0: 458f a13d 939e 603d ac33 a53c b6e8 1e3d
000000f0: 72d2 f73e aae4 93bc 7531 2cbf 3750 0a3f
00000100: 4d32 9a3d a541 42bc a7ea babe c330 1d3f
00000110: caca a23e c54a 6dbe 9f15 05be 3999 0f3d
00000120: 1967 1c3f 563e ad3c 4939 25be f602 8dbd
00000130: 2965 f33e 6534 333e 7291 d33e a7a4 843e
00000140: facf 82bd 73e6 b53e 1246 28be 4a63 8e3d
00000150: c98d 863e 4b0e b8bd 2268 2abe d908 18bd
00000160: 784f b43c 3159 3c3f 1754 c73e 94a7 dd3d
00000170: e818 0140 322f dabc 062a 423d c733 1f3e
00000180: 94c9 61be cdb7 b73f 1d96 563d b26e fb3e
00000190: c902 7ebc 6c2e c4bd 7ea9 ad3e e313 7b3e
000001a0: a0e9 ff3e bb17 2c3d 1496 a4bd 9f40 77bd
000001b0: 3dde d03e 9b90 0a3f 93c7 9dbd 97ea f53e
000001c0: 35c8 a33e a3e4 89be 4ffb 16bd f63d f8bd
000001d0: 7976 a7bd d0e2 fabc 9bff dfbf b2fc 9a3d
000001e0: 8ffd 073d 1758 feb9 b52b e7bb 466a b1bc
000001f0: 44ef 123f 7b7a 97bf a295 96be f562 0b3d
00000200: 5788 fd3e df2f 0fbd 5999 2c3f 8fde 23bd
00000210: fa41 333d 9f8c 523f be76 1ebf f4a5 07bf
00000220: 9ca3 623e 6b18 0cbd 40b4 ae3b 41b7 f3bc
00000230: fed9 313f d569 1abd 43db 58bc 4b4a 153f
00000240: 0c8b 103e 99e6 d4bf df07 c0bc e362 883e
00000250: 9b06 673c 8c6b c73e 6d37 153f b5df 843e
00000260: c3d9 b9bc b581 b93e 30fd 8f3c 8f2a 8d3f
00000270: a58f 6f3d 984c d5bc 3f5d 7b3b f7b6 72bd
00000280: 4284 193f c865 b93e 2322 f5be 8f89 eebc
00000290: 54d5 3cbe a44f 6cbc f589 543e 9369 8bbe
000002a0: daa3 35ba 2574 65bd 6272 28bd a81b f6be
000002b0: 2abb 33bd 209f b33d 082d 22bc 6edd 333b
000002c0: 41dc 1c3f 1f8e c13e 0d12 3a3e 204c b23d
000002d0: 66c6 37bd 02c9 81be 5956 46bc 7234 41bd
000002e0: 4201 8bbc bc02 45bd fd05 123d 3440 ae3b
000002f0: e122 e13e b5cc 4bbc 691d 563f 13f6 603c
00000300: a1fa 993d 6d85 40b9 0880 c8be b7f8 143f
00000310: 4e34 443f be9b 54bf ea3b ad3d 3c56 5a3d
00000320: 06a6 ae3e 3763 e1bc 7e58 653b a0c7 893d
00000330: 0b4b e43d 64a1 023d fb09 0c3f 16eb 863e
00000340: 781c bebc b78b f23e b319 bf39 27ca 12bd
00000350: 2d82 bd3e 40ba 673b 4307 583e 441f 8e3c
00000360: b4db 893b 1f81 133f 8966 c13e 1cdc 34bd
00000370: 96a9 a93f cfca a83d db1f 183c 857d 533e
00000380: f75d 6b3e d0b5 b73f 32a6 1d3d dd33 483f
00000390: cb91 7dbd 43fe 81bc 76bf 343f 1a5c 783e
000003a0: f8f5 8e3e faaa 53bd 49fc 69bd d846 7139
000003b0: 5489 fabd 4a6e c33e 34be fcbb 34ed 263f
000003c0: e7bf 153f e8a6 7cbd c9f9 ad3d 144e bf3d
000003d0: 5187 4bbd 1094 c33c 5ef1 cebd 348f 6ebe
000003e0: 8277 04bd f081 8abd 619a 0abd 8b9f d03b
000003f0: bb20 463f 0038 5e3f e6f4 983e b5d7 373d
0.48358396 0.051626958 0.26764828 0.044960056 -0.0057847723 -1.3477447 3.054496 -0.30835128
-1.4259489 0.042741902 -0.05378983 0.12616494 0.39421096 -0.0154008195 0.02972696 0.49879745
0.06778959 -0.8966823 -0.043037776 0.4522046 -0.0048057926 0.33697867 0.3136323 -0.09457734
0.07770335 0.29161513 0.07717756 -0.62418044 0.054486413 0.0066789077 -0.104747675 -0.012237266
0.67455524 0.3095688 -0.5302718 0.046596605 0.35809937 0.076756015 0.5044585 -0.0086188475
0.043532923 -0.03167411 0.0044435165 -1.2204499 0.08933554 0.033693563 -0.07674068 0.048646845
1.0176876 1.597166 0.18016872 0.015752556 0.040143732 -0.37184855 -0.13358526 0.022168582
0.078886546 0.05483873 0.02016624 0.03879615 0.48402745 -0.018053371 -0.67262965 0.5402865
0.07529125 -0.011856471 -0.3650715 0.6140253 0.3179534 -0.23173054 -0.12996529 0.035058234
0.61094815 0.021147888 -0.16135134 -0.068853304 0.47538117 0.17500456 0.41321903 0.2590687
-0.06387325 0.3552738 -0.1643298 0.06952532 0.26280048 -0.08987101 -0.16641286 -0.037117813
0.02201055 0.73573595 0.38931343 0.108229786 2.0171452 -0.026633833 0.047403358 0.15547095
-0.22049552 1.4352967 0.052389253 0.4910789 -0.015503594 -0.09579167 0.33918375 0.24519305
0.4998293 0.04201482 -0.08036438 -0.06036436 0.40794554 0.541269 -0.077040814 0.4803054
0.31988683 -0.26932248 -0.03686076 -0.12121193 -0.08176894 -0.03062573 -1.749988 0.07567729
0.033200797 -0.00048512287 -0.007054771 -0.02165712 0.5739634 -1.1834253 -0.29411036 0.03402992
0.49518082 -0.034957763 0.6742149 -0.04000717 0.043764092 0.8224582 -0.61899936 -0.529876
0.22132725 -0.034202974 0.005331546 -0.029750468 0.69473255 -0.037698586 -0.01323587 0.5831649
0.14115542 -1.6632873 -0.023441253 0.26637945 0.014100696 0.3894924 0.582877 0.25951925
-0.022686845 0.3623177 0.017576784 1.1028613 0.0584866 -0.0260375 0.003835514 -0.05925652
0.59967434 0.36210465 -0.47877607 -0.029118327 -0.18440753 -0.014423285 0.20755751 -0.27228984
-0.0006929018 -0.056018967 -0.04112471 -0.48067975 -0.043879665 0.08770585 -0.009898432 0.0027445215
0.6127358 0.37803742 0.18170948 0.08705926 -0.044866942 -0.2534867 -0.012105548 -0.047169156
-0.016968373 -0.04809831 0.035650242 0.005317712 0.43971923 -0.012438943 0.83638626 0.013730544
0.07518507 -0.00018360252 -0.3916018 0.5819201 0.7664231 -0.83050144 0.08458693 0.053304896
0.3411104 -0.02751313 0.0034995372 0.067275286 0.11147126 0.031892195 0.5470273 0.2635123
-0.023206934 0.4737222 0.00036449506 -0.03583732 0.3701338 0.0035358816 0.2109652 0.017348893
0.004207099 0.576189 0.3777354 -0.044155225 1.3254879 0.08241808 0.009284939 0.2065335
0.22985063 1.435236 0.038488574 0.7820414 -0.061906617 -0.015868312 0.70604646 0.24253884
0.27922034 -0.051676728 -0.057125363 0.00023009942 -0.122332245 0.3817008 -0.0077131037 0.65205693
0.58495945 -0.06168261 0.08494908 0.09341064 -0.049689595 0.023874313 -0.10104631 -0.23296815
-0.032340534 -0.06763065 -0.033838633 0.0063666753 0.7739369 0.868042 0.29874343 0.04488345

fc5.bias f4 [3]
00000000: 38bb 883f 59ae f33e 7f08 a83e
1.0682135 0.47593954 0.32818982
