checkpoints/checkpoint_qnetwork_target_WMT_without_trend.pth (torch_old, 339524 bytes, 10 tensors)

fc1.weight f4 [128, 12]
00000000: 5014 5b3e 75ee 253e 2ecc 2abe a851 82bd
00000010: 8ff3 1dbe 37dd 803d 82a3 ae3d 8d7f 883e
00000020: f545 40bc f31c 8c3e 1fbc 18be 5cb6 fcbd
00000030: b646 f3bc eb9a ebbb d30e a8bd 260d 3f3d
00000040: cd3b fcbc 0171 abbb ed4d 95bc 1fd0 b6bb
00000050: 37c7 2d3d 6706 893c ccf3 05bf 89de 57bc
00000060: 130a 0cbd e379 6c3d 954e d23b 2870 fa3c
00000070: 954e d23c 28ed 7a3c 8509 903c 48e9 883c
00000080: 9b22 043d 7d02 353b aa57 d7be 75b0 34bf
00000090: ed81 05be 2bb3 733e 6958 debd 80a5 903d
000000a0: d0b0 4cbe efd2 cb3d 2376 d33d b989 edbd
000000b0: d1bf 7d3d 75c9 4ebd fe05 34bd 467e 43bf
000000c0: 009b bdbd 097b aebd 5fdb 2e3e 1bde c53d
000000d0: 4c78 ac3c a2db 783d 8a6c 1a3d b466 aebd
000000e0: d3f0 2a3e 9778 8fbc 5b1e dabe 3d58 81be
000000f0: 4b7c 083e 12b8 123e d45a 82be 24e2 f03d
00000100: 0845 133e 37fd 03ba 42c6 d5bc 2ccd 273e
00000110: 593d 813e 61be cb3e a9bb 10be e0c9 f6bd
00000120: 11bc 4c3e ee59 b13d 339b 8bbd 3af9 a23e
00000130: 57ad bc3d 9c19 23bd f3cc e53b 9fab 17be
00000140: 7fdc 8cbd 8e2a 473e e027 f03e 6b55 5cbf
00000150: 0609 aebc 27ea fdbb 8534 6ebb 129b e3bd
00000160: d3d9 953c 02b3 a7bd 4191 9c3d 9998 163d
00000170: 2f91 f33d 0f5a ddbc 2f9b 8cbe e185 6ebd
00000180: 7b09 993e 7267 5bbe 7ce1 11be 68be 70bd
00000190: 558e 513d d8be 69bd 7a48 b2bc 8200 d43c
000001a0: 2da3 db3d 253e df3d 4f8d 9ebe b8c4 3ebf
000001b0: c5fc 12be 90e7 2f3e ba72 aabd 69f5 943e
000001c0: 0603 d3bd d763 b03e 1a22 9e3d 57ee 273d
000001d0: be0f 1ebd c1f6 2b3e 5052 913d d0ff 6bbe
000001e0: 0f5a 33be 13af c73d eb80 dbbd fcbf 013e
000001f0: 66de 4bbd 9dd7 0bbe d217 dd3d 2f2c 463d
00000200: 433e 953d f647 5ebe 46ef c4be 9806 a3be
00000210: e889 2bbd ed91 983e 131e 9e3e b52c 813e
00000220: 0bb5 d4bc a720 c7bd 080e 533d 6e27 123e
00000230: f0b1 963d ddc4 7a3d de30 363e 59df 53bf
00000240: 36c2 0fbe c3e3 16be adb1 2e3d ee93 6f3e
00000250: 5c12 1abe 0fc9 eb3c 3a29 1cbd 4fb4 3fbd
00000260: bc7f 063e d9cd 98bd 64ca 96bc 9d96 46bf
00000270: 5857 8e3d b7bc b4bd 2ab0 a03c 7951 f4bd
00000280: 4024 0dbd ffab ddbd ecbf 243d 3728 1b3d
00000290: acc3 883d 69d2 143e f2d9 8abf d892 a63d
000002a0: 2596 f0bd 2f7c 583e 2950 873e b654 9cbd
000002b0: 4c7e 113e eadf bebc 9758 a63c 01ae 8dba
000002c0: 5c91 0bbd 6768 c3bd 019b 863e 1af7 93bf
000002d0: 3fc4 223d 7d27 c0bb 73a9 b83d fc28 ad3d
000002e0: 4970 103d 0b7c c33b 951b 4a3d e3a1 91bd
000002f0: fabb 323d 1164 e33d f64c e0bd 2b6a bfbe
00000300: 6fa2 58be a4b5 583d 059f 04be 3c8c 19be
00000310: b0ad 04bc 081c f43c f713 ddbc 6d06 1a3e
00000320: 342f 043d b1cb 593e f68c 4abc b539 dbbe
00000330: e207 c33c 522b ad3c 981f 66bc 93ef 4f3b
00000340: 2df9 503d ad35 9f3b 13d5 aa3c f679 a03c
00000350: 0737 9a3b c388 c83c a6f2 d2be 78f3 fabe
00000360: 234f babb 86c3 aabd 3df7 fa3e 7101 313e
00000370: 564f 62be ef66 c03d 1c2f e13d 4d37 003e
00000380: 9f3f 4bbd d010 123e 362d b5be 0820 c43a
00000390: 53ca eb3d 4248 dc3b 573c a73d 6b5a 973e
000003a0: 49ac 06be 01e1 b73c 603e e2bc de5a 11bd
000003b0: 1bcd 17be 490c 3abd eafa a3be a581 26bf
000003c0: 4529 843e fafe a73e 4e5d d7bd 8854 183d
000003d0: 09d6 8c3c ff1e 3cbe d1de 3a3e 783e 4dbe
000003e0: 1934 0e3c 91ae 5ebe 840e 2bbc 652a 97bd
000003f0: f84a c6bc c810 593c 96d3 27bd f68a 8bbc
0.21394467 0.16204245 -0.16679451 -0.06363231 -0.15424941 0.062921934 0.085272804 0.26659814
-0.011735429 0.27365837 -0.14915513 -0.1233947 -0.029696804 -0.0071900985 -0.082059525 0.0466434
-0.030790234 -0.005231977 -0.018225634 -0.005579009 0.042426314 0.016726686 -0.5232513 -0.013175615
-0.034189295 0.057733428 0.006418059 0.030571058 0.025672236 0.0153153315 0.017582664 0.0167128
0.032259565 0.0027619891 -0.4205907 -0.7058175 -0.13037844 0.23798816 -0.10856707 0.070628166
-0.19989324 0.09952342 0.10325267 -0.11598534 0.06195051 -0.050485093 -0.043951027 -0.7636455
-0.092580795 -0.08519561 0.17075871 0.09661504 0.021053456 0.060756333 0.037701167 -0.08515683
0.1669343 -0.017513556 -0.42601284 -0.25262633 0.13328664 0.1432803 -0.2545992 0.11761883
0.14381802 -0.00050349854 -0.026095513 0.1638686 0.25242117 0.39793685 -0.14134087 -0.12050223
0.19993617 0.08659731 -0.06816711 0.3183077 0.092127495 -0.039819345 0.0070129572 -0.14811562
-0.06877994 0.19449827 0.46905422 -0.8606784 -0.021244537 -0.0077488604 -0.0036347222 -0.11113562
0.018292343 -0.0818844 0.076448925 0.036766622 0.11892926 -0.027020482 -0.27462146 -0.058233146
0.29890046 -0.2142618 -0.14246172 -0.058775336 0.05116113 -0.05706677 -0.021763075 0.025879148
0.10724483 0.10900525 -0.30967185 -0.7451892 -0.14354236 0.17178178 -0.083226636 0.29093483
-0.10303311 0.34451172 0.07721348 0.040998783 -0.03858923 0.16793348 0.07095778 -0.23046803
-0.17514823 0.0975019 -0.107179485 0.12670892 -0.049772643 -0.13656469 0.10795559 0.04838198
0.07287266 -0.21707138 -0.384638 -0.31840968 -0.041879565 0.29798833 0.3088232 0.2522942
-0.025965234 -0.09723025 0.051527053 0.14272854 0.07358158 0.0612229 0.17792079 -0.82762676
-0.1403893 -0.14735322 0.042649914 0.23396274 -0.15046066 0.028782396 -0.038125254 -0.046802815
0.13134664 -0.07461137 -0.018407054 -0.7757357 0.06950253 -0.08825057 0.019615252 -0.11929602
-0.0344584 -0.10823821 0.040222093 0.03788015 0.066779464 0.1453339 -1.0847762 0.08133477
-0.11747388 0.21141122 0.26428345 -0.07633345 0.14208335 -0.02330013 0.020305915 -0.0010809303
-0.034074172 -0.095413975 0.26290134 -1.1559784 0.039737936 -0.0058640824 0.09016695 0.08455083
0.035263333 0.005965715 0.04934271 -0.071109556 0.0436363 0.111030705 -0.10952179 -0.37385687
-0.21155713 0.0529076 -0.12951286 -0.14994901 -0.008098051 0.029798523 -0.026987059 0.15041514
0.03227158 0.21269108 -0.012362709 -0.42817464 0.02380747 0.02113882 -0.0140456185 0.003172849
0.051018883 0.0048586936 0.020853555 0.019589406 0.004706267 0.024479276 -0.4120075 -0.49013877
-0.0056857034 -0.083380744 0.49016753 0.17285706 -0.22100577 0.09394633 0.109953135 0.12521096
-0.04962122 0.14264226 -0.35386056 0.0014963159 0.115132 0.006722481 0.08165806 0.2956117
-0.13151659 0.022446157 -0.027617633 -0.03548705 -0.14824335 -0.045421872 -0.3202737 -0.6504157
0.25812736 0.3281172 -0.10515843 0.03718999 0.017191904 -0.18371199 0.1824906 -0.20043361
0.008679413 -0.2174628 -0.0104404725 -0.07381133 -0.02420567 0.01324863 -0.04097327 -0.017034035

fc1.bias f4 [128]
00000000: ba9a f2be f123 043e 7178 93bd ecce 25bf
00000010: 63f6 163f 5992 ddbe 4974 c43e c44e 903f
00000020: a8c4 52bf d785 373f 4069 27bf 1508 00bf
00000030: a257 54bf a50a 34be b6c7 87be 0265 193d
00000040: c7f9 663f e5e1 ce3b 021f f3be 2c33 073e
00000050: 1710 dcbe 3632 16bf 6cc2 10bf d94d 2bbf
00000060: 9da3 cc3d 72fc e0bc 527d b6be e84c 28bf
00000070: 7871 54be d01f fcbe 2369 dcbe 5005 20bf
00000080: 5a75 b6be f4fc 7bbe e56a 1dbf 06f8 dabe
00000090: dbcc aa3e b2ca c9be f737 07bf a162 c6be
000000a0: 9e8f 5c3c 6071 adbe 057b 75be c937 123f
000000b0: 5a5e bfbe 3132 f3be 75a4 1fbf 09f0 cb3d
000000c0: f2b5 8c3c 1d30 f7be 0179 60bf 74c3 d7be
000000d0: 8344 1b3f 9606 5ebd 5359 53bd 840a f9bd
000000e0: 0047 16bf 387c d3be c259 843f f2db 28bf
000000f0: 12c7 31bf fc59 16bf 666f 263e b089 00bf
00000100: e832 29bf 8960 423f 1572 413f 9ef6 eebe
00000110: ade7 e7be 7c58 d7be c85e fe3e 4dd0 85be
00000120: 3b09 36bf 4f6f 89bd 6bb3 82be 6976 b0be
00000130: 2b21 dcbe 1a42 d6be 7e01 24bf 7549 a0be
00000140: 754b 86be 62a1 30bf 1f62 2ebf 679b e4be
00000150: 7119 6d3e 96e9 17bf 8f6c 37bf a0e3 843f
00000160: 1d6b 083e 99b7 143f 5ebc 7d3f 6481 1b3f
00000170: 3576 003e b86f c73d 5470 6cbe 7861 89be
00000180: 128f 1e3f 32f2 0abf 00b4 05bf 56cc 26bf
00000190: 85b7 23be 71a9 1c3f 687b 383f a49f ebbe
000001a0: d064 223f 9744 0ebf 4945 44bf d7da 4fbf
000001b0: ed4b 393f b221 1cbf 5e72 2dbf ba10 063f
000001c0: 6083 eebe 5269 01bf 96ad 10be 9f04 073f
000001d0: 7f84 2dbf 8273 1fbf 6adf 613e d881 303f
000001e0: 93db 19be 5e0a 08bf eb12 95be a810 a63e
000001f0: fa17 64bf a8a5 0dbf 4e20 a3be 21f0 4f3e
-0.47383672 0.12904336 -0.07200707 -0.6476886 0.58969706 -0.43275717 0.3836997 1.1274037
-0.82331324 0.716886 -0.65394974 -0.5001233 -0.8294622 -0.17582186 -0.26519555 0.037449844
0.9022488 0.00631355 -0.47484595 0.13203114 -0.42981026 -0.58670366 -0.56546664 -0.6691566
0.09992144 -0.027464125 -0.35642487 -0.6574235 -0.2074641 -0.4924302 -0.43048963 -0.62508106
-0.35636407 -0.24608213 -0.61491233 -0.42767352 0.33359417 -0.39412457 -0.5281977 -0.38747123
0.013461975 -0.3387556 -0.2397271 0.5711637 -0.37376672 -0.4749923 -0.62360317 0.099578924
0.017176602 -0.48278895 -0.8768464 -0.42141306 0.60651416 -0.0542055 -0.051598858 -0.12160209
-0.5870209 -0.4130571 1.0339892 -0.6596061 -0.6944438 -0.58731055 0.16253433 -0.50210094
-0.660933 0.7592855 0.755647 -0.4667253 -0.45293942 -0.42059696 0.49681687 -0.26135483
-0.71107835 -0.067106836 -0.2552751 -0.3446534 -0.42994055 -0.41847306 -0.64064777 -0.31306043
-0.26229444 -0.6899625 -0.6811847 -0.44649813 0.23154236 -0.593408 -0.7165002 1.0381966
0.1332211 0.5809265 0.9911555 0.6074431 0.12545092 0.097381055 -0.23089725 -0.26832175
0.6193706 -0.5427581 -0.52227783 -0.6515554 -0.15987976 0.6119605 0.72063303 -0.46020234
0.6343508 -0.5557341 -0.7666822 -0.811933 0.7238148 -0.60988915 -0.67752635 0.5236927
-0.46584606 -0.5055133 -0.14128718 0.52741426 -0.677803 -0.62285626 0.22057882 0.68948126
-0.15025167 -0.5314082 -0.29115996 0.32434583 -0.89099085 -0.55330896 -0.31860584 0.20306446

fc2.weight f4 [256, 128]
00000000: 8d0d c8bd 85bb c7bd 5108 a7bd e40b 0d3d
00000010: 9c8e 0e3c 580a 8abd 5ca3 be3c 6ef8 ef3d
00000020: 2b11 03be b861 9cbd 6a1a 153d 37ae efbd
00000030: 9742 d43d 8ede 8fbd fa18 03be a6e5 06be
00000040: 9476 bdbd 94cc 59bd eced d8bd 2c34 3dbe
00000050: 92af 9ebd 73d8 9fbd fcf2 6cbd 8f84 49bc
00000060: 03ee 02be fa1e 82bc 0072 89bc 559c e3bd
00000070: 23a3 953a 7c1b ffbd f21c 9f3c 6f57 2e3c
00000080: f4ba 84bd c88e 1bbd c5ad 64be 5729 d3bc
00000090: 1cd3 8dbd 8549 3ebe 691a 953c 339d 32bd
000000a0: 567d 9abd f6a3 0fbe eabf 27bd 3ee8 acbd
000000b0: 518b a6bd dc93 f63c 8398 8d3d bcf3 83bd
000000c0: ae10 a3bd 45df 98bd 5016 7a3d 5e9d bf3d
000000d0: 61ea 00bd 0b24 96bd 9227 27bd f676 2cbe
000000e0: c68f 22bd c86c afbd 27e6 2dbd e544 b5bd
000000f0: 1742 adbd 279d 5dbd e388 8d3c 2521 e4bd
00000100: 697c afbd a34f f5bd af60 40bd 0ad0 4e3d
00000110: 8261 ba3c 7bb2 173d d054 7abd 5f4c 1bbd
00000120: 6d9d db3c 1da0 abbd d859 803d 3050 f13c
00000130: 944f d9bd 1ee5 513d ffb7 b6bc e980 80bd
00000140: 0b58 c6bd 1c30 f739 a57b d1bc c0da 803c
00000150: 50c0 5dbe 045a 8dbd 4027 54bc a487 4fbc
00000160: 7e73 373d 4b65 02be d6dd 86bc 55b8 d0bd
00000170: f012 afbd 03d9 e23c 5801 68bd 3b3a 58bc
00000180: a950 0abe fab3 45bc 07f9 c0bd 26d0 3fbd
00000190: 6b2c 593d 6124 30be 7a97 31bd a10b 563d
000001a0: 516f b9bd a4e6 0dbe 08bb 67bd cbdd 31bd
000001b0: 4562 98bd f08f af3c c40f 7fbd 14f3 96ba
000001c0: b004 25be a6c3 9abd 74b6 b3bb 1074 7abd
000001d0: ca26 823d a387 cfbc 3bbd 57bc bd3f f7bd
000001e0: 303f 7bbd 2b00 0dbe 263c cabc 7c1b ffbd
000001f0: 6d76 f7bd 1fac f03a 85aa 51bb 66c0 073c
00000200: 567d 1a3d 4213 82bd e654 243d 18d7 70bc
00000210: dc8d 773b 1d2e 22bc 0876 41bc f992 603d
00000220: 0eb8 52bd 5519 e4bb c054 debd 812d 8abd
00000230: 04c8 ecbd 5a09 833b e2df 30be e06e aebd
00000240: 689a 71bd 00d3 1c3c e9dd e9bd 2f06 53bc
00000250: 84fb 75bd 2338 593c 9c85 6cbd b175 273d
00000260: 00e6 e7bb 8234 57bd 3a8e 1f3d 9161 d6bd
00000270: cf6b 6fbd 4032 cbbc 3369 82bd 01f1 5ebe
00000280: 5d5e 18be 3c27 8dbd 16f4 e4bd e50a 863d
00000290: 18ca 24be 7c24 21bd 260a efbd 77fa d2bd
000002a0: 9fa5 cabd 6318 b2bd 6b1f 8d3c c5c2 04be
000002b0: feb1 b73d 8b69 633d df47 4abd 5bc0 b2bd
000002c0: 2db1 bdbc 888b 88bd 406a a5bd 9d50 35bd
000002d0: d2f0 0abe 9060 08be 2fd7 9abb 68ba 88bd
000002e0: 8a84 823c d6c1 19be 58c1 393d e7f3 90bd
000002f0: c29e fcbc d378 82bd cf7f 083d 3962 c3bc
00000300: 4a33 27bd 7277 0c3d 3763 4abd c021 fc3c
00000310: 882b c3bd ec19 353d 5fbe 243d 6d9b 863c
00000320: c5b1 0ebe 1a40 1fbd bbdf 6abc 2b5c a8bb
00000330: 1cd3 0dbd 9a7b fcbc ed4b 103c 3a90 74bd
00000340: 752d b5bd 72ac 43bd 1a35 283c 9b8f 95bd
00000350: ec7b 4fbd 87ba c0bd 1045 42bd 3a3e 02bd
00000360: 9d99 853d 600e 42be 9887 7abd 4cdc 03be
00000370: f3c6 82bd 5855 2fbd ac38 8e3b cb43 bdbd
00000380: 4580 dabd 4e15 2cbd 570b 11be feb7 363d
00000390: 21ff b03d 80c3 d4bd 7915 39be a2e7 94bd
000003a0: a614 bfbd 8cbf ffbd 4043 c1bc 0d5d 3ebd
000003b0: f9a9 55bd e87c d63c 0aa9 eabd 2331 0cbd
000003c0: 6245 95bd 8194 1cbe 6c2a 84bc b203 9ebd
000003d0: 383f 09be fd83 063c 6341 ebbc f04c debd
000003e0: 5c82 d9bc 0f19 e6bd 12ee 9e3c 4661 913c
000003f0: 3ac3 56bd b16a b03c d9a3 9e3b 6f07 11bd
-0.097682096 -0.097525634 -0.08155883 0.034435168 0.008700993 -0.06740254 0.023271255 0.11717306
-0.12799518 -0.07635826 0.036402144 -0.11703151 0.103642635 -0.07024871 -0.12802497 -0.13173541
-0.092511326 -0.053173617 -0.10592255 -0.18476933 -0.07748331 -0.07804956 -0.057848915 -0.012299671
-0.12786107 -0.015883911 -0.016777992 -0.11113802 0.0011416416 -0.12456414 0.019422982 0.010640963
-0.06480971 -0.037977964 -0.22331913 -0.025776548 -0.069250315 -0.18582733 0.01820107 -0.043606948
-0.07543437 -0.1402739 -0.040954508 -0.08442734 -0.08132041 0.030099802 0.06913855 -0.06442973
-0.07962166 -0.0746446 0.061056435 0.09356187 -0.03147352 -0.073310934 -0.04080922 -0.16842255
-0.039687894 -0.0856567 -0.04245582 -0.08851031 -0.08459871 -0.05410495 0.017277187 -0.11139134
-0.08568651 -0.1197808 -0.046967205 0.05049137 0.022751573 0.037035447 -0.06111604 -0.03791463
0.026808465 -0.083801486 0.06267136 0.029457182 -0.106108814 0.051243894 -0.022304533 -0.06274588
-0.096847616 0.00047147356 -0.025571654 0.015729308 -0.21655393 -0.06901935 -0.012948811 -0.012666617
0.044787876 -0.12733953 -0.016463201 -0.101914085 -0.08548534 0.02769137 -0.056641906 -0.013197477
-0.13507332 -0.012066836 -0.09422498 -0.046829365 0.053020876 -0.17201377 -0.04335735 0.052257184
-0.09054435 -0.13857514 -0.05657485 -0.04342441 -0.074406184 0.02143094 -0.062270895 -0.0011516535
-0.1611507 -0.07556848 -0.0054843966 -0.061145842 0.06355055 -0.025333231 -0.013167675 -0.12072704
-0.061339557 -0.13769595 -0.024686884 -0.12456414 -0.12083135 0.0018361843 -0.0031992507 0.008285617
0.037717186 -0.063513294 0.040120028 -0.01469972 0.0037773764 -0.00989869 -0.011807926 0.054827664
-0.05144506 -0.0069610276 -0.108560085 -0.067469604 -0.115615875 0.0039989175 -0.17272905 -0.085172415
-0.058985144 0.009571791 -0.11419279 -0.012879892 -0.060054317 0.013258013 -0.057744607 0.040883724
-0.0070769787 -0.05254031 0.038953997 -0.10467828 -0.058452424 -0.024804235 -0.063677214 -0.21771623
-0.14879747 -0.06892249 -0.11179368 0.06545047 -0.16092718 -0.039341435 -0.116718575 -0.10301679
-0.09894871 -0.08696058 0.017226895 -0.12964924 0.08969496 0.055520575 -0.049384948 -0.08728095
-0.023155773 -0.066672385 -0.08076906 -0.044266332 -0.13568428 -0.13318086 -0.004725359 -0.06676179
0.01593234 -0.15015349 0.045350403 -0.07077771 -0.03083742 -0.06370702 0.033325013 -0.023850547
-0.040820397 0.0342936 -0.049411025 0.030777812 -0.09529787 0.044214174 0.040220615 0.016431535
-0.13935001 -0.03887949 -0.014335568 -0.0051379404 -0.034625158 -0.030820657 0.008807165 -0.059707858
-0.08846561 -0.04777188 0.010266567 -0.07302781 -0.05065529 -0.09410577 -0.047429144 -0.031797625
0.0652344 -0.18950796 -0.06116447 -0.12877005 -0.06385603 -0.042806 0.004340252 -0.09241446
-0.10668997 -0.042012505 -0.14164482 0.044609062 0.08642412 -0.10388851 -0.18074597 -0.07270743
-0.0933011 -0.124877065 -0.023591638 -0.04647546 -0.05216405 0.026182607 -0.11458023 -0.034226548
-0.07288624 -0.15291025 -0.01613351 -0.077155486 -0.13403022 0.008210179 -0.028717702 -0.108545184
-0.026551418 -0.11235248 0.01940063 0.017746579 -0.052432276 0.02153525 0.0048413095 -0.03540748

fc2.bias f4 [256]
00000000: e27d 963e 443b 343e 1952 513f 2d82 05be
00000010: 3b90 f4bd b5f6 843f 76f6 af3e a367 053f
00000020: ca8d 94be f9a7 ef3e 3b5c 86be d972 493e
00000030: cdf2 983d d767 53bc f012 afbd 89b2 2a3e
00000040: 4aef 4e3e 2615 e63d e740 bf3e 2ebb 2d3d
00000050: 942e d93e 9c73 6c3e 700c 89bd 9371 45bc
00000060: 1753 c53e 8af8 e0bd ee97 853e ef3a 9abb
00000070: d4ef 83bd d8f4 423d 073c 123e ca94 e13d
00000080: 642f ee3e 1ac2 9a3e ba89 4e3e 6fb0 883e
00000090: ffb5 06be 4bd9 e73e da70 193f ea29 033f
000000a0: 257a b13e cb61 7f3e 218d a73e 6a9b e03d
000000b0: 2d3f b4bc 69b2 a83e ed11 e73e 75c1 aabd
000000c0: 4a3e c63d b177 fc3b 1d70 963e 0b76 2a3f
000000d0: c82c 013e 8708 893d e104 ea3e 7054 ce3e
000000e0: 6efa 8e3e feb1 373c a84c 893d 8e2e 2d3d
000000f0: 513c d73c 1173 733e 75b8 4c3f c2bf 613e
00000100: f316 a03e 5a12 7c3f dcdc 7c3e dd7a ac3e
00000110: b794 bb3e 4d2b 723f 6d82 143f 02b2 7e3e
00000120: ece5 843d f11e 743d 1692 ca3b 6999 823e
00000130: 8263 4e3e 5bf6 6d3e 8874 133e 1b47 ec3e
00000140: 7f4e 703d 7356 e53d fa55 2c3e 31ee 563e
00000150: 3efe 483f f0ab c13e 554b 3f3e a624 2e3d
00000160: fc08 db3e 3d7e cb3e 851d 663f 2696 10bc
00000170: 071c 363d e592 8fbd b370 763d ef45 91bd
00000180: f3fd 6a3e 8c61 0f3f 5d49 f83d b32b 503d
00000190: c893 133e 975e 413d 0dbe ba3b c9d8 b9bb
000001a0: f2f5 3abe af1b 1abc 9787 7a3e 1b90 bc3d
000001b0: 01c7 1e3e 8bd0 413f eb6e 03be 09a2 9d3e
000001c0: 7d2f 18bd 48e8 b33e 72f6 e13d b208 963d
000001d0: 07d7 d43d fea6 403d 8f69 5c3f d068 133d
000001e0: aace 583d a680 493e 4cfa c33e 19f0 013e
000001f0: 0e9a 683f 4b61 d8be 7831 263e 9f7c f7bd
00000200: 713a 3a3c e24c 953e e8ff b53d 73ab 3c3e
00000210: 1890 163f d24b 1f3e 0666 52bc 30f4 553d
00000220: 9250 60bc 685a c33e 70bd 393e 9a8f 153d
00000230: 7771 543e c710 00bf 86fe 98bd 117f bb3e
00000240: 2486 a13e 76a4 b63e e591 fe3e 71d1 c73e
00000250: b40f e3bc 7411 c83d 79cf 8b3e 963f e23e
00000260: 0cc4 d03d d667 533e 38c7 803e 5893 88bd
00000270: 1adb 613e 5de6 8f3d 5e25 b73e c8c8 cabc
00000280: d9f4 623e 3811 013d 53f8 7e3e 369d f93c
00000290: 3924 ea3e b6a7 493e 111b 823d 32aa fe3d
000002a0: 5a6c 6b3e 959a 9f3e db36 8d3d 6cae 513e
000002b0: eeac a33c f6aa 5c3e 5de6 0f3b 9a07 1ebd
000002c0: 56e6 fe3e 0776 c13d a912 b13c c434 8e3e
000002d0: 086b 5f3f 277f 9b3e ec4c 17be 5357 a03c
000002e0: 3319 783f 2390 893e df90 753e c926 023e
000002f0: a4f5 9f3e a502 84bd b928 bb3e 68a8 d73e
00000300: 7672 c63e 4d03 b03e 01d8 943e c984 f2bd
00000310: 4cee c73e 7522 3ebd cd6f 193e b794 e33e
00000320: 1284 69bd 950a 793f f13e 0b3e 9797 323f
00000330: ad61 c7bc 1392 833e e7ed 913e 0e40 303f
00000340: 9054 8a3e e47b 8d3f 8b40 aa3e 398f 26bd
00000350: 3b2c e43e 5e52 9a3e 7019 6c3e 60db 5f3e
00000360: 8011 1d3e 6b33 733f f144 8abc c38b 4d3d
00000370: a2de 1a3e 5bab ba3d add8 c83d 7e7f 203f
00000380: eb97 bc3d b12a 823e 256a 34bc 2fa8 8d3e
00000390: ae98 9a3d 1ba1 b2bd b31b 863f da4d 82bd
000003a0: ef07 383e 3160 8d3e 1038 283f 1ccd 8e3e
000003b0: 0fb0 073f c998 8b3b f72b 87bd 6cbf de3e
000003c0: 67c1 ea3e a380 02be 4714 433f 7069 f23d
000003d0: d4f6 503e a079 7a3e 6abb d6bd 89b6 6c3e
000003e0: 8543 3a3f b2c5 c43d e80c 543e ba3e 293d
000003f0: d521 553f a404 50be db25 973e 617a ccbe
0.29392916 0.17600733 0.81765896 -0.1303794 -0.11941572 1.0387789 0.34367722 0.5211126
-0.29014426 0.4680784 -0.2624224 0.19672717 0.074681856 -0.012903175 -0.08548534 0.16669668
0.20208469 0.112345025 0.37354204 0.042414837 0.4241835 0.23090976 -0.066918254 -0.012051004
0.38539955 -0.10984905 0.26092476 -0.0047067325 -0.06442228 0.047596782 0.14280711 0.110147074
0.4652053 0.30226213 0.20169726 0.26697108 -0.13155364 0.4528297 0.5993782 0.5123583
0.346635 0.24939649 0.3272486 0.10967143 -0.02200278 0.32948616 0.45130864 -0.0833768
0.096798494 0.007704698 0.2938241 0.6658637 0.12614739 0.066910796 0.45706847 0.40298796
0.27925438 0.01121187 0.06704074 0.042280726 0.026273878 0.23774363 0.7996896 0.22045806
0.3126751 0.984655 0.24693626 0.33687487 0.36636898 0.9459732 0.58011514 0.24872592
0.064891666 0.05959982 0.0061819656 0.25507668 0.20155147 0.23238508 0.14399922 0.46148
0.05866861 0.111981295 0.16829672 0.209893 0.7851294 0.3782649 0.1868108 0.04251542
0.42780292 0.3974475 0.89888793 -0.008824861 0.044460323 -0.0701044 0.060166072 -0.07093417
0.22948436 0.5600822 0.12123368 0.050822925 0.14411843 0.04720935 0.0056989253 -0.0056715948
-0.18257883 -0.009406014 0.24465786 0.092071734 0.15505601 0.75708836 -0.1283528 0.30787686
-0.037154663 0.35138154 0.11033334 0.07325877 0.10392576 0.047034256 0.8609857 0.03598863
0.052931465 0.19677982 0.382769 0.12689246 0.9086007 -0.4226173 0.16229808 -0.120843165
0.011366473 0.2916022 0.08886701 0.18424778 0.5881362 0.15556267 -0.012841707 0.05223483
-0.013691084 0.38154912 0.18138671 0.036513902 0.20746408 -0.500256 -0.074704215 0.3662038
0.31547654 0.3567235 0.49720684 0.3902698 -0.027717449 0.09768954 0.27306727 0.44189137
0.10193643 0.20645079 0.25151992 -0.066687286 0.22056237 0.0702636 0.35770696 -0.024753943
0.22163714 0.03151056 0.24899416 0.030470472 0.4573076 0.19692883 0.06352819 0.12434806
0.22990552 0.31172624 0.068952285 0.20476693 0.01997992 0.21549591 0.0021957376 -0.03858147
0.49785107 0.0944634 0.021615343 0.27774632 0.8727269 0.30370447 -0.14775437 0.01957289
0.9691345 0.2686778 0.23981045 0.12710108 0.31242096 -0.06445817 0.36554506 0.4212067
0.38759202 0.34377518 0.29071048 -0.11841733 0.39048994 -0.04641958 0.14984055 0.44449398
-0.057010718 0.9728177 0.13598229 0.6976256 -0.024338568 0.25697383 0.28501818 0.6884774
0.2701764 1.1053433 0.33252367 -0.04066393 0.44564995 0.30140966 0.23056579 0.21861029
0.15338707 0.9500033 -0.016878577 0.050182115 0.1512399 0.09114715 0.098069526 0.6269454
0.092086636 0.25423196 -0.011011635 0.27667376 0.075486526 -0.08722135 1.0477203 -0.06362505
0.17971776 0.2761245 0.65710545 0.2789086 0.5300302 0.004260157 -0.066001825 0.43505418
0.4585068 -0.12744384 0.76202816 0.11836517 0.20406657 0.24460459 -0.10484965 0.23116507
0.72759277 0.0960802 0.20708048 0.041319586 0.8325475 -0.2031427 0.2952107 -0.39937118

fc3.weight f4 [128, 256]
00000000: d87d 413c 544c c63b b7cc 423e a277 603d
00000010: 32ec 81bd 5684 3b3e 5d58 c5bb cd39 883c
00000020: ce4d 2d3d 369f ae3d 8a8a 743a c2a0 d23d
00000030: f1b6 13bd 9127 a73c d723 fb3c ac26 343e
00000040: 2564 b5bc 39a5 943c 022e 1f3e 2736 cbbc
00000050: 7c24 1d3d e9e6 183d fe45 2dbd 43ca 31bd
00000060: 2fd2 adbd 48f6 d4bc 1704 c7bd 6b7c f63c
00000070: 8670 a23c 9244 62bb 802d 0abd b77a e63c
00000080: aedd c03b fae8 403c 66d3 d2bc e5b1 b5bd
00000090: 7c9f 82be b6a7 943d 688e 0b3e 8e3f 3e3d
000000a0: 1dd3 f33c 2964 7c3c 2dd4 773d 55d4 0b3e
000000b0: 0427 abbc 7249 a73d c3a5 e6bc ec32 7fbd
000000c0: e2c9 4c3d 2204 a9bc 7d2a 3a3d a1d3 6b3d
000000d0: 84bb c73b e1f7 f3bc 7919 ce3d f938 a7bd
000000e0: 2f26 51bc 5e49 78bc 3c90 76bd 0d3b d2bc
000000f0: ff23 41bd 9431 173d 6b3e 72bd eebf 6e3d
00000100: 3663 ca3b 2e25 a53e cbca 2b3e e689 5bbd
00000110: f31c ad3d ace8 383e 1460 8a3c 1b4d 6bbc
00000120: cb0f 8dbd 322d 7ebc ba73 e03c b171 a13d
00000130: 7095 983d ac6e a23b 003a af3d a5be a23c
00000140: 0490 d6bd d52d 8d3d 6c4d 0abd 41e3 7bbb
00000150: a006 063e 2e24 173e 6aa2 0cbd f52d dc3c
00000160: 766a 873d 4d76 90bd 9827 d23d 2cb1 3dbd
00000170: fe64 10bd 7b15 843d e062 30bd 64a5 213d
00000180: 93cc 03bd adaf 8f3d a4f1 04bc 4602 533c
00000190: 0bb2 8c3c e296 603d 03d7 c23c d694 363d
000001a0: b67e 103d 905a 89bc d646 6e3c d159 723d
000001b0: 335f 59bc 18ea 013e 4e25 9bbd c794 1abd
000001c0: f44a d0bd 3a40 243d 700e 5ebd 7570 86bd
000001d0: e0a6 883d 25ad 853d a988 7d3e ae15 9bbc
000001e0: f079 413d 6b93 6bbc 5b29 0e3e 4c16 b338
000001f0: 25f7 113e 1e73 c8bb 1726 40bd 7516 e93d
00000200: a7ac 253d 00d7 d4bc 1f67 cabd d07b 5ebd
00000210: 0ef7 9fbc 6e52 36bd ed8b 3e3d 914e 0b3d
00000220: d4cd 173d dd08 a33d 1fa5 a33b d5b1 2abd
00000230: 0b1e 173d 3f07 ee3c ac8e 2abd 31e4 9dbd
00000240: 9111 b93c 3b93 17bd 62cd 273d f093 0a3d
00000250: c83f 4cbd 2bbd 3b3d cdd0 2cbd 683f 1c3e
00000260: bb76 83bd c72d 08bc 8d3f 233c cf65 f0bc
00000270: 3075 1dbd c342 613b 7f3f 873b 0521 acbc
00000280: 89c3 cf3d 8cf2 d33d 28e0 aebc 155f a13d
00000290: 92b1 73bb 1758 9b3c f2d9 4dbd b01c e83c
000002a0: 542e 84bd 09b6 913a 3d60 b5bc 2dab bebc
000002b0: 6a11 73bd 4862 5f3d c6a5 90bd 155f a1bd
000002c0: c497 4b3e d9c5 8a3c 9c6e f73c 5124 94bd
000002d0: c013 163e abfb bbbd 9d1c 85bd f245 32be
000002e0: 90f7 3d3e 9deb d73d 6aa4 243e 35c3 0f3d
000002f0: 3843 43bd 739e 18bd db25 173d 514d cc3d
00000300: a3c5 853d f963 6e3d 4208 8bbc 045f 053d
00000310: f6aa 5c3d 07c1 e6bd 5f09 4abd 587a 56bd
00000320: 7d63 48bc 0c09 443e 6256 0b3c 2490 8e3d
00000330: 2bb7 3c3c 7aa8 a7bc 5c10 d03b d381 023e
00000340: b5b3 47bd ef54 7f3e 2ec8 793d e41d 51bd
00000350: 978a 953d 0217 3c3d a871 f2bc 4e20 23bd
00000360: 671b 1c3d ea75 413e 5eeb 07bd 067c 85bd
00000370: 3c49 203e bb95 88be e5c7 b4bc 74ca 3f3e
00000380: f821 5ebd 0809 303d b807 563d 2d5d ea3c
00000390: 3690 2dbd 5685 ee3c 32f7 993e 61fd 4b3d
000003a0: 3ee8 2cbd 8728 6f3c 2f9a 9c3d 4c55 5abd
000003b0: b530 323e 47a6 37bd d001 813d 60ae 04be
000003c0: 5fb5 3c3b 65c2 68bc 5296 403d 17ae 373d
000003d0: 15de 76bd 2648 953d fed3 233d 763a fe3c
000003e0: 07df c93d e83d 2fbd eb5e e2bc 0a9c 9e3c
000003f0: 6568 203e b486 e43b 78d0 45bc 90d7 093d
0.011809789 0.0060515795 0.19023405 0.05480159 -0.06343879 0.18312201 -0.0060224966 0.016629124
0.04231053 0.08526461 0.0009328505 0.10284568 -0.03606314 0.020404609 0.030656738 0.17592877
-0.02214248 0.01814519 0.15544894 -0.024806095 0.038364872 0.037329588 -0.042303078 -0.043405782
-0.08487355 -0.025996342 -0.09717577 0.030088624 0.019829046 -0.0034525734 -0.0337348 0.028134687
0.0058858013 0.011774296 -0.025735568 -0.08871821 -0.25512302 0.07258551 0.13628542 0.04644733
0.029763753 0.015404739 0.06050508 0.13655217 -0.020892628 0.081683055 -0.028155213 -0.062304422
0.049997218 -0.020631853 0.045450676 0.057574872 0.0060953517 -0.029781284 0.10063452 -0.081651635
-0.012765451 -0.015154211 -0.060196146 -0.025662923 -0.04715347 0.036912516 -0.059141558 0.058288507
0.0061763776 0.32254928 0.16776578 -0.053598307 0.08452787 0.18057507 0.016891517 -0.014361645
-0.06887778 -0.015513705 0.027398933 0.07883013 0.07450378 0.004957041 0.085559845 0.019866297
-0.104766876 0.068935074 -0.03376524 -0.0038435014 0.13088465 0.14759895 -0.034334578 0.026877383
0.06612103 -0.07053814 0.10261458 -0.046311542 -0.035252564 0.064494096 -0.043063045 0.03946437
-0.03217752 0.07015929 -0.008114252 0.01287896 0.017174741 0.054831393 0.023784166 0.044575535
0.03527709 -0.016766816 0.014543256 0.059167687 -0.013267326 0.12686956 -0.07575475 -0.03773954
-0.10170546 0.040100314 -0.054212987 -0.06564418 0.06672454 0.06527165 0.24759163 -0.018931236
0.04723543 -0.014378409 0.13882963 8.539538e-05 0.14254434 -0.0061172387 -0.046911325 0.113812365
0.040447857 -0.025981426 -0.0988295 -0.054317296 -0.019526985 -0.044512205 0.046520162 0.034010474
0.037061527 0.07960675 0.004994049 -0.0416735 0.036893886 0.02905619 -0.04163997 -0.0770954
0.022591384 -0.037005644 0.040967353 0.03383249 -0.049865514 0.0458347 -0.042191315 0.15258563
-0.064191304 -0.008311695 0.009963882 -0.029345421 -0.038441837 0.0034372068 0.0041274424 -0.021011839
0.10144717 0.103489965 -0.02134712 0.078794636 -0.0037184698 0.018962903 -0.050256677 0.028333992
-0.06454149 0.0011116873 -0.022140617 -0.023274982 -0.05934278 0.054537088 -0.07062869 -0.078794636
0.19882113 0.016940044 0.03020411 -0.07233489 0.14655972 -0.09178861 -0.06499598 -0.17409495
0.18551469 0.105429865 0.16078344 0.035098273 -0.047671527 -0.037260484 0.036901336 0.099756844
0.06531837 0.05820081 -0.016971711 0.032561317 0.05387398 -0.11267286 -0.049325343 -0.05236277
-0.012230751 0.19144076 0.008504482 0.069610864 0.01151828 -0.020466078 0.0063496064 0.12744837
-0.048755366 0.24934743 0.06098192 -0.051053897 0.073018245 0.04592038 -0.029595211 -0.03982573
0.03811207 0.18892637 -0.033183448 -0.06517796 0.15652937 -0.26676735 -0.022067973 0.18729573
-0.054231614 0.042977363 0.052253455 0.028608883 -0.04237386 0.029116314 0.30071408 0.049802188
-0.04221367 0.014597065 0.07646596 -0.053304 0.17401393 -0.04483631 0.06299174 -0.12957144
0.002879463 -0.0142065035 0.047018357 0.04484376 -0.060270388 0.07289152 0.039997093 0.031033736
0.09856992 -0.042783648 -0.027633151 0.019361515 0.15664823 0.0069740657 -0.012073629 0.033652842

fc3.bias f4 [128]
00000000: 8e20 9c3f 8039 5d3f a3f2 0bbd 86b5 48bd
00000010: 5db4 34bc 6922 69bc b07b 263f daaa 5b3f
00000020: 4a48 8f3e e0ab 003d 2320 96bb ee55 9e3f
00000030: 676c 40bd 92e3 ce3a 87cf 583f a90e aebe
00000040: 3cff a13e aad1 8e3f 28c5 5b3f 3aa9 5d3f
00000050: 4839 263c 4bb0 463f 2741 423e 56ef 233f
00000060: 42bf 8e3e 0c48 183e 0d52 47bd 3428 4d3f
00000070: fb51 863f 8696 663e 3899 993f bedb 873d
00000080: aa40 e23e 59ee 1cbd 6388 4e3f 79b3 1e3d
00000090: 8f12 c0bd 1856 833f d91d 7cbd c1a0 3e3f
000000a0: d20e 4dbd c5f0 353c 8b19 c63e 8ecd 19bd
000000b0: e576 103f a9ff abbd ff8f 4b3f 9089 41bd
000000c0: df9b 91bd c0be 933e a52a 5c3f cabb c53e
000000d0: 11fa 9cbc 336c 633f b8ef 92bd cb20 83bd
000000e0: a0ff 593f a941 69bd d0d5 a4bd 79c6 693e
000000f0: 33a2 aa3e 638e a43f 244e 473e 0554 8ebd
00000100: e222 82bd ca7d 7a3e 5df6 273f a96e 4cbd
00000110: 0499 343f 37c4 dd3e d9e3 cc3e acad a53f
00000120: a9d8 013d c7b8 9b3f 88d6 173e 9010 903e
00000130: ad10 233e cf79 093b 7116 163f 8af6 0b3f
00000140: b164 b13e a0b5 b93c 6930 933f 3a11 9f3e
00000150: 8a49 943f 4737 ef3e 82dc 723f 633b 6c3e
00000160: 0327 953e ee4d 65bd 1bd9 0cbd 1559 863e
00000170: 68b4 093e c038 f1bc 2514 18bd 6d6e 553f
00000180: 3b0b a03e f82f 313f a5ac 3f3f c50e f83d
00000190: fbc9 b33c 46fb 9e3f 636f 953f 6085 883f
000001a0: 15a7 9f3e a6d4 903e 1169 243f f77f 183f
000001b0: c99b ab3e 1dbb 903f bdcf 5b3f 21b4 8b3e
000001c0: 1bfe 823f dae3 7cbd aa73 44bc a067 71bd
000001d0: a0ac 8b3f c9a9 813e 21ef 3b3f a797 8a3f
000001e0: 98b0 7f3f 283b 433e 3541 5e3f 6ed5 35bb
000001f0: ec1d a83f ff55 9c3b 530d 9fbd 6898 1c3e
1.2197435 0.86415863 -0.034166943 -0.04900124 -0.01102933 -0.014229395 0.6503248 0.85807574
0.2798484 0.031413913 -0.0045814677 1.2369974 -0.04697838 0.0015784374 0.8469166 -0.3399556
0.3164004 1.1157734 0.8584771 0.86586344 0.010145493 0.7761275 0.18970166 0.6403707
0.27880293 0.14871234 -0.048662234 0.8013947 1.0493768 0.22518358 1.1999884 0.06633709
0.4418996 -0.038313244 0.8067686 0.038745377 -0.0937854 1.0260649 -0.061551902 0.7446404
-0.050062962 0.011104767 0.38691363 -0.037549548 0.5643142 -0.08398373 0.79516596 -0.04725033
-0.07109808 0.28856468 0.8600257 0.38619834 -0.01916221 0.88836974 -0.07174629 -0.06402739
0.8515568 -0.056947384 -0.08048594 0.22829618 0.33326873 1.2855953 0.19463402 -0.06949619
-0.063543096 0.24462047 0.65610296 -0.04991022 0.70545983 0.43313763 0.40017584 1.2943625
0.031700764 1.2165765 0.14827931 0.28137636 0.1592433 0.0020977145 0.5862799 0.54673064
0.34647134 0.022669613 1.1499149 0.3106783 1.1584942 0.4672186 0.9486772 0.23069529
0.29131326 -0.055982523 -0.034386735 0.2623984 0.13447726 -0.029446006 -0.037128586 0.8337162
0.31258568 0.6921382 0.7487281 0.12112192 0.021946898 1.2420433 1.1674618 1.0665703
0.3118216 0.28287238 0.6422282 0.5957026 0.33517292 1.1307102 0.8586386 0.27285865
1.0233797 -0.061740734 -0.011990467 -0.058936715 1.0912056 0.25324848 0.73411757 1.0827531
0.99878836 0.19065535 0.8681825 -0.0027745622 1.3134131 0.0047709937 -0.07766213 0.15292513

fc4.weight f4 [128, 128]
00000000: 51db c33b b86c 933c f057 d53c c240 8c3d
00000010: 1110 8b3d 663a 65bc ad50 d1bc 04bb fc3c
00000020: cd03 8fbd cfca adbd 6263 57bd 06d6 06bd
00000030: e33a 45bd be99 543d cdaf c7bd 90ad dabb
00000040: 8dc8 a1bd 4d42 0fbd 7d20 77bd 5710 89bd
00000050: 168d 52bd 12f0 73bd 2a2a cdbc b320 d93c
00000060: 731d 463d d068 933c 6cad 03bd c4da 473d
00000070: 4086 92bd eee6 d23d 94c4 053d fa9d 57bd
00000080: e106 953c 89e6 9cbd 2619 90bd 3c2c 853c
00000090: fa45 5e3d a66a dbbd 5db4 b13d b463 aabd
000000a0: 1b70 aebd 8c3a 2b3d 35ce 863c 3c03 853c
000000b0: 876f 1b3d 2491 983b 0516 35bb 6008 c33c
000000c0: 6a27 e1bb a0e2 9c3d 4eb9 103d 406a a5bd
000000d0: 7ed5 51bd c8de b8bd 9e39 2e3d dffc a43d
000000e0: cdcb b4bd 1bea 82bd 7c6f c6bc bf2a b1bd
000000f0: 15e9 edbc f9f9 f23c 2989 8b3d 28fb 97bc
00000100: 6ef1 a2bd db70 bcbd d8de 54bc f5ae 863d
00000110: 21a9 143d b6ad 48bb 2d6b 103d 017f d5bd
00000120: 37c2 883d b125 0abd 9c67 aabd 3bfc fe3c
00000130: 9892 71bd 6632 913d f51d 6dbd 5ef3 5bbd
00000140: d560 863d f638 533d 0ef6 2bbb 8ef6 523c
00000150: b0b3 003b bec5 99bd 4120 4e3c e57c 8f3d
00000160: 284c 393d a3c7 7dbd 1e25 733d b706 08bd
00000170: 40bf 413c 0f06 9bbc 6c80 a0bd 6433 183d
00000180: 60e5 88bd 557e a1ba 2608 9abc db76 bbbd
00000190: 70ad 4abd e8e3 683d cc86 0e39 c447 d9bd
000001a0: 9930 d73c f146 5fbd 8e9a 373d 0277 01bd
000001b0: 35be 173d 7a5f d7bd 24fe a9bd 624b 94bd
000001c0: c1b3 1cbd 32ee d6bc 4457 a13b 2a50 4a3d
000001d0: 4855 133c c009 34bc 61b2 a6bb fb18 03bd
000001e0: 9aad d7bd 3aaa 8c3d 925b 57bd 60ea 803c
000001f0: a4e2 633c d20e 4dbd 2cd8 a13d 31f9 4d3d
00000200: 2fd1 1b3d f101 b9bc 862c cabc 1faa 1bbd
00000210: bf36 9cbd 5cfd 84bd df8c f0bc fa20 d7bd
00000220: faae 4dbd a547 a13d 30ff 4cbc aef4 b5bd
00000230: db36 8d3d 78db 89bc ff8f 4b39 c1c9 0a3c
00000240: f694 6e3d b8b1 393d d46e 59bc d7bd efbd
00000250: 50be 883d 3dff a1be 3564 d13b a280 023d
00000260: 1747 a5bd 6eda 2d3d c678 ad3d 84ea 7fbd
00000270: 3e6b acbd 995d 3a3d 97b8 07be f7dc 373d
00000280: 82e3 b2bc 6e6e a33d 90b2 7abd ba76 03bd
00000290: 989b 93bd 64b6 173c ab62 4e3c da9a fcbd
000002a0: 04cc 163d dfe6 b63d 5430 59bc 89d5 a63d
000002b0: b47f 97bc c2ba e9bc b37c f4bc e969 0bbc
000002c0: c41e a03c e06f fcbc 31bc fbbc 6412 b3bc
000002d0: fbbe 3cbd 688d a5bd c3bd 8cbd f3aa 953d
000002e0: 1509 05be 2df9 86bc 0798 ad3b 2fc8 f93d
000002f0: a2dc 1dbe 2514 98bc ae87 243d d9a3 1ebc
00000300: fe67 19bd 0c1e 97be 5685 6eba 1fc1 103d
00000310: 0f94 11bd d457 e43c c966 30be 11ab cd3c
00000320: a011 553d 8ec2 22bd 4e47 87b8 07b4 9abc
00000330: afa5 e6bd 1110 0bbd 146c 6d3c 4647 793c
00000340: eabf 27bd 890d 013c fcb8 bd3c e256 32bd
00000350: 1df6 c7bc 09b3 93bd 5685 eebd bace f4bc
00000360: 9e73 6f3c 4027 d43c a856 09bb 194c 9dbd
00000370: 0dd4 bf3c 50a9 683d 880f 56bc 53e0 3bbd
00000380: 1aa7 b1bd 5bc0 b2bc b591 5b3c e976 573c
00000390: 7aa4 7dbd 34c0 6cbd 7312 cfbd 839e 8cbc
000003a0: 5938 bb3c ee3c 6f3d 5da3 bebd 21f4 b9bb
000003b0: 8b7e 03bd c6ab 0fbe 67a9 923d 60bf f23c
000003c0: d184 00be a22c bb3d 37b9 663d a8b3 72bd
000003d0: 2459 be3b bce2 0dbe 979c 9abd 42a3 4dbd
000003e0: ab44 8cbd bfe2 543a 2c88 04bd 2244 d7bd
000003f0: 0754 553d d07b debc db1c f53d 2b07 5a3d
0.0059770723 0.017996177 0.026042908 0.06848289 0.06790174 -0.013990974 -0.025551165 0.030850895
-0.06983147 -0.08485948 -0.052585013 -0.032918952 -0.048151862 0.051904432 -0.09750328 -0.0066735223
-0.0789958 -0.03497534 -0.060333718 -0.0669257 -0.05140408 -0.05955512 -0.02504452 0.02650485
0.04836793 0.017994314 -0.03214781 0.048792616 -0.071545124 0.102979526 0.032658175 -0.052640893
0.018191757 -0.076611586 -0.07036047 0.016256444 0.054265954 -0.10713701 0.0867698 -0.08319798
-0.08517476 0.04180388 0.016455749 0.016236894 0.037948158 0.004655974 -0.0027631533 0.023807704
-0.0068711536 0.07660413 0.03533297 -0.08076906 -0.051228993 -0.09026867 0.042535417 0.08056044
-0.088279344 -0.06392308 -0.024223082 -0.08650731 -0.029041806 0.029660212 0.068132706 -0.018552378
-0.07956205 -0.09201213 -0.012992583 0.06576339 0.036294106 -0.0030621118 0.03525846 -0.10424615
0.066776685 -0.03372735 -0.08320543 0.031126132 -0.058977693 0.07089691 -0.057889897 -0.05369889
0.06561438 0.051567994 -0.002623919 0.012876166 0.0019638352 -0.075084195 0.012580932 0.070062436
0.045238644 -0.061957967 0.05936157 -0.03320953 0.011825383 -0.018923787 -0.078369945 0.037158385
-0.06684375 -0.0012320975 -0.018802714 -0.09153529 -0.04948181 0.056857973 0.00013592391 -0.10609391
0.02626829 -0.054511014 0.04482513 -0.031607635 0.03704663 -0.105162576 -0.083004266 -0.07240941
-0.038257364 -0.026236627 0.004923733 0.049392857 0.008992501 -0.010988653 -0.0050871824 -0.032006245
-0.10531159 0.06868406 -0.052577563 0.015736759 0.013909016 -0.050062962 0.0790256 0.050286476
0.03804129 -0.022583934 -0.024679434 -0.038004037 -0.076276295 -0.06493637 -0.029364048 -0.10504337
-0.0502157 0.07874993 -0.012512013 -0.088845596 0.068952285 -0.016828284 0.00019413231 0.008470953
0.05824753 0.0453355 -0.013271052 -0.11706131 0.06676924 -0.31640044 0.0063901194 0.031860955
-0.080702 0.04244464 0.08470301 -0.06247951 -0.08418892 0.045499418 -0.13254009 0.044888463
-0.021837 0.07980047 -0.061205447 -0.03209565 -0.072074115 0.009259794 0.012596766 -0.12334223
0.03681566 0.08930754 -0.013256151 0.08146197 -0.01849351 -0.028531436 -0.029844617 -0.008509138
0.01954592 -0.030815065 -0.030729385 -0.021859355 -0.04608057 -0.08083612 -0.06872132 0.073079966
-0.12991746 -0.016476238 0.005297664 0.12196385 -0.15416196 -0.018564293 0.040168457 -0.009682619
-0.03745269 -0.2951511 -0.0009098848 0.035340425 -0.03554159 0.027873911 -0.1722671 0.025105985
0.05201876 -0.039736323 -6.450583e-05 -0.018884672 -0.112620704 -0.03395087 0.0144911 0.015214747
-0.040954508 0.007876762 0.023159496 -0.04353989 -0.024409348 -0.072118826 -0.116465256 -0.029883731
0.014614968 0.025897622 -0.0020956192 -0.0768053 0.023416543 0.056802094 -0.013065226 -0.04586823
-0.0867445 -0.021820238 0.0134014385 0.013150909 -0.061924435 -0.057800487 -0.10110941 -0.017165428
0.022854017 0.058407716 -0.09308503 -0.0056748544 -0.032103103 -0.1403037 0.07161217 0.02963227
-0.12550665 0.091393724 0.05632898 -0.059253365 0.0058089662 -0.13856024 -0.075493984 -0.050204523
-0.06849035 0.0008120946 -0.032356426 -0.10511042 0.052082088 -0.027158648 0.11968394 0.053229492

fc4.bias f4 [128]
00000000: 75dd 97bd 36c8 073f 5e04 52bd 5d41 0f3f
00000010: 0d41 d1bd f7f4 7a3c e1cc 513f 9287 9e3f
00000020: 19f2 d63e 09d7 a33f 4535 b5bd 3f27 773f
00000030: d4f6 d03c fc4c b3bd 05f6 84bd 9f39 c0bd
00000040: 9909 733f a704 893f b989 613f 6d2b d23c
00000050: 8680 113b 1fd8 a23f e393 843d 2984 93bd
00000060: 8fce 673e dfce ae3f 69bb 563e 3c2e 5a3d
00000070: 373a 91bd 07d7 54bc 4855 933e a16b 943f
00000080: 9154 0abd 297a 6a3d 89eb 143f 7ac3 813f
00000090: c7fb 953f b11e 893f efa5 863f 522f 893f
000000a0: 7b80 3c3f bcac 8a3f 9f04 893e 3e1c dd3e
000000b0: 9ce4 aa3e ec53 743f 63b2 b33a 9d95 5b3d
000000c0: e0d3 9d3f 42e0 9f3e 3121 b9bd 3a17 1ebd
000000d0: 284c b93d 3812 a63e e3f5 9ebd 2e72 dd3e
000000e0: 7460 97bd 5db8 873f 23dd c4bd 9315 2a3e
000000f0: 29df a73e eac1 7cbd 541d 0ebb 3947 873f
00000100: 6b9e e23d 8c51 a0bd 512b e13e f1e5 cbbd
00000110: 1e24 f93c d73a a33f d8db a23f 1fb9 31bf
00000120: 7b5e 503e 6c04 6e3e 231a 173f 324f 6abd
00000130: 6385 8a3f f3c0 033d e931 313e 8dcd 193d
00000140: 803c a63f 55d9 b53e c3e6 a53f 7a57 83bd
00000150: 2cd0 b03f 88fd 91bc 7d8a 933f bd82 c83e
00000160: fe9b c93e 11e4 ae3f 343e aa3f 5165 9a3f
00000170: 7a5d 02bf e948 a6bd e7d0 433f 3403 3e3f
00000180: e448 e13c efbe 9c3f e928 d2bd 3e81 9a3d
00000190: bc3f 773f 61a2 8a3f d350 973c 6971 963f
000001a0: 29e1 fc3c 3d39 d1bc d268 6d3f bb52 163f
000001b0: c678 2d3f 7cfd 383f 4a38 1f3e 5afe 0b3d
000001c0: d738 9bbd f089 183f d54c edbd 8467 943f
000001d0: a08c 003f 462f b6bd 429d 4e3d 7f98 613f
000001e0: fa9b 823e 0320 a43f 6fcf 9f3f 508d 7b3e
000001f0: 400e 8a3d 9593 783c dcb3 0dbd b680 993f
-0.074152865 0.5303987 -0.051273696 0.5595911 -0.102174856 0.015317193 0.81953245 1.2385123
0.4198158 1.2799999 -0.08848051 0.9654426 0.025508322 -0.08754918 -0.06492237 -0.0938599
0.9493652 1.0704545 0.88100773 0.025655473 0.002220185 1.2722205 0.0647352 -0.07202942
0.2263739 1.3656882 0.20969929 0.05326675 -0.07091182 -0.01299072 0.28776002 1.1595346
-0.033772055 0.057245407 0.581719 1.013778 1.1717461 1.0712491 1.0519389 1.0717566
0.73633546 1.0833964 0.26761338 0.4318561 0.3337754 0.95440555 0.001370978 0.05360948
1.2330284 0.31225783 -0.09039534 -0.03859637 0.09047729 0.32435775 -0.07761743 0.43251175
-0.07391444 1.0603138 -0.09612491 0.16609792 0.32787445 -0.06170837 -0.0021684961 1.056861
0.11065372 -0.07828054 0.4397836 -0.09955967 0.03041273 1.2752331 1.2723341 -0.694231
0.20348541 0.23243874 0.59024256 -0.057204433 1.0821956 0.032166433 0.17304195 0.037549544
1.2987213 0.35517374 1.2961048 -0.06413169 1.3813529 -0.017821088 1.1526638 0.39162245
0.39376825 1.366335 1.3300233 1.2062169 -0.50923884 -0.08119375 0.76490635 0.7422364
0.027500577 1.2245768 -0.10261709 0.07544182 0.96581626 1.0830804 0.018471157 1.175336
0.030869083 -0.025539989 0.9273807 0.58719987 0.6776241 0.72261786 0.15548816 0.034178115
-0.07579201 0.59585476 -0.1158692 1.159409 0.50214577 -0.088957354 0.05044294 0.88123316
0.25509626 1.2822269 1.2485179 0.24565625 0.06740999 0.015171905 -0.034595355 1.1992404

fc5.weight f4 [3, 128]
00000000: b221 60bd 33fe c53c 41b4 43bd d860 d73c
00000010: d850 5e3c dd8b 22bd 9be1 5d3d 1606 4c3d
00000020: e151 ba3c f372 aabc 310a 44bd db56 4dbd
00000030: daf3 3bbd 8954 7cbc 9a86 f33c 5857 1ebc
00000040: d2f7 d73b 47db 0cbd 3952 ffbc 60e5 883d
00000050: 6a93 6bba 86d6 063d 39c3 56bd fee6 6ebd
00000060: 719b 4d3c 25b9 0e3c 849a 623d ddec b5bc
00000070: 61fd 4b3d f33d 043d c352 50bd f987 1ebd
00000080: 4263 9f3d 0c07 a2bc 6e30 4abd 9d64 493d
00000090: 1828 af3d 8be7 523d 3788 433d d2c0 0fbd
000000a0: e84a 7b3d 3026 e4bc ba73 603d 19c9 1dbd
000000b0: 39ce 4d3d 4005 97bd da0b 73bd b928 bb3c
000000c0: b9f5 ab3d 9465 47bc 8a07 023e 7f08 7b39
000000d0: f92a 803d c0c4 12bc e1ea a7bd 9ba5 833d
000000e0: 8f81 913d e1ce 433d 65c3 63bc 6cd0 3d3c
000000f0: 1852 9cbc f338 0c3d f0b6 93bb c9d0 993d
00000100: c5ab 8fbc eea1 acbc f057 d53c 83f0 fe3c
00000110: f764 2fbd 5c11 f7bc 1815 76bd 5b59 d23c
00000120: d8cb 893d 5329 8cbb e7a4 c1bc 5b71 63bd
00000130: d10b 7a3d 1fcc 87bb 5c48 aa3c 0f61 2fbd
00000140: ddfc 3cbd b7d3 a5bc cd97 91bd d173 8a3d
00000150: c1fa 513d a568 86bd bb13 ba3d da3c 0cbb
00000160: 71c8 b03c 6f38 0e3d e7eb 283d 4bca aabb
00000170: 7aaf 743d 99a0 8bbc 9d88 e13e 8355 bc3c
00000180: f50f 383d fb61 66bd 06ea 7cbb b20e 153d
00000190: c2b4 ea3b 8f6c 60bd 9b89 16bd bf12 a03d
000001a0: 3629 1b3d f859 383d f87a a1bd a29f b8be
000001b0: 98b7 003d a091 b03d f3fa 32bd 8974 13ba
000001c0: 44f2 63bd 2077 11be 66cf 88bd a967 e3bc
000001d0: 41ba c2bb 69bf 80bd 19eb 893c 9870 c5bc
000001e0: 397e b0bb 6e93 123d ca25 d4bc c893 13bd
000001f0: d738 9b3d 83bc ceba 7e5d c93c 1245 5e3d
00000200: 1c71 90bc ca92 8cba bb4f 1fbd 136b 1f3c
00000210: 8863 1d3d c8f4 a63c ef6c 54bc 633d 0bbd
00000220: 4eb9 903b d1e2 7e3d e3f6 ec3b c491 2dbe
00000230: 4198 d63b d569 1abd 35be 973c 51c3 80bb
00000240: 62bd 1dbc 2cda 56be 4527 e9bd e3e4 a8bd
00000250: 45ce 223c 2d3a 853d cd91 05bd 869e 533d
00000260: 68ba 08bb 07ae 7e3d 225a c5b8 f520 903d
00000270: 94b4 963d 438a 03bd 0212 c43a 29a6 d3bd
00000280: 8e0c c139 418b 0abd 74d4 f5bc 94cc 2dbe
00000290: f195 02be 3daf 40be 03b5 03be 27b4 8dbe
000002a0: f477 333d 6d5b c6bd 9d1e 5abc 326f 01bd
000002b0: a458 973c c3e0 2cbe 4763 c4bb 609c b83c
000002c0: c0b7 8e3d daa3 9ebb 49d9 603d 02ee 823d
000002d0: 2ab8 433c 6533 98bc 8a21 223d b32b d0bb
000002e0: f920 57bc 244f 23be a6a7 2d3b 4ccd e2ba
000002f0: 9b01 9f3c 8f33 253d 61ca 693d 345e 2abe
00000300: 92e3 4ebb edae f83c b5a8 50bc 4d60 d13c
00000310: d2b9 fe3b 8842 52be a131 293e 4d9a bd3d
00000320: 33e0 03ba faf1 1eba d1ff 0bbc 6f0c 093d
00000330: e291 70be c2b8 94bd 9404 b43a 1e40 e63c
00000340: b79d 0ebe 4c4e 8d3b 0529 a33d eb60 92bd
00000350: a4d3 a43d 40ba 673b 43d4 3cbe dca8 16bb
00000360: ee24 ac3c 5291 983d 6e19 843d 27b1 34be
00000370: a463 0e3e f48d a13d 9a44 19bd 8d4b a1bb
00000380: 4e10 283c 4db8 d23d 8201 753c 7161 1e3d
00000390: 5114 4039 d1d6 79be 8570 a23c 287d 743d
000003a0: 2298 1ebd 6699 23bd 54e2 e0bd 8bc6 18be
000003b0: 1fce dcbb d41f 203d 2713 91bb 352c 77bc
000003c0: 6c7c f63b 3f2e 143a e20d 623d 7f6b 8e3d
000003d0: 0f28 87bd 3fc0 413c 3bfc 7e3d 04d7 0bbe
000003e0: 9934 81bb 9ee3 21be 043c dbbd 6307 3cbb
000003f0: 0f8e 123d c4b1 8e3d 6156 8b3d bf56 963d
-0.054719634 0.024169063 -0.047779325 0.026291296 0.013569079 -0.039684165 0.054170232 0.04981049
0.022744121 -0.020806765 -0.04786128 -0.05013166 -0.04588685 -0.015401014 0.029727269 -0.009664379
0.006590822 -0.034388807 -0.031167137 0.06684375 -0.0008986505 0.03291943 -0.052432273 -0.05832576
0.012549267 0.008711134 0.05532314 -0.022207672 0.049802188 0.032285642 -0.050860178 -0.038703892
0.07782604 -0.01977875 -0.049362592 0.049168218 0.08552569 0.051490348 0.047737326 -0.035095997
0.061350733 -0.02785024 0.054797865 -0.03852186 0.050245497 -0.07374048 -0.059337474 0.022846567
0.08396477 -0.012170214 0.12698188 0.0002394039 0.062581964 -0.008958042 -0.081990965 0.06428071
0.071047895 0.047804717 -0.013901566 0.011585336 -0.019082114 0.034234 -0.004507892 0.07510526
-0.01753796 -0.021073308 0.026042908 0.031120544 -0.042820897 -0.030159645 -0.06007871 0.025677374
0.06728333 -0.004277387 -0.023638202 -0.055528026 0.061046425 -0.004144206 0.020786457 -0.04281717
-0.046139587 -0.020242555 -0.07109032 0.067603715 0.05126453 -0.06562928 0.090857945 -0.0021398575
0.021579953 0.034721788 0.0412406 -0.0052121035 0.05973766 -0.017044352 0.4404954 0.022989994
0.044937093 -0.056245785 -0.0038591637 0.036390968 0.0071626613 -0.05479103 -0.036752325 0.078160755
0.0378811 0.045007676 -0.078847826 -0.3605929 0.03142509 0.08621526 -0.043696355 -0.000562497
-0.055650964 -0.14205599 -0.06680183 -0.02775939 -0.0059426134 -0.062865086 0.016835736 -0.02410154
-0.0053861407 0.03578513 -0.025896925 -0.036029607 0.07579201 -0.0015772734 0.024580713 0.05426509
-0.01763206 -0.0010724899 -0.038894396 0.009730118 0.038425 0.020380393 -0.012965425 -0.03399409
0.0044166213 0.062228028 0.0072315796 -0.16950136 0.006548912 -0.037698586 0.018523315 -0.0039295335
-0.009627672 -0.20981663 -0.11384443 -0.08246782 0.009936874 0.06505237 -0.03260975 0.05166485
-0.002086306 0.062177684 -9.4104806e-05 0.07037536 0.07358661 -0.03211428 0.001495898 -0.10334427
0.00036821183 -0.03382421 -0.030008532 -0.16972572 -0.1275251 -0.18816848 -0.12862019 -0.27676508
0.043815568 -0.09685407 -0.013312963 -0.031600185 0.018474884 -0.16882615 -0.00599328 0.022535503
0.06968641 -0.00484131 0.05489472 0.06393053 0.011945764 -0.018579194 0.039582767 -0.0063528656
-0.01313042 -0.15948159 0.0026497631 -0.0017303615 0.019409945 0.040332373 0.05707777 -0.16637498
-0.0031568748 0.030356849 -0.012735535 0.025558615 0.0077736164 -0.20533192 0.16522838 0.09257946
-0.00050306617 -0.0006063279 -0.008544878 0.033459123 -0.2349315 -0.07261802 0.0013734275 0.028106745
-0.13927351 0.004312312 0.07966808 -0.07147392 0.0804818 0.0035358816 -0.18440346 -0.0022988832
0.021013703 0.07449593 0.06450163 -0.17645703 0.13905197 0.078884035 -0.03741894 -0.0049223364
0.010257794 0.10289059 0.014953973 0.038667146 0.00018318115 -0.24398352 0.019829044 0.05968967
-0.038719304 -0.039941214 -0.10980669 -0.14919488 -0.0067384387 0.039092854 -0.004427332 -0.015086223
0.0075221565 0.0005652643 0.05518902 0.06954097 -0.065994374 0.01182562 0.062252264 -0.1365624
-0.0039430377 -0.15809485 -0.107048064 -0.0028690926 0.03578001 0.069675 0.06803585 0.07340764

fc5.bias f4 [3]
00000000: 3e13 453e 590c 8fbf 3a1d a5bf
0.19245622 -1.1175643 -1.2899544
