checkpoints/checkpoint_qnetwork_target_WMT.pth (torch_old, 339524 bytes, 10 tensors)

fc1.weight f4 [128, 12]
-0.011561122 0.14547445 -0.2460288 -0.221829 -0.120548226 0.067998596 -0.015187738 0.21953417
-0.034993965 0.08958321 -0.09661665 -0.066121034 -0.7346592 -0.421442 0.091493584 -0.05532833
0.042186026 0.45196837 -0.6920893 -0.70367193 0.30300316 0.54937273 -0.16498911 0.28612056
-0.05253286 0.024543459 0.25539428 -0.26895455 -0.1877198 -0.07908521 -0.11852909 0.24342105
-0.19311409 -0.13888806 -0.20767272 -0.2763456 -0.16334248 0.28671372 0.47566628 0.3061812
-0.4719544 -0.0226096 0.2711874 -1.0389367 -0.32176426 -0.357824 0.37852415 0.08706759
-0.5220126 -0.7845559 0.414838 0.63274866 0.52256274 0.00027386713 0.38123548 -0.4738133
-0.003100807 -0.32962218 -0.25742126 -0.29953012 -0.017282777 0.03347775 -0.21877423 0.094381444
0.4208589 -0.16539757 -0.075382225 -0.17907701 0.24248226 0.3900429 -0.20978871 -0.28114384
0.12394835 0.32648677 0.09529985 0.22189285 -0.13230793 -0.3178497 0.004362946 -0.12277416
-0.32140127 0.33071542 0.67585045 -0.53877956 -0.5752296 0.06900122 -0.39003462 -0.27026236
0.7218466 -0.0009607818 0.4161535 0.2890587 0.42052475 0.115990646 -0.53859645 -0.511781
0.439833 0.29226083 0.06454095 -0.6098436 0.55070615 0.37397447 0.047232103 -0.5192312
-0.163979 0.26268858 -0.43764862 -0.2794159 0.022110159 0.0036557594 -0.59139323 0.013857211
-0.78488976 0.6117903 0.41635233 -0.24304606 -0.2762548 -0.2994915 0.39163136 -0.20669766
0.11328429 0.017291695 -0.1408529 0.1365979 -0.27691185 -0.17109968 -0.072264 -0.1406175
-0.100988194 -0.23660439 -0.06140557 0.061706156 -0.21472973 -0.1421911 0.12705341 0.12717797
-0.03209615 0.03451106 0.07944341 0.18616447 0.23325983 0.22809012 0.5270561 -0.18987581
-0.2593231 -0.1368543 0.19656041 -0.0018713176 -0.14348492 -0.22121516 -0.27015722 -0.24364458
-0.05855392 0.15831119 0.15606964 -0.27840748 0.16878016 -0.23704328 -0.07232744 -0.1283528
-0.06690335 -0.0679837 -0.27032545 -0.26055017 -0.05647427 -0.0075715175 -0.1424346 0.09744367
-0.35247076 0.18522672 0.39067537 -0.18324758 0.28666583 0.03175933 -0.11669138 0.44512564
0.2051887 -0.02017187 0.6723158 -0.5511683 -0.14003603 -0.15267454 -0.008193816 -0.0014653782
0.16972652 -0.008150343 -0.31841156 -0.11066504 -0.5080272 0.5562009 0.5923377 0.11984808
-0.018861383 0.13079813 -0.6333854 0.24136057 -0.20280375 0.5840389 -0.56659 0.31098035
-0.49287525 0.5290303 -0.20369916 -0.11364386 -0.7820357 -0.039888516 -0.5988671 0.3844366
0.0026232144 -0.3065176 -0.32475308 -0.034651186 0.28423294 0.05741535 0.04123657 0.16840354
-0.4563249 -0.47853044 0.57389045 -0.17825723 -0.050361466 0.43141884 0.4274776 0.28652588
-0.48112178 0.5352201 -0.23121281 -0.21766067 -0.06342061 -0.4278153 -0.27158323 0.17406304
-0.10740942 0.17024054 0.16142523 -1.3356295 0.50400066 -0.27853882 -0.014030941 0.3056397
0.09868794 0.19640727 -0.11484846 -0.02139555 0.12874024 -0.2677028 0.18792841 -0.26034155
-0.017653449 -0.068430744 -0.16989778 0.017277187 0.19365053 -0.1294555 -0.21644962 -0.15182245
00000000: dc6a 3dbc 41f7 143e f9ee 7bbe 2427 63be
00000010: fde1 f6bd d942 8b3d fed5 78bc 91cd 603e
00000020: d555 0fbd 6777 b73d f3de c5bd 776a 87bd
00000030: a012 3cbf 3fc7 d7be fd60 bb3d f59f 62bd
00000040: 41cb 2c3d 6668 e73e c42c 31bf d823 34bf
00000050: 3b23 9b3e b1a3 0c3f e8f2 28be 657e 923e
00000060: b22c 57bd 5d0f c93c 0ac3 823e 69b4 89be
00000070: 9f39 40be 6df7 a1bd 61bf f2bd 5e43 793e
00000080: b3bf 45be ac38 0ebe 28a8 54be 2c7d 8dbe
00000090: 4043 27be 24cc 923e 888a f33e c8c3 9c3e
000000a0: 02a4 f1be c537 b9bc 13d9 8a3e e1fb 84bf
000000b0: 49be a4be b534 b7be ebcd c13e 7e50 b23d
000000c0: 9ea2 05bf a8d8 48bf a565 d43e d1fb 213f
000000d0: acc6 053f d395 8f39 4c31 c33e a897 f2be
000000e0: e936 4bbb 3dc4 a8be b8cc 83be 035c 99be
000000f0: 9c94 8dbc f71f 093d 5a06 60be 0f4b c13d
00000100: d17a d73e fb5d 29be ff61 9abd f75f 37be
00000110: 454d 783e b4b3 c73e dad2 56be 16f2 8fbe
00000120: a2d8 fd3d 4629 a73e 912c c33d e137 633e
00000130: bb7b 07be 32bd a2be 0bf7 8e3b 0571 fbbd
00000140: b58e a4be 8853 a93e 8904 2d3f 75ed 09bf
00000150: 3f42 13bf 8350 8d3d 9eb2 c7be d45f 8abe
00000160: f0ca 383f fadc 7bba 1212 d53e 80ff 933e
00000170: 054f d73e 818c ed3d 75e1 09bf 1404 03bf
00000180: ca31 e13e 36a3 953e 0c2e 843d b61e 1cbf
00000190: 14fb 0c3f 9579 bf3e 7376 413d 56ec 04bf
000001a0: 1cea 27be 1e7f 863e 7b13 e0be 9a0f 8fbe
000001b0: 5d20 b53c 7795 6f3b 8c65 17bf 5b09 633c
000001c0: 89ee 48bf 4a9e 1c3f 222c d53e 11e1 78be
000001d0: 4571 8dbe f356 99be e883 c83e 8da8 53be
000001e0: 9801 e83d 50a7 8d3c be3b 10be 52e0 0b3e
000001f0: 64c7 8dbe c134 2fbe 26ff 93bd 09fe 0fbe
00000200: e6d2 cebd 6c48 72be 6884 7bbd 98bf 7c3d
00000210: 1ce2 5bbe 8b9a 11be 4a1a 023e f13a 023e
00000220: 4177 03bd 785b 0d3d 3ab3 a23d e6a1 3e3e
00000230: aadb 6e3e 7590 693e 26ed 063f ce6e 42be
00000240: ffc5 84be 8923 0cbe 2247 493e 0047 f5ba
00000250: b6ed 12be 3a86 62be 0c52 8abe f77d 79be
00000260: 3cd6 6fbd 541c 223e b8d0 1f3e 6d8b 8ebe
00000270: b5d4 2c3e 79bb 72be 6920 94bd eb6e 03be
00000280: a004 89bd 0a3b 8bbd 1968 8abe d566 85be
00000290: 9051 67bd 7e1a f8bb 60da 11be 8c90 c73d
000002a0: 0c77 b4be 13ac 3d3e 9a06 c83e 41a5 3bbe
000002b0: ddc5 923e 1216 023d e4fb eebd 82e7 e33e
000002c0: fd1c 523e 7a3f a5bc e31c 2c3f 5e19 0dbf
000002d0: 9b65 0fbe b756 1cbe 5b3f 06bc ef11 c0ba
000002e0: cacc 2d3e 0489 05bc d706 a3be 5aa4 e2bd
000002f0: 120e 02bf 2f63 0e3f 72a3 173f e972 f53d
00000300: 3083 9abc f2ef 053e 8c25 22bf 3a27 773e
00000310: c9ab 4fbe 9383 153f 0b0c 11bf d138 9f3e
00000320: 255a fcbe 886e 073f 8396 50be 1dbe e8bd
00000330: 7e33 48bf 2462 23bd 5b4f 19bf e0d4 c43e
00000340: 3cea 2b3b e0ef 9cbe 0946 a6be 67ee 0dbd
00000350: fb86 913e 5c2c 6b3d ade7 283d fa71 2c3e
00000360: 6ba3 e9be f101 f5be 7cea 123f 1089 36be
00000370: d347 4ebd eee2 dc3e 58de da3e 85b3 923e
00000380: 9855 f6be 2f04 093f 0dc3 6cbe 70e2 5ebe
00000390: aae2 81bd 9b0a dbbe f50c 8bbe 953d 323e
000003a0: 78f9 dbbd 8953 2e3e a84c 253e e8f5 aabf
000003b0: 3006 013f a49c 8ebe 08e2 65bc cf7c 9c3e
000003c0: e71c ca3d fd1e 493e ab35 ebbd b845 afbc
000003d0: 7bd4 033e 5710 89be 4e70 403e 7d4b 85be
000003e0: f79d 90bc 6b25 8cbd aff9 2dbe e388 8d3c
000003f0: 534c 463e fc8f 04be f8a4 5dbe 5877 1bbe

fc1.bias f4 [128]
-0.10536375 0.23770776 0.12169562 0.16188136 0.40196407 -0.4713149 -0.029501056 0.113216385
0.10645882 0.356283 0.004758626 -0.48752278 -0.15837191 0.096147254 -0.22199926 -0.10748509
0.17114297 0.2663603 0.028395016 0.21869686 -0.18624456 -0.28761104 -0.21699697 -0.40637594
0.20339137 0.18136469 -0.35379815 -0.38595018 -0.19616619 -0.32809216 0.049733512 -0.3244166
-0.21460012 0.015628774 -0.27804437 -0.164614 0.3822812 -0.31935057 -0.12013386 -0.09826474
0.11625816 -0.40537527 0.12583685 0.5163579 0.14174893 0.036651738 -0.33188185 0.16400604
0.28452778 -0.15441108 -0.23869734 -0.18592146 0.037834324 -0.11949023 0.08232674 0.1318645
-0.24770911 -0.29664126 0.41850916 -0.012358328 -0.3236723 0.33759794 0.13020179 -0.17839168
-0.19421236 0.47422993 0.1754484 -0.12738797 -0.006001287 0.07918286 0.11651372 -0.1253952
-0.18068637 -0.013580042 -0.065569244 0.029929973 -0.1315812 0.036357157 -0.23343715 0.31823748
0.052531935 -0.0741627 -0.31373727 -0.0010493696 -0.21995485 -0.261551 -0.20417853 0.29901406
0.32401526 0.19542953 0.13370277 0.27298465 0.1624631 0.19119579 -0.039579857 -0.03669697
0.28797993 0.17281473 -0.18783902 -0.18015476 0.13158639 0.39618936 0.2162516 0.037501115
0.13773535 -0.59048104 -0.34294757 -0.277772 0.14838104 0.04703901 -0.1329247 0.20336303
-0.4205491 -0.46790475 -0.123582974 -0.017152185 -0.21205091 -0.4041686 0.22021964 0.38944444
0.11891736 -0.14499763 -0.1391861 -0.22807267 -0.22758926 -0.39933035 0.06077703 0.140561
00000000: f3c8 d7bd aa69 733e 8e3b f93d 3ac4 253e
00000010: 3cce cd3e 3050 f1be 33ac f1bc fedd e73d
00000020: 1507 da3d ba6a b63e 40ee 9b3b 969c f9be
00000030: 3f2c 22be dae8 c43d c653 63be 2521 dcbd
00000040: 1a40 2f3e 6160 883e aa9c e83c 12f2 5f3e
00000050: e5b6 3ebe c141 93be 7434 5ebe 8210 d0be
00000060: d445 503e aab7 393e 0825 b5be 439b c5be
00000070: cadf 48be b2fb a7be 5eb5 4b3d ef19 a6be
00000080: 22c0 5bbe ea07 803c d55b 8ebe 9390 28be
00000090: 5dba c33e eb81 a3be be08 f6bd 063f c9bd
000000a0: c218 ee3d 598d cfbe 60db 003e 0830 043f
000000b0: a226 113e 2220 163d 6bec a9be 33f1 273e
000000c0: a0ad 913e f01d 1ebe 136d 74be 3262 3ebe
000000d0: 2af8 1a3d 4bb7 f4bd ec9a a83d 7d07 073e
000000e0: 75a7 7dbe 5de1 97be d546 d63e 967a 4abc
000000f0: 60b8 a5be a3d9 ac3e 9e53 053e 4fac 36be
00000100: 9bdf 46be 44ce f23e bfa8 333e fe71 02be
00000110: 72a6 c4bb a02a a23d bf9e ee3d 9967 00be
00000120: d905 39be d37e 5ebc 2b49 86bd b42f f53c
00000130: 39bd 06be 3eeb 143d 260a 6fbe 06f0 a23e
00000140: ba2b 573d 9de2 97bd 2ca2 a0be 008b 89ba
00000150: d83b 61be 03ea 85be 2d14 51be 5f18 993e
00000160: 54e5 a53e ae1e 483e 61e9 083e a5c4 8b3e
00000170: ba5c 263e d4c8 433e 7d1e 22bd 904f 16bd
00000180: 1b72 933e 58f6 303e df58 40be 7d7a 38be
00000190: 95be 063e 55d9 ca3e 0f71 5d3e c59a 193d
000001a0: 7f0a 0d3e c429 17bf d396 afbe 2238 8ebe
000001b0: 33f1 173e faab 403d 6a1d 08be 663e 503e
000001c0: 3652 d7be 3691 efbe 1219 fdbd bd82 8cbc
000001d0: e023 59be 30ef cebe 4281 613e 4365 c73e
000001e0: f28a f33d 427a 14be cd86 0ebe e28b 69be
000001f0: 290d 69be 0775 ccbe 56f1 783d 39ef 0f3e

fc2.weight f4 [256, 128]
-0.017994314 0.111652106 -0.04919123 0.454983 -0.7417596 -0.166694 -0.36596236 -0.5569828
-0.59215 0.12860613 0.023569673 -0.3455773 0.0847596 -0.024182102 -0.57766587 -0.1887182
-1.1183764 0.34846812 -0.38354594 0.024036814 0.010125935 -0.07191021 -0.046171725 -0.2229168
0.42014363 -0.8067891 0.1813569 0.015121614 -0.22808757 0.042746395 0.29434642 -1.2464087
-0.31431425 0.062820375 -0.07975576 -0.009705111 -0.17038953 -0.29434645 0.04301258 0.14696458
-0.5006557 -0.3842016 0.11863339 0.6366156 0.115757436 0.054421607 -0.6572987 -0.4865441
0.29068068 -0.21034005 0.04961086 -0.32277822 -0.23321363 -0.025461756 -0.101191364 -0.45832092
-0.71940756 0.07673824 0.21850598 -1.7454252 0.06980911 0.18201257 -0.2619509 -1.1326817
-0.055829782 -0.86061275 0.37162483 -0.14589171 -0.05506981 0.25187755 0.15319335 -1.7346964
0.028760543 -1.0255111 0.050320003 -0.37809205 -0.14894648 0.043104023 -0.0013116102 -0.026940716
-0.74491864 -0.41817668 -0.6999166 -0.04315027 -0.187541 -0.04903849 -0.01758904 -0.10836637
-0.23361596 -0.24088784 -0.101057254 -0.07024126 -0.04728498 -0.015542865 0.267673 0.049404718
-0.0024281058 -0.26123562 -0.049878813 -0.9105621 -0.57325506 0.18970166 -0.33088455 0.08270623
0.1349988 -0.41585204 -1.0591286 -0.030995747 -0.96945226 0.25953686 -0.019650929 -0.31052932
-0.13861983 -0.33994457 -0.41999465 0.4251803 -1.4459678 -0.4922066 -0.24191603 0.069324814
0.26314297 -0.051234223 -0.5604995 -0.29983014 -0.8234786 -0.3092478 0.0022460297 -0.22780442
0.07696176 -0.24562086 0.029501883 -1.1255631 -1.4179757 -0.2871342 -0.18105708 -1.0586444
0.23511124 -0.43854144 -0.06414568 0.062052097 -0.06497828 0.053054407 -0.034894 -0.009533268
-0.90598816 -0.16895048 -1.0165337 -0.29776275 0.028283698 0.050048053 0.022146206 0.029060585
-0.6700149 -0.23915239 -0.076981105 -0.3010423 -0.78759617 -1.8075843 -1.3900801 -0.38982013
-0.2312324 0.29603866 0.025851052 0.0761086 -0.45728096 0.015596624 -0.08386939 -1.5445539
-0.9125488 -0.3862074 0.6740164 -0.28196177 0.25165612 0.06544302 -1.4003232 -0.69514036
0.11752576 -0.864778 -0.0114060715 -0.6131907 0.078692794 -0.08293721 0.22383687 -0.14393151
0.42769927 0.1855442 0.4770286 -0.5354042 0.0684978 -1.4923995 0.33802357 -0.0343216
0.11222653 0.15352316 1.0507439 0.5887721 -0.21413991 0.7433099 -0.616565 -0.36061344
-0.046911325 -0.057643745 -0.19748841 0.23461767 -0.096823014 -0.14915173 0.07526175 0.5171639
-0.076985136 0.12159044 0.14787692 -0.051559366 -0.13526358 -1.0414578 -0.025930416 -0.38252887
0.16586599 -0.04289093 -0.59651434 0.4778762 0.022292018 -0.068031535 -0.031909384 -0.061395526
-0.08840552 -1.382332 0.013264351 -0.115615554 0.057424225 -0.24304608 -0.064366296 -0.035169058
0.1068277 -0.16946563 -0.29676044 0.044480108 -0.49099 0.3608803 -0.035782073 0.019802071
0.23540771 -0.13572723 0.27397838 -0.63344467 -0.24806695 0.105558604 -0.019802965 0.043622483
0.3240614 -0.047559533 -0.03025068 -0.17369762 -2.0325873 -0.20352617 0.048017748 0.12008919
00000000: d068 93bc dca9 e43d be7c 49bd 88f3 e83e
00000010: f5e3 3dbf d5b1 2abe 6b5f bbbe 6d96 0ebf
00000020: 2497 17bf 53b1 033e 3015 c13c 82ef b0be
00000030: 7196 ad3d 8b19 c6bc e9e1 13bf 583f 41be
00000040: f526 8fbf 6a6a b23e 2260 c4be dae8 c43c
00000050: 40e7 253c a945 93bd 901e 3dbd 4d44 64be
00000060: 111d d73e bb89 4ebf a0b5 393e a5c0 773c
00000070: ca8f 69be d816 2f3d 93b4 963e 528a 9fbf
00000080: cced a0be f8a7 803d fd56 a3bd 3002 1fbc
00000090: 987a 2ebe 94b4 96be f62d 303d e27d 163e
000000a0: f92a 00bf 12b6 c4be 10f6 f23d 3df9 223f
000000b0: 3c12 ed3d 31e9 5e3d ba44 28bf 4f1c f9be
000000c0: 19d4 943e 6263 57be c234 4b3d 3043 a5be
000000d0: 8ecf 6ebe 2c95 d0bc 6b3d cfbd 0aa9 eabe
000000e0: 182b 38bf f028 9d3d 08c0 5f3e 186a dfbf
000000f0: 14f8 8e3d 8161 3a3e 6e1e 86be b7fb 90bf
00000100: c5ad 64bd 1e51 5cbf 9c45 be3e a364 15be
00000110: e290 61bd 18f6 803e b8de 1c3e 880a debf
00000120: 3b9b eb3c f343 83bf 591c 4e3d 4895 c1be
00000130: 6d85 18be d88d 303d 56ea abba c7b2 dcbc
00000140: fdb2 3ebf 411b d6be bc2d 33bf 56be 30bd
00000150: bf0a 40be 95dc 48bd e416 90bc 30ef ddbd
00000160: 0639 6fbe 4dab 76be 1bf7 cebd a6da 8fbd
00000170: e5ad 41bd 80a7 7ebc 6f0c 893e 9a5c 4a3d
00000180: db20 1fbb adc0 85be ba4d 4cbd 991a 69bf
00000190: d8c0 12bf 2741 423e b369 a9be e261 a93d
000001a0: 203d 0a3e 8fea d4be 8791 87bf cbea fdbc
000001b0: 062e 78bf 04e2 843e fcfa a0bc b3fd 9ebe
000001c0: 5bf2 0dbe 370d aebe 8a09 d7be 3bb1 d93e
000001d0: 7915 b9bf 8102 fcbe d6b8 77be 2bfa 8d3d
000001e0: adba 863e fada 51bd e57c 0fbf 5683 99be
000001f0: 7ecf 52bf ba55 9ebe 2032 133b 9045 69be
00000200: 219e 9d3d 0984 7bbe efad f13c 7412 90bf
00000210: 3a80 b5bf 4103 93be 0767 39be a981 87bf
00000220: 00c1 703e 8188 e0be cf5e 83bd 572a 7e3d
00000230: 5513 85bd 944f 593d 03ed 0ebd 6d31 1cbc
00000240: d7ee 67bf 5b01 2dbe c71d 82bf 5c74 98be
00000250: 37b3 e73c 30ff 4c3d f66b b53c 7710 ee3c
00000260: 1986 2bbf 5de4 74be 45a8 9dbd 3722 9abe
00000270: e79f 49bf ec5e e7bf 25ee b1bf 8196 c7be
00000280: 30c8 6cbe 6192 973e 96c5 d33c d3de 9b3d
00000290: bb20 eabe fc88 7f3c b7c3 abbd f1b3 c5bf
000002a0: cc9c 69bf fabc c5be 578c 2c3f 4b5d 90be
000002b0: 12d9 803e fd06 863d ca3d b3bf b8f4 31bf
000002c0: 58b1 f03d 1762 5dbf 88e0 3abc 11fa 1cbf
000002d0: b029 a13d fcda a9bd 7e35 653e c862 13be
000002e0: 66fb da3e 4cff 3d3e 183d f43e 4010 09bf
000002f0: 9348 8c3d f206 bfbf 6d11 ad3e ce94 0cbd
00000300: 06d7 e53d 2d35 1d3e c77e 863f c5b9 163f
00000310: 7e47 5bbe 8f49 3e3f 34d7 1dbf 53a2 b8be
00000320: 1726 40bd d91b 6cbd 673a 4abe 9d3f 703e
00000330: 254b c6bd 3bbb 18be d522 9a3d da64 043f
00000340: 62aa 9dbd 6904 f93d 0c6d 173e ea2f 53bd
00000350: 8982 0abe 7d4e 85bf 066c d4bc d3da c3be
00000360: c6d8 293e 66ae 2fbd 2ab5 18bf 30ac f43e
00000370: c09d b63c 1e54 8bbd 6ab3 02bd e079 7bbd
00000380: f40d b5bd 41f0 b0bf b852 593c d9c7 ecbd
00000390: aa35 6b3d 12e1 78be 7ad2 83bd 6e0d 10bd
000003a0: 7bc8 da3d 6688 2dbe fcf0 97be c630 363d
000003b0: 0b63 fbbe 4dc5 b83e 3990 12bd f437 a23c
000003c0: b80e 713e 14fc 0abe e546 8c3e 6e29 22bf
000003d0: 4305 7ebe 1c2f d83d d439 a2bc 7dad 323d
000003e0: 60eb a53e c9cd 42bd 46d0 f7bc cadd 31be
000003f0: e915 02c0 2a69 50be 42ae 443d 52f1 f53d

fc2.bias f4 [256]
0.018735657 0.09303831 -0.3305915 -0.32579857 -0.07775154 0.2587932 -0.13160917 -0.053690456
-0.05608683 0.058820117 -0.07397404 0.051170364 0.13331921 -0.037970513 0.392727 -0.17027892
-0.03465496 -0.18302588 -0.022029763 -0.25918803 -0.012727153 -0.09716898 0.35252208 -0.037636567
-0.01803157 -0.010745273 -0.083484255 0.11010794 -0.003079861 -0.08345131 0.27405062 -0.06442228
0.057884544 0.062184215 -0.017232997 0.112824865 0.30887303 0.11851187 -0.0640736 0.15377638
0.1659626 0.20997877 0.0891435 -0.07509331 -0.40568066 0.04336585 -0.09459665 -0.08593983
-0.085413046 0.13477275 0.16048633 0.47187656 -0.18898666 0.14652014 0.15673089 0.18488565
0.13542457 -0.118089505 0.028745623 -0.25292253 -0.006301177 -0.1271458 0.023146456 -0.2326082
0.5059057 0.36121255 -0.055858403 0.3483067 0.06669184 -0.021675998 0.3020328 -0.014158614
0.17727071 -0.0566322 0.41289797 0.115317926 0.029401265 0.19159302 -0.010804879 0.21623151
0.028858228 0.13090576 0.09252729 0.0040416033 -0.106065616 -0.33696952 0.15917875 -0.11194269
-0.15693317 0.27206913 0.3342539 -0.13197385 0.13484593 -0.09354697 -0.0811565 -0.080292664
0.11315728 0.031739246 0.0981499 0.048684582 -0.17393132 -0.09104355 -0.10304659 -0.25848183
-0.07613474 -0.09654214 -0.0889052 0.23324943 -0.059543945 0.3310061 -0.35734937 0.47861844
-0.1087836 -0.0039059306 -0.19695707 0.15868455 -0.37135723 -0.1348945 -0.04414157 -0.079040505
-0.06586771 0.028846977 0.069737256 -0.23050685 0.015135221 -0.12976253 -0.18445599 -0.093591675
0.008587712 -0.046514116 -0.15886024 -0.010853308 -0.08357797 0.09937203 -0.25638223 0.06575075
-0.3836402 0.17243361 -0.026885426 0.36259243 -0.0334405 -0.09312228 -0.24720751 0.13539736
-0.04955713 0.21779153 0.043109108 0.052578606 -0.16910802 -0.1370552 0.29966116 -0.028183213
-0.029641585 0.062529005 -0.012663011 -0.060918596 -0.21249248 -0.08620805 -0.10507317 -0.14064643
0.30094376 -0.22442622 -0.09683824 -0.14477281 0.020512003 0.003375837 0.057339944 -0.002268793
-0.16033477 0.41204223 -0.15388323 0.2629529 -0.10688368 0.20654832 -0.09429204 -0.41700906
0.20866539 0.14578809 -0.116167225 0.12098611 -0.1452024 0.19352667 -0.0762614 -0.08659549
-0.24516158 0.47580007 -0.04648535 -0.29198906 0.37758663 0.0048252675 -0.2078404 0.16522296
0.5821574 0.08413221 0.0065784883 -0.005211527 -0.23120195 -0.075091645 -0.3103803 0.082178205
-0.07420953 0.084437 0.1452382 0.22297047 -0.22489966 0.1992745 0.30492723 0.33666965
0.19900246 -0.02018109 0.2837907 0.27780023 0.3236876 0.0013604041 -0.2008348 0.108493626
-0.059952732 0.3548758 -0.060452927 -0.16977356 0.0022020317 -0.09505946 0.07636186 0.37140635
0.17979808 0.07865509 -0.05540882 -0.0013336266 0.0938147 -0.10811304 -0.1904169 -0.2581524
-0.21346934 0.031009663 0.3921064 0.05488236 0.15612207 -0.29492146 -0.042109363 -0.10729347
-0.1772143 0.3288406 0.15577632 0.031791966 -0.120010324 0.024655694 -0.094813585 0.06673056
-0.021638967 -0.08404736 -0.04476553 0.0486408 -0.08303653 -0.09758122 -0.08851123 -0.091021195
00000000: 857b 993c df8a be3d 4a43 a9be 12cf a6be
00000010: 333c 9fbd 8b80 843e 8ec4 06be 86ea 5bbd
00000020: 4ebb 65bd 5ded 703d b47f 97bd 0498 513d
00000030: d584 083e f886 1bbd 8313 c93e 995d 2ebe
00000040: 5cf2 0dbd 236b 3bbe c377 b4bc 4bb4 84be
00000050: 8c85 50bc 8800 c7bd c67d b43e cd28 1abd
00000060: f1b6 93bc f10c 30bc cbf9 aabd 4680 e13d
00000070: 7ed7 49bb 85e8 aabd 5d50 8c3e d4ef 83bd
00000080: 5818 6d3d e0b4 7e3d 372c 8dbc b910 e73d
00000090: 9b24 9e3e 5ab6 f23d 0539 83bd 8e77 1d3e
000000a0: 1af2 293e ad04 573e de90 b63d 85ca 99bd
000000b0: 60b5 cfbe 64a0 313d e3bb c1bd 3901 b0bd
000000c0: 09ed aebd de01 0a3e 8756 243e ce99 f13e
000000d0: b885 41be 6009 163e 107e 203e aa52 3d3e
000000e0: bdac 0a3e e9d8 f1bd f17b eb3c 107f 81be
000000f0: 1b7a cebb 8232 02be a39d bd3c d830 6ebe
00000100: 0983 013f daf0 b83e c8cb 64bd 4155 b23e
00000110: bb95 883d dd91 b1bc 0ba4 9a3e 88f9 67bc
00000120: 7486 353e 2af7 67bd 5d67 d33e ce2b ec3d
00000130: ecda f03c f630 443e f206 31bc cb6b 5d3e
00000140: 1768 ec3c 290c 063e f37e bd3d 6d6f 843b
00000150: ee38 d9bd 4587 acbe c1ff 223e 3642 e5bd
00000160: 17b3 20be a54c 8b3e 5423 ab3e 2724 07be
00000170: 0d15 0a3e 8e95 bfbd 6135 a6bd 7b70 a4bd
00000180: 01bf e73d 0301 023d d102 c93d 7c69 473d
00000190: 0d1b 32be 0a75 babd 170a d3bd bb57 84be
000001a0: 88ec 9bbd e3b7 c5bd ee13 b6bd f0d8 6e3e
000001b0: 5ae4 73bd a279 a93e 7ff6 b6be 7a0d f53e
000001c0: f0c9 debd a4fa 7fbb 1daf 49be 347e 223e
000001d0: 8922 bebe c921 0abe cacd 34bd fddf a1bd
000001e0: a6e5 86bd 7f50 ec3c 68d2 8e3d fd09 6cbe
000001f0: b8f9 773c 78e0 04be 08e2 3cbe feac bfbd
00000200: 7ab3 0c3c 9685 3ebd 42ac 22be 13d2 31bc
00000210: ed2a abbd 9083 cb3d 8844 83be 54a8 863d
00000220: 7d6c c4be 7092 303e d33e dcbc b7a5 b93e
00000230: e8f8 08bd e5b6 bebd f723 7dbe 9ba5 0a3e
00000240: 6bfc 4abd be04 5f3e 2d93 303d aa5c 573d
00000250: a72a 2dbe 3358 0cbe 306d 993e 7be0 e6bc
00000260: e9d2 f2bc 350f 803d 8578 4fbc c785 79bd
00000270: a197 59be d98d b0bd 9a30 d7bd 9e05 10be
00000280: 4d15 9a3e fdcf 65be 2153 c6bd 533f 14be
00000290: ca08 a83c 263d 5d3b 4add 6a3d 08b0 14bb
000002a0: cc2e 24be 33f7 d23e 9193 1dbe c3a1 863e
000002b0: d5e5 dabd 6781 533e 2f1c c1bd 3682 d5be
000002c0: 61ac 553e 7949 153e 15e9 edbd 91c7 f73d
000002d0: f0af 14be db2b 463e f02e 9cbd fa58 b1bd
000002e0: a30b 7bbe 119c f33e 6c67 3ebd 977f 95be
000002f0: 0953 c13e 471d 9e3b 1dd4 54be 3530 293e
00000300: 4408 153f 824d ac3d 5c90 d73b 75c5 aabb
00000310: 34c0 6cbe a6c9 99bd 2bea 9ebe 0c4d a83d
00000320: 2bfb 97bd 4eed ac3d 53b9 143e 5f52 643e
00000330: 194c 66be 9d0e 4c3e 6c1f 9c3e f75f ac3e
00000340: 4dc7 4b3e d052 a5bc 044d 913e d53b 8e3e
00000350: 62ba a53e 964f b23a a3a7 4dbe e831 de3d
00000360: ff90 75bd 48b2 b53e 7d9d 77bd 1fd9 2dbe
00000370: f64f 103b 89ae c2bd 9b63 9c3d f928 be3e
00000380: fd1c 383e eb15 a13d 5cf4 62bd 15cd aeba
00000390: ec21 c03d 5f6a ddbd a6fc 42be 8d2c 84be
000003a0: b597 5abe fa07 fe3c 2cc2 c83e 53cc 603d
000003b0: 77de 1f3e f2ff 96be de7a 2cbd aebc dbbd
000003c0: aa77 35be cc5d a83e d483 1f3e 4b38 023d
000003d0: f9c7 f5bd bdfa c93c a02d c2bd 08aa 883d
000003e0: 3444 b1bc 0621 acbd 0f5c 37bd 933b 473d
000003f0: 0e0f aabd aad8 c7bd 6045 b5bd 5269 babd

fc3.weight f4 [128, 256]
0.028162625 0.50095236 0.113689594 0.27414727 -0.018188033 -0.100225374 0.089412145 0.19018254
0.06050136 -0.48631868 -0.03456555 0.22268109 0.34846994 0.07553124 0.29509515 0.10099228
-0.014410074 0.017094646 -0.572014 0.04352348 -0.00386888 0.48839653 0.06835898 -0.028157039
-0.0413941 -0.0005596447 -0.49961656 -0.1528324 -0.62439847 -0.040749613 -0.2923955 0.08086592
0.009901357 -1.1547971 -0.1794694 0.28833437 0.26190215 -0.2508317 0.3317407 0.41718376
-1.4116155 0.27322108 0.06138115 -0.20601757 0.64013416 0.09821953 0.0019568026 -0.0062397085
0.7193129 0.014268364 -0.03844718 0.14554043 -0.47227338 -0.01199711 -0.11284382 0.1124295
0.346086 -0.041956626 0.031875975 0.20135206 -0.01895918 -0.118886724 -0.08453166 0.15822993
0.31959838 0.22180942 0.6076139 -0.08689441 -0.10734877 -0.7138561 0.27884483 -0.035977457
0.007594123 0.19026223 0.43272874 0.1018619 0.30634788 0.21803464 0.056109183 -0.02044927
-0.046705797 -0.12778063 0.7601049 0.5633326 0.60065264 -0.67003495 0.24228884 0.049306717
0.16797872 -0.55629474 0.08638399 -0.04840146 -0.1921227 0.07094162 -0.032021143 0.23432232
0.18175723 0.14897375 -1.2267001 0.024748355 0.25511342 0.038771458 -0.0080630295 0.009808056
-0.030653015 0.00079730974 -0.012381627 0.32501543 0.00493584 0.19809075 -0.91825116 0.2027382
-0.015208228 0.1914149 -0.29246825 -0.20725165 0.31769782 -0.14656226 -0.042615842 -0.06384858
0.006360316 0.60696864 -0.11850387 -0.06021974 -0.418719 -0.03200219 -0.19608541 0.048341855
-0.02531398 0.0598496 -0.07038523 -0.07851896 -0.0007448639 0.2237577 0.60865164 0.1461553
-0.01199112 0.1607711 -0.25870207 0.16633567 0.08139492 -0.005824799 0.3741838 -0.6070331
-0.014466217 0.012749021 0.24004763 -0.058566734 0.07725979 -0.21382695 0.5386032 0.2544701
-0.023131555 0.05339349 -1.0806724 -0.033813033 -0.60380024 0.01577774 -0.025174905 -0.031629983
0.304916 0.15878066 0.1730679 0.19897027 0.050371993 0.03783691 -0.00101215 0.08001289
0.14510323 0.1851712 0.42570308 -0.0038815343 -0.02729462 -0.111791216 -0.025508322 0.8321546
-0.3821375 0.09065879 0.04586823 -0.78510547 0.17924371 -0.21940595 0.046501536 -0.05173774
0.16287856 0.20051037 -0.06429082 0.06215085 0.18576689 0.20159261 -0.782078 0.2043977
0.1837196 0.21746165 -0.060934585 0.07110703 -1.00906 -0.08020281 -0.014789127 0.025811788
-0.660404 0.07311945 -0.062016055 -0.06937927 0.04338531 0.060696777 0.45410958 0.008475356
-0.26979935 0.04258993 0.105014555 -0.081064634 0.3859903 0.57711244 0.19788267 0.2706886
0.3922645 0.27968812 0.008980394 1.0512015 -0.052666742 -0.03085977 0.26000288 0.2985521
0.1970555 -0.7564751 0.021639558 0.23376082 0.10249056 0.06919816 0.18302943 0.084695965
-0.5290278 0.12218667 0.19731499 0.5205466 0.31331354 -1.6058153 0.053669084 -0.031038586
0.44244644 0.5438861 0.05687561 0.56619155 -0.34968334 0.08752363 0.00034257103 0.014879789
0.37803116 0.00697686 0.033060517 -0.13472481 -0.2744122 0.2449483 -0.4104679 0.017394537
00000000: 4eb5 e63c 6a3e 003f 17d6 e83d 085d 8c3e
00000010: 12ff 94bc f642 cdbd b71d b73d 36bf 423e
00000020: 46d0 773d c3fe f8be 9b94 0dbd 8306 643e
00000030: a76a b23e 1fb0 9a3d b616 973e 0ad5 ce3d
00000040: 3b18 6cbc 120a 8c3c 826f 12bf ad45 323d
00000050: 098d 7dbb 1c0f fa3e cbff 8b3d 97a9 e6bc
00000060: dc8c 29bd 1fb5 12ba becd ffbe 1980 1cbe
00000070: 94d8 1fbf 11e9 26bd ddb4 95be 089d a53d
00000080: 4d39 223c 64d0 93bf d4c6 37be 90a0 933e
00000090: 0a18 863e 036d 80be ebd9 a93e 1c99 d53e
000000a0: d1af b4bf a2e3 8b3e cd6a 7b3d 45f6 52be
000000b0: d5df 233f 5227 c93d b33d 003b 7876 ccbb
000000c0: e424 383f dbc5 693c ca7a 1dbd 8d08 153e
000000d0: d1cd f1be 878f 44bc a91a e7bd 7041 e63d
000000e0: 2f32 b13e b6da 2bbd 6290 023d 3c2f 4e3e
000000f0: 4850 9bbc e27a f3bd ef1e adbd 0707 223e
00000100: 66a2 a33e 0222 633e 968c 1b3f b2f5 b1bd
00000110: acd9 dbbd 46bf 36bf c0c4 8e3e 195d 13bd
00000120: 1fd8 f83b 1ad4 423e 9f8e dd3e f99c d03d
00000130: a1d9 9c3e 7944 5f3e bed2 653d 3a85 a7bc
00000140: 944e 3fbd edd8 02be 3c96 423f 9136 103f
00000150: 5fc4 193f 6987 2bbf 911a 783e d7f5 493d
00000160: 9d02 2c3e 5569 0ebf 17ea b03d 9c40 46bd
00000170: d0bb 44be d749 913d 9a28 03bd 31f2 6f3e
00000180: 911e 3a3e 938c 183e 8204 9dbf 10bd ca3c
00000190: 3a9e 823e d2ce 1e3d cc1a 04bc f8b1 203c
000001a0: 081c fbbc 8d02 513a 4fdc 4abc 6c68 a63e
000001b0: d4bc a13b 4dd8 4a3e 8212 6bbf 9a9a 4f3e
000001c0: ee2b 79bc 4402 443e 66be 95be c739 54be
000001d0: 4aa9 a23e 6b14 16be f38d 2ebd 0bc3 82bd
000001e0: 336a d03b 4c62 1b3f 28b2 f2bd f9a8 76bd
000001f0: 5662 d6be ba14 03bd 9dca 48be 1c02 463d
00000200: 445f cfbc db24 753d 2226 90bd 8cce a0bd
00000210: f842 43ba bd20 653e 98d0 1b3f bca9 153e
00000220: 6776 44bc 2ea1 243e 9974 84be e653 2a3e
00000230: 61b2 a63d f5dd bebb 0595 bf3e 8566 1bbf
00000240: b603 6dbc 45e1 503c 0ccf 753e ace3 6fbd
00000250: 613a 9e3d 74f5 5abe e6e1 093f e849 823e
00000260: 637e bdbc 22b3 5a3d 7953 8abf 897f 0abd
00000270: a792 1abf 5240 813c 9a3b cebc 718e 01bd
00000280: f31d 9c3e 6697 223e b638 313e ddbe 4b3e
00000290: dd52 4e3d e0fa 1a3d 1eaa 84ba ccdd a33d
000002a0: f195 143e 859d 3d3e c1f5 d93e 5761 7ebb
000002b0: f898 dfbc cbf2 e4bd d4f6 d0bc 1508 553f
000002c0: 87a7 c3be 51ab b93d 53e0 3b3d acfc 48bf
000002d0: aa8b 373e f4ab 60be 6578 3e3d f4ea 53bd
000002e0: a3c9 263e 9752 4d3e e8aa 83bd e491 7e3d
000002f0: ad39 3e3e 4b6e 4e3e 4436 48bf a14d 513e
00000300: fe20 3c3e 44ae 5e3e 8b96 79bd 90a0 913d
00000310: e128 81bf 5f41 a4bd 184e 72bc 3e73 d33c
00000320: 3d10 29bf a6bf 953d 8c04 7ebd b816 8ebd
00000330: cbb4 313d 2f9d 783d 0d81 e83e 38dc 0a3c
00000340: 2423 8abe c772 2e3d df11 d73d 3705 a6bd
00000350: 85a0 c53e a4bd 133f c1a1 4a3e b297 8a3e
00000360: e4d6 c83e 4833 8f3e 8122 133c c58d 863f
00000370: 15b9 57bd a1cd fcbc 191f 853e d2db 983e
00000380: ebc8 493e 5aa8 41bf 7145 b13c ff5e 6f3e
00000390: 92e6 d13d c4b7 8d3d 116c 3b3e 1475 ad3d
000003a0: 5e6e 07bf 013d fa3d f10c 4a3e 8b42 053f
000003b0: a26a a03e 5b8b cdbf 1dd4 5b3d a244 febc
000003c0: 5788 e23e 1f3c 0b3f 66f6 683d eef1 103f
000003d0: b209 b3be 973f b33d 1b9b b339 5cca 733c
000003e0: 4d8d c13e 259e e43b 776a 073d 4df5 09be
000003f0: c27f 8cbe bad3 7a3e d928 d2be fd7e 8e3c

fc3.bias f4 [128]
0.55094326 0.5814949 0.3161218 0.57665414 0.56588423 0.7016021 0.04681872 0.24861169
-0.09847187 0.051739357 0.14061028 0.022874089 0.5898424 -0.0117166545 -0.07444344 0.47228745
0.55272806 0.52519125 0.01734238 0.6591024 0.59737873 0.0823685 -0.07799741 -0.04644818
0.21361452 -0.083525814 0.008630967 -0.08184196 0.74447554 0.545337 0.73175377 -0.08922558
-0.16778179 -0.09099884 -0.43135282 0.62270063 -0.09722015 -0.106660165 -0.116308786 0.006667191
-0.047052886 0.026940715 -0.13505422 -0.04717955 0.6213445 0.36945856 0.14050128 -0.07460735
-0.0696452 -0.04020944 0.648742 0.64467806 0.017875103 0.5564226 -0.079845175 0.6408299
-0.30445835 0.6409023 0.44670445 0.030472042 0.66965914 -0.054323826 0.6344183 0.2193035
-0.03411851 0.692411 -0.06331213 -0.07350466 0.39181745 0.61509764 -0.077006474 0.4349887
0.60212857 0.03516622 0.37530857 -0.4504696 -0.05457807 -0.096579395 -0.065159895 -0.021909647
0.48234007 0.55475557 0.59645724 0.5346392 0.039132815 0.58280826 0.19715248 0.23256436
0.43818933 0.49588922 0.5721755 -0.037882857 -0.09395676 -0.023627028 0.48328036 -0.062270895
0.7428484 -0.09780876 -0.33886722 -0.16778179 0.6501977 -0.15155949 0.42663464 0.3244203
-0.094426155 -0.13694131 0.5557038 0.42923295 0.48130196 -0.09188418 0.5640824 -0.034345757
-0.2857606 0.5328476 0.23988618 -0.38184628 0.2831172 -0.038242463 0.047008608 -0.021429863
0.0753222 -0.10438026 -0.018804576 0.52955395 0.7575599 0.27814773 -0.069928326 -0.031122409
00000000: 9e0a 0d3f dadc 143f b7da a13e 9b9f 133f
00000010: cadd 103f 329c 333f fcc4 3f3d 1094 7e3e
00000020: 9fab c9bd a6ec 533d 24fc 0f3e 7162 bb3c
00000030: e9ff 163f 36f7 3fbc cd75 98bd a9cf f13e
00000040: 967f 0d3f ef72 063f 9b11 8e3c efba 283f
00000050: d0ed 183f d1b0 a83d 1bbd 9fbd 7240 3ebd
00000060: c4bd 5a3e 950f abbd e668 0d3c c29c a7bd
00000070: f395 3e3f 359b 0b3f 3754 3b3f e7bb b6bd
00000080: fdce 2bbe 9a5d babd 47da dcbe 4f69 1f3f
00000090: 5c1b c7bd a570 dabd 4d33 eebd 7478 da3b
000000a0: 87ba 40bd c6b2 dc3c a74b 0abe 583f 41bd
000000b0: 6f10 1f3f ac29 bd3e 91df 0f3e bdcb 98bd
000000c0: 25a2 8ebd a7b2 24bd f513 263f 9f09 253f
000000d0: cf6e 923c b671 0e3f de85 a3bd 6e0d 243f
000000e0: f7e1 9bbe 2c12 243f 72b6 e43e 81a0 f93c
000000f0: c86e 2b3f a982 5ebd 3d69 223f 1991 603e
00000100: dabf 0bbd d941 313f caa9 81bd 9c89 96bd
00000110: 4c9c c83e 0a77 1d3f 92b5 9dbd d7b6 de3e
00000120: 1925 1a3f 740a 103d 7228 c03e f4a3 e6be
00000130: 418d 5fbd 6bcb c5bd 8d72 85bd dc7b b3bc
00000140: 47f5 f63e 7604 0e3f 6cb1 183f 1dde 083f
00000150: bb49 203d ec32 153f 57e2 493e 5a25 6e3e
00000160: 5a5a e03e 31e5 fd3e 187a 123f 0e2b 1bbd
00000170: 676c c0bd 788d c1bc 8670 f73e c40f 7fbd
00000180: 502b 3e3f f64f c8bd 0180 adbe fdce 2bbe
00000190: 5b73 263f 6932 1bbe db6f da3e 6b1a a63e
000001a0: 8062 c1bd 583a 0cbe 9b42 0e3f 6cc4 db3e
000001b0: 366d f63e c62d bcbd b467 103f 23ae 0cbd
000001c0: 374f 92be b368 083f b9a4 753e 5b81 c3be
000001d0: bdf4 903e 21a4 1cbd 198c 403d ae8d afbc
000001e0: 8742 9a3d 51c5 d5bd 0e0c 9abc d990 073f
000001f0: 72ef 413f 6169 8e3e 9536 8fbd 6cf4 febc

fc4.weight f4 [128, 128]
0.19726758 0.31767538 0.030564353 0.3638002 0.31092477 0.3477158 -0.099877365 0.7008069
0.007899115 -0.10893262 -0.19606963 -0.15960637 0.28588763 0.023561832 -0.07188785 0.28716537
0.20946261 0.20473383 -0.021280063 0.17757936 0.77332383 0.089845374 -0.033947147 -0.16788611
0.02406102 0.058187924 1.066941 0.036573507 0.2161469 0.354769 0.3936736 -0.104477115
-0.12659444 -0.05286814 -0.75112814 0.3385181 0.04691132 -0.08365992 0.0827584 -0.09431439
-0.111681916 0.04380439 -0.19616948 0.05186975 0.30300042 4.012404 0.33353338 0.061354462
0.030528218 0.11991492 0.70547456 0.18671419 -0.075628094 0.33462328 0.013932299 0.42405316
-0.32330242 0.29058856 0.13633674 -0.06314492 0.30391544 -0.362119 0.42658737 0.8487381
-0.05961845 0.22852464 0.04805873 0.10346382 0.067715436 0.37624055 0.10659311 -0.06514239
0.3195797 -0.13323468 1.22959 -0.5536235 -0.01711886 0.30433035 -0.07614964 -0.011150403
0.18446156 0.41441235 0.23477674 0.4114189 -0.0035806322 0.14263307 0.2111686 0.08625024
0.1492212 0.17929627 0.38501948 -0.06950201 0.018556843 0.01862576 0.12865338 0.05959237
0.2528926 0.050748423 -0.21648958 -0.010297301 0.7007868 -0.82424295 0.06603536 -0.12126149
0.06837114 -0.9090562 0.3215358 0.019831272 0.20108314 -0.36650014 0.14795505 -0.03369382
-1.6898192 0.17333569 0.6873084 -0.27927196 0.06426753 0.029017592 0.5920779 -0.10683238
-0.19067416 0.096855074 -0.015133721 0.20146729 0.35841662 0.619804 0.092928566 0.061243452
0.08067965 -0.032106828 -0.027212664 -0.05880633 -0.10826206 -0.08754918 -0.010392297 -0.02026491
-0.017889448 0.060285285 -0.040276498 -0.071418464 0.041673496 -0.0195068 0.012448683 -0.00091163104
0.028497905 0.06779743 -0.015680881 -0.075248115 0.0356608 -0.060777035 -0.054205537 0.06481717
-0.090179265 0.032771304 0.059909027 -0.04718327 -0.07107573 0.064891666 -0.09893381 0.035338193
0.018202933 0.06865714 0.021484958 -0.06445953 -0.07896806 0.0663073 0.0011972561 0.0047570243
0.028397324 0.0905518 0.026357701 0.07546418 0.014516246 -0.03591982 0.029541003 -0.018306844
-0.008728933 -0.0093967 -0.03445007 0.009007402 -0.07240941 -0.101921536 -0.043186117 0.045868225
-0.063140765 -0.06995813 -0.025446855 0.045756467 0.063245066 -0.0070569552 0.024819134 -0.028917007
-0.021168305 -0.035362776 0.05578135 0.02795656 -0.021417903 0.062177755 -0.007098865 0.027184723
0.020626266 -0.037154663 0.04223602 -0.025538126 -0.07920442 -0.05537902 0.03856831 0.035224933
-0.029647173 -0.023856135 0.054484934 -0.039974745 0.011385099 -0.034159493 -0.051031545 -0.025571652
0.04188584 -0.0026113458 -0.01346477 -0.014243364 0.024087131 0.082283296 -0.036499005 -0.035222195
-0.070867114 0.009458168 0.059609883 0.036674462 -0.08186431 -0.05304323 -0.079047956 0.00952243
0.058472984 0.053162437 -0.03854049 0.026047349 -0.009503804 -0.09411322 0.06372191 0.04411359
-0.087318204 0.06426581 0.029257875 -0.0667557 0.043893795 -0.075983636 0.04415457 -0.013516924
-0.034349483 0.027547944 0.05398574 -0.066270046 0.040786862 -0.03818658 0.07069103 0.08475517
00000000: 8300 4a3e 59a6 a23e 1862 fa3c 0544 ba3e
00000010: 8831 9f3e ce07 b23e 818c ccbd 1568 333f
00000020: 4a6b 013c 1118 dfbd 7ac6 48be da6f 23be
00000030: dd5f 923e be04 c13c f039 93bd 5707 933e
00000040: 5e7d 563e bfa5 513e 8753 aebc 5dd7 353e
00000050: 8df8 453f da00 b83d 2a0c 0bbd 56ea 2bbe
00000060: 9e1b c53c 7656 6e3d 8691 883f 1ace 153d
00000070: 9d55 5d3e 48a4 b53e 968f c93e 19f8 d5bd
00000080: f9a1 01be 438c 58bd ef49 40bf 3f52 ad3e
00000090: 1626 403d e455 abbd 3c7d a93d e727 c1bd
000000a0: 7db9 e4bd 3b6c 333d a7e0 48be 6075 543d
000000b0: df22 9b3e 9d65 8040 e3c4 aa3e d14e 7b3d
000000c0: 5016 fa3c f495 f53d fb99 343f 0132 3f3e
000000d0: e7e2 9abd be53 ab3e 4c44 643c 7f1d d93e
000000e0: e587 a5be 06c8 943e dc9b 0b3e 2052 81bd
000000f0: ce9a 9b3e a967 b9be a969 da3e e646 593f
00000100: 7a32 74bd 5d02 6a3e 3bd9 443d d7e4 d33d
00000110: 64ae 8a3d 9aa2 c03e 7d4d da3d 6069 85bd
00000120: f39f a33e ac6e 08be 3563 9d3f 45ba 0dbf
00000130: da3c 8cbc 30d1 9b3e 58f4 9bbd 2eb0 36bc
00000140: 7ee3 3c3e db2d d43e 5069 703e 80a5 d23e
00000150: 0aa9 6abb 670e 123e 953c 583e f7a3 b03d
00000160: 71cd 183e 7199 373e 4621 c53e 1257 8ebd
00000170: 8504 983c 0d95 983c b6bd 033e 2117 743d
00000180: 247b 813e 94dd 4f3d 72af 5dbe 03b6 28bc
00000190: c466 333f 9601 53bf 8c3d 873d f257 f8bd
000001a0: 2b06 8c3d e8b7 68bf 57a0 a43e 3175 a23c
000001b0: bde8 4d3e e8a5 bbbe 8781 173e 8802 0abd
000001c0: ff4b d8bf e97e 313e 71f3 2f3f bcfc 8ebe
000001d0: b29e 833d 4db6 ed3c 6b92 173f efca dabd
000001e0: 1640 43be f45b c63d 6df3 77bc 714d 4e3e
000001f0: 6282 b73e 7aab 1e3f 5551 be3d 6ada 7a3d
00000200: 5f3b a53d 7382 03bd 18ed debc e8de 70bd
00000210: 80b8 ddbd fc4c b3bd 7444 2abc 9902 a6bc
00000220: e48c 92bc b4ed 763d f8f8 24bd d843 92bd
00000230: d4b1 2a3d bacc 9fbc 90f5 4b3c 86fa 6eba
00000240: 7074 e93c 61d9 8a3d 3175 80bc af1b 9abd
00000250: 0f11 123d 57f1 78bd a006 5ebd ddbe 843d
00000260: e8af b8bd 343b 063d 2b63 753d 3f43 41bd
00000270: 2790 91bd ece5 843d cf9d cabd c8be 103d
00000280: 511e 953c 1d9c 8c3d 3901 b03c 5c03 84bd
00000290: 02ba a1bd 1fcc 873d 40ed 9c3a d0e0 9b3b
000002a0: 81a1 e83c 3973 b93d 1bec d73c f78c 9a3d
000002b0: 8cd5 6d3c a920 13bd f9ff f13c 3cf8 95bc
000002c0: cc03 0fbc 9ef4 19bc 841b 0dbd c893 133c
000002d0: 624b 94bd 3dbc d0bd ede3 30bd 52e0 3b3d
000002e0: f24f 81bd 3546 8fbd ec75 d0bc 226b 3b3d
000002f0: a186 813d 083e e7bb 7f51 cb3c 5ce3 ecbc
00000300: 2769 adbc 8fd8 10bd fc7a 643d 2805 e53c
00000310: 9974 afbc 1aae 7e3d 999d e8bb 7fb2 de3c
00000320: 6af8 a83c 7d2f 18bd adff 2c3d 5535 d1bc
00000330: ed35 a2bd 1cd5 62bd cef9 1d3d 0548 103d
00000340: a1de f2bc f16d c3bc 982b 5f3d 8fbc 23bd
00000350: 9188 3a3c d3ea 0bbd 7406 51bd a47b d1bc
00000360: 7d90 2b3d 1d23 2bbb 579b 5cbc 005d 69bc
00000370: 6052 c53c 2584 a83d fb7f 15bd 2645 10bd
00000380: c722 91bd 6ff6 1a3c 7e29 743d f637 163d
00000390: 7aa8 a7bd dc43 59bd e5e3 a1bd f703 1c3c
000003a0: 5e81 6f3d dbc0 593d a2dc 1dbd 4061 d53c
000003b0: d8b5 1bbc 6fbe c0bd a280 823d 74b0 343d
000003c0: e3d3 b2bd cb9d 833d 36ae ef3c 36b7 88bd
000003d0: fbc9 333d 4f9d 9bbd 6cdb 343d 1776 5dbc
000003e0: 0bb2 0cbd 3aac e13c 2720 5d3d 97b8 87bd
000003f0: 2010 273d 8869 1cbd 75c6 903d 1e94 ad3d

fc4.bias f4 [128]
0.6131312 0.03724034 0.61013025 0.06684374 -0.08481478 0.16380158 0.6640402 -0.2559632
-0.2548811 0.032137647 -0.09038044 0.52947015 0.6874108 -0.08754918 -0.09668371 0.5645974
0.37176985 -0.5414609 0.4156742 0.7480587 -0.020240694 0.69585663 0.72476774 -0.2806968
-0.0757026 0.6880709 -0.07722254 0.22924864 -0.051411532 -0.050752148 -0.15261704 -0.014158614
0.6717117 0.7639747 -0.31930563 -0.032378778 0.63057584 0.013047531 0.81160897 0.13011344
-0.06456778 -0.005397317 -0.105713926 -0.48093203 -0.06916836 0.5139297 0.007384319 0.052991074
0.8338023 0.75277513 -0.23398851 -0.08266153 -0.09601314 -0.30249497 -0.094694376 -0.0408502
-0.07110553 0.046497807 -0.09732447 -0.05520765 0.63545144 -0.09708604 0.23915324 0.77055955
0.60211563 -0.10248034 -0.28221247 0.642771 0.658928 -0.42861494 -0.042053483 -0.08456146
0.755872 0.032249395 0.0070224954 -0.07977067 0.72547853 0.6456127 0.65087837 -0.10328501
0.039058305 0.7384398 0.156589 -0.10762875 0.5826967 -0.024234258 -0.16661948 -0.11686759
-0.051202912 0.9101738 0.64525294 0.5418759 0.73128396 -0.070889466 -0.28579307 0.542837
-0.19078948 0.76145107 -0.076596685 0.6804436 -0.053926136 0.44844744 0.67558885 0.48114863
0.84151053 0.006727728 -0.09244427 0.048729286 0.6932874 0.7976055 -0.07587397 0.7434333
0.6000086 0.15315059 -0.11571273 0.21306632 -0.09457517 -0.09898597 0.039263096 0.21031617
-0.058016557 -0.053941038 -0.03378323 -0.026083888 0.7069335 0.17862368 -0.24234816 -0.07105338
00000000: 2bf6 1c3f 5489 183d 7f31 1c3f 5fe5 883d
00000010: 5fb3 adbd 9abb 273e 8afe 293f 9c0d 83be
00000020: c77f 82be c4a2 033d 6119 b9bd 5b8b 073f
00000030: 27fa 2f3f fc4c b3bd 1c02 c6bd 7589 103f
00000040: 9e58 be3e 2e9d 0abf 40d3 d43e c680 3f3f
00000050: d0cf a5bc a923 323f 618a 393f 7eb7 8fbe
00000060: f709 9bbd 6a25 303f da26 9ebd 28c0 6a3e
00000070: e694 52bd 7ce1 4fbd a447 1cbe 88f9 67bc
00000080: 4cf5 2b3f d993 433f 077c a3be 9c9f 04bd
00000090: 6b6d 213f 50c5 553c 9bc5 4f3f 753c 053e
000000a0: 1d3c 84bd fadb b0bb 8b80 d8bd b93c f6be
000000b0: 24a8 8dbd e690 033f 28f8 f13b 2b0d 593d
000000c0: 1174 553f dfb5 403f af9a 6fbe 734a a9bd
000000d0: 8aa2 c4bd 9fe0 9abe 20ef c1bd 8a52 27bd
000000e0: c79f 91bd 7c74 3e3d 0d52 c7bd 6b21 62bd
000000f0: f2ac 223f 0cd5 c6bd 96e4 743e 6443 453f
00000100: 4024 1a3f 36e1 d1bd 277e 90be a48c 243f
00000110: 81af 283f 6b73 dbbe 4640 2cbd 8f2e adbd
00000120: d480 413f f117 043d f61c e63b ce5e a3bd
00000130: f6b8 393f e046 253f f79f 263f 1787 d3bd
00000140: 9afb 1f3d 640a 3d3f de58 203e 766c dcbd
00000150: 9c2b 153f ec86 c6bc 4c9e 2abe 4658 efbd
00000160: 25ba 51bd 2601 693f 4c2f 253f 61b8 0a3f
00000170: 6d35 3b3f 7f2e 91bd 7853 92be 5ef7 0a3f
00000180: 515e 43be 75ee 423f b9de 9cbd 8d31 2e3f
00000190: a7e1 5cbd e79a e53e 64f3 2c3f 1d59 f63e
000001a0: 3c6d 573f 4674 dc3b 6c53 bdbd 5c98 473d
000001b0: 487b 313f e02f 4c3f d063 9bbd a551 3e3f
000001c0: 2a9a 193f 82d3 1c3e ccfa ecbd 0f2e 5a3e
000001d0: a0b0 c1bd 28b9 cabd 57d2 203d 1f5d 573e
000001e0: c5a2 6dbd 47f1 5cbd 4960 0abd e1ad d5bc
000001f0: 98f9 343f 20e9 363e 1e2a 78be 6f84 91bd

fc5.weight f4 [3, 128]
0.48361695 0.051627602 0.26770905 0.044959247 -0.0057847723 -1.3487144 3.0540352 -0.30541193
-1.427481 0.041248005 -0.05378983 0.12617198 0.3942162 -0.015401014 0.029727269 0.49881294
0.06929045 -0.91072196 -0.04299046 0.4521571 -0.004805919 0.33712867 0.31366903 -0.09457517
0.077699386 0.29174 0.07718528 -0.624544 0.054484937 0.0066792984 -0.10499885 -0.012238202
0.6745579 0.30954963 -0.5291965 0.046598393 0.35847944 0.07675315 0.5043811 -0.00833302
0.049729086 -0.031674687 0.0044436296 -1.2350658 0.08932989 0.03359768 -0.07674569 0.048647333
1.0177987 1.5984423 0.1801797 0.015751662 0.040146105 -0.37145722 -0.13358319 0.022170419
0.07888404 0.054838844 0.020166188 0.038793813 0.48400515 -0.018052058 -0.67184764 0.54023397
0.07525599 -0.011856355 -0.3636363 0.6140769 0.3180393 -0.23007557 -0.12996216 0.03506102
0.6112839 0.021149676 -0.16134441 -0.068853304 0.47537386 0.1749595 0.41323495 0.2590898
-0.06387837 0.35527977 -0.16367687 0.069525994 0.26293254 -0.08986634 -0.16641086 -0.03711741
0.022012092 0.73590916 0.38950652 0.108341575 2.018609 -0.026635237 0.047401156 0.15634918
-0.22048788 1.4376266 0.052387573 0.49120486 -0.0155034615 -0.09582935 0.33924013 0.24592009
0.49974278 0.042012505 -0.080366716 -0.06036352 0.40787774 0.5414394 -0.07704372 0.48034495
0.31990242 -0.269972 -0.036864083 -0.13137221 -0.081767455 -0.030626936 -1.7495728 0.076341346
0.033202074 -0.00048512346 -0.007055092 -0.021658184 0.57407606 -1.1839155 -0.2941378 0.034032825
0.49548024 -0.034960434 0.67454904 -0.04000827 0.043764092 0.82278764 -0.6183471 -0.5227525
0.22208734 -0.03747156 0.0053316574 -0.025963923 0.69505 -0.037698586 -0.013235661 0.5834116
0.14365917 -1.5899742 -0.018512713 0.26722375 0.014101801 0.38951766 0.5832883 0.25953686
-0.02268824 0.36264554 0.017576784 1.1033597 0.058489673 -0.0260375 0.010379657 -0.059260815
0.5998637 0.36286333 -0.47003573 -0.029118177 -0.18042496 -0.014424044 0.20843567 -0.2646376
-0.004692017 -0.05601977 -0.04112587 -0.4212608 -0.043878898 0.090126276 -0.009898689 0.0027447592
0.6122923 0.37665498 0.18171455 0.087057434 -0.044869836 -0.24233957 -0.012105022 -0.047168374
-0.016969847 -0.048099704 0.035649627 0.005317688 0.4401297 -0.012438439 0.83632296 0.015037211
0.077372596 -0.00018359661 -0.38281217 0.5821279 0.76667655 -0.81824094 0.08458381 0.053304005
0.34075934 -0.02194852 0.0034993733 0.06727589 0.11261254 0.034017343 0.54741937 0.2635304
-0.023207925 0.47422484 0.0022762348 -0.035839614 0.3704243 0.0035358816 0.2109808 0.01734983
0.0042070714 0.57567567 0.37778923 -0.040387362 1.3261597 0.082423106 0.009285871 0.20795493
0.22986081 1.4387509 0.038488336 0.7821886 -0.061906617 -0.010952273 0.7063841 0.24318586
0.27997077 -0.051679753 -0.057122476 0.00023009058 -0.11952853 0.38133368 -0.0077130804 0.65227795
0.5853621 -0.050127648 0.08494908 0.09874246 -0.0496867 0.023874313 -0.098662086 -0.22708511
-0.03234152 -0.06763065 -0.033839107 0.0063663707 0.77406144 0.86773986 0.29875723 0.044884738
00000000: a49c f73e 7777 533d 2911 893e 3027 383d
00000010: 308e bdbb aca2 acbf 5075 4340 f45e 9cbe
00000020: b3b7 b6bf abf3 283d ba52 5cbd 3a33 013e
00000030: b5d6 c93e 8954 7cbc 9a86 f33c 6964 ff3e
00000040: 27e8 8d3d 1325 69bf c416 30bd 2381 e73e
00000050: f87a 9dbb 219c ac3e 3a99 a03e a0b0 c1bd
00000060: db20 9f3d f25e 953e 5113 9e3d 1ee2 1fbf
00000070: 992b 5f3d 04de da3b a309 d7bd bd82 48bc
00000080: d4af 2c3f 4a7d 9e3e 6c79 07bf f5dd 3e3d
00000090: 9e8a b73e c130 9d3d 1f1f 013f 3887 08bc
000000a0: bab0 4b3d 51bd 01bd de9b 913b a316 9ebf
000000b0: 97f2 b63d b99d 093d d82c 9dbd 6d42 473d
000000c0: 3a47 823f c299 cc3f 0781 383e a109 813c
000000d0: 3e70 243d a42f bebe 08ca 08be bd9e b53c
000000e0: f58d a13d b29e 603d 9033 a53c 43e6 1e3d
000000f0: 86cf f73e e9e1 93bc 35fe 2bbf c64c 0a3f
00000100: d01f 9a3d 2841 42bc 8a2e babe 2534 1d3f
00000110: 0cd6 a23e ee98 6bbe cd14 05be 259c 0f3d
00000120: 1a7d 1c3f 1642 ad3c 7837 25be f602 8dbd
00000130: 3464 f33e 9528 333e 8893 d33e 6ba7 843e
00000140: aad2 82bd 3be7 b53e e99a 27be a563 8e3d
00000150: 189f 863e d80b b8bd 9c67 2abe 6d08 18bd
00000160: b452 b43c 8b64 3c3f 666d c73e 30e2 dd3d
00000170: e430 0140 2432 dabc b727 423d 001a 203e
00000180: 93c7 61be 2604 b83f 5a94 563d 347f fb3e
00000190: 3b02 7ebc 2e42 c4bd e2b0 ad3e 7ad2 7b3e
000001a0: 49de ff3e 4e15 2c3d 4e97 a4bd bd3f 77bd
000001b0: 5ad5 d03e c69b 0a3f 19c9 9dbd c6ef f53e
000001c0: 40ca a33e c539 8abe cbfe 16bd 7086 06be
000001d0: b275 a7bd 57e5 fabc 00f2 dfbf da58 9c3d
000001e0: e6fe 073d 2b58 feb9 672e e7bb 816c b1bc
000001f0: a6f6 123f 8b8a 97bf 3b99 96be 0166 0b3d
00000200: 96af fd3e ac32 0fbd 3faf 2c3f b6df 23bd
00000210: fa41 333d 36a2 523f ff4b 1ebf 1cd3 05bf
00000220: dd6a 633e c77b 19bd 2fb5 ae3b 4bb2 d4bc
00000230: ccee 313f d569 1abd 63da 58bc 765a 153f
00000240: 641b 133e 4684 cbbf f9a7 97bc 8dd1 883e
00000250: 3e0b 673c dc6e c73e 6252 153f 04e2 843e
00000260: b0dc b9bc adac b93e 30fd 8f3c e43a 8d3f
00000270: de92 6f3d 984c d5bc 700f 2a3c 78bb 72bd
00000280: ab90 193f 39c9 b93e 86a8 f0be 3e89 eebc
00000290: 52c1 38be d352 6cbc 2970 553e 947e 87be
000002a0: 7ebf 99bb fd74 65bd 9a73 28bd 7faf d7be
000002b0: 5cba 33bd 2094 b83d 1c2e 22bc 6be1 333b
000002c0: 30bf 1c3f ecd8 c03e 6113 3a3e 2b4b b23d
000002d0: 6fc9 37bd dd27 78be 2454 46bc a033 41bd
000002e0: 5904 8bbc 3204 45bd 5805 123d 0040 ae3b
000002f0: ae58 e13e 98ca 4bbc 4319 563f a25e 763c
00000300: 8675 9e3d d783 40b9 f5ff c3be 5606 153f
00000310: ea44 443f 3d78 51bf 473a ad3d 4d55 5a3d
00000320: 0278 ae3e 62cd b3bc be55 653b f1c7 893d
00000330: 67a1 e63d c555 0b3d ad23 0c3f 75ed 863e
00000340: 8c1e bebc 99cd f23e e22c 153b 8fcc 12bd
00000350: 41a8 bd3e 40ba 673b 5a0b 583e 3b21 8e3c
00000360: 79db 893b 7b5f 133f 976d c13e 386d 25bd
00000370: 9abf a93f 72cd a83d c423 183c 23f2 543e
00000380: a260 6b3e fd28 b83f f2a5 1d3d 833d 483f
00000390: cb91 7dbd 2a71 33bc 97d5 343f b705 793e
000003a0: 5458 8f3e 26ae 53bd 42f9 69bd 7844 7139
000003b0: 60cb f4bd 2b3e c33e 02be fcbb b0fb 263f
000003c0: 4ada 153f a652 4dbd c9f9 ad3d 7d39 ca3d
000003d0: 4884 4bbd 1094 c33c 590f cabd 0089 68be
000003e0: 8b78 04bd f081 8abd e09a 0abd fd9c d03b
000003f0: e428 463f 3324 5e3f b5f6 983e 0fd9 373d

fc5.bias f4 [3]
1.065731 0.47337478 0.32553524
00000000: e069 883f 2e5e f23e 8eac a63e
