checkpoints/checkpoint_qnetwork_target_WMT_DDQN_PER.pth (torch_old, 340036 bytes, 10 tensors)

fc1.weight f4 [128, 13]
00000000: 632b 06be 2ae1 f13d 2611 4abe d699 4dbe
00000010: 7cf7 24be bec3 4e3e 87d6 07bd 02b5 783e
00000020: 9689 c9bc ce6c 963d e7c6 4abe 2b4b 6b3e
00000030: 4603 38be f6ee 77be 32f1 e7bb df50 2a3d
00000040: ea79 b63d 3566 e13d 3034 2cbe b772 98bd
00000050: e7f3 8f3d ffbc 4d3e 2f16 9bbd 2545 a03e
00000060: 8997 a6bd 9e1c 803d 219a 2f3e 8f8a 5ebe
00000070: 5811 e8bd 1023 23be eb5e 07be 3315 b23e
00000080: 41ff 35be b1bb e7bd a4a1 5bbe d8dc 5fbe
00000090: f074 9fbe 59f7 fe3e 19b9 343e b00b 2b3d
000000a0: 008e fc3c 2585 14be 9975 403d 1ed7 85be
000000b0: 48a5 28be 6876 a8bd ad34 3f3e fb80 673d
000000c0: f294 a0bd fc05 2dbe 84ab 9d3e ae30 883e
000000d0: 4c14 7d3d d6fa e8ba c93f 623e a69b 4ebe
000000e0: 5d32 a33d 720d 43be ca47 02be 94dd 97bd
000000f0: 4f79 0b3e a316 173d 2761 85be ce5f 423e
00000100: f9be 313e 839e 80bd d55c 563c 35c8 c6bb
00000110: 7447 633e 9153 633e 3f14 60be ebe5 bdbc
00000120: 3e88 e93d 3125 3e3e 7ce0 6c3e 1813 cd3e
00000130: 6c78 83bc c69d 8abe b423 b93c e104 49be
00000140: 06c3 80be 60d8 933e 1ee4 073e 8f5f 88be
00000150: e02f c43c b69f dfbc a6ef 11bd b721 d4bd
00000160: 9a0d c03e 706a a7be 547a f93c 1e0b 0e3e
00000170: 425f 173e e777 153e d653 88be 0faa 06be
00000180: bd4a 1e3e f307 ca3d 6224 45be e8f7 ecbd
00000190: d166 7a3e a104 a63e bcba ebbe 4d30 3abd
000001a0: 3581 69be 815c b43d 4a1e 32be 0c1d 34be
000001b0: cc9f 1dbe 1302 fc3d 4a51 cfbd 9b89 493e
000001c0: 5b35 f7bd 80d5 6b3e 2d8c bf3e 2ade 77be
000001d0: d618 5bbd b03c 2fbd 15cf b03c 78b3 153d
000001e0: d875 933d d75e e33c 704d 17be cd9a a63d
000001f0: bc34 a0be 40c5 eebd 3755 81bd 0f2c 82be
00000200: f8aa 13bd 3074 46be 854d e5bd 6318 c33d
00000210: 5992 21be c8ef 8d3c 1f34 c33d efa7 9bbb
00000220: 373b 913d 52ef 1d3d b56f 0a3d 585a 0e3e
00000230: b6be b33e 455b 213e d4e8 923e 8a0d 913b
00000240: 8bf7 85be ab4a efbd 0887 5e3e c47a 873b
00000250: 7ec4 43be 210a e6bd 36a7 84be 0789 82be
00000260: d5ea ccbd 4df9 be3e 1e9b f63d 1327 92be
00000270: d1f1 bf3d 4f5e 5cbe 9043 b0bd af40 16be
00000280: 9c48 e5bc 9134 60bd 5953 38be c965 64be
00000290: 21cc e4bc a382 83bd c70b 9abe b697 383e
000002a0: e482 9dbe 9446 f1bc 3e04 7f3e 9de0 00be
000002b0: d464 743e f494 143e 000b 5abe 9ce0 603e
000002c0: 3693 b2bd ab07 08be 0672 093e f45e ddbe
000002d0: d798 893e 3bc5 543d d40a 5e3e 79e9 2c3e
000002e0: 6967 443d 8664 f93d 0b8d 2f3d d9aa 1dbd
000002f0: 331d 80be 2431 9b3e 3753 523e f41d 083e
00000300: 547a 5abe 20b7 1b3e 2cde 1e3c 004d 28be
00000310: e373 31be d693 4e3e 5660 48be 3035 ecbc
00000320: a03a ec3c 7d27 363e f342 51be 56b8 fabd
00000330: 3207 03be 4e99 ce3e 8cdc 16be ef1e 8c3e
00000340: cd7d 2b3e 53f3 4a3d 86bf bd3b 3e9a 48bc
00000350: 48ab a73d 25a3 b1bd 3c54 13bd e813 d53d
00000360: f1ab 27be b03c 5fbe d4bd ee3e 9901 37be
00000370: 3334 15bc e1ce 7a3e ba61 cc3d 0c97 b13c
00000380: 5574 34be 9255 043e cf51 3ebe 23a9 07bd
00000390: ab10 edbc 1628 93bd 9266 3dbd 11ab a33e
000003a0: 84e7 b7bd 1a4b 803e 88af 1f3e 3d05 04be
000003b0: c3d9 c33d d801 37be d51d 38be d12b d13d
000003c0: 52bc 4f3d d8db 5b3e 7536 7ebc 8e91 4ebd
000003d0: b749 de3e 17f5 dcbe 6e05 713e 468c 36be
000003e0: 891c 063c 557f 20bd f295 09be 46ed f63c
000003f0: d203 823e cc61 fdbc 8cf4 11be f826 a9bd
-0.13102488 0.11810525 -0.19733104 -0.20078215 -0.16110033 0.20191857 -0.033163574 0.24287799
-0.024601739 0.073449716 -0.19802438 0.22977893 -0.17969999 -0.2421225 -0.0070783133 0.04158103
0.08909972 0.110058226 -0.16816783 -0.07443755 0.070289426 0.20091628 -0.075725906 0.31302753
-0.08134372 0.06255458 0.1714864 -0.21732543 -0.11331433 -0.15931344 -0.13219802 0.347818
-0.17773153 -0.11315096 -0.2144838 -0.21861589 -0.31143904 0.49798086 0.17648734 0.041759193
0.03082943 -0.14503916 0.04698715 -0.26140684 -0.164693 -0.08225709 0.18672438 0.05651949
-0.07840909 -0.16896814 0.3079492 0.2659964 0.061786935 -0.001777495 0.22094645 -0.20176563
0.079685904 -0.19048098 -0.12722698 -0.074153095 0.13620494 0.036886822 -0.26050684 0.18981859
0.17358007 -0.06280234 0.013083656 -0.006066347 0.22195226 0.22199847 -0.21882723 -0.023180922
0.11402939 0.18568875 0.23132509 0.4005363 -0.016048633 -0.27073497 0.022600032 -0.19630767
-0.2514879 0.2887602 0.13270614 -0.26635405 0.02394861 -0.027297836 -0.035628937 -0.10357993
0.37510377 -0.32698393 0.030453838 0.13871428 0.14782432 0.1459652 -0.26626462 -0.1315081
0.15458198 0.098647974 -0.1925216 -0.11570722 0.24453284 0.32425407 -0.46040905 -0.04545622
-0.22803195 0.08806706 -0.17394367 -0.17589206 -0.15392989 0.12305083 -0.101229265 0.19681399
-0.120707236 0.23030663 0.37411633 -0.24205843 -0.053490482 -0.042782485 0.02158312 0.036548108
0.07200211 0.027755184 -0.14775634 0.08134995 -0.31290233 -0.11658716 -0.063150816 -0.2542424
-0.03605172 -0.1938026 -0.11196426 0.09526136 -0.15778483 0.01732625 0.09531426 -0.004750244
0.070913725 0.03855831 0.03379794 0.13901651 0.35106438 0.15757473 0.2869326 0.004426663
-0.26165423 -0.11684164 0.21731198 0.004134508 -0.19117925 -0.11232401 -0.25908822 -0.2549517
-0.10005728 0.37299576 0.12041305 -0.28545436 0.09372295 -0.21520351 -0.086066365 -0.14673112
-0.027988724 -0.05473763 -0.18000545 -0.22304453 -0.027929367 -0.06421401 -0.3008711 0.18026623
-0.30763924 -0.0294526 0.24903962 -0.12585683 0.23866588 0.14509946 -0.21293259 0.21960682
-0.087194845 -0.13284175 0.13422403 -0.43236506 0.2687442 0.051945906 0.21683818 0.16885938
0.047950182 0.121773764 0.04285912 -0.03849301 -0.25022277 0.3031093 0.20539556 0.13292676
-0.21335727 0.15206575 0.009696525 -0.16435623 -0.17329364 0.20173582 -0.19567999 -0.028833956
0.028836548 0.17788501 -0.20435695 -0.122421905 -0.12795714 0.40351337 -0.1473257 0.2736735
0.16747208 0.04954846 0.0057906536 -0.012243805 0.08186966 -0.086736955 -0.035969004 0.104041874
-0.16374184 -0.21800494 0.46629202 -0.17871703 -0.009106684 0.2449298 0.09979577 0.02167847
-0.17622502 0.12923267 -0.18585895 -0.033120286 -0.028938612 -0.0718538 -0.046240397 0.3196645
-0.08979705 0.25057298 0.15594304 -0.12892623 0.09563019 -0.17871797 -0.1798013 0.102134354
0.050716706 0.21470582 -0.015515913 -0.05043178 0.43415615 -0.4315574 0.23537228 -0.17826948
0.008185514 -0.039183933 -0.13436106 0.030142438 0.2539354 -0.030930422 -0.14253443 -0.08259386

fc1.bias f4 [128]
00000000: 5895 d5bd 910a ad3e f1a2 28be 0679 f43e
00000010: 268f ce3e 4be0 b43d c7ec 083e 9be1 8b3e
00000020: b1af 29be e334 743d 6c75 953e 6ea0 20be
00000030: fbe8 fa3e 2077 15be fce6 94be e1df 82bd
00000040: 2ce5 6cbe b0c5 dd3e dd78 85bc 67d6 4fbe
00000050: f43e eabd da02 7bbe 2ff4 963d 5b7d 8a3e
00000060: c5f8 ebbd 260b 8b3e 9a13 b33e e735 683c
00000070: 462b b13d 9144 8abd ac7b d63e 2a54 023f
00000080: e03c d23a 1ec6 353e 1195 5dbe 2ceb 49bc
00000090: c4a4 823e 9e04 74be 181b 9f3e 9d7b b9bd
000000a0: f559 d8b9 24ff 76be 7cd6 9d3e a624 34be
000000b0: 2be8 9fbd 3838 5a3e a58b e73e 41db 623e
000000c0: 1e16 483c 4218 16bd 5c72 a93e a007 3f3e
000000d0: 8402 dc3e 409e cf3d 2488 d93e 32f0 31be
000000e0: 23a3 c83e 72ec 96bc 9f75 86bd 3d3f 013e
000000f0: 36dc 093d 3fd1 593e 03b3 093f 5da2 21be
00000100: 737a 8e3e b1a2 67be 3a4d 233e 33aa c53e
00000110: 8c4d d93e 971a 043f f188 a43e 3077 0c3d
00000120: ae63 71bd b0c7 25be 0fc4 ca3e 4b79 c03d
00000130: 245c 48be d6f8 f93e 250b b9bd fb6a d93d
00000140: 0f1c 0dbd 0269 2c3d 32a6 9e3d 0aee 12be
00000150: 8d49 a2be e123 7fbe 3bf7 703c e923 e33e
00000160: bf7d ca3e 974f 90be 6ffb 1e3d b60b bdbd
00000170: 046c 99bd 4433 803c 10e1 a9bd 1741 483e
00000180: adc4 a7bd a87e 573e b374 80be 505a 9fbd
00000190: 1951 ef3e ae2e 7dbd 6e6a 4d3d 46a6 fa3e
000001a0: 83a4 813e cffa 84be bd87 67bd 69d3 3ebe
000001b0: 4a08 4dbd 4b79 193e 94ad 1fbe a142 e43e
000001c0: 2f92 0ebe a39f 0ebd 8791 8b3e 32b4 c83e
000001d0: 27dd 013f 7e87 413e 3aa2 3b3e 7ab4 6b3d
000001e0: df98 5f3e d947 24be 42e5 973d af19 80be
000001f0: 9c03 57be 82ff b63e d7b2 8d3d e7aa c03e
-0.10428876 0.33797124 -0.16468407 0.47748584 0.4034359 0.08831843 0.13371573 0.2732056
-0.16570927 0.05962075 0.29191148 -0.15686199 0.49005875 -0.14596224 -0.29082477 -0.06390358
-0.23134297 0.43314886 -0.016292984 -0.20296632 -0.114377886 -0.24512807 0.07370793 0.27048764
-0.115220584 0.27156943 0.34975892 0.014173008 0.08650832 -0.06751359 0.4189123 0.50909674
0.0016039871 0.17751357 -0.21638896 -0.012324136 0.2551633 -0.23829886 0.31075358 -0.090567805
-0.00041265754 -0.24120766 0.308277 -0.17592105 -0.078079544 0.21310508 0.45223728 0.22153951
0.012212304 -0.036644228 0.33095062 0.18655252 0.4297067 0.10137606 0.4248668 -0.17376783
0.39186963 -0.018423293 -0.06565403 0.1262178 0.033657275 0.21271227 0.53788775 -0.15784593
0.27827796 -0.22620656 0.15947428 0.38606414 0.42441976 0.5160307 0.32135728 0.034293354
-0.058932953 -0.16189456 0.39602706 0.09398135 -0.19566399 0.4882266 -0.09035329 0.10616108
-0.034450587 0.04209233 0.07746543 -0.14348617 -0.3169674 -0.2491603 0.014707382 0.44363335
0.39549062 -0.28185722 0.038814005 -0.09230749 -0.074913055 0.015649445 -0.082948804 0.1955608
-0.0819181 0.2104441 -0.25089034 -0.077808976 0.4674156 -0.061812095 0.050150327 0.48954982
0.25320825 -0.25972602 -0.056525934 -0.18635334 -0.050056733 0.14987676 -0.15593559 0.44582084
-0.13922952 -0.03482021 0.27259466 0.39199978 0.50728077 0.18899342 0.18323603 0.057545163
0.2183566 -0.16043033 0.07416774 -0.25019595 -0.2099747 0.35741812 0.069188766 0.37630388

fc2.weight f4 [256, 128]
00000000: 21c8 343d 29b5 8e3d 5a49 023d a080 be3c
00000010: 3e0b 823d b4f3 043d 3079 ec3c 9291 043d
00000020: 22e3 733c 3ff3 7a3c 672c d1bc 8260 b83b
00000030: 54b8 0dbd 8dff fc3c 5ec4 c5bd 8a7c 0dbd
00000040: 8713 47bd 2c79 e53d 0f8b 87bd f8a5 493d
00000050: 48dd e93c 5601 403d 0ac3 173d 946a 993d
00000060: 6dd2 043d a346 af3c a389 463d 8bdd c5bd
00000070: 7059 7bbc 8fe5 b2bc e5ad 9c3d c0fe 9e3c
00000080: 2ade c2bd 055c c9ba 5366 d13c 6ef4 a23d
00000090: 7e0b 61bd ff12 b73c 5b6f 7bbd 9884 e6bd
000000a0: d368 c3bc eb63 33bd 4335 623d 3567 e5bd
000000b0: 8404 823d da17 ab3d bdb2 1d3d 7f26 d93d
000000c0: b2ed 41bc 31ff 24bd 8818 033c 1eb5 ba3c
000000d0: b64e e8bc 431a 97bd c14f bc3d ea95 0d3b
000000e0: 856f e63d 4a47 0dbd a24c af3c 733f 1ebd
000000f0: ebf5 3d3d 8a2d a53c 9678 e83d 2cfa fb3c
00000100: bb9d 023e 807c 513c 01d6 bc3b 4d63 e53d
00000110: 11a0 c7bc 8584 e53d 5c91 db3d 0ed7 b23d
00000120: 606d 48bd 91f4 05bd efdb c93c 20c9 983c
00000130: 3e77 d53c 9058 b93d 68da 7f3d eff9 f4bb
00000140: c444 92bc 31a3 633b 1ac7 f93c 6b68 94bd
00000150: 6197 9abc 09e3 a5bd afd8 3dbc eb95 c03c
00000160: 08e2 e13d c8f1 95bd 92fe dcbc 30e4 aabd
00000170: a0af 593c 6864 94bd daeb c73c 1a0c 1abd
00000180: 6e3e 8bbd e606 0bbd 9702 b7bc ca1d 813d
00000190: 6c52 fe3d fe6f 1ebb fbbf 8ebd a302 3c3c
000001a0: 96a5 d7bc 5fbf 0abd 2bc2 5a3c 25f5 ca3b
000001b0: cd13 543c 47ce 103d eabb 4fbd c39b 0b3d
000001c0: 3f7e a53c 7d25 8abd a0eb b93c 6c7e 483c
000001d0: 0d34 ffbc cba5 833d ab4d 073c e826 2fbd
000001e0: 18cd ad3d 5d02 84bd def0 2c3d a467 763d
000001f0: 934e bebc 77fd 583d 3f5b 563d d5d6 ae3d
00000200: c881 333b 8170 eebd f12d 093d d2d1 c13d
00000210: 0035 ac3d 0749 d3bc 79e6 35bd 0697 343d
00000220: 3c9d b3bd 52ac da3c 4094 99bd ccf4 93bd
00000230: b9f1 d63d 4619 853d 7873 3e3d 213f 0cbc
00000240: 1e69 60bd 0b49 e93c 8f21 0abe e1c5 bdbd
00000250: b961 0fbe 2382 26bd c7fb 0bbe ab2e 8ebd
00000260: e684 8fbc e96a 4c3c a7dd 833d ed80 eb3d
00000270: 6e09 9d3d 5849 e7bd 86a3 33bc eefa 3ebc
00000280: aa49 82bb 78b0 b7bd 0c6a 67bd a79f debd
00000290: 9657 fe3d 2c82 d83b 5aa7 90bd 5673 b03d
000002a0: 2809 dc3d 4c6f d03c 7cc7 93bd ae93 833d
000002b0: 2da4 103b 1d7c efbd 1c28 57bc 36c2 1fbd
000002c0: 1c88 a2bd 1c28 ddbd 0ed3 7bbd 3995 b03c
000002d0: 2fdd 793c 5bda 07be 7885 533d a1c7 523c
000002e0: 23e2 623c 0953 d23d b871 a6bd b0a6 0abd
000002f0: e5dd 80bd 7c87 a7bc aad9 f53d 26bf 623c
00000300: d4db 6a3d 9bae 473d 6053 393d 6c2f 0bbd
00000310: 8353 c23d 0927 fc3d e849 e5bd 50d0 22bd
00000320: 5d00 283d e760 9dbd 4f72 9abd 405c c13c
00000330: 0433 56bd cbc7 193d 3908 57bc ece5 723d
00000340: 30da 843d 56a7 413d 86fe 513d 80ba 9c3d
00000350: 034e 02bc 66cd 34bd 2e22 81bd c602 f23a
00000360: 11ec 91bd 5bd4 883d 54aa 80bd 97cf 533c
00000370: 3b15 083b 0aef 773a abe1 853d e909 d73b
00000380: ef1f 21bd 9a4b 1b3c 14c9 a9bd 4842 18bd
00000390: 824e 87bd d351 5ebc ba70 7dbd 53f7 9abd
000003a0: bce6 3d3d 7b08 1b3c 8a6d 033e 56ff fabc
000003b0: b64b a5bd 4583 a43c 81fa fbbb ed62 303e
000003c0: b61f 8fbc 1209 ba3b 28d7 9bbd 7f96 893d
000003d0: 0201 bc3b 049a 69bc 4a34 ff3d 548d 413d
000003e0: 22fa 193d 87b5 a1bc ac09 e93d c09a 743d
000003f0: b476 933d e073 623d e713 233d 4445 f13b
0.04413617 0.06968147 0.031808235 0.023254693 0.063498005 0.032458976 0.02886638 0.03236539
0.014885696 0.015316783 -0.025533868 0.005626739 -0.034599617 0.030883575 -0.09656595 -0.034542598
-0.048602607 0.11204752 -0.0661832 0.049230546 0.028547898 0.046876274 0.037051238 0.07491031
0.03242724 0.021395987 0.048471104 -0.096613966 -0.015341148 -0.021837978 0.07650355 0.019408584
-0.09515031 -0.0015362507 0.025561487 0.079567775 -0.0549426 0.022347925 -0.061385494 -0.11255759
-0.023853695 -0.04379646 0.055226576 -0.11201326 0.063485175 0.08354159 0.038500536 0.10603046
-0.011836456 -0.040282432 0.008001454 0.022791442 -0.028357845 -0.07378056 0.09194899 0.0021604248
0.112517394 -0.034491815 0.021398846 -0.03863473 0.046377104 0.020163316 0.11351125 0.03075894
0.12755482 0.012786031 0.005762816 0.11200581 -0.024368318 0.11206917 0.107210845 0.08732425
-0.048932433 -0.03270394 0.024641005 0.018650591 0.026057836 0.09050095 0.062464148 -0.0074760835
-0.017855056 0.003473472 0.030490447 -0.07246479 -0.018871011 -0.08099944 -0.011587306 0.023508986
0.1102944 -0.07321507 -0.026976857 -0.083443046 0.013286501 -0.072457135 0.024404455 -0.037609197
-0.06799017 -0.033942126 -0.022340102 0.0630451 0.124180645 -0.002417564 -0.06970211 0.011475238
-0.026324075 -0.033873912 0.013351957 0.0061937743 0.012944174 0.03535297 -0.05071632 0.034084093
0.0202018 -0.067454316 0.022695363 0.012237173 -0.03115275 0.06428107 0.008258264 -0.042761713
0.08486384 -0.06445763 0.042221896 0.060157433 -0.023230826 0.052976098 0.052333113 0.0853707
0.0027390588 -0.11642552 0.03349108 0.09463848 0.084085464 -0.025791658 -0.04440925 0.04408934
-0.087702245 0.026693497 -0.074989796 -0.07224426 0.10495324 0.06498961 0.04649684 -0.008559973
-0.054787748 0.028477212 -0.13489364 -0.09266258 -0.14002122 -0.04065145 -0.13670264 -0.06942495
-0.017519426 0.012476661 0.06438761 0.114992 0.07667814 -0.11293286 -0.01096428 -0.011656506
-0.0039760666 -0.089692056 -0.05649762 -0.10870295 0.124190494 0.0066073146 -0.0706317 0.086157486
0.10743934 0.025443695 -0.07215783 0.06424652 0.0022070513 -0.116935946 -0.013132121 -0.039003573
-0.07936117 -0.10798666 -0.061480574 0.02155553 0.015250488 -0.1326689 0.051640958 0.012864978
0.0138478605 0.10269744 -0.08127159 -0.03385037 -0.06292323 -0.020450346 0.12004407 0.013839519
0.05733855 0.0487505 0.04524553 -0.033980772 0.09488585 0.12312133 -0.11195737 -0.039749444
0.04101597 -0.07684498 -0.07541334 0.023603559 -0.052294746 0.037544053 -0.013124519 0.0593013
0.064869285 0.047278725 0.051268123 0.076527596 -0.00795317 -0.044141196 -0.063053474 0.0018463961
-0.07125104 0.066811286 -0.062824875 0.012927911 0.0020764607 0.0009457922 0.065371834 0.0065624607
-0.039337095 0.009478474 -0.08290306 -0.037172586 -0.06606771 -0.013569313 -0.061875083 -0.075667046
0.046362624 0.009462471 0.12834755 -0.030639332 -0.08071081 0.020082125 -0.0076897745 0.17225237
-0.017471176 0.005677351 -0.07609397 0.06718158 0.005737425 -0.014257912 0.12461145 0.04725392
0.03759206 -0.01973988 0.11378798 0.059717894 0.07200375 0.05528629 0.039813902 0.0073629934

fc2.bias f4 [256]
00000000: 08a9 843d 3bc8 893c 2da9 d63d 88e0 5b3e
00000010: 6369 033d 8f84 233e 75d2 293e 2631 0dbe
00000020: 3379 cc3d 3562 2a3e 1573 3f3e 0b15 a83d
00000030: 2d73 263e 0958 8cbd bd1c 243e b047 493e
00000040: 23cd 5f3e 48e1 5e3e cab9 6f3d c462 4d3e
00000050: aef3 343e 4fb4 d93d ab38 843e 2540 673e
00000060: 3cf6 1f3e 082d 093e 66ba 0c3e 3692 3b3d
00000070: 9ce8 5c3e 3d53 1b3e b1bd af3d 06d8 233d
00000080: 6323 4d3e a930 3e3d 3601 0e3e 2577 a03e
00000090: 23b4 813e a165 693e be21 1a3c 93dd cd3d
000000a0: 5b75 533e 4349 4b3e 6fca 153e 3adc 4a3e
000000b0: 7404 773d ae65 2e3e 64c1 9f3d ae54 003d
000000c0: 958f 243e c406 943d 4a30 69bc f1ad 223e
000000d0: 5def 503e 1b5f 0e3e 036d 883d 525e 0f3c
000000e0: afde 443e 8e64 033e 125d 093e 8de0 1a3e
000000f0: 9055 523e fe08 e13d 765c 133e 1c48 713e
00000100: 970e 863e ece6 5a3e e9c6 5b3e aa4e d43d
00000110: 14b7 2c3e c264 ca3d 60a8 2b3e d3e8 4f3d
00000120: a447 223c 0a78 f73c 52c9 083e 33b1 083e
00000130: 9f8d 083d 234b 1f3e d00d 5f3e 8367 073e
00000140: ff2a 443e bc94 503e 38f5 373e cffe a0bd
00000150: 88ac 4a3e 2876 4d3e 16ee 8dbd f4c6 2d3e
00000160: 4eb2 503e a6bb 213e 81ce 003e 984e ce3d
00000170: afbc bb3d 64bf 2abc 9f10 c03d f04d 743e
00000180: 289d 12bd 194a 6c3e 65ac ad3d 569d 863e
00000190: 0949 6e3e 98ad 603d 198c 253e ad79 c33d
000001a0: 3af0 413e 2df0 cc3d e4c0 5b3e 5a53 783e
000001b0: f67d 433e 9afd b03d df8a a5bb 6cdd 05bd
000001c0: b4bd 3c3e 2487 3b3e 1a98 6a3c 4263 943d
000001d0: 66b3 003e 2d29 853e fe9f ba3d df0e 443e
000001e0: a199 3b3e 5c16 de3d da96 0c3e 8223 713e
000001f0: 0b15 243e f78e e93d 5d47 6c3e e4f3 bc3d
00000200: 8997 233e 9c12 393e 794f 423e d126 393e
00000210: 2712 0e3e b3b8 4c3e f455 073e c3ea 3e3e
00000220: e6d3 273e 5e32 f23d 7593 273e bb78 843e
00000230: 6e96 be3d 251a a33e 8417 253e ecc7 5b3e
00000240: 6a0e f13d d32c d03d a8c1 1b3e 29a8 27be
00000250: 7806 ff3d 1d9b 4b3e b5d8 a93d daac ed3c
00000260: b536 2b3e e6ff 4fbe 34d6 023e ee0a 623e
00000270: d6b9 393e a795 2a3e cb3f a33d b4a6 903e
00000280: eecd 273e 41df a63d 4419 133e c76b 713e
00000290: a34e 943d e3eb ce3d daa4 393e b779 403e
000002a0: 7092 193e c547 153e e1b5 6f3e b1d5 2b3e
000002b0: 01e8 8c3d c6b3 7d3e 6300 873e c250 b73d
000002c0: 84aa 993d 1783 1c3d addf 6f3e 1364 a33b
000002d0: d571 313e b0e5 203e d839 6b3e 14f4 0f3e
000002e0: b8b6 003e e925 2b3e a4e1 56bd 8046 6e3d
000002f0: 8f2a f73d 682f 563e b530 373c 579a 4f3e
00000300: 53a2 58bc c5e5 283e 2e64 353e e81c cabb
00000310: e3c2 4a3e c8af 3d3d 0777 853d 0698 c33d
00000320: 504c 453d 621e 023e a6b0 3e3e a826 843d
00000330: 7542 283e 1e8d 403e ba81 643e e2bf 1e3e
00000340: da9f 7e3e 63ef 4d3e 810a 113e 4e12 3f3e
00000350: 0672 313d 6397 263e 1e55 d43d 3db3 4d3e
00000360: d71c 733e 2c10 f63d 3d7b 053e 7cba 973d
00000370: e3a1 433e 6d83 753e 226b 893d 760e 793e
00000380: 422a cb3d 38dc 903e 99eb 283e 4ea3 443e
00000390: 9068 533e e8bc 563e b7b9 433e 0942 6b3e
000003a0: a3d8 233e 3780 103e bd30 693e f795 4a3e
000003b0: 950d 293e c3ac f33d 0964 b93d 0ebc fc3d
000003c0: fb41 4d3d 73fb 853d 3604 713d ed06 c33d
000003d0: cdd8 603e c072 903e 38f1 a6bd 2866 193e
000003e0: e9df 653e 3496 593e 084d 68bd db9b 473e
000003f0: 419c 3a3e 2f82 493e e619 db3d ba6d 713e
0.06477553 0.01681911 0.104814865 0.2147237 0.032082926 0.15968536 0.16584189 -0.1378828
0.099840544 0.16639026 0.18696244 0.08207139 0.16254874 -0.06852729 0.16026588 0.19656253
0.21855597 0.21765625 0.05852679 0.20057207 0.17671081 0.10630094 0.25824484 0.22583063
0.15621275 0.13396084 0.1374298 0.045793734 0.21573108 0.15168472 0.08581103 0.040000938
0.2003303 0.046433125 0.1386765 0.313409 0.25332746 0.22792675 0.009407459 0.100520276
0.20650236 0.19852166 0.14628004 0.19810572 0.06030698 0.17030975 0.07800558 0.031330757
0.16070397 0.07227853 -0.014232704 0.15886666 0.2040381 0.13903467 0.06661417 0.008750515
0.19225572 0.12831327 0.1341441 0.15124722 0.20540452 0.10988043 0.1439074 0.23562664
0.26183006 0.21377152 0.21462597 0.103665665 0.16866714 0.09882499 0.16763449 0.050759148
0.009904776 0.030208606 0.13358048 0.13348846 0.033338185 0.15556006 0.21782613 0.1322308
0.19157027 0.20369238 0.17964637 -0.07861101 0.19792378 0.20064604 -0.06930177 0.16970426
0.20380518 0.15794238 0.12578775 0.10073584 0.09166848 -0.010421608 0.0937817 0.23857856
-0.035794407 0.23075141 0.08480147 0.26291913 0.23270048 0.054853052 0.16166724 0.09544692
0.18939295 0.100067474 0.214603 0.24250546 0.19091019 0.08642121 -0.005051955 -0.032681867
0.18431741 0.18313271 0.01431849 0.072454944 0.12568435 0.26007977 0.09112547 0.19146298
0.18320324 0.108441085 0.1372942 0.23548701 0.16023652 0.114042215 0.23074098 0.09226206
0.15975775 0.18073505 0.18975629 0.18081214 0.13874112 0.19992332 0.13216382 0.18644242
0.16389427 0.11826013 0.16364844 0.2587336 0.09306036 0.31855884 0.16122252 0.21462983
0.117703274 0.101647995 0.15210593 -0.16372742 0.12452406 0.1988339 0.08293287 0.029013086
0.16720088 -0.20312461 0.12777025 0.22074482 0.18137297 0.1665865 0.07971152 0.28252184
0.1638715 0.08148051 0.14365107 0.2357627 0.07241561 0.101035856 0.18129292 0.1879643
0.14997268 0.14578159 0.23409225 0.16780736 0.06880189 0.2477561 0.26367483 0.0895095
0.075032264 0.038210955 0.2342517 0.004986295 0.1732858 0.15712619 0.22971284 0.14057952
0.12569702 0.1671368 -0.05246128 0.058172703 0.12068664 0.20916522 0.011181046 0.2027372
-0.013222295 0.164939 0.17713997 -0.0061679967 0.19800906 0.046310216 0.06516843 0.095504805
0.04816848 0.12706903 0.18622074 0.064526856 0.16431601 0.18803832 0.22315112 0.15502885
0.24865666 0.2011085 0.14164163 0.18659326 0.04332163 0.16268687 0.10367797 0.20087905
0.2374147 0.12014803 0.13035293 0.07408616 0.19104724 0.23975916 0.06709887 0.24321923
0.099201694 0.28293014 0.16496123 0.19202921 0.20645356 0.209705 0.19113813 0.22974409
0.16000609 0.1411141 0.22772498 0.1978377 0.16509087 0.11898186 0.09052283 0.12340556
0.050111752 0.06542101 0.058841906 0.09522805 0.21957703 0.28212547 -0.081514776 0.14980376
0.22448696 0.21248704 -0.056714088 0.19493048 0.18223669 0.19678567 0.10698299 0.23577014

fc3.weight f4 [128, 256]
00000000: c485 383d 8822 f5bd 6c47 99bc b3e5 be3c
00000010: 206d 01be de03 4abd d89d ca3c f057 85bd
00000020: 7abc e63d c591 593d 8cd5 71bd c804 41bc
00000030: 52f0 ea3c 6ccc f9bc dfe1 8c3c 3da7 29bd
00000040: f850 d83c c954 efbc 6ef1 e1bd 8628 943d
00000050: 3bea 883d 88bf 143e fc64 6fbb 51c0 933d
00000060: 5dff 5d3d f7bc 75bb c017 363b 05b5 ec3d
00000070: 9a27 b83d 61ab 6d3c 3fc6 cc3d 3c9e 963a
00000080: a6fa 933d 58b9 e7bc 6d71 5d3d 1278 533d
00000090: 9c6e d5bc 68be ba3d 1783 a2bc c185 2fbc
000000a0: c08e 983c a8b1 1b3d 5e80 1cbc bbf5 84bd
000000b0: 7bb2 9839 01bb b73d ec4f 61bd 4d06 edb9
000000c0: 9896 993d 2462 18bc dcc6 1d3e d7e4 0f3c
000000d0: 7bc3 d53d 00b0 64bd 664a 493d f6b6 b1bc
000000e0: badd 953d e391 4ebe b1c4 3fbd 8bde 1e3e
000000f0: 025b 3ebd 4bcf 373b d825 843c 6f3e cd3d
00000100: e280 733d 4a7f 983d dc62 44bd 56fc 533c
00000110: 5e98 f7bd d8e3 19bd bed1 bcbd 755a fa3a
00000120: d0b2 01bc a8bb 10bd f34b 2e3c 7fb4 843d
00000130: 0823 a03d 80d5 4bbe 3df6 24bd 30c4 973d
00000140: dcf9 4cbc b3dd 1f3d e769 8f3d a263 23be
00000150: 493a c53d 8b9e 173d 215e 953d 283e 20bc
00000160: af39 923d c7d6 c1bc b110 1bbc 0542 273c
00000170: ad8b 243e 29fa ea3d 960d c2bc 10ff fe3d
00000180: bb09 8abe 9ced 503d 5efd 073e 9a77 c23d
00000190: 0a1e 7fbd b9a1 32be af32 103d 8ceb ae3d
000001a0: 5c1e 353d 3abd f33d ac00 c03c 2468 af3d
000001b0: 81ad 923d ae56 4abd 8bc4 013e 9f24 a8bd
000001c0: b8c0 9fbd b024 0abb 572c 2abd 85e7 ab3c
000001d0: a381 44bd dd2b 7a3e 9d40 173c c323 3dbd
000001e0: 5fe9 edbd 9211 0fbd 271d 85bc 9e00 2b3d
000001f0: 804d 313c 3a3b c73d c6e5 e43c 2ede debc
00000200: 836c df3c e890 c7bc 70fd 6f3d 05ec 403d
00000210: ceaf ac3c eab9 2fbd e539 a53d 7719 cc3d
00000220: 7c02 58bd 6856 79bc ec4d 3a3e a5ca 003d
00000230: 4487 97bc 6f1e a8bc b47f 173d ad34 3fbd
00000240: b5b6 0fbc e159 2cbb 5d24 5dbe c294 053d
00000250: 70d2 1e3e 2d46 ddbb 4645 c63d 2611 51bd
00000260: cc83 9f3d 66e0 35be 3cbd e0bc 7d90 3ebd
00000270: f91f ff3c 73a1 14bd 9147 65bd 0e1c 4e3d
00000280: 6a08 12bc c7cb 373d adf5 023d 6b04 d4bc
00000290: 7541 973c 8997 043d c43e 2cbd 71d5 a53c
000002a0: d8a0 103d 4d20 ec3c 2a50 d9bb 3234 743d
000002b0: 10c8 843c 5883 683a 1c00 afbb c13d 65bd
000002c0: 7faf 293d 448d bbbc c09e dd3c f32b fcbd
000002d0: 4f23 b83c a958 3dbc e8fd b33d 56fe 363e
000002e0: 10a6 8bbc 33d6 9f3d 130b 063e 0685 66bc
000002f0: 5388 c23c 13a2 c93c 752f 623d afc1 0d3e
00000300: db56 86be 7859 ab3d 2c4e 373e e3cd 833d
00000310: da73 fc3c 93bd 3fbc fa6a 3f3e 7900 8bbc
00000320: a4c6 9e3d 5fc5 49be 391a 67b9 fc09 cdbb
00000330: 7443 23bc 27d5 e6bc f59a 91bc 6384 813d
00000340: 08cf 203d cd24 1c3d a2c2 583d 476c 183c
00000350: 35b2 653e 833f 1c3d 36bf 40bd e832 943d
00000360: f7c4 d7bd 7a9c 293d 8952 96bc 1fa9 fbbc
00000370: 085e 9e3e b61f e93d 52e7 73bd 5d99 f73a
00000380: d504 d73d d92e f7b9 a058 1ebd 76c2 69bd
00000390: 7bf1 8b3d bb4c 033e 4eec 223d 037a 1fbd
000003a0: dc92 553c f9ac 0b3c cb89 de3d 1f3c 0abd
000003b0: 3547 3bbd 0538 453d 1a95 943d 5a54 f938
000003c0: ebcc 963d eb2e 4f3e 9da7 153d fb5c 19bd
000003d0: b403 c43c 5b67 d63d 765d 30be 99fb 7c3d
000003e0: f67e df3d b138 283e 31a7 40be 8f64 2a3d
000003f0: fd21 39bd 9237 b03d 9afe 0a3d 99cb 653e
0.045049444 -0.11969477 -0.018710814 0.023302888 -0.12639284 -0.049320094 0.024733469 -0.06510913
0.11266418 0.053117532 -0.059041545 -0.011780925 0.028679047 -0.030492984 0.017197547 -0.041419256
0.026405796 -0.029215233 -0.11032377 0.07234292 0.06685301 0.14526188 -0.0036528697 0.07214416
0.05419861 -0.0037496665 0.0027785152 0.11557964 0.089919284 0.014506192 0.0999875 0.0011491249
0.07225542 -0.028286621 0.05406325 0.05162818 -0.02605372 0.09118348 -0.0198379 -0.010713042
0.018622756 0.038011223 -0.0095520895 -0.06492182 0.00029124678 0.08971215 -0.05500786 -0.00045208857
0.074994266 -0.009300742 0.1540789 0.008782587 0.104376756 -0.05583191 0.049143218 -0.021693688
0.073176816 -0.20172839 -0.04681844 0.15514581 -0.04647351 0.002804714 0.016131327 0.10021674
0.059449084 0.074461535 -0.047945842 0.01293858 -0.120896086 -0.037570804 -0.09219693 0.0019100445
-0.007916167 -0.035335213 0.010638225 0.064797394 0.07819182 -0.19905663 -0.040273894 0.07410467
-0.012510743 0.03902979 0.07002621 -0.15955976 0.09630258 0.037016433 0.07293344 -0.009780444
0.071399085 -0.023661984 -0.009464429 0.010208611 0.16068907 0.114734955 -0.023688119 0.12450993
-0.2696055 0.051007852 0.13280246 0.094954684 -0.062284507 -0.17444505 0.035204586 0.08541021
0.044218406 0.119013265 0.02343782 0.08564785 0.071619995 -0.04939907 0.12672631 -0.0821011
-0.0780043 -0.0021078996 -0.041546192 0.02098442 -0.047975194 0.24430795 0.009231714 -0.046176683
-0.11616778 -0.034928866 -0.016249252 0.041748635 0.0108217 0.097280934 0.027941596 -0.027205553
0.027273422 -0.024361089 0.058591306 0.047100086 0.021079924 -0.04290191 0.08067683 0.099657945
-0.052736744 -0.015218355 0.18193787 0.031443257 -0.018497117 -0.020522324 0.03698702 -0.046681095
-0.008771588 -0.002629869 -0.21595903 0.03261257 0.15509963 -0.0067527504 0.096811816 -0.051041745
0.0778881 -0.17761382 -0.027433984 -0.046524514 0.031143175 -0.036286782 -0.055976454 0.050319724
-0.008913139 0.04487207 0.031972576 -0.025881013 0.01846383 0.032371078 -0.042052045 0.020243378
0.035309643 0.028823996 -0.0066318708 0.05962009 0.016208678 0.00088696694 -0.005340589 -0.055967096
0.04142713 -0.02289451 0.027053237 -0.1231307 0.022477774 -0.011556783 0.08788663 0.17870459
-0.017046958 0.07804527 0.13090162 -0.014069801 0.023746645 0.024613416 0.05522104 0.13843416
-0.2623814 0.08366674 0.17900914 0.06435754 0.030816961 -0.011702913 0.18693152 -0.016967999
0.077527314 -0.19704197 -0.00022039645 -0.0062572937 -0.009964813 -0.02817781 -0.017774085 0.06324079
0.03925994 0.038121033 0.05291999 0.009303159 0.22431262 0.038146507 -0.047057353 0.07236272
-0.10535615 0.041408993 -0.018349903 -0.030720292 0.30931115 0.113830015 -0.059546776 0.001889031
0.104989685 -0.00047146415 -0.038658738 -0.057070218 0.06833168 0.12822239 0.03977614 -0.03893472
0.013035502 0.008525127 0.10866126 -0.033748742 -0.045722205 0.048149128 0.07255001 0.00011888957
0.07363304 0.20232742 0.0365368 -0.03744219 0.023927547 0.10468932 -0.17223153 0.06176338
0.10912888 0.16427876 -0.18813778 0.041599806 -0.04519843 0.08604349 0.033934213 0.22440948

fc3.bias f4 [128]
00000000: 03b1 013e f2d7 343e 65d5 623d d83d 143e
00000010: 50a6 e53d fff4 0c3e beb3 963d 2aac 373e
00000020: 4857 343c 0e34 70bd fadc ba3d 1f9b f63d
00000030: 8075 a83d 409e 443e 370a 41bd b0c2 e33d
00000040: c2a3 e53c 36d1 153e d8a9 973d 257f 4a3d
00000050: a8af ac3d 1a2e 79bc 9e93 7d3d b99c be3c
00000060: 13f8 1d3d 99a7 913d 5902 e03d a869 103e
00000070: 8fb2 aa3d 5c60 da3d 94b6 2a3d e570 a03d
00000080: 4e19 233c 1e22 c63d 8b5f cb3d 776b 123e
00000090: 035c c73d cbd0 c03d 6c1c 693d 0aa0 35bd
000000a0: 1b94 81bd a1a4 f63c b901 eabd 9ca3 cf3d
000000b0: bb9a 8f3d 1200 e63d 583a 1f3e e002 f13d
000000c0: 3310 0e3e 819d 183e eabe 373e 1ce0 0b3b
000000d0: ad60 a73d 788e 4fbd 6317 e13c 288d 493e
000000e0: 2a0b 7dbd 880b 993d 1798 093d 55d4 a33d
000000f0: af35 c3bc 9314 133d 8fc2 1d3e 43c4 83bc
00000100: a6c1 8f3d 97bc 82bd 2121 bd3d 29e2 2e3e
00000110: 45ab b53d 3f56 ad3d 0074 2e3e ea48 7abd
00000120: d710 4f3e e203 bcbc 906a a93d e139 b33c
00000130: 17f5 553d 8259 413e 3b7e 9abd f425 ad3d
00000140: d699 b63d 5314 d33d 32bc d23d 2331 c23d
00000150: c573 2c3e dded cc3d f29f 353e e5f5 cb3c
00000160: cec6 3c3e 88c6 ab3d e470 203d 76cc 693a
00000170: 8476 7c3d 110a 7ebc b07a 5dbd f3e4 9b3d
00000180: 5a5a bb3d de73 183e 7642 f43d b828 b63d
00000190: 9660 bd3d 3d2f 3c3e 9f7b 0e3e 7e68 8bbc
000001a0: 8175 c43d 669f ef3d 409e 283e 6358 093e
000001b0: 31c1 fd3d a667 cb3d b14a aa3d 4ebd 48bd
000001c0: 1a0a 3fbc e56c a4bb b07d a93b e1fa 003d
000001d0: 68ce aa3c fece 31bc 6634 d23d 4e68 f9bb
000001e0: 95f3 64bd d273 253e 102a 13bd df4f 053e
000001f0: bcf8 d43d f3f0 bb3d 24fc 673d 6a61 383e
0.12665181 0.17660502 0.05537929 0.14476717 0.11213362 0.13765334 0.07358502 0.17936769
0.011007138 -0.058643393 0.09124179 0.12041306 0.08225536 0.19200993 -0.047128882 0.11121118
0.028032187 0.14630589 0.07405442 0.04943766 0.08431941 -0.015208745 0.061908357 0.02326809
0.03856666 0.07112045 0.10937948 0.14102805 0.083348386 0.1066291 0.041678026 0.07834033
0.009954764 0.09674476 0.09930333 0.14298807 0.09734347 0.09414824 0.05691187 -0.04434208
-0.06327077 0.030107798 -0.1142611 0.10138628 0.07011934 0.11230482 0.155496 0.117681265
0.13873367 0.14903833 0.17943922 0.0021343296 0.08172736 -0.05067298 0.027476972 0.19682753
-0.061778225 0.074729025 0.03359231 0.079994835 -0.02382931 0.035908293 0.1540625 -0.016084796
0.070193574 -0.06383627 0.092348345 0.17078461 0.08870558 0.08463716 0.17036438 -0.061104693
0.20221268 -0.02295107 0.08272278 0.021878185 0.05223569 0.18881801 -0.07543608 0.084545046
0.089160606 0.10306611 0.10289802 0.09482028 0.16841038 0.10006306 0.17736796 0.024897525
0.18435213 0.08387476 0.03917016 0.00089187117 0.061636463 -0.01550533 -0.054072082 0.07612028
0.091480926 0.1488795 0.11926739 0.08894485 0.09246938 0.18377395 0.13914345 -0.0170176
0.095927246 0.11700325 0.16466618 0.13412623 0.12390364 0.09931879 0.083150275 -0.04900866
-0.011660123 -0.005017864 0.005172454 0.031489257 0.020850375 -0.010852573 0.102639005 -0.007611311
-0.05589636 0.16157463 -0.035928786 0.1301875 0.10399005 0.09176817 0.056636944 0.1800591

fc4.weight f4 [128, 128]
00000000: c09c a23d 239c 85bc 18f2 10bd 75df 6bbd
00000010: 923f b7bd fd74 a7bd c0f9 9fbb 880c ddbc
00000020: 0500 abbc 3b1b 8b3d 5869 13bd c913 a1bd
00000030: c725 5e3d bd5a 22bd 533c 9c3c 5acc 413b
00000040: 405e 223d 97cf 9c3d 1910 a5bc 4024 9bbd
00000050: 8803 2b3d a622 33bd 784d 54bd 4567 783d
00000060: 17cb a6bd c03f a53c 44a1 663d df53 85bd
00000070: 9b71 8dbd c802 a83d 628b b4bd d380 9b3c
00000080: 0880 a93c 3f16 553d 791e f93b a382 43bd
00000090: 551b aebd 8df1 383d e130 e8ba b0e0 9b3b
000000a0: 6f90 d03c 6bee 9f3d e921 b43c 5c14 683d
000000b0: 4eb2 ce3c 897f 27bd 31e5 373c aa7b bdbc
000000c0: b9aa ebbc c085 11bc 0a8b bcbc 9b36 02ba
000000d0: 3398 88bd e4f5 a3bd cbb1 41bd 6ce9 243d
000000e0: ac75 57bd 1728 88bd 00e4 93bc 45ca 343d
000000f0: a71a 973d b6ff 483b 3d5e 303d 72ff bcbc
00000100: 8769 01bd f0c5 9abc 4d93 363d e1cb bc3c
00000110: 5434 55bc e6fd 873d 18e1 17bc 7bec 113d
00000120: d9d4 f13c b4a7 adbc 07e6 583d bede bebc
00000130: 7e9e b7bd 31db 68bd 45c1 293d ce0e 0a3d
00000140: daa3 b5bc d48b 15bc e218 853d f204 babc
00000150: f9d3 7a3c 2c81 d3bc 0070 9ebd 8e5b 38bd
00000160: d8d6 e03c 0d86 f33b d0f3 10bc 7d39 73bc
00000170: 7d23 7f3c ac97 a23d 4070 adbc 9201 39bd
00000180: 24d7 90bd 458b b23a 5fbd 5b3d 05f7 b83c
00000190: 92dd bebd a430 59bd 3995 a0bd 88c3 a43c
000001a0: a1d1 3a3d 0e42 4f3d 8d58 2cbd 4cdf a13c
000001b0: fb14 c5bb 4a82 b2bd 328d 8e3d 2ace 5e3d
000001c0: 6db2 a9bd 07ac 913d 9e64 303d 379d 8ebd
000001d0: 7e08 773d b58b a1bd 2f35 5a3d cab1 c1ba
000001e0: 5ce8 c3bc aecc 873c d792 4a3d dcd2 9bbd
000001f0: 0af9 4b3d dbee 0ebd a2bc 8a3d a8e0 a83d
00000200: 74eb 003e d271 af3d a62e e0bd aee0 48ba
00000210: 7929 ab3c b93a b6bc 440a 4ebc 9615 42bd
00000220: 44b2 46bd 2ba0 12bd 502f d43c e373 633d
00000230: 946e e53d 2628 ef3d 4ea3 043d 4e53 3abd
00000240: 52be 693d 887f 983d a051 42bd f3ed 9a3d
00000250: 3a0c 803d daf3 493d 9201 1ebd f02c 123d
00000260: 609b 29bd e26d 1c3d ddfa e53d d1e8 cb3c
00000270: 1a1b 70bd 9aa1 8f3d f7f9 383d cd39 503d
00000280: a5ae 45bd 2014 ad3d 98ba 82bd 056c 943d
00000290: e339 963d 1111 753d d841 a4bd b013 113d
000002a0: 09f4 37bb edbf adbd 871c 5fbd 5704 863d
000002b0: 49a8 d63b 2092 e8bc fe4f 2d3d 9f15 863d
000002c0: 5f30 b43c f3dc 00bd 4eb5 3bbd 218c 823d
000002d0: 1406 8bbd 843c a6bc db0a 823d 8aee e0bc
000002e0: 4bb9 463d af47 29bc 6f13 aabd 1a36 333d
000002f0: f123 603d a01d a63c d068 ed3d ce71 063d
00000300: 75b9 a23b ceca 73bd 5a73 003d 430b 44bd
00000310: ca22 80bc 8925 943d 8c8f 893c 3fe6 83bc
00000320: cff5 99bc 31a2 a53e 8e27 303b f2c5 b7bd
00000330: 2289 c9bd 4866 853c 8aaa 0ebe 217f 62bd
00000340: d73b 8c3d 1fb7 803d 1bf1 7c3d df39 ddbd
00000350: d20c b03d 8108 d23c bb85 903d 44ac d1bb
00000360: 66c4 f93c c461 10bc 83d0 02bc b29e df3d
00000370: c2f8 a23d b7e0 3cbe 7a26 86bd cd3a ad3d
00000380: 601f c03d 420a 003e 7079 d43c b2f7 4f3d
00000390: d2d3 003e 0527 03bd 3153 113d fc68 00be
000003a0: 3986 dfbc 6e5b 17bd 5339 903d bce6 2dbc
000003b0: 10ac 3d3a 4ad0 1abd 3507 9d3c 8444 7cbd
000003c0: 75c3 38bd 8b7a 1ebd 9ba2 493d 3d1d 26bd
000003d0: e98b 33bd 9ce9 923c b3fc cf3d 9a7d 8b3c
000003e0: f7ef d4bc a322 f63c 807a 6fbd 72ef 20bc
000003f0: 48ad 0d3d aa73 36bd 002e a9bc be4b b63d
0.07940054 -0.016309803 -0.03538713 -0.057586152 -0.08947672 -0.081766106 -0.0048820674 -0.026983514
-0.020874033 0.06792303 -0.035989136 -0.07865102 0.054235246 -0.039637316 0.019071734 0.0029571266
0.039640665 0.07656782 -0.020149278 -0.075752735 0.041751415 -0.043734215 -0.051831692 0.06064536
-0.08144205 0.020172 0.05630614 -0.06510138 -0.06906434 0.082036555 -0.08815648 0.018982327
0.020690933 0.05202317 0.0076025096 -0.047732007 -0.08501307 0.045152236 -0.0017714762 0.0047570094
0.025459496 0.078091465 0.021988826 0.05666004 0.025231507 -0.04089311 0.011224077 -0.023130257
-0.02876793 -0.008881986 -0.023015518 -0.00049672433 -0.06669655 -0.08005884 -0.047288697 0.04026167
-0.052602455 -0.066482715 -0.018053055 0.04413821 0.073781304 0.0030669994 0.043058623 -0.023071025
-0.03159478 -0.018893212 0.04457407 0.023046436 -0.013012964 0.06640224 -0.009269975 0.035625916
0.029520439 -0.021198131 0.052953746 -0.023299571 -0.08965777 -0.056849662 0.04144408 0.033705525
-0.022172857 -0.009127576 0.06498887 -0.022707436 0.015309327 -0.02581843 -0.07736206 -0.04500919
0.027446195 0.0074317516 -0.008847192 -0.014845249 0.015572426 0.07939085 -0.021171689 -0.045167513
-0.07072285 0.0013621828 0.053647395 0.022578726 -0.09319605 -0.053024903 -0.07840962 0.020112768
0.045610074 0.050600104 -0.042076636 0.019759797 -0.006014464 -0.08716257 0.069605246 0.054395832
-0.08285985 0.0711289 0.043064706 -0.0696358 0.060310833 -0.07887975 0.053273376 -0.0014777717
-0.023914509 0.016577091 0.049456444 -0.076085776 0.04979805 -0.03489576 0.0677426 0.08245975
0.12589818 0.085666314 -0.109463975 -0.00076628744 0.0208938 -0.022244798 -0.01257569 -0.047383867
-0.04850985 -0.03579728 0.025901467 0.05553044 0.11202732 0.116775796 0.032382302 -0.0454896
0.05706627 0.074462 -0.047441125 0.075649165 0.06252332 0.04930482 -0.038575716 0.035687387
-0.041407943 0.03819073 0.11229489 0.024891289 -0.058619596 0.07013245 0.04516026 0.050836373
-0.048262257 0.08451104 -0.06383246 0.072471656 0.0733526 0.05983073 -0.08020371 0.035419166
-0.002806904 -0.084838726 -0.054470565 0.065437965 0.006550823 -0.02838999 0.042312615 0.06547093
0.021995721 -0.031460714 -0.045827202 0.06374384 -0.06788269 -0.020292528 0.06349727 -0.027457494
0.048516553 -0.010332032 -0.08304488 0.043752767 0.054721776 0.020277798 0.11592257 0.032823376
0.004965956 -0.05951958 0.031360008 -0.047862303 -0.015641589 0.07233722 0.016792081 -0.016101
-0.018793968 0.32350305 0.0026879045 -0.08973302 -0.09840609 0.016284123 -0.13932243 -0.05529702
0.06847351 0.062849276 0.061753374 -0.10802054 0.08596195 0.02563882 0.07056757 -0.0063987095
0.030489158 -0.008812372 -0.007984283 0.109189406 0.07957603 -0.18445097 -0.065503076 0.08458481
0.09380984 0.12503913 0.025936812 0.05077333 0.12580803 -0.032019634 0.035479728 -0.12540048
-0.027285682 -0.03695243 0.07042184 -0.010614093 0.0007235417 -0.037796296 0.019168476 -0.06158878
-0.045108277 -0.038691085 0.04922734 -0.040555228 -0.0438346 0.01793366 0.101556204 0.017027665
-0.02599333 0.030045813 -0.058466434 -0.009822713 0.034589082 -0.0445439 -0.020651817 0.089011654

fc4.bias f4 [128]
00000000: fc96 d9bc 6ab8 0f3e 8df6 953d 5405 fa3c
00000010: 58da 953d 2a31 7c3d 25c4 a23d 2014 823d
00000020: fabd eebc eace 853d b4ba 6f3d 9568 f73d
00000030: 563d 60bd bcc1 95bc 25c0 b53d d093 51bc
00000040: e904 e63d 9c8b 11bd 487d debc b65c 463d
00000050: 28fd 003d 6e2c 6f3d 6380 933d c5d8 63bd
00000060: de07 d13d 8aa4 b63c edd3 ee3d bba9 d9bc
00000070: 96e0 d03d ea53 0d3d ca2c 91bc d6a9 05be
00000080: 8e99 8f3d 2f94 c63d 49f1 acbd 116c 7a3d
00000090: ccb9 a13d ecc6 d73d d354 5a3d fccd 14bd
000000a0: 88a2 dd3d 3fd8 1a3d a375 6b3d 0a51 b5bd
000000b0: f340 093e 1ea6 80bd 7a9a b5bd 2a44 9c3d
000000c0: c6f8 bf3d 57b2 7d3a c8c1 fc3d 8655 bc3d
000000d0: 389d 273d 7bb4 b23d 4135 b4bd cb8d d43d
000000e0: 8843 983d 534b ae3d 10ce 19bb 5dff 783d
000000f0: 3c32 983d 28d1 dc3d 4590 6dbc 7eed 023e
00000100: 3b03 09bd eb37 c13d 6f12 433d 8163 f73d
00000110: 0716 df3d 02b3 4e3d 0e80 b4bd a43e f43d
00000120: 1df5 e73d 65ab a93c c804 97bd f0e8 94bd
00000130: 5f36 0c3e 8867 613d 0e96 813c f1ce a93d
00000140: 34ca fc3c b0b8 5bbd f31f c2bd 8e48 0c3e
00000150: 24ac ec3c 492b 113d 8e20 063e b533 2d3d
00000160: 2a8f c03d 0a2f 833c 3f36 7d3d 5004 87bc
00000170: f87f 653d 1610 33bd 2c14 943d dd95 613c
00000180: b115 723d 3f21 203d 4501 003d 87de a73d
00000190: 8ccb 983d b652 37be 1603 e7bc a7ab c33d
000001a0: 5c92 6c3d df5d ac3d 8ec3 bf3c ff0d 09bd
000001b0: 23f7 d33c 6c77 de3d 306c 073d 6c6d 973d
000001c0: 0252 bcbd 38c8 adbd f283 82bd 229e 513c
000001d0: f8d6 5bbd 2451 5ebd f259 4a3d da42 973c
000001e0: 6a9d 473d 6a4f fb3d 6a3d c1bb 8510 59bc
000001f0: 9b1e f63d 73a4 87bb 954a 7c3c 6b44 9e3d
-0.026561253 0.14035192 0.073224165 0.030520119 0.073170364 0.061570324 0.07947568 0.06351495
-0.029143322 0.06533606 0.058527663 0.12080494 -0.054745995 -0.018280856 0.08874539 -0.012791589
0.11231405 -0.035533533 -0.027159348 0.04842826 0.03149143 0.05839198 0.07202222 -0.05562665
0.10206579 0.022295255 0.116615154 -0.026570192 0.10199086 0.034503855 -0.017721552 -0.13053069
0.0701171 0.096962325 -0.08444459 0.061138216 0.07896766 0.10535988 0.05330355 -0.036329255
0.10822016 0.037803885 0.057485234 -0.088533476 0.13403682 -0.06281684 -0.08867355 0.07630189
0.09373622 0.0009677759 0.12341648 0.09196 0.04092142 0.0872583 -0.0879922 0.10378607
0.074347556 0.08510461 -0.002346877 0.06079041 0.074314564 0.10782081 -0.014499729 0.12785909
-0.033450346 0.09434494 0.047625 0.12079526 0.10892873 0.050463684 -0.08813487 0.1192601
0.113260485 0.02071161 -0.07373959 -0.07270992 0.13692616 0.055030376 0.015818622 0.08291424
0.030858137 -0.05364293 -0.0947875 0.13699552 0.028890677 0.03544167 0.13098356 0.04228564
0.094023064 0.01601364 0.06181931 -0.016481549 0.056030244 -0.043716513 0.0723041 0.01376864
0.059102718 0.039094206 0.03125121 0.081967406 0.074606985 -0.17902645 -0.028199714 0.095542245
0.057756767 0.08416342 0.023408677 -0.033460613 0.02587468 0.10862622 0.03306216 0.073939174
-0.09195329 -0.08485454 -0.06372823 0.012794049 -0.053671807 -0.0542766 0.049402185 0.018464494
0.048734106 0.122710064 -0.0058972137 -0.0132485675 0.12017556 -0.004139477 0.015398641 0.077278934

fc5.weight f4 [3, 128]
00000000: 61bc 70bc a31c 47bd 84f1 043c f2c8 43bd
00000010: 43da 053d 6847 0d3d 3c85 56bd 8699 dcbc
00000020: 24a9 a7bb c437 90bb 6ea3 29bb 92f4 f1bc
00000030: a033 8f3c d569 1abd b87a ec3c 3cb6 d93b
00000040: 384c 503a 0a49 07bd 0ae0 8bbd 052e 74bd
00000050: 1590 bf3c 55a4 063d b516 dbbc 80d5 643d
00000060: b42a 14bd f77a 3f3d b277 223d 1981 a73d
00000070: 3c40 b33d 51a5 bebc a825 7c3b 7f1a 25be
00000080: b804 5d3d 866b ddbb aedf 88bd f2b7 0abd
00000090: b390 1cbd 0ad2 b9bb 6b76 dabc 0cdc adbd
000000a0: 6e21 033d d205 abbd 808b 7c3c 03fd 1ebd
000000b0: 622b 043c cffa 29bd f848 82bc 787e a93c
000000c0: 3e20 1f3d 6fb5 e33c facf 8f3d e6bf 8a3d
000000d0: 3ceb a5bd 3919 dcbc 8a21 223d 7c2f 0dbd
000000e0: d909 bebc e5db 6bbd 9007 9f3c bba4 b8bc
000000f0: e26b 37bd 8da9 323d b37e 863d 5e5e 1bbd
00000100: 2b74 91bd 190b a53c 3e8a 74bd 6101 04bc
00000110: 8a7e ae3c 3211 bebd 105f 9f3d 5849 dd3c
00000120: 8946 b13c d103 293c 96d8 8ebd 71fd f43c
00000130: 8042 02bc 577a 34bd 03af 52ba 7e89 693d
00000140: 148c afbd 3075 81bc 1ad4 c73c dd97 65bd
00000150: 6da0 963d 383f 9cbc a0a7 013c bb10 c33c
00000160: 7d85 21ba 7bc9 423d 4e1e 6e3d 53cb c0bd
00000170: 399e ab3d 6493 ad3d b190 aabc 9fb8 c83c
00000180: 55aa 6b3d 8c4f bd3d e5da f83c 3210 8f3d
00000190: 6c72 69bd 2aee fcbc b859 5f3d 97de e93c
000001a0: 9549 b8bc a7b1 98bd da16 e9bc d14b 7bbd
000001b0: b85e 27bd 211a 013d 4d8c acbc 6868 583c
000001c0: 4010 6fbc 1ffd 59bd c9f9 ad3d c510 633d
000001d0: 96e5 e0bc c4e6 a93c 0b41 b33d 5847 90bd
000001e0: a8eb 22bd bfe2 8ebd 5eae 44bd cd9e 0abc
000001f0: 4757 863d e508 a93d 7b70 953d fc61 613d
00000200: df66 5f3d 3736 68bd b215 8b3d 087b 95bc
00000210: 2a0c 41bd 2c7e ae3c 492f 13bc 3c84 10be
00000220: 7bb1 1fbf 8f6d 0ebe d9fe eabd 3585 663d
00000230: 55d3 953d 9ef7 4a3c 0376 d1bd 3efb 4c3d
00000240: 22b5 04be ea2e 8f3c fbdf 513c bc1c a43d
00000250: 8607 00be d6eb b7bd 5ba7 713d 7896 653c
00000260: 0f5a cbbd bd6f 2dbe 6266 7cbd fed2 413d
00000270: 92b5 b43d f787 04bc c3a5 06be f016 7abd
00000280: 0281 893d 890e a53d a6c7 36bc dc0c e33c
00000290: c90c f7bb a108 843d c3db d63c 9ae5 423c
000002a0: 7c3d d1bd 2ae0 12bc e924 8ebd 085a 8ebc
000002b0: 1459 b8bd e41b aa3b f571 373d 6d9b 17bc
000002c0: b7e8 07be a972 32bd 264d d3bc d78c 26bc
000002d0: f747 973d 135b d2bc 8003 1bbb 259d a2bd
000002e0: 97ef 5f3d 8ff1 d33c cbd1 9d3d 11b7 72bd
000002f0: f620 6ebc e742 923a 160f 883d 3b4e 893d
00000300: 1914 353d 73d6 acbc 2fbe e8bd 8fb8 ce3c
00000310: a770 7c3d f39f 0ebe 9b11 1dbc 3d25 edbd
00000320: c2a5 46bd f9f4 28bd 3d09 a1b9 5fdd 9e3c
00000330: 76c6 d13d 8389 ce3d 4abf 453d 5b07 cdbd
00000340: 85ac e1bd 5913 323b 6d09 68bd 6056 b53d
00000350: dc94 b1bd 164d 46bd 61f6 debc 99a1 0abe
00000360: df30 d1bd 15f5 eabc b7d8 dbbd 7937 cabc
00000370: 9800 d9bd 291c 363d fb40 c6bd bc96 98bd
00000380: ad51 b63c e80d efbd d0bf ab3d a62b b73d
00000390: 1f7c b7bd e3b3 d93e efae 0d3e 054e b7bd
000003a0: 83fc 5c3d 16b8 79bb e445 18be 86b1 12bd
000003b0: 5da3 65bc 02ec f3bd 68cf 6ebd 3bb3 8d3d
000003c0: 85a5 773d 2845 2c3c db9b 07bd 0204 f0bd
000003d0: 1384 74bd 3bfc 05bc fd45 8cbc a044 5f3b
000003e0: 6753 40bc eb07 09be cc00 12be 2796 40bd
000003f0: 08ec df3d 4377 943c 7e8b f6bb bbe7 edbd
-0.0146933505 -0.048611294 0.008114222 -0.04779906 0.032678854 0.034491926 -0.052373156 -0.026928674
-0.0051165987 -0.004401179 -0.0025884765 -0.029535566 0.017480671 -0.037698586 0.02886711 0.0066440385
0.0007945928 -0.03302864 -0.068298414 -0.0596142 0.023384133 0.032871563 -0.026744226 0.055867672
-0.036173537 0.046748128 0.03966493 0.0817892 0.08752486 -0.023272188 0.0038474593 -0.16123389
0.05395958 -0.0067572026 -0.066832885 -0.03386683 -0.038223933 -0.0056707906 -0.026667794 -0.08489236
0.032014303 -0.083507195 0.015414119 -0.03881551 0.008066984 -0.041498955 -0.015903935 0.020690188
0.038849108 0.027796475 0.0702209 0.06774883 -0.08101508 -0.026867496 0.039582767 -0.034469113
-0.023198055 -0.057582755 0.019412786 -0.022539487 -0.04478062 0.043618727 0.06567135 -0.037931792
-0.071022354 0.020146893 -0.05970215 -0.008056969 0.021300573 -0.092806235 0.077818036 0.027012512
0.02164008 0.010315851 -0.06974904 0.029906007 -0.007950425 -0.044061985 -0.0008036943 0.05701589
-0.0857164 -0.01580295 0.02439313 -0.05605303 0.073548175 -0.019073114 0.0079135 0.023811689
-0.0006161554 0.047555428 0.05813437 -0.09413781 0.08379788 0.08475378 -0.020820947 0.024502097
0.05753549 0.09243688 0.030377815 0.06985511 -0.056993887 -0.030875284 0.05452892 0.028548522
-0.022496024 -0.074557595 -0.02845328 -0.0613516 -0.040861815 0.03151906 -0.021062994 0.013208486
-0.014591277 -0.05321991 0.08494908 0.055435915 -0.027453225 0.02073992 0.0875264 -0.07044858
-0.03977552 -0.06976842 -0.048017852 -0.008460713 0.065596156 0.082536496 0.072968446 0.055025086
0.054541465 -0.05669233 0.067912474 -0.018247142 -0.04713074 0.021300398 -0.008983442 -0.14112943
-0.6238019 -0.13908981 -0.114743896 0.05627938 0.07315699 0.012388138 -0.10227587 0.05004429
-0.12959722 0.017478425 0.012809749 0.08013293 -0.1250287 -0.08980529 0.058997493 0.014012925
-0.09929287 -0.16937156 -0.061621077 0.04732036 0.08823694 -0.008089057 -0.1314917 -0.06105703
0.067140594 0.08059413 -0.011155998 0.027716093 -0.007539366 0.06446958 0.026227837 0.011895562
-0.10216805 -0.008964578 -0.06940634 -0.017376915 -0.09001365 0.005191313 0.044786412 -0.009253365
-0.13272367 -0.04356638 -0.025793623 -0.010165415 0.07386773 -0.025678193 -0.002365321 -0.07940129
0.05467185 0.02587202 0.077060305 -0.059256617 -0.014534226 0.0011158854 0.066435024 0.067043744
0.04420862 -0.021098351 -0.113644 0.025234489 0.06163087 -0.13928203 -0.009586717 -0.11579368
-0.048497923 -0.04124925 -0.00030715196 0.019392667 0.102429315 0.10084822 0.04827813 -0.100111686
-0.110192336 0.0027172177 -0.056649614 0.08854365 -0.08670971 -0.04841336 -0.027217092 -0.13538207
-0.102143995 -0.028681317 -0.107346945 -0.024684655 -0.105958164 0.04446045 -0.09680363 -0.07450625
0.022255743 -0.11672574 0.08386195 0.08943872 -0.08959221 0.42520055 0.13836263 -0.08950428
0.05395175 -0.0038104109 -0.14870411 -0.03581383 -0.014016 -0.11910249 -0.058303267 0.06918951
0.060460586 0.010514535 -0.03310762 -0.117195144 -0.05969627 -0.008177812 -0.017123217 0.0034068003
-0.011738635 -0.13381927 -0.14258116 -0.047018196 0.10933691 0.018123275 -0.007523953 -0.11616465

fc5.bias f4 [3]
00000000: af2d 4c3d e442 173d 72ff 31bb
0.049848255 0.036929026 -0.0027160314
