checkpoints/checkpoint_qnetwork_local_WMT_DDQN_PER.pth (torch_old, 340036 bytes, 10 tensors)

fc1.weight f4 [128, 13]
0	0xbe062bc5	-0.13102634
1	0x3df1e1bf	0.11810636
2	0xbe4a1113	-0.19733076
3	0xbe4d9979	-0.20078076
4	0xbe24f745	-0.16109951
5	0x3e4ec361	0.20191719
6	0xbd07d521	-0.03316224
7	0x3e78b50a	0.24287811
8	0xbcc985d8	-0.024599954
9	0x3d966d2a	0.0734504
10	0xbe4ac689	-0.19802298
11	0x3e6b4a9d	0.22977681
12	0xbe38038d	-0.17970105
13	0xbe77eef9	-0.24212255
14	0xbbe7effe	-0.00707817
15	0x3d2a4f9f	0.04157984
16	0x3db67a31	0.08910025
17	0x3de1663d	0.110058285
18	0xbe2c33b5	-0.168166
19	0xbd987310	-0.074438214
20	0x3d8ff372	0.070288554
21	0x3e4dbd3d	0.2009172
22	0xbd9b161e	-0.07572578
23	0x3ea0455c	0.31302917
24	0xbda697df	-0.08134436
25	0x3d801ce0	0.062555075
26	0x3e2f9a4e	0.17148706
27	0xbe5e8a7a	-0.21732512
28	0xbde810ef	-0.11331355
29	0xbe232284	-0.15931135
30	0xbe075f35	-0.13219912
31	0x3eb214c5	0.3478147
32	0xbe35ff1b	-0.17773096
33	0xbde7bbc2	-0.11315109
34	0xbe5ba1d9	-0.21448459
35	0xbe5fdcf4	-0.2186163
36	0xbe9f751a	-0.3114403
37	0x3efef732	0.4979797
38	0x3e34b8b1	0.17648579
39	0x3d2b0b49	0.04175881
40	0x3cfc8f0c	0.030829929
41	0xbe148551	-0.14503981
42	0x3d407656	0.046987854
43	0xbe85d6ff	-0.26140592
44	0xbe28a4f2	-0.16469172
45	0xbda87644	-0.082256824
46	0x3e3f343f	0.18672274
47	0x3d6781ba	0.0565202
48	0xbda0954a	-0.07840975
49	0xbe2d059d	-0.16896673
50	0x3e9dab7b	0.30794892
51	0x3e883055	0.26599374
52	0x3d7d137d	0.061786164
53	0xbae8f07e	-0.0017771868
54	0x3e623fc8	0.22094643
55	0xbe4e9b7a	-0.20176497
56	0x3da33296	0.07968633
57	0xbe430d2b	-0.19047992
58	0xbe024785	-0.12722595
59	0xbd97ddc9	-0.07415349
60	0x3e0b79a3	0.1362062
61	0x3d171627	0.03688636
62	0xbe85612c	-0.260507
63	0x3e425fc5	0.18981846
64	0x3e31bea8	0.17357886
65	0xbd809edb	-0.06280299
66	0x3c565ae8	0.013083197
67	0xbbc6d457	-0.0060677934
68	0x3e634751	0.22195174
69	0x3e6353d3	0.22199945
70	0xbe6013cb	-0.2188255
71	0xbcbde9dc	-0.023182802
72	0x3de98747	0.11402755
73	0x3e3e2508	0.18568814
74	0x3e6ce052	0.23132446
75	0x3ecd1315	0.4005362
76	0xbc837a94	-0.01604966
77	0xbe8a9dad	-0.27073422
78	0x3cb92564	0.022600837
79	0xbe490572	-0.19630983
80	0xbe80c31e	-0.25148863
81	0x3e93d837	0.28875896
82	0x3e07e3e0	0.13270521
83	0xbe885fbb	-0.26635537
84	0x3cc42e7e	0.02394795
85	0xbcdfa12d	-0.027298534
86	0xbd11f01a	-0.03562937
87	0xbdd42187	-0.10357957
88	0x3ec00d62	0.3751021
89	0xbea76a5b	-0.3269833
90	0x3cf979db	0.030453613
91	0x3e0e0b15	0.13871415
92	0x3e175f66	0.14782485
93	0x3e15778e	0.14596388
94	0xbe88537f	-0.26626202
95	0xbe06aa23	-0.1315084
96	0x3e1e4ae4	0.15458256
97	0x3dca07af	0.09864747
98	0xbe4524a4	-0.19252259
99	0xbdecf770	-0.115706325
100	0x3e7a6665	0.24453123
101	0x3ea604e3	0.32425603
102	0xbeebba5d	-0.4604062
103	0xbd3a300c	-0.045455977
104	0xbe698186	-0.22803316
105	0x3db45c3f	0.08806657
106	0xbe321e72	-0.17394426
107	0xbe341d6c	-0.17589349
108	0xbe1d9fe7	-0.15393029
109	0x3dfc01c0	0.12305021
110	0xbdcf50ef	-0.10122859
111	0x3e4989d4	0.19681484
112	0xbdf734ea	-0.120706394
113	0x3e6bd54a	0.23030582
114	0x3ebf8bc9	0.37411335
115	0xbe77de4b	-0.24205892
116	0xbd5b1743	-0.05348898
117	0xbd2f3b93	-0.042781424
118	0x3cb0cf54	0.021583237
119	0x3d15b49a	0.03654919
120	0x3d93761b	0.07200261
121	0x3ce35dd2	0.027754698
122	0xbe174d6a	-0.14775625
123	0x3da69a54	0.081349045
124	0xbea03496	-0.3129012
125	0xbdeec510	-0.116586804
126	0xbd81554b	-0.063150965
127	0xbe822c13	-0.2542425
128	0xbd13ab38	-0.03605196
129	0xbe467486	-0.19380388
130	0xbde54dca	-0.11196478
131	0x3dc318b1	0.09526194
132	0xbe2192aa	-0.15778604
133	0x3c8df1f2	0.017327283
134	0x3dc33434	0.09531441
135	0xbb9ba27a	-0.0047495933
136	0x3d913b13	0.07091346
137	0x3d1dee40	0.03855729
138	0x3d0a706f	0.03379863
139	0x3e0e59f9	0.1390151
140	0x3eb3bf0d	0.35106698
141	0x3e215b90	0.15757585
142	0x3e92e8e1	0.28693298
143	0x3b9112c5	0.0044272863
144	0xbe85f7d3	-0.26165637
145	0xbdef4a19	-0.11684055
146	0x3e5e8697	0.2173103
147	0x3b877a64	0.004134463
148	0xbe43c4cb	-0.1911804
149	0xbde60a78	-0.112324655
150	0xbe84a6ef	-0.2590861
151	0xbe828933	-0.254953
152	0xbdcceb23	-0.10005786
153	0x3ebef8f0	0.372993
154	0x3df69b55	0.12041346
155	0xbe9226fe	-0.28545374
156	0x3dbff175	0.09372226
157	0xbe5c5e00	-0.21520233
158	0xbdb043d4	-0.08606687
159	0xbe164057	-0.14672981
160	0xbce547ba	-0.027988303
161	0xbd6033cd	-0.0547369
162	0xbe38531c	-0.18000454
163	0xbe646609	-0.22304548
164	0xbce4cc26	-0.027929377
165	0xbd8382ab	-0.06421407
166	0xbe9a0b8f	-0.30086944
167	0x3e3897be	0.18026635
168	0xbe9d82f0	-0.3076396
169	0xbcf14512	-0.02945188
170	0x3e7f0484	0.24904066
171	0xbe00e04f	-0.12585567
172	0x3e74649c	0.23866504
173	0x3e149549	0.14510073
174	0xbe5a0b16	-0.21293291
175	0x3e60e05d	0.21960588
176	0xbdb292f3	-0.087194346
177	0xbe0807df	-0.13284253
178	0x3e09719a	0.13422242
179	0xbedd5f3e	-0.43236727
180	0x3e8998d9	0.26874426
181	0x3d54c3e4	0.05194463
182	0x3e5e0ace	0.21683809
183	0x3e2ce9b3	0.16886024
184	0x3d44680c	0.04795079
185	0x3df96437	0.121773176
186	0x3d2f8cce	0.04285889
187	0xbd1dab74	-0.03849359
188	0xbe801d0e	-0.25022167
189	0x3e9b3169	0.30311134
190	0x3e525314	0.20539504
191	0x3e081ddc	0.1329264
192	0xbe5a7a98	-0.21335828
193	0x3e1bb755	0.15206654
194	0x3c1edc37	0.009696058
195	0xbe284cb2	-0.16435507
196	0xbe317426	-0.17329463
197	0x3e4e939b	0.20173495
198	0xbe48604a	-0.19567981
199	0xbcec355c	-0.028834037
200	0x3cec393b	0.028835883
201	0x3e362729	0.17788376
202	0xbe5142a1	-0.20435573
203	0xbdfab8a1	-0.122422464
204	0xbe0306c8	-0.12795556
205	0x3ece9942	0.403513
206	0xbe16dcd0	-0.14732671
207	0x3e8c1f43	0.273676
208	0x3e2b7e20	0.16747332
209	0x3d4af34a	0.049548425
210	0x3bbdc2b0	0.005791031
211	0xbc489a65	-0.012243842
212	0x3da7ab35	0.08186952
213	0xbdb1a388	-0.08673769
214	0xbd1354cb	-0.035969537
215	0x3dd51423	0.104042314
216	0xbe27ac46	-0.16374311
217	0xbe5f3cd1	-0.21800543
218	0x3eeebdb6	0.46629113
219	0xbe370120	-0.17871523
220	0xbc153418	-0.009106658
221	0x3e7ace71	0.24492814
222	0x3dcc617f	0.099795334
223	0x3cb1958a	0.021677751
224	0xbe347409	-0.17622389
225	0x3e045576	0.12923226
226	0xbe3e516c	-0.18585747
227	0xbd07a943	-0.033120405
228	0xbced1164	-0.028938957
229	0xbd9327a1	-0.07185293
230	0xbd3d66d2	-0.046240635
231	0x3ea3ab24	0.31966507
232	0xbdb7e713	-0.08979621
233	0x3e804b45	0.25057426
234	0x3e1fafc7	0.15594397
235	0xbe0405ac	-0.12892789
236	0x3dc3d98e	0.0956298
237	0xbe37021e	-0.17871901
238	0xbe381dc6	-0.17980108
239	0x3dd12b6a	0.10213359
240	0x3d4fbc2f	0.050716575
241	0x3e5bdbfd	0.21470638
242	0xbc7e3a36	-0.015516808
243	0xbd4e9143	-0.0504315
244	0x3ede4998	0.43415523
245	0xbedcf506	-0.43155688
246	0x3e71056b	0.23537223
247	0xbe368c71	-0.17827012
248	0x3c061d86	0.00818575
249	0xbd207eb2	-0.039183326
250	0xbe099629	-0.13436188
251	0x3cf6edce	0.030142691
252	0x3e82039e	0.25393385
253	0xbcfd609e	-0.03092986
254	0xbe11f440	-0.1425333
255	0xbda926d0	-0.08259356

fc1.bias f4 [128]
0	0xbdd595ac	-0.10428938
1	0x3ead0aaf	0.33797213
2	0xbe28a333	-0.16468506
3	0x3ef47956	0.47748822
4	0x3ece8f18	0.40343547
5	0x3db4dfe1	0.08831764
6	0x3e08ec60	0.1337142
7	0x3e8be1dd	0.27320758
8	0xbe29afea	-0.16571012
9	0x3d7433f9	0.059619877
10	0x3e95758e	0.2919125
11	0xbe20a0a2	-0.15686277
12	0x3efae913	0.49005947
13	0xbe15771f	-0.14596222
14	0xbe94e705	-0.29082504
15	0xbd82e046	-0.06390433
16	0xbe6ce517	-0.23134266
17	0x3eddc5f0	0.43315077
18	0xbc857ad6	-0.016293924
19	0xbe4fd69c	-0.2029671
20	0xbdea3f4e	-0.11437856
21	0xbe7b0309	-0.24512877
22	0x3d96f48e	0.07370864
23	0x3e8a7d68	0.27048802
24	0xbdebf900	-0.11522102
25	0x3e8b0b0f	0.27156875
26	0x3eb313af	0.34975955
27	0x3c683723	0.014173302
28	0x3db12aaf	0.086507194
29	0xbd8a44e5	-0.06751422
30	0x3ed67bce	0.4189133
31	0x3f025443	0.50909823
32	0x3ad20f7b	0.0016026342
33	0x3e35c5bf	0.17751215
34	0xbe5d955c	-0.21639007
35	0xbc49ec2c	-0.012324374
36	0x3e82a51e	0.255166
37	0xbe7404e8	-0.23829997
38	0x3e9f1b2c	0.31075418
39	0xbdb97b6b	-0.09056743
40	0xb9d82463	-0.0004122584
41	0xbe76ffbf	-0.24120997
42	0x3e9dd6ca	0.30827934
43	0xbe3424cb	-0.1759216
44	0xbd9fe80d	-0.07807932
45	0x3e5a388b	0.21310632
46	0x3ee78bc3	0.45223817
47	0x3e62db83	0.2215405
48	0x3c481a10	0.012213245
49	0xbd1618b6	-0.03664466
50	0x3ea97211	0.33094838
51	0x3e3f07cd	0.1865532
52	0x3edc028f	0.42970702
53	0x3dcf9dc1	0.10137511
54	0x3ed98834	0.42486727
55	0xbe31f050	-0.17376828
56	0x3ec8a35b	0.3918713
57	0xbc96eb9e	-0.018422898
58	0xbd867619	-0.06565494
59	0x3e013f10	0.12621713
60	0x3d09db81	0.0336566
61	0x3e59d105	0.21271141
62	0x3f09b33a	0.53789103
63	0xbe21a26f	-0.1578462
64	0x3e8e7a96	0.278279
65	0xbe67a2ce	-0.22620699
66	0x3e234d8e	0.15947554
67	0x3ec5aa88	0.38606668
68	0x3ed94dd2	0.42442185
69	0x3f041aaa	0.51603186
70	0x3ea48908	0.32135797
71	0x3d0c75de	0.034292094
72	0xbd716314	-0.05893238
73	0xbe25c78b	-0.16189401
74	0x3ecac42f	0.396028
75	0x3dc0799a	0.09398194
76	0xbe485c78	-0.19566524
77	0x3ef9f8ea	0.4882272
78	0xbdb90b55	-0.090353645
79	0x3dd96b52	0.10616173
80	0xbd0d1c5f	-0.034450885
81	0x3d2c686a	0.042091765
82	0x3d9ea6be	0.07746647
83	0xbe12ee49	-0.14348711
84	0xbea2498d	-0.3169674
85	0xbe7f23bb	-0.24915974
86	0x3c70fbe2	0.014708491
87	0x3ee3242d	0.44363537
88	0x3eca7e0e	0.39549297
89	0xbe904f32	-0.2818542
90	0x3d1efc59	0.038814876
91	0xbdbd0ca5	-0.092309274
92	0xbd996c1b	-0.074913226
93	0x3c8031b9	0.01564871
94	0xbda9e1e4	-0.08295038
95	0x3e48411e	0.1955609
96	0xbda7c4a5	-0.08191804
97	0x3e577efd	0.21044536
98	0xbe807473	-0.25088844
99	0xbd9f5ab3	-0.077809714
100	0x3eef5152	0.4674173
101	0xbd7d2e34	-0.06181164
102	0x3d4d69f0	0.050149858
103	0x3efaa698	0.48955226
104	0x3e81a4c0	0.25321007
105	0xbe84faf6	-0.25972718
106	0xbd6787e8	-0.056526095
107	0xbe3ed345	-0.1863528
108	0xbd4d08ab	-0.050057095
109	0x3e197939	0.14987649
110	0xbe1fadca	-0.15593639
111	0x3ee442b5	0.44582143
112	0xbe0e9285	-0.1392308
113	0xbd0ea009	-0.03482059
114	0x3e8b91d1	0.27259687
115	0x3ec8b452	0.39200073
116	0x3f01dd30	0.5072813
117	0x3e41879d	0.18899389
118	0x3e3ba289	0.18323721
119	0x3d6bb52e	0.057545833
120	0x3e5f9880	0.21835518
121	0xbe244821	-0.1604314
122	0x3d97e5b5	0.0741686
123	0xbe8019a4	-0.25019562
124	0xbe5703f3	-0.209976
125	0x3eb6ff9a	0.35741884
126	0x3d8db32f	0.06918942
127	0x3ec0aaf8	0.3763044

fc2.weight f4 [256, 128]
0	0x3d34c8db	0.044136863
1	0x3d8eb58d	0.06968222
2	0x3d024911	0.031807963
3	0x3cbe81ef	0.023255317
4	0x3d820b2c	0.06349787
5	0x3d04f46a	0.032459654
6	0x3cec7a01	0.02886677
7	0x3d049237	0.032366004
8	0x3c73e5d9	0.014886343
9	0x3c7af442	0.015317025
10	0xbcd12b29	-0.025533276
11	0x3bb86525	0.0056272917
12	0xbd0db883	-0.034599792
13	0x3cfd0029	0.030883865
14	0xbdc5c3f4	-0.09656516
15	0xbd0d7c25	-0.03454222
16	0xbd4713ab	-0.04860274
17	0x3de578da	0.11204691
18	0xbd878b0e	-0.066183195
19	0x3d49a6e5	0.04923143
20	0x3ce9df2f	0.028548805
21	0x3d4001bf	0.046876665
22	0x3d17c3f2	0.037052102
23	0x3d996b03	0.07491114
24	0x3d04d2ae	0.032427482
25	0x3caf4707	0.021396173
26	0x3d4689b3	0.048471164
27	0xbdc5dde0	-0.0966146
28	0xbc7b5855	-0.015340884
29	0xbcb2e471	-0.021837445
30	0x3d9cae30	0.07650411
31	0x3c9effec	0.019409142
32	0xbdc2dda3	-0.0951493
33	0xbac94ed1	-0.0015358572
34	0x3cd16838	0.02556239
35	0x3da2f41b	0.07956716
36	0xbd610ad5	-0.05494197
37	0x3cb71388	0.02234818
38	0xbd7b6ec1	-0.06138492
39	0xbde684cc	-0.11255798
40	0xbcc367f9	-0.023853289
41	0xbd336346	-0.043795846
42	0x3d623648	0.055227548
43	0xbde5674f	-0.11201345
44	0x3d8204d6	0.06348579
45	0x3dab184a	0.08354242
46	0x3d1db357	0.03850111
47	0x3dd926e3	0.1060312
48	0xbc41ea41	-0.011835636
49	0xbd24fe70	-0.040281713
50	0x3c031947	0.008001632
51	0x3cbab53d	0.0227915
52	0xbce84e05	-0.028357515
53	0xbd971a10	-0.07378018
54	0x3dbc5035	0.09194986
55	0x3b0d9b3c	0.002160742
56	0x3de66fcf	0.112517945
57	0xbd0d46a6	-0.034491204
58	0x3caf4d72	0.021399233
59	0xbd1e3f14	-0.038634375
60	0x3d3df706	0.046378158
61	0x3ca52da6	0.020163368
62	0x3de878b9	0.11351151
63	0x3cfbfb40	0.030759454
64	0x3e029e05	0.12755592
65	0x3c517e6d	0.01278649
66	0x3bbcd5e2	0.0057628015
67	0x3de56391	0.112006314
68	0xbcc79f1a	-0.024367858
69	0x3de584db	0.11206981
70	0x3ddb91aa	0.107211426
71	0x3db2d74d	0.087324716
72	0xbd486e56	-0.04893335
73	0xbd05f3f7	-0.032703366
74	0x3cc9dc72	0.02464125
75	0x3c98c92e	0.018650617
76	0x3cd57805	0.026058206
77	0x3db958ea	0.09050162
78	0x3d7fdb23	0.062464844
79	0xbbf4f778	-0.0074757896
80	0xbc9244e1	-0.01785511
81	0x3b63aea5	0.0034741547
82	0x3cf9c8c2	0.030491237
83	0xbd94681b	-0.07246419
84	0xbc9a9619	-0.0188704
85	0xbda5e306	-0.08099942
86	0xbc3dd5e2	-0.011586638
87	0x3cc0964b	0.023509165
88	0x3de1e1a6	0.11029367
89	0xbd95f217	-0.073215656
90	0xbcdcfd3f	-0.026976226
91	0xbdaae3a5	-0.08344201
92	0x3c59af07	0.013286359
93	0xbd9463bc	-0.07245585
94	0x3cc7edc7	0.024405373
95	0xbd1a0ad8	-0.037607998
96	0xbd8b3e3d	-0.067989804
97	0xbd0b0643	-0.03394152
98	0xbcb7009c	-0.022339158
99	0x3d811dd9	0.06304521
100	0x3dfe52b5	0.12418119
101	0xbb1e657f	-0.0024169383
102	0xbd8ec045	-0.06970266
103	0x3c3c025a	0.01147517
104	0xbcd7a330	-0.026322931
105	0xbd0abfb6	-0.033874236
106	0x3c5ac198	0.01335182
107	0x3bcaf8d8	0.0061942153
108	0x3c54153f	0.012944519
109	0x3d10cf3a	0.035353877
110	0xbd4fbb5d	-0.050715793
111	0x3d0b9cb2	0.034084983
112	0x3ca58000	0.020202637
113	0xbd8a252b	-0.067453705
114	0x3cb9ec82	0.022695784
115	0x3c48808d	0.01223768
116	0xbcff3222	-0.031151835
117	0x3d83a617	0.064281635
118	0x3c0750f9	0.0082590515
119	0xbd2f262f	-0.042761024
120	0x3dadccb0	0.08486307
121	0xbd8401d2	-0.0644566
122	0x3d2cf19c	0.042222604
123	0x3d766879	0.060158227
124	0xbcbe4d38	-0.02323018
125	0x3d58fd43	0.052975904
126	0x3d565ade	0.05233275
127	0x3daed6fc	0.08537099
128	0x3b338a15	0.0027395536
129	0xbdee71d6	-0.11642806
130	0x3d092f06	0.03349211
131	0x3dc1d184	0.0946379
132	0x3dac34d9	0.084085174
133	0xbcd34c3f	-0.025793193
134	0xbd35e77d	-0.044410218
135	0x3d3497c0	0.044090033
136	0xbdb39ce5	-0.0877016
137	0x3cdaacb0	0.026693672
138	0xbd99943d	-0.07498977
139	0xbd93f4df	-0.0722444
140	0x3dd6f25b	0.104954444
141	0x3d8518dc	0.06498882
142	0x3d3e721e	0.04649555
143	0xbc0c3b77	-0.008559099
144	0xbd606a45	-0.054788847
145	0x3ce9498a	0.028477449
146	0xbe0a219a	-0.1348938
147	0xbdbdc5b5	-0.09266225
148	0xbe0f6226	-0.14002284
149	0xbd2683d7	-0.040653076
150	0xbe0bfbce	-0.13670275
151	0xbd8e2edb	-0.06942531
152	0xbc8f8520	-0.017519534
153	0x3c4c67fb	0.012475963
154	0x3d83ddee	0.06438814
155	0x3deb8116	0.114992306
156	0x3d9d0968	0.0766781
157	0xbde749a9	-0.112933464
158	0xbc339f03	-0.010963204
159	0xbc3efafc	-0.011656519
160	0xbb825c2c	-0.003978273
161	0xbdb7b154	-0.089693695
162	0xbd6769c9	-0.05649737
163	0xbdde9f98	-0.10870284
164	0x3dfe579b	0.12419053
165	0x3bd8850b	0.006607657
166	0xbd90a6a6	-0.07063036
167	0x3db07378	0.08615774
168	0x3ddc0948	0.10743958
169	0x3cd06e8a	0.025443334
170	0xbd93c7c7	-0.07215839
171	0x3d8393f6	0.06424706
172	0x3b108b4e	0.0022055688
173	0xbdef7c77	-0.11693662
174	0xbc572615	-0.013131638
175	0xbd1fc36a	-0.03900472
176	0xbda28878	-0.079361856
177	0xbddd27e2	-0.10798623
178	0xbd7bd330	-0.0614807
179	0x3cb0942a	0.021555025
180	0x3c79d8db	0.015249456
181	0xbe07dab4	-0.13267022
182	0x3d53857f	0.051640984
183	0x3c52c832	0.012865113
184	0x3c62df4e	0.013847185
185	0x3dd252e5	0.10269717
186	0xbda6728b	-0.08127316
187	0xbd0aa5e8	-0.033849627
188	0xbd80de35	-0.06292383
189	0xbca78626	-0.02044971
190	0x3df5d9ea	0.120044544
191	0x3c62bcf8	0.013838999
192	0x3d6adc06	0.057338737
193	0x3d47aeb5	0.048750598
194	0x3d395390	0.045245707
195	0xbd0b2e91	-0.033979956
196	0x3dc253d5	0.09488646
197	0x3dfc26bb	0.12312075
198	0xbde549a9	-0.1119569
199	0xbd22d038	-0.039749354
200	0x3d28013b	0.0410168
201	0xbd9d607f	-0.07684421
202	0xbd9a720a	-0.075412825
203	0x3cc15b49	0.023603098
204	0xbd56332a	-0.052294888
205	0x3d19c75d	0.037543643
206	0xbc5706e7	-0.013124204
207	0x3d72e53d	0.05930065
208	0x3d84d94c	0.064867586
209	0x3d41a7e4	0.047279254
210	0x3d51fdec	0.05126755
211	0x3d9cba90	0.076527715
212	0xbc0255bf	-0.007955014
213	0xbd34cd78	-0.044141263
214	0xbd8121e2	-0.06305291
215	0x3af20b1a	0.0018466443
216	0xbd91eb5d	-0.0712497
217	0x3d88d4a9	0.06681187
218	0xbd80aab2	-0.062825575
219	0x3c53d2be	0.012928663
220	0x3b0822ac	0.002077262
221	0x3a779cc7	0.0009445664
222	0x3d85e200	0.06537247
223	0x3bd6fdf2	0.0065610344
224	0xbd2120cb	-0.039337914
225	0x3c1b44a9	0.009476819
226	0xbda9c8ab	-0.082902275
227	0xbd1841d5	-0.037172157
228	0xbd874e6b	-0.06606754
229	0xbc5e4f60	-0.013568729
230	0xbd7d70e3	-0.061875235
231	0xbd9af705	-0.075666465
232	0x3d3de5fe	0.046361916
233	0x3c1b0bbf	0.00946325
234	0x3e036d35	0.12834628
235	0xbcfaffaa	-0.030639488
236	0xbda54c18	-0.08071154
237	0x3ca47f48	0.020080224
238	0xbbfbf9a7	-0.007689673
239	0x3e3062dd	0.17225213
240	0xbc8f2021	-0.017471375
241	0x3bba04c5	0.005676838
242	0xbd9bd773	-0.07609453
243	0x3d899688	0.06718165
244	0x3bbbf8c7	0.0057364437
245	0xbc699b9b	-0.014258291
246	0x3dff347d	0.12461183
247	0x3d418dd0	0.047254384
248	0x3d19fb70	0.037593305
249	0xbca1b783	-0.019740826
250	0x3de90998	0.11378783
251	0x3d74989a	0.059715845
252	0x3d937682	0.07200338
253	0x3d62732b	0.055285614
254	0x3d231441	0.039814238
255	0x3bf1471e	0.007363214

fc2.bias f4 [256]
0	0x3d84a94a	0.06477602
1	0x3c89c8cb	0.016819378
2	0x3dd6a8b5	0.10481397
3	0x3e5be0b4	0.21472436
4	0x3d036893	0.03208215
5	0x3e2384d4	0.15968639
6	0x3e29d2b6	0.16584286
7	0xbe0d30f8	-0.13788211
8	0x3dcc79bd	0.09984157
9	0x3e2a6240	0.16639042
10	0x3e3f7352	0.18696335
11	0x3da81574	0.08207217
12	0x3e267354	0.16254932
13	0xbd8c5809	-0.06852729
14	0x3e241d07	0.16026698
15	0x3e4947f2	0.19656351
16	0x3e5fcd3a	0.21855631
17	0x3e5ee19e	0.21765754
18	0x3d6fb934	0.058526233
19	0x3e4d631b	0.20057337
20	0x3e34f3ef	0.17671178
21	0x3dd9b4ce	0.10630189
22	0x3e8438fb	0.25824723
23	0x3e674068	0.22583163
24	0x3e1ff683	0.1562138
25	0x3e092d62	0.13396218
26	0x3e0cba04	0.13742834
27	0x3d3b925a	0.04579387
28	0x3e5ce8f3	0.21573238
29	0x3e1b5380	0.15168571
30	0x3dafbdfc	0.085811585
31	0x3d23d8aa	0.04000155
32	0x3e4d2395	0.20033105
33	0x3d3e30ef	0.046433385
34	0x3e0e0161	0.13867714
35	0x3ea0773f	0.31340978
36	0x3e81b440	0.25332832
37	0x3e6965f7	0.22792803
38	0x3c1a25e9	0.009408453
39	0x3dcdddd6	0.100520775
40	0x3e53759d	0.20650335
41	0x3e4b497b	0.1985225
42	0x3e15cb02	0.14628223
43	0x3e4adc9b	0.19810717
44	0x3d770541	0.060307745
45	0x3e2e65ec	0.17031068
46	0x3d9fc1da	0.07800646
47	0x3d0054f5	0.03133102
48	0x3e248fcd	0.1607048
49	0x3d940706	0.07227902
50	0xbc692f38	-0.014232449
51	0x3e22ae23	0.1588674
52	0x3e50efb4	0.2040394
53	0x3e0e5f3c	0.13903517
54	0x3d886d80	0.066615105
55	0x3c0f5eee	0.00875066
56	0x3e44ded2	0.19225624
57	0x3e036453	0.1283124
58	0x3e095d5d	0.13414522
59	0x3e1ae0db	0.15124838
60	0x3e5255d8	0.2054056
61	0x3de10998	0.10988158
62	0x3e135cd0	0.14390874
63	0x3e714846	0.23562726
64	0x3e860ee1	0.26183227
65	0x3e5ae727	0.2137724
66	0x3e5bc739	0.21462716
67	0x3dd44f20	0.103666544
68	0x3e2cb6c3	0.16866593
69	0x3dca6579	0.098826356
70	0x3e2ba80c	0.16763324
71	0x3d4fe75e	0.05075776
72	0x3c223f92	0.009902852
73	0x3cf775bb	0.030207505
74	0x3e08c986	0.13358125
75	0x3e08b188	0.13348973
76	0x3d088de8	0.033338457
77	0x3e1f4b18	0.1555599
78	0x3e5f0dd8	0.21782625
79	0x3e0767c6	0.1322318
80	0x3e442b2c	0.19157094
81	0x3e5094ff	0.20369337
82	0x3e37f590	0.17964768
83	0xbda0ff6f	-0.0786122
84	0x3e4aacb6	0.19792446
85	0x3e4d766f	0.2006471
86	0xbd8dee7d	-0.06930254
87	0x3e2dc6e8	0.16970408
88	0x3e50b279	0.20380582
89	0x3e21bbd7	0.15794311
90	0x3e00ceb1	0.12578847
91	0x3dce4f28	0.100736916
92	0x3dbbbd02	0.0916691
93	0xbc2abee4	-0.010421488
94	0x3dc01056	0.09378116
95	0x3e744e19	0.23857917
96	0xbd129d62	-0.035794623
97	0x3e6c4a5c	0.23075241
98	0x3dadac6d	0.08480153
99	0x3e869d33	0.26291808
100	0x3e6e4935	0.23270114
101	0x3d60ad15	0.054852564
102	0x3e258c5e	0.16166827
103	0x3dc37a1b	0.09544774
104	0x3e41f072	0.18939379
105	0x3dccf09b	0.10006829
106	0x3e5bc133	0.21460418
107	0x3e7853ab	0.24250667
108	0x3e437e4d	0.19091149
109	0x3db0fe12	0.0864221
110	0xbba58e29	-0.005052347
111	0xbd05dce5	-0.032681365
112	0x3e3cbde3	0.18431811
113	0x3e3b8746	0.18313321
114	0x3c6a9be7	0.014319397
115	0x3d9463a4	0.072455674
116	0x3e00b39b	0.12568514
117	0x3e85294e	0.26008075
118	0x3dbaa0b6	0.091126844
119	0x3e440f26	0.19146404
120	0x3e3b997e	0.18320271
121	0x3dde1683	0.108441375
122	0x3e0c968c	0.13729304
123	0x3e7123af	0.23548768
124	0x3e241558	0.16023767
125	0x3de98f48	0.11404282
126	0x3e6c4795	0.23074181
127	0x3dbcf37a	0.09226127
128	0x3e2397dc	0.15975899
129	0x3e3912cb	0.18073575
130	0x3e424fd3	0.18975763
131	0x3e392717	0.18081318
132	0x3e0e1249	0.13874163
133	0x3e4cb8f6	0.19992432
134	0x3e07559e	0.13216254
135	0x3e3eeafe	0.1864433
136	0x3e27d378	0.16389263
137	0x3df232b5	0.11826078
138	0x3e27938e	0.16364881
139	0x3e84790a	0.25873595
140	0x3dbe96f4	0.09306136
141	0x3ea31a5c	0.31856048
142	0x3e251759	0.16122188
143	0x3e5bc842	0.21463111
144	0x3df10eab	0.11770376
145	0x3dd02ca2	0.10164763
146	0x3e1bc13c	0.15210432
147	0xbe27a863	-0.16372828
148	0x3dff06b2	0.12452449
149	0x3e4b9b6a	0.19883505
150	0x3da9d8de	0.08293317
151	0x3ceda92b	0.02901133
152	0x3e2b36f9	0.16720189
153	0xbe4fffc4	-0.2031241
154	0x3e02d68c	0.12777156
155	0x3e620b18	0.22074544
156	0x3e39ba09	0.18137373
157	0x3e2a95d7	0.16658722
158	0x3da34006	0.07971196
159	0x3e90a6d4	0.2825228
160	0x3e27ce44	0.16387278
161	0x3da6dee9	0.081479855
162	0x3e131991	0.14365222
163	0x3e716c1c	0.23576397
164	0x3d944e63	0.072415136
165	0x3dceec42	0.10103656
166	0x3e39a514	0.18129379
167	0x3e407a0c	0.18796557
168	0x3e1992b5	0.1499737
169	0x3e154805	0.14578255
170	0x3e6fb609	0.23409285
171	0x3e2bd5f4	0.16780835
172	0x3d8ce842	0.06880237
173	0x3e7db3ee	0.24775669
174	0x3e870074	0.26367533
175	0x3db75119	0.08951015
176	0x3d99aaa9	0.07503254
177	0x3d1c842c	0.038211986
178	0x3e6fdfc5	0.23425205
179	0x3ba35a45	0.004985126
180	0x3e31721f	0.1732869
181	0x3e20e56e	0.1571252
182	0x3e6b3a2d	0.22971411
183	0x3e0ff441	0.14058019
184	0x3e00b6e8	0.12569773
185	0x3e2b2622	0.16713765
186	0xbd56e19f	-0.052461263
187	0x3d6e4645	0.058172483
188	0x3df72b05	0.12068752
189	0x3e562faa	0.2091662
190	0x3c37330d	0.011181605
191	0x3e4f9a96	0.20273814
192	0xbc58a7d6	-0.013223609
193	0x3e28e61b	0.16494028
194	0x3e356445	0.17714031
195	0xbbca1d55	-0.0061680474
196	0x3e4ac328	0.19801009
197	0x3d3db145	0.046311636
198	0x3d857718	0.06516856
199	0x3dc397d0	0.0955044
200	0x3d454ca1	0.048168782
201	0x3e021dfa	0.12706748
202	0x3e3eb0c0	0.18622112
203	0x3d8426d8	0.06452721
204	0x3e2842b9	0.16431703
205	0x3e408d5a	0.18803921
206	0x3e6481fe	0.22315213
207	0x3e1ec01d	0.15502973
208	0x3e7ea019	0.2486576
209	0x3e4def86	0.20110902
210	0x3e110a23	0.14164023
211	0x3e3f1299	0.18659438
212	0x3d317205	0.043321628
213	0x3e2697b3	0.16268806
214	0x3dd454e0	0.10367751
215	0x3e4db394	0.20088035
216	0x3e731d02	0.23741534
217	0x3df610ab	0.12014898
218	0x3e057b92	0.1303542
219	0x3d97bafa	0.0740871
220	0x3e43a233	0.19104843
221	0x3e758317	0.23975788
222	0x3d896ad3	0.06709828
223	0x3e790ebe	0.2432203
224	0x3dcb2ad7	0.099202804
225	0x3e90dc4f	0.28293082
226	0x3e28ebe8	0.16496241
227	0x3e44a324	0.19202858
228	0x3e5368bb	0.2064542
229	0x3e56bd30	0.20970607
230	0x3e43b9f1	0.191139
231	0x3e6b4235	0.22974475
232	0x3e23d8d4	0.16000682
233	0x3e108085	0.14111526
234	0x3e6930e9	0.22772564
235	0x3e4a9646	0.19783887
236	0x3e290dc6	0.1650916
237	0x3df3ad3c	0.11898276
238	0x3db96467	0.09052353
239	0x3dfcbca3	0.12340667
240	0x3d4d430e	0.050112776
241	0x3d85fbb2	0.06542148
242	0x3d71058e	0.058843188
243	0x3dc3076c	0.095229
244	0x3e60d8f6	0.21957764
245	0x3e907315	0.282128
246	0xbda6f1b8	-0.08151573
247	0x3e19666d	0.14980479
248	0x3e65e02c	0.22448796
249	0x3e59966f	0.21248792
250	0xbd684e79	-0.056715462
251	0x3e479c2e	0.19493172
252	0x3e3a9c87	0.18223773
253	0x3e498280	0.19678688
254	0x3ddb1a42	0.10698368
255	0x3e716e0d	0.23577137

fc3.weight f4 [128, 256]
0	0x3d388654	0.04504998
1	0xbdf52316	-0.11969583
2	0xbc99472e	-0.018710699
3	0x3cbee4b9	0.023302423
4	0xbe016d7a	-0.12639418
5	0xbd4a03d0	-0.049320042
6	0x3cca9ba5	0.02473242
7	0xbd8558db	-0.065110885
8	0x3de6bbf3	0.11266317
9	0x3d599225	0.05311789
10	0xbd71d569	-0.059041414
11	0xbc4102da	-0.011780465
12	0x3ceaf132	0.028679464
13	0xbcf9cc6c	-0.030492984
14	0x3c8ce251	0.01719776
15	0xbd29a6ec	-0.041418955
16	0x3cd850d0	0.026405722
17	0xbcef53b7	-0.029214723
18	0xbde1f1fa	-0.110324815
19	0x3d942856	0.07234256
20	0x3d88ea94	0.06685367
21	0x3e14bfa5	0.14526232
22	0xbb6f5e5c	-0.0036524748
23	0x3d93c083	0.07214453
24	0x3d5dffd5	0.05419906
25	0xbb75ba10	-0.0037494935
26	0x3b361c7e	0.0027787979
27	0x3decb54f	0.11558019
28	0x3db827bc	0.08991954
29	0x3c6dacab	0.014506499
30	0x3dccc685	0.09998802
31	0x3a96a784	0.0011494015
32	0x3d93fb15	0.072256245
33	0xbce7b91b	-0.028286507
34	0x3d5d71eb	0.05406372
35	0x3d53786e	0.051628523
36	0xbcd56dea	-0.026053388
37	0x3dbabdfa	0.091182664
38	0xbca28461	-0.019838514
39	0xbc2f8524	-0.010712896
40	0x3c988f83	0.01862312
41	0x3d1bb1e0	0.03801143
42	0xbc1c8153	-0.009552318
43	0xbd84f5fc	-0.0649223
44	0x3998e59c	0.00029162772
45	0x3db7bad5	0.08971182
46	0xbd614f73	-0.05500741
47	0xb9ecd2bc	-0.00045170437
48	0x3d9996ed	0.0749949
49	0xbc186040	-0.009300292
50	0x3e1dc731	0.15408017
51	0x3c0fe503	0.008782628
52	0x3dd5c2fb	0.1043758
53	0xbd64af90	-0.055831492
54	0x3d494aef	0.049143728
55	0xbcb1b5c1	-0.021693112
56	0x3d95ddfc	0.07317731
57	0xbe4e9238	-0.20172966
58	0xbd3fc3e0	-0.04681766
59	0x3e1ede6c	0.15514535
60	0xbd3e5a88	-0.046473056
61	0x3b37d04e	0.0028047743
62	0x3c842667	0.016131593
63	0x3dcd3eb3	0.100217246
64	0x3d738163	0.059449565
65	0x3d987f93	0.07446208
66	0xbd446252	-0.047945328
67	0x3c53fbd1	0.012938456
68	0xbdf797c0	-0.12089491
69	0xbd19e366	-0.03757038
70	0xbdbcd1c4	-0.09219697
71	0x3afa68bb	0.0019104698
72	0xbc01b3ce	-0.007916404
73	0xbd10badf	-0.035334464
74	0x3c2e4d72	0.010638582
75	0x3d84b4d2	0.06479801
76	0x3da02351	0.07819236
77	0xbe4bd5d6	-0.1990579
78	0xbd24f5c6	-0.04027345
79	0x3d97c479	0.07410521
80	0xbc4cf8b3	-0.012510466
81	0x3d1fde29	0.039030228
82	0x3d8f6a41	0.07002688
83	0xbe2363fa	-0.15956107
84	0x3dc53a8d	0.09630308
85	0x3d179ecf	0.037016686
86	0x3d955e7b	0.07293411
87	0xbc203e28	-0.009780444
88	0x3d9239da	0.071399406
89	0xbcc1d703	-0.023662096
90	0xbc1b0d7f	-0.009463667
91	0x3c274388	0.010208972
92	0x3e248bca	0.1606895
93	0x3deafa74	0.114735514
94	0xbcc20d78	-0.023688063
95	0x3dfeff6d	0.12451062
96	0xbe8a09ee	-0.269607
97	0x3d50edf9	0.0510082
98	0x3e07fd84	0.13280302
99	0x3dc27715	0.09495369
100	0xbd7f1d73	-0.062283944
101	0xbe32a215	-0.17444642
102	0x3d103297	0.035204496
103	0x3daeebe5	0.08541087
104	0x3d351eef	0.044218954
105	0x3df3bda7	0.11901408
106	0x3cc00171	0.023438187
107	0x3daf67fd	0.08564756
108	0x3d92adda	0.07162066
109	0xbd4a5650	-0.04939872
110	0x3e01c4bc	0.12672704
111	0xbda82509	-0.08210189
112	0xbd9fc0b2	-0.078004256
113	0xbb0a2457	-0.002107879
114	0xbd2a2caf	-0.04154652
115	0x3cabe91e	0.020985182
116	0xbd448139	-0.0479748
117	0x3e7a2bfd	0.24430843
118	0x3c1741de	0.009232013
119	0xbd3d2355	-0.046176273
120	0xbdede9f1	-0.116168864
121	0xbd0f10fe	-0.034928314
122	0xbc851c54	-0.01624886
123	0x3d2b010a	0.041749038
124	0x3c314d8f	0.010821714
125	0x3dc73b66	0.09728126
126	0x3ce4e644	0.02794183
127	0xbcdedd0e	-0.027205016
128	0x3cdf6ba7	0.027273012
129	0xbcc79072	-0.02436087
130	0x3d6ffdec	0.05859177
131	0x3d40ecd3	0.047100853
132	0x3cacb09c	0.021080308
133	0xbd2fb981	-0.04290152
134	0x3da539db	0.08067676
135	0x3dcc19a6	0.099658296
136	0xbd58039c	-0.052737817
137	0xbc7952f5	-0.015217532
138	0x3e3a4d83	0.18193631
139	0x3d00ca49	0.031442914
140	0xbc97867d	-0.018496746
141	0xbca81de6	-0.02052207
142	0x3d178024	0.03698744
143	0xbd3f343f	-0.046680685
144	0xbc0fb4dd	-0.0087711485
145	0xbb2c51ca	-0.0026293867
146	0xbe5d24b4	-0.21596032
147	0x3d059557	0.032613125
148	0x3e1ed290	0.1551001
149	0xbbdd43ff	-0.0067524905
150	0x3dc644f7	0.09681123
151	0xbd5113a7	-0.051044133
152	0x3d9f844e	0.07788907
153	0xbe35e095	-0.17761452
154	0xbce0bc8f	-0.027433662
155	0xbd3e900e	-0.0465241
156	0x3cff1fc2	0.031143073
157	0xbd14a113	-0.036286425
158	0xbd6547a5	-0.05597653
159	0x3d4e1c85	0.050320167
160	0xbc1205d1	-0.00891252
161	0x3d37cb59	0.04487166
162	0x3d02f644	0.03197314
163	0xbcd40455	-0.025880972
164	0x3c9742ba	0.018464435
165	0x3d0497f0	0.03237146
166	0xbd2c3eae	-0.042051964
167	0x3ca5d370	0.020242423
168	0x3d10a0d2	0.03530962
169	0x3cec208b	0.028824111
170	0xbbd94cbf	-0.0066314633
171	0x3d743430	0.059620082
172	0x3c84c6d9	0.0162081
173	0x3a68a109	0.0008874094
174	0xbbaefe80	-0.0053403974
175	0xbd653e1d	-0.05596744
176	0x3d29affb	0.041427594
177	0xbcbb8c26	-0.022893976
178	0x3cdd9f88	0.02705361
179	0xbdfc2c71	-0.12313164
180	0x3cb823a9	0.022477942
181	0xbc3d595f	-0.011556952
182	0x3db3fdba	0.08788629
183	0x3e36fe74	0.17870504
184	0xbc8ba585	-0.0170467
185	0x3d9fd61f	0.07804512
186	0x3e060b62	0.1309028
187	0xbc668355	-0.014069398
188	0x3cc28908	0.023746982
189	0x3cc9a308	0.024613872
190	0x3d62300e	0.05522161
191	0x3e0dc1d2	0.13843468
192	0xbe8656f7	-0.26238224
193	0x3dab5928	0.083666146
194	0x3e374dce	0.17900774
195	0x3d83ce1f	0.06435799
196	0x3cfc74d4	0.030817427
197	0xbc3fbbe6	-0.011702513
198	0x3e3f6b1f	0.18693207
199	0xbc8aff74	-0.016967513
200	0x3d9ec6d3	0.077527665
201	0xbe49c5a1	-0.19704296
202	0xb966d9e1	-0.00022015675
203	0xbbcd084d	-0.006257093
204	0xbc234589	-0.009965309
205	0xbce6d4c1	-0.02817762
206	0xbc919a84	-0.017773874
207	0x3d818402	0.063240066
208	0x3d20cedd	0.03925978
209	0x3d1c2538	0.038121432
210	0x3d58c30a	0.05292038
211	0x3c186cea	0.009303311
212	0x3e65b25f	0.22431324
213	0x3d1c3fdb	0.038146835
214	0xbd40beef	-0.04705709
215	0x3d943320	0.07236314
216	0xbdd7c4b9	-0.10535569
217	0x3d299d06	0.041409515
218	0xbc96514c	-0.018349312
219	0xbcfba892	-0.030720029
220	0x3e9e5e06	0.3093111
221	0x3de91f1e	0.11382888
222	0xbd73e75a	-0.059546806
223	0x3af7a5e8	0.0018894048
224	0x3dd7052a	0.10499032
225	0xb9f6e0f8	-0.0004708839
226	0xbd1e57f7	-0.03865811
227	0xbd69c1d7	-0.057069626
228	0x3d8bf118	0.06833094
229	0x3e034cf1	0.1282232
230	0x3d22ec98	0.039776415
231	0xbd1f799c	-0.038934335
232	0x3c559314	0.013035554
233	0x3c0badf2	0.0085253585
234	0x3dde8a25	0.10866193
235	0xbd0a3c36	-0.033748828
236	0xbd3b4710	-0.045722067
237	0x3d453861	0.04814947
238	0x3d94956b	0.07255062
239	0x38fa130b	0.00011924476
240	0x3d96ccd0	0.07363284
241	0x3e4f2f1c	0.20232815
242	0x3d15a806	0.036537193
243	0xbd195ca0	-0.03744185
244	0x3cc4048d	0.023927951
245	0x3dd6671e	0.10468887
246	0xbe305dc4	-0.17223269
247	0x3d7cfc23	0.061763894
248	0x3ddf7f2d	0.10912929
249	0x3e2838d7	0.16427933
250	0xbe40a76d	-0.18813868
251	0x3d2a64ec	0.041600153
252	0xbd3921c9	-0.045198236
253	0x3db037e2	0.08604409
254	0x3d0aff02	0.0339346
255	0x3e65cbe4	0.2244106

fc3.bias f4 [128]
0	0x3e01b12c	0.12665242
1	0x3e34d82c	0.17660588
2	0x3d62d587	0.055379417
3	0x3e143e2e	0.14476845
4	0x3de5a691	0.11213411
5	0x3e0cf512	0.13765362
6	0x3d96b40b	0.07358559
7	0x3e37ac6c	0.17936867
8	0x3c345547	0.01100666
9	0xbd703401	-0.058643345
10	0x3dbadd46	0.09124236
11	0x3df69b74	0.12041369
12	0x3da875b1	0.08225573
13	0x3e449e96	0.1920112
14	0xbd410a6b	-0.047129076
15	0x3de3c310	0.111211896
16	0x3ce5a42d	0.028032387
17	0x3e15d167	0.14630662
18	0x3d97aa6b	0.074055515
19	0x3d4a7e5f	0.049436923
20	0x3dacaf68	0.084318936
21	0xbc792e32	-0.015208768
22	0x3d7d94a7	0.061909344
23	0x3cbe9c65	0.023267934
24	0x3d1df7e1	0.038566474
25	0x3d91a7c1	0.07112075
26	0x3de0025e	0.109379515
27	0x3e1069d7	0.14102875
28	0x3daab2cc	0.08334884
29	0x3dda60a2	0.106629625
30	0x3d2ab61b	0.041677576
31	0x3da070dc	0.07834026
32	0x3c231a39	0.009954982
33	0x3dc621d1	0.09674419
34	0x3dcb6005	0.09930424
35	0x3e126b4f	0.14298747
36	0x3dc75c8b	0.09734448
37	0x3dc0d117	0.09414881
38	0x3d691c0e	0.05691152
39	0xbd35a00a	-0.04434208
40	0xbd81945c	-0.063271254
41	0x3cf6a490	0.030107766
42	0xbdea01db	-0.11426135
43	0x3dcfa40c	0.10138711
44	0x3d8f9ad1	0.07011951
45	0x3de6009a	0.112305835
46	0x3e1f3aa9	0.15549721
47	0x3df10388	0.11768252
48	0x3e0e105a	0.13873425
49	0x3e189dcd	0.14903946
50	0x3e37bf42	0.17944053
51	0x3b0be53a	0.0021346346
52	0x3da760b1	0.08172739
53	0xbd4f8e78	-0.05067298
54	0x3ce1176f	0.027476994
55	0x3e498d80	0.19682884
56	0xbd7d0b60	-0.061778426
57	0x3d990b9a	0.07472916
58	0x3d0998c5	0.033592958
59	0x3da3d3ba	0.07999368
60	0xbcc335f8	-0.023829445
61	0x3d131439	0.035907958
62	0x3e1dc26a	0.15406194
63	0xbc83c478	-0.016084895
64	0x3d8fc1de	0.07019399
65	0xbd82bce7	-0.063836865
66	0x3dbd2168	0.09234887
67	0x3e2ee267	0.17078553
68	0x3db5ab01	0.08870507
69	0x3dad56a4	0.08463791
70	0x3e2e73cd	0.17036362
71	0xbd7a4932	-0.06110496
72	0x3e4f10d8	0.20221269
73	0xbcbc058a	-0.02295186
74	0x3da96b01	0.082723625
75	0x3cb339c1	0.021878125
76	0x3d55f621	0.05223668
77	0x3e415973	0.18881778
78	0xbd9a7e2e	-0.07543598
79	0x3dad2670	0.08454597
80	0x3db69a1d	0.089161135
81	0x3dd314a4	0.10306671
82	0x3dd2bc95	0.102898754
83	0x3dc2311c	0.09482023
84	0x3e2c73ea	0.16841093
85	0x3dccee4a	0.100063875
86	0x3e35a030	0.17736888
87	0x3ccbf50c	0.02489712
88	0x3e3cc717	0.18435322
89	0x3dabc701	0.08387566
90	0x3d2070c7	0.039170053
91	0x3a69de81	0.00089214003
92	0x3d7c7723	0.061637055
93	0xbc7e06db	-0.015504564
94	0xbd5d7b03	-0.05407239
95	0x3d9be53b	0.076120816
96	0x3dbb5a8d	0.091481306
97	0x3e187414	0.1488803
98	0x3df442c4	0.11926797
99	0x3db6293d	0.08894584
100	0x3dbd60d2	0.09246983
101	0x3e3c2f16	0.18377337
102	0x3e0e7be4	0.13914448
103	0xbc8b6798	-0.01701717
104	0x3dc475dd	0.09592793
105	0x3def9f98	0.11700362
106	0x3e289e36	0.16466603
107	0x3e095899	0.13412704
108	0x3dfdc0c7	0.12390285
109	0x3dcb67e0	0.09931922
110	0x3daa4af7	0.0831508
111	0xbd48bd26	-0.04900851
112	0xbc3f0a53	-0.011660176
113	0xbba4699c	-0.0050174724
114	0x3ba97d83	0.005172433
115	0x3d00fa98	0.031488985
116	0x3caace5b	0.020850351
117	0xbc31cf44	-0.010852639
118	0x3dd234e3	0.102639936
119	0xbbf96849	-0.0076113087
120	0xbd64f393	-0.055896353
121	0x3e25741b	0.16157572
122	0xbd132a16	-0.03592881
123	0x3e055028	0.13018858
124	0x3dd4f90c	0.103990644
125	0x3dbbf17e	0.0917692
126	0x3d67fbce	0.056636624
127	0x3e38619d	0.18005987

fc4.weight f4 [128, 128]
0	0x3da29c8b	0.079400145
1	0xbc859c42	-0.016309861
2	0xbd10f211	-0.035387103
3	0xbd6bdfb9	-0.057586405
4	0xbdb73f89	-0.08947665
5	0xbda77534	-0.081766516
6	0xbb9ff9fd	-0.004882096
7	0xbcdd0c91	-0.026983531
8	0xbcab001a	-0.020874072
9	0x3d8b1b3b	0.06792303
10	0xbd13698e	-0.035989337
11	0xbda113cc	-0.07865104
12	0x3d5e258d	0.05423503
13	0xbd225aee	-0.0396375
14	0x3c9c3bf5	0.019071558
15	0x3b41cc08	0.0029571075
16	0x3d225dfb	0.039640408
17	0x3d9ccf4c	0.07656726
18	0xbca5102f	-0.020149319
19	0xbd9b247f	-0.075753205
20	0x3d2b0332	0.041751094
21	0xbd3322a6	-0.043734215
22	0xbd544db9	-0.051831935
23	0x3d7866f6	0.060645066
24	0xbda6cb17	-0.08144205
25	0x3ca53f88	0.020171896
26	0x3d66a0f8	0.056305856
27	0xbd855411	-0.06510175
28	0xbd8d71a5	-0.069064416
29	0x3da8028e	0.08203612
30	0xbdb48b6b	-0.08815654
31	0x3c9b80af	0.01898226
32	0x3ca97fc7	0.020690812
33	0x3d551603	0.052022945
34	0x3bf91e17	0.007602464
35	0xbd4382b4	-0.04773207
36	0xbdae1b74	-0.0850133
37	0x3d38f12a	0.045151867
38	0xbae830f9	-0.001771479
39	0x3b9be0b0	0.0047570094
40	0x3cd09053	0.025459444
41	0x3d9fee3d	0.07809112
42	0x3cb421d4	0.021988787
43	0x3d681410	0.056659758
44	0x3cceb1e7	0.025231315
45	0xbd277fa0	-0.040893197
46	0x3c37e509	0.01122404
47	0xbcbd7be4	-0.023130365
48	0xbcebaac1	-0.028767945
49	0xbc1185f6	-0.008882036
50	0xbcbc8b01	-0.023015501
51	0xba0236b6	-0.0004967259
52	0xbd88983d	-0.06669662
53	0xbda3f5e4	-0.08005884
54	0xbd41b21f	-0.04728901
55	0x3d24e916	0.04026135
56	0xbd5775e3	-0.05260266
57	0xbd882835	-0.06648294
58	0xbc93e407	-0.018053068
59	0x3d34ca2d	0.044138122
60	0x3d971a40	0.07378054
61	0x3b48ff88	0.0030669887
62	0x3d305df1	0.04305834
63	0xbcbcff75	-0.02307103
64	0xbd0169a9	-0.031594906
65	0xbc9ac5f0	-0.018893212
66	0x3d36932b	0.044573944
67	0x3cbccbb1	0.023046346
68	0xbc553488	-0.013013013
69	0x3d87fd80	0.06640148
70	0xbc17e123	-0.009269985
71	0x3d11ec5b	0.035625797
72	0x3cf1d4b1	0.029520364
73	0xbcada74b	-0.021197936
74	0x3d58e5b2	0.05295343
75	0xbcbeded1	-0.023299607
76	0xbdb79e8c	-0.08965787
77	0xbd68db3e	-0.05684971
78	0x3d29c171	0.041444246
79	0x3d0a0e6e	0.033705167
80	0xbcb5a3f2	-0.022172902
81	0xbc158c0b	-0.009127627
82	0x3d851884	0.064988166
83	0xbcba050d	-0.022707487
84	0x3c7ad3d9	0.0153092975
85	0xbcd3817a	-0.025818575
86	0xbd9e7050	-0.07736266
87	0xbd385bc2	-0.045009382
88	0x3ce0d67b	0.027446022
89	0x3bf3859f	0.0074317004
90	0xbc10f3d0	-0.008847192
91	0xbc733947	-0.014845199
92	0x3c7f232a	0.015572349
93	0x3da29777	0.07939046
94	0xbcad7040	-0.021171689
95	0xbd3901a5	-0.045167584
96	0xbd90d758	-0.070723236
97	0x3ab28b21	0.0013621786
98	0x3d5bbcf4	0.053646997
99	0x3cb8f6bf	0.022578595
100	0xbdbedd9d	-0.09319613
101	0xbd5930ba	-0.053024985
102	0xbda09536	-0.0784096
103	0x3ca4c36f	0.020112721
104	0x3d3ad136	0.045609675
105	0x3d4f41ee	0.050599985
106	0xbd2c588a	-0.042076625
107	0x3ca1df0d	0.01975968
108	0xbbc51510	-0.0060144737
109	0xbdb28271	-0.08716286
110	0x3d8e8ccc	0.069604486
111	0x3d5ece2a	0.054395832
112	0xbda9b2a6	-0.082860276
113	0x3d91abe8	0.07112867
114	0x3d30649e	0.043064706
115	0xbd8e9d57	-0.06963604
116	0x3d7708c6	0.0603111
117	0xbda18bfd	-0.07888029
118	0x3d5a3518	0.05327329
119	0xbac1b186	-0.0014777638
120	0xbcc3e85c	-0.023914509
121	0x3c87cc5e	0.016576942
122	0x3d4a931b	0.049456697
123	0xbd9bd2f8	-0.076085985
124	0x3d4bf8e6	0.049797915
125	0xbd0eeef8	-0.034895867
126	0x3d8abc94	0.0677425
127	0x3da8e096	0.08245961
128	0x3e00ebac	0.12589902
129	0x3daf7167	0.08566552
130	0xbde02f39	-0.10946507
131	0xba49369a	-0.0007675678
132	0x3cab29e1	0.020893993
133	0xbcb63c40	-0.022245526
134	0xbc4e0905	-0.012575393
135	0xbd4215e6	-0.047384165
136	0xbd46b398	-0.048511118
137	0xbd129ff6	-0.035797082
138	0x3cd42c9b	0.025900176
139	0x3d6373bf	0.055530306
140	0x3de56ecf	0.11202776
141	0x3def276c	0.11677441
142	0x3d04a329	0.032382164
143	0xbd3a5484	-0.045490757
144	0x3d69bd50	0.057065308
145	0x3d987f1c	0.07446119
146	0xbd4252fb	-0.047442418
147	0x3d9aeda8	0.075648606
148	0x3d800b98	0.06252211
149	0x3d49f395	0.049304564
150	0xbd1e0228	-0.038576275
151	0x3d122d40	0.035687685
152	0xbd299b02	-0.041407593
153	0x3d1c6e34	0.038191035
154	0x3de5fb06	0.112295195
155	0x3ccbe821	0.024890961
156	0xbd701c0d	-0.0586205
157	0x3d8fa1c1	0.07013274
158	0x3d38fb49	0.04516152
159	0x3d5038f7	0.050835576
160	0xbd45af96	-0.048263155
161	0x3dad13bb	0.08451029
162	0xbd82bb40	-0.06383371
163	0x3d946ba8	0.07247096
164	0x3d963964	0.07335165
165	0x3d75105d	0.05983006
166	0xbda44193	-0.0802032
167	0x3d1113a8	0.035419136
168	0xbb37f3eb	-0.002806897
169	0xbdadc027	-0.08483916
170	0xbd5f1d70	-0.054471433
171	0x3d8603f0	0.0654372
172	0x3bd6ab22	0.0065511623
173	0xbce8945b	-0.028391054
174	0x3d2d4ecd	0.04231148
175	0x3d8615da	0.065471366
176	0x3cb42ff4	0.021995522
177	0xbd00dd8d	-0.031461287
178	0xbd3bb5e9	-0.04582778
179	0x3d828b87	0.06374269
180	0xbd8b069f	-0.06788372
181	0xbca63c84	-0.020292528
182	0x3d820aea	0.06349738
183	0xbce0ef9a	-0.027458
184	0x3d46b99a	0.048516847
185	0xbc294a54	-0.010332663
186	0xbdaa1405	-0.083046
187	0x3d3334c7	0.043751504
188	0x3d60241b	0.054721933
189	0x3ca61d64	0.020277686
190	0x3ded6871	0.11592186
191	0x3d06719e	0.032823198
192	0x3ba2bc4e	0.0049662953
193	0xbd73cafc	-0.059519753
194	0x3d0073ab	0.03136031
195	0xbd440c5c	-0.04786335
196	0xbc80246e	-0.015642371
197	0x3d942526	0.07233648
198	0x3c898d9c	0.016791157
199	0xbc83e698	-0.016101167
200	0xbc99f67f	-0.018794296
201	0x3ea5a23d	0.3235034
202	0x3b3010aa	0.0026865401
203	0xbdb7c605	-0.08973316
204	0xbdc989a9	-0.0984071
205	0x3c8563c2	0.01628292
206	0xbe0eaace	-0.13932344
207	0xbd628070	-0.05529827
208	0x3d8c3c17	0.06847399
209	0x3d80b68c	0.06284818
210	0x3d7cefd7	0.061752167
211	0xbddd3a71	-0.108021624
212	0x3db00c18	0.08596057
213	0x3cd20744	0.02563823
214	0x3d908544	0.070566684
215	0xbbd1a6bd	-0.0063980506
216	0x3cf9c38b	0.03048875
217	0xbc106606	-0.008813387
218	0xbc02d0dd	-0.007984367
219	0x3ddf9ef7	0.10918992
220	0x3da2f825	0.07957486
221	0xbe3ce04f	-0.18444942
222	0xbd86267a	-0.065503076
223	0x3dad3b0c	0.08458528
224	0x3dc01ebc	0.09380862
225	0x3e000a76	0.1250399
226	0x3cd478b3	0.02593646
227	0x3d4ff789	0.050773177
228	0x3e00d401	0.12580873
229	0xbd032784	-0.032020107
230	0x3d1151b4	0.03547831
231	0xbe006932	-0.12540129
232	0xbcdf88da	-0.027286936
233	0xbd175b56	-0.03695234
234	0x3d903924	0.07042149
235	0xbc2de88b	-0.010614525
236	0x3a3d55d3	0.00072225666
237	0xbd1ad180	-0.03779745
238	0x3c9d0785	0.019168625
239	0xbd7c4629	-0.061590347
240	0xbd38c32e	-0.045108013
241	0xbd1e7a5f	-0.03869092
242	0x3d49a2de	0.049227588
243	0xbd261d8a	-0.040555514
244	0xbd338bd8	-0.043834537
245	0x3c92e99c	0.01793366
246	0x3dcffc19	0.10155506
247	0x3c8b7d32	0.017027471
248	0xbcd4efa4	-0.025993176
249	0x3cf61fbd	0.03004443
250	0xbd6f7a4c	-0.05846624
251	0xbc20ef53	-0.009822684
252	0x3d0dad90	0.03458935
253	0xbd3673a8	-0.044543892
254	0xbca92d93	-0.020651614
255	0x3db64b00	0.08901024

fc4.bias f4 [128]
0	0xbcd99706	-0.026561271
1	0x3e0fb826	0.14035091
2	0x3d95f6f1	0.07322491
3	0x3cfa04e3	0.030519908
4	0x3d95da95	0.07317082
5	0x3d7c3255	0.061571438
6	0x3da2c3ac	0.07947478
7	0x3d821451	0.06351531
8	0xbceebf21	-0.029143872
9	0x3d85ceac	0.0653356
10	0x3d6fba54	0.058527306
11	0x3df7682b	0.12080415
12	0xbd603d56	-0.054745995
13	0xbc95c1ef	-0.018280951
14	0x3db5c087	0.08874612
15	0xbc5193d6	-0.0127915945
16	0x3de60530	0.11231458
17	0xbd118bf0	-0.035533845
18	0xbcde7d3d	-0.027159328
19	0x3d465c98	0.048428148
20	0x3d00fda9	0.03149191
21	0x3d6f2cda	0.058392383
22	0x3d93800f	0.072021596
23	0xbd63d8fb	-0.05562685
24	0x3dd107ef	0.10206591
25	0x3cb6a597	0.022295756
26	0x3deed44b	0.116615854
27	0xbcd9a992	-0.026570115
28	0x3dd0e133	0.10199203
29	0x3d0d539f	0.034503575
30	0xbc912baf	-0.017721025
31	0xbe05aa30	-0.13053203
32	0x3d8f9937	0.07011645
33	0x3dc69466	0.096962735
34	0xbdacf18a	-0.084445074
35	0x3d7a6bae	0.061137848
36	0x3da1b99f	0.078967325
37	0x3dd7c72c	0.10536036
38	0x3d5a546d	0.05330317
39	0xbd14ce28	-0.03632942
40	0x3ddda2bc	0.10822055
41	0x3d1ad757	0.03780302
42	0x3d6b7627	0.057485726
43	0xbdb55139	-0.088533826
44	0x3e0940fe	0.13403699
45	0xbd80a654	-0.062817246
46	0xbdb59aae	-0.088673934
47	0x3d9c4487	0.07630258
48	0x3dbff8f5	0.09373657
49	0x3a7dc821	0.00096810056
50	0x3dfcc225	0.12341718
51	0x3dbc55d7	0.0919606
52	0x3d279cda	0.04092107
53	0x3db2b405	0.08725742
54	0xbdb43541	-0.0879922
55	0x3dd48d4d	0.103785135
56	0x3d9843a0	0.074347734
57	0x3dae4abc	0.08510348
58	0xbb19ce64	-0.0023468966
59	0x3d78fe95	0.060789663
60	0x3d983198	0.07431334
61	0x3ddcd177	0.1078214
62	0xbc6d905d	-0.014499751
63	0x3e02ed40	0.12785816
64	0xbd090350	-0.033450425
65	0x3dc13833	0.09434547
66	0x3d431283	0.047625076
67	0x3df76324	0.120794564
68	0x3ddf168e	0.10892974
69	0x3d4eb2f2	0.050463624
70	0xbdb48034	-0.08813515
71	0x3df43ef5	0.119260706
72	0x3de7f548	0.113260806
73	0x3ca9aba9	0.020711737
74	0xbd9704cb	-0.07373961
75	0xbd94e92f	-0.07271039
76	0x3e0c368c	0.13692683
77	0x3d6166de	0.055029742
78	0x3c8195b9	0.015818464
79	0x3da9cf24	0.08291462
80	0x3cfcc86a	0.030857284
81	0xbd5bb8c7	-0.053643014
82	0xbdc2200a	-0.09478767
83	0x3e0c4835	0.1369942
84	0x3cecabba	0.02889048
85	0x3d112a85	0.03544094
86	0x3e06207c	0.1309833
87	0x3d2d3436	0.04228612
88	0x3dc08ee7	0.094022565
89	0x3c832eb0	0.016013473
90	0x3d7d36c1	0.061819796
91	0xbc87048d	-0.016481662
92	0x3d6580ab	0.05603091
93	0xbd33105d	-0.043716777
94	0x3d9413cd	0.07230339
95	0x3c61960c	0.013768684
96	0x3d72157e	0.059102528
97	0x3d2021cf	0.039094742
98	0x3d0000fc	0.03125094
99	0x3da7df26	0.08196859
100	0x3d98cb1a	0.074606135
101	0xbe3752cb	-0.17902677
102	0xbce70088	-0.028198496
103	0x3dc3aba9	0.09554226
104	0x3d6c9246	0.057756685
105	0x3dac5d5d	0.08416245
106	0x3cbfc447	0.023409022
107	0xbd090ece	-0.033461384
108	0x3cd3f6e6	0.025874566
109	0x3dde77bd	0.10862682
110	0x3d076b7d	0.033061493
111	0x3d976de7	0.07394009
112	0xbdbc520d	-0.091953374
113	0xbdadc838	-0.08485454
114	0xbd828397	-0.06372755
115	0x3c51a0a3	0.012794646
116	0xbd5bd6f8	-0.053671807
117	0xbd5e511f	-0.05427658
118	0x3d4a5a95	0.049402792
119	0x3c97411f	0.01846367
120	0x3d479d45	0.04873397
121	0x3dfb4f69	0.12271006
122	0xbbc13b1c	-0.005896939
123	0xbc591254	-0.013248999
124	0x3df61f36	0.12017672
125	0xbb87a497	-0.0041394937
126	0x3c7c4a39	0.015398555
127	0x3d9e44d3	0.07727971
