checkpoints/checkpoint_qnetwork_target_WMT_DDQN_PER_without_trend.pth (torch_old, 659276 bytes, 12 tensors)

fc1.weight f4 [128, 122]
0.0110459775 0.06083072 -0.124918334 -0.12868789 -0.046096597 0.057486173 -0.012014973 0.08618129
-0.0023629973 0.05701888 -0.04163167 -0.032060478 -0.10076528 -0.0742376 -0.051596295 -0.010915234
0.02152379 0.040057253 -0.07564114 -0.053674415 0.029741494 0.055845633 0.067610085 0.1053286
-0.07733206 0.0063252295 0.06769038 -0.097161934 -0.039471827 -0.031036582 -0.045934994 0.057770398
-0.22278172 -0.08838387 -0.018293984 -0.102993056 -0.077322975 0.04117498 -0.040074233 0.064377174
-0.009805523 -0.06778224 0.07518446 -0.1338522 -0.18569839 -0.05894699 0.041509688 0.10030613
0.003994943 -0.056948166 0.045452774 0.074480854 -0.039187677 0.036220998 0.11647768 -0.066215515
0.0027320434 -0.020969545 -0.058174748 -0.10808642 0.03226091 0.02498305 -0.09974692 -0.009958349
0.042248975 -0.012137627 0.0010122195 -0.004975647 0.058160882 0.08276662 -0.08403705 -0.047488824
0.021333015 0.060679372 0.064402565 0.06561958 0.0037082105 -0.092958964 -0.005954319 -0.07104327
-0.098641895 0.0661306 0.05446876 -0.10459701 0.0026853876 -0.029518243 -0.029210363 -0.055821598
0.020490155 -0.06788015 0.018923458 0.031472832 0.050628006 0.01954122 -0.10405528 -0.07299715
0.030894 0.0048369453 -0.084851146 -0.06665263 0.070906505 0.046692934 -0.053814463 -0.036998503
-0.10053943 -0.015893415 -0.08249213 -0.084036335 -0.019205451 -0.0008389348 -0.051342983 0.03941038
-0.06926461 0.06791458 0.047581546 -0.09061179 -0.03684419 -0.010220531 -0.0010154612 0.007146391
0.05049248 -0.034010127 -0.11090581 0.019012503 -0.10400055 -0.110724404 -0.027767269 -0.063576624
-0.033718765 -0.094533816 0.00960573 -0.06068971 -0.07177549 -0.017445583 0.051997863 -0.022125132
-0.01030128 -0.020630296 0.005504608 0.04474934 0.07294801 0.044657025 0.07921386 -0.022608457
-0.0998967 -0.003412187 0.093253665 -0.007952352 -0.0646542 -0.058112595 -0.040693033 -0.09448168
-0.04378212 0.021244576 0.02109686 -0.15057492 0.07631808 -0.10052312 -0.048454616 -0.084785916
-0.046992585 0.04371189 -0.1074285 -0.10346625 -0.01195265 -0.01910933 -0.03872392 0.009922772
-0.105485804 0.036990423 0.06256887 -0.054385267 0.060836826 0.012700851 -0.097082354 0.057948973
0.034312744 -0.07459925 0.05501892 -0.0075156614 0.01286334 -0.031991016 0.031906415 0.013199218
0.16804698 0.13136517 -0.21433279 -0.05663193 -0.105460316 0.06527394 0.108532965 0.07136102
-0.07665757 -0.008737339 -0.07663528 -0.062671684 -0.06549829 0.01814594 -0.06672818 -0.014804942
-0.009019398 0.04563696 -0.081234396 -0.07493244 -0.0653028 0.05057811 -0.045368217 0.06356931
0.01995934 -0.0014417862 -0.013496486 -0.03054616 -0.0014395579 -0.033454306 -0.013654533 -0.0013334105
-0.08335464 -0.06025339 0.060325667 -0.08630336 -0.019418875 0.07683653 0.01990451 -0.010219218
-0.09118861 0.03199136 -0.07731422 -0.03850281 -0.043159675 -0.026395544 -0.01185808 0.06210857
-0.001502585 0.06830974 0.04268321 -0.07004385 0.027750704 -0.07680779 -0.051156804 0.013867125
0.017078156 0.055129997 0.00024161107 -0.07830651 0.09227323 -0.12457142 0.045555413 0.062272456
0.014244117 -0.04201988 -0.00475309 -0.19944754 0.08726383 -0.10980292 -0.05141677 -0.03115287
00000000: 30fa 343c a229 793d 2fd5 ffbd c2c6 03be
00000010: c9cf 3cbd 9f76 6b3d 73da 44bc d17f b03d
00000020: 84dc 1abb a18c 693d f885 2abd d951 03bd
00000030: 075e cebd e209 98bd a356 53bd cfd5 32bc
00000040: a952 b03c 1313 243d bee9 9abd b4d9 5bbd
00000050: 6fa4 f33c 64be 643d 2877 8a3d 85b6 d73d
00000060: 4560 9ebd df43 cf3b 41a1 8a3d d6fc c6bd
00000070: 36ad 21bd 6e40 febc 5526 3cbd a7a0 6c3d
00000080: e420 64be 9a02 b5bd 44dd 95bc 06ee d2bd
00000090: 825b 9ebd 19a7 283d e124 24bd 2ed8 833d
000000a0: 58a7 20bc 6ad1 8abd 4ffa 993d 8d10 09be
000000b0: b827 3ebe 6672 71bd 1006 2a3d 4d6d cd3d
000000c0: 03e8 823b 7b42 69bd b02c 3a3d 6b89 983d
000000d0: 4283 20bd 785c 143d da8b ee3d 009c 87bd
000000e0: 150c 333b 53c8 abbc a548 6ebd 6a5c ddbd
000000f0: 0424 043d 41a9 cc3c 1d48 ccbd 5828 23bc
00000100: 430d 2d3d e6dc 46bc 73ac 843a c10a a3bb
00000110: 1b3a 6e3d 8c81 a93d 9e1b acbd a483 42bd
00000120: 93c2 ae3c ef8a 783d 7ee5 833d 8f63 863d
00000130: 7305 733b 4561 bebd 731c c3bb 227f 91bd
00000140: c304 cabd 7b6f 873d a21a 5f3d f536 d6bd
00000150: 54fd 2f3b 3ed0 f1bc 924a efbc 30a5 64bd
00000160: f8da a73c c004 8bbd 5e05 9b3c a8e9 003d
00000170: 505f 4f3d e914 a03c ef1a d5bd 887f 95bd
00000180: 6a15 fd3c 3d7f 9e3b 70c6 adbd 2d81 88bd
00000190: 6e37 913d 1741 3f3d 8e6c 5cbd be8b 17bd
000001a0: 9ee7 cdbd e832 82bc a2f1 a8bd 3e1b acbd
000001b0: c054 9dbc f6eb 5bba 054d 52bd c76c 213d
000001c0: 9bda 8dbd cd16 8b3d dee4 423d ad92 b9bd
000001d0: efe9 16bd 0474 27bc 3919 85ba 462c ea3b
000001e0: 34d1 4e3d 344e 0bbd 9622 e3bd 1cc0 9b3c
000001f0: 3efe d4bd 7ac3 e2bd 2f78 e3bc 7634 82bd
00000200: b01c 0abd f29a c1bd 5a61 1d3c c695 78bd
00000210: 07ff 92bd 0aea 8ebc b6fb 543d c43f b5bc
00000220: b3c6 28bc de00 a9bc 0060 b43b 154b 373d
00000230: c465 953d 49ea 363d e03a a23d 5f35 b9bc
00000240: a496 ccbd 009f 5fbb c7fb be3d 954a 02bc
00000250: 6c69 84bd 7907 6ebd bdad 26bd 9c7f c1bd
00000260: e154 33bd 1b09 ae3c 52d3 ac3c 5030 1abe
00000270: a74c 9c3d 11df cdbd 5978 46bd 3da4 adbd
00000280: 4c7b 40bd 3d0b 333d 7903 dcbd 1de6 d3bd
00000290: 0cd5 43bc 2b8b 9cbc f99c 1ebd 1f93 223c
000002a0: f108 d8bd 4583 173d 1c24 803d 16c3 5ebd
000002b0: 0930 793d 3b17 503c 1dd3 c6bd e75b 6d3d
000002c0: 858b 0c3d 7ec7 98bd 855b 613d f045 f6bb
000002d0: c2c0 523c 0309 03bd 4db0 023d 8841 583c
000002e0: 8214 2c3e 9784 063e 0e7a 5bbe e2f6 67bd
000002f0: 94fb d7bd 58ae 853d 8846 de3d ba25 923d
00000300: a5fe 9cbd 0e27 0fbc f5f2 9cbd 035a 80bd
00000310: f823 86bd cba6 943c c9a8 88bd 6d90 72bc
00000320: 19c6 13bc d2ed 3a3d 385e a6bd 2e76 99bd
00000330: 79bd 85bd fe2a 4f3d 06d4 39bd a030 823d
00000340: c581 a33c 51fa bcba 5d20 5dbc f13b fabc
00000350: 8caf bcba 6207 09bd 43b7 5fbc d5c5 aeba
00000360: d6b5 aabd 42cc 76bd 0c18 773d d1bf b0bd
00000370: 5514 9fbc 785c 9d3d c80e a33c 826e 27bc
00000380: 18c1 babd 5f09 033d eb56 9ebd 1fb5 1dbd
00000390: 33c8 30bd 783b d8bc 6448 42bc 8e65 7e3d
000003a0: 63f2 c4ba fae5 8b3d 97d4 2e3d 2673 8fbd
000003b0: 7255 e33c 674d 9dbd cc89 51bd f032 633c
000003c0: 7de7 8b3c fecf 613d fa58 7d39 2a5f a0bd
000003d0: bff9 bc3d 4d1f ffbd 5098 3a3d 6711 7f3d
000003e0: 2860 693c 0a1d 2cbd cfbf 9bbb fa3b 4cbe
000003f0: 61b7 b23d 5ae0 e0bd 649a 52bd 4e34 ffbc

fc1.bias f4 [128]
-0.07505749 0.052684665 0.045281425 -0.013168531 -0.048630543 0.085009575 -0.06175705 -0.08593592
-0.10795616 -0.048792373 -0.08508361 0.06108538 0.042242605 -0.089993626 0.08290348 -0.094366744
0.00079951703 -0.049884606 0.05940843 -0.044334143 -0.015604284 0.042273723 -0.04975526 -0.034751784
0.015650682 0.015488343 -0.07305775 -0.08372568 -0.034776196 0.050353024 0.03883478 0.08210484
-0.03968191 -0.05478229 -0.06818137 -0.037827507 -0.0049369913 -0.09086759 0.046103068 -0.064816676
0.055002786 0.016761268 0.037468173 -0.015564957 -0.08059416 0.053444702 -0.04392557 0.060796503
-0.026171891 0.06598077 -0.021661483 -0.09023669 0.077797845 -0.00902376 0.029511133 -0.084942766
0.07499755 0.034882195 0.017488366 -0.095962785 -0.059771635 -0.016311647 -0.06396382 -0.048913755
-0.009148917 -0.0121917 0.0594352 -0.035116307 -0.10091881 0.07600245 0.045911264 -0.0025370463
-0.023082243 -0.05838697 -0.021740343 0.05800627 -0.0908887 0.053533375 -0.05996954 0.0074584205
0.054619692 -0.017799728 -0.007322817 0.045493644 -0.038821492 -0.006369672 0.06171976 0.00085540634
-0.07200268 -0.087261364 0.024403306 -0.081220984 0.06428357 -0.06686046 -0.09538136 0.06467281
-0.054525223 -0.07464621 0.0641938 -0.072444394 0.0038754616 -0.042341996 0.004421615 0.038616884
0.06291059 -0.071081914 0.010419124 0.04021636 0.009111837 -0.09435261 0.07633353 0.006253441
-0.0828721 0.0451903 -0.011142201 -0.07311505 0.00028377428 -0.095558055 -0.06784249 -0.059662353
-0.035396397 0.0069226157 -0.0213363 0.020935342 0.03484194 0.04689853 -0.055962063 0.08062091
00000000: beb7 99bd e0cb 573d 0479 393d d2c0 57bc
00000010: d230 47bd 8019 ae3d f6f4 7cbd 2cff afbd
00000020: 1f18 ddbd 83da 47bd 5140 aebd aa34 7a3d
00000030: 9506 2d3d 944e b8bd 4dc9 a93d 5a43 c1bd
00000040: ae96 513a cd53 4cbd 4156 733d b897 35bd
00000050: 1ca9 7fbc 3627 2d3d 2ccc 4bbd e357 0ebd
00000060: dc35 803c d2c2 7d3c 4d9f 95bd 5f78 abbd
00000070: 7c71 0ebd f93e 4e3d 3811 1f3d 9526 a83d
00000080: 8089 22bd 6563 60bd ada2 8bbd 04f1 1abd
00000090: 7cc6 a1bb c918 babd 92d6 3c3d 9bbe 84bd
000000a0: 9a4a 613d ed4e 893c 3a78 193d 2904 7fbc
000000b0: 8d0e a5bd d5e8 5a3d 4ceb 33bd c105 793d
000000c0: 6f66 d6bc ed20 873d 6c73 b1bc 04ce b8bd
000000d0: 7a54 9f3d 65d8 13bc 55c1 f13c 79f6 adbd
000000e0: 5198 993d a2e0 0e3d c343 8f3c 2388 c4bd
000000f0: 1ad3 74bd 01a0 85bc 77ff 82bd ca59 48bd
00000100: 57e5 15bc b2bf 47bc 5372 733d 1ed6 0fbd
00000110: 85ae cebd 2ca7 9b3d 730d 3c3d 9344 26bb
00000120: f916 bdbc 2d27 6fbd ce18 b2bc fc97 6d3d
00000130: db23 babd d045 5b3d 9fa2 75bd c465 f43b
00000140: e6b8 5f3d bcd0 91bc 3ef4 efbb 8b57 3a3d
00000150: 4903 1fbd aeb8 d0bb dccd 7c3d 593d 603a
00000160: 2476 93bd 16b6 b2bd 71e9 c73c 3057 a6bd
00000170: 1ba7 833d 23ee 88bd 4d57 c3bd 2e73 843d
00000180: d755 5fbd 1de0 98bd 0a78 833d ba5d 94bd
00000190: 75fb 7d3b cd6e 2dbd 32e3 903b bd2c 1e3d
000001a0: 44d7 803d 6593 91bd f9b4 2a3c e9b9 243d
000001b0: d049 153c f13b c1bd c154 9c3d aae9 cc3b
000001c0: d9b8 a9bd 7719 393d c78d 36bc 58bd 95bd
000001d0: 8ac7 9439 f1b3 c3bd 01f1 8abd 8360 74bd
000001e0: d0fb 10bd 1cd7 e23b 77c9 aebc 9880 ab3c
000001f0: 6cb6 0e3d ac18 403d 7a38 65bd 931c a53d

fc2.weight f4 [256, 128]
-0.02924457 -0.076860994 -0.073966116 0.0040369816 0.043481287 0.061224364 0.0006094567 0.048863687
0.0049596243 -0.09723499 0.006387494 -0.050604388 -0.03353852 -0.063703574 0.06110043 -0.114267685
0.098741226 -0.03821129 0.02576832 -0.06365476 -0.0910859 -0.05239864 -0.06710558 -0.037671305
-0.029614383 0.02644754 -0.07406201 0.041500792 0.014864411 -0.11159441 -0.06779522 -0.017190145
-0.01266656 -0.099339195 -0.08577205 -0.07622204 -0.1986526 0.10456015 -0.106180064 0.032449935
0.05942866 0.013061816 -0.18424037 -0.024408448 0.018062558 -0.0048760786 -0.12921788 0.044164617
0.016962893 -0.11123015 0.030874362 -0.20743333 0.040832542 -0.030881882 0.002732201 -0.022724636
-0.03608468 0.06053175 -0.059118334 0.05819458 0.042263128 -0.05369117 -0.06657293 -0.03170514
-0.050263785 -0.023274986 0.016086156 -0.04094025 0.06726022 0.10983228 -0.12114991 -0.014151338
-0.10209635 -0.06622298 0.08682497 0.042260937 -0.018470323 -0.08215037 -0.03666486 0.071277745
-0.1619757 -0.050497197 -0.01664154 0.06299266 -0.05574378 0.12290366 0.0152835045 -0.02141793
0.06494753 0.018150788 0.044736553 -0.06954205 0.0041810446 0.06078605 -0.05914865 -0.1895819
0.044861916 -0.029576527 -0.10561672 0.06422946 0.04438609 0.0190961 -0.025340207 0.06515363
0.08397475 0.0823466 0.0037007015 0.06556715 0.031578917 -0.07053433 -0.0047786967 -0.041440655
0.056926396 0.025429659 -0.0080358805 -0.07073263 0.050374985 0.004887871 0.11213637 0.05944803
-0.050779972 -0.017287405 0.007829687 0.05849626 -0.09353928 -0.0013705969 -0.074030206 0.07859055
0.018047102 -0.0052162395 0.09154633 0.06525855 -0.020753805 0.07943589 0.10827174 -0.006210841
0.02906058 -0.08198569 0.0574012 -0.03222291 0.08773869 0.007357223 0.08552168 -0.034046724
-0.048695374 -0.042857792 -0.13038409 -0.035429742 -0.017138338 -0.11176671 -0.009998577 0.04905223
-0.024169348 -0.04651087 -0.012486444 -0.015868405 -0.1173327 -0.07483085 0.07196302 -0.022178553
0.0058803707 -0.06018726 -0.027453601 -0.08170601 0.04357849 0.0038005565 0.064892165 -0.007969425
-0.08375919 0.035145845 0.07588308 0.019071616 -0.052178588 0.0060511515 0.08397739 0.07617442
-0.013184787 -0.062256664 0.030817654 0.07819917 0.032591764 0.031167181 -0.009689223 0.03335879
-0.04542126 -0.025390064 -0.083879575 -0.035746865 -0.037609782 -0.015912076 -0.017527886 0.02306182
0.023572886 0.058817163 0.03288645 0.13354655 -0.0044033024 -0.002032563 0.11263672 -0.021712294
0.023053711 -0.019575099 0.08732154 0.022681292 -0.037151337 0.0030556512 0.01703022 0.07058956
0.09362135 -0.14877152 0.074481025 -0.1523236 0.08197305 0.045890383 0.0104530305 -0.041988384
0.09404921 0.15287131 0.011443922 0.1156505 0.060842387 0.02876938 -0.011482296 -0.059925567
-0.081809886 0.030667258 -0.025497857 -0.107302465 0.0935623 0.049534872 0.09337206 -0.033043187
-0.116811186 -0.050955214 -0.010783687 -0.09487419 0.087275214 -0.094640575 -0.0064778635 0.005328538
0.00595564 -0.003211942 -0.035149436 -0.1411154 -0.03762433 -0.072859995 -0.022293702 -0.005235995
0.12485495 0.060748413 -0.075849526 0.25983885 -0.016246337 0.011984191 -0.045669023 -0.028759858
00000000: 4f92 efbc 4c69 9dbd 8c7b 97bd a848 843b
00000010: 6f19 323d 66c6 7a3d f2c3 1f3a 4a25 483d
00000020: 5884 a23b 2323 c7bd 2f4e d13b 8c46 4fbd
00000030: b05f 09bd 0577 82bd 7244 7a3d 2d05 eabd
00000040: d738 ca3d 7183 1cbd 1518 d33c 6d5d 82bd
00000050: 3f8b babd f59f 56bd a66e 89bd 3a4d 1abd
00000060: dd99 f2bc 83a8 d83c d3ad 97bd bcfc 293d
00000070: dc89 733c 9c8b e4bd 38d8 8abd 59d2 8cbc
00000080: 6787 4fbc 5972 cbbd 42a9 afbd 4d1a 9cbd
00000090: 966b 4bbe a223 d63d ef74 d9bd 39ea 043d
000000a0: 776b 733d 3a01 563c 82a9 3cbe 3af4 c7bc
000000b0: eef7 933c 83c7 9fbb b151 04be f5e5 343d
000000c0: c4f5 8a3c a2cc e3bd 3bec fc3c 6769 54be
000000d0: 0640 273d 00fc fcbc ba0e 333b 0429 babc
000000e0: 88cd 13bd 24f0 773d 1126 72bd 715d 6e3d
000000f0: 1a1c 2d3d 46eb 5bbd 6357 88bd 40dd 01bd
00000100: 66e1 4dbd 2fab bebc 1dc7 833c f7b0 27bd
00000110: babf 893d bfef e03d 721d f8bd 03db 67bc
00000120: e417 d1bd ea9f 87bd 4ad1 b13d ce19 2d3d
00000130: 134f 97bc 743e a8bd e42d 16bd 11fa 913d
00000140: f5dc 25be 26d6 4ebd d753 88bc 4c02 813d
00000150: 9753 64bd eab4 fb3d aa67 7a3c a874 afbc
00000160: 3603 853d f6b0 943c ad3d 373d 106c 8ebd
00000170: 2501 893b cbfa 783d db45 72bd c221 42be
00000180: 21c1 373d 794a f2bc 944d d8bd bc8a 833d
00000190: 30ce 353d 6d6f 9c3c 4496 cfbc 446f 853d
000001a0: f4fa ab3d 56a5 a83d 7887 723b 1248 863d
000001b0: e558 013d 4e74 90bd 9d96 9cbb adbd 29bd
000001c0: a72b 693d dc51 d03c eda8 03bc 45dc 90bd
000001d0: 0056 4e3d 6f2a a03b c1a7 e53d c77f 733d
000001e0: a9fe 4fbd 519e 8dbc 1648 003c c699 6f3d
000001f0: 8691 bfbd 9aa5 b3ba 269d 97bd 15f4 a03d
00000200: 84d7 933c fdec aabb a47c bb3d 46a6 853d
00000210: e203 aabc 49af a23d 93bd dd3d 4f84 cbbb
00000220: 7410 ee3c 1de8 a7bd 851d 6b3d 2cfc 03bd
00000230: 58b0 b33d dc14 f13b fe25 af3d 9474 0bbd
00000240: cd74 47bd a78b 2fbd 6883 05be c71e 11bd
00000250: b365 8cbc f2e5 e4bd 12d1 23bc feea 483d
00000260: ccfe c5bc 2f82 3ebd f193 4cbc 75fe 81bc
00000270: 204c f0bd eb40 99bd 5961 933d ccaf b5bc
00000280: 20b0 c03b eb86 76bd 60e6 e0bc 7b55 a7bd
00000290: 5c7f 323d c212 793b 2fe6 843d 3192 02bc
000002a0: f089 abbd 17f5 0f3d 9768 9b3d 143c 9c3c
000002b0: 37b9 55bd bd48 c63b 56fc ab3d 5601 9c3d
000002c0: 0105 58bc d800 7fbd 4e75 fc3c e326 a03d
000002d0: f17e 053d 5152 ff3c 8cbf 1ebc 3aa3 083d
000002e0: a50b 3abd d3fe cfbc 0ec9 abbd 4e6b 12bd
000002f0: b70c 1abd 0b5a 82bc a496 8fbc 24ec bc3c
00000300: ed1b c13c 44ea 703d f1b3 063d 6dc0 083e
00000310: 9449 90bb c034 05bb 15ae e63d fbdd b1bc
00000320: 23db bc3c f55b a0bc a3d5 b23d 1ece b93c
00000330: 002c 18bd 5241 483b f682 8b3c 4291 903d
00000340: 8dbc bf3d 9057 18be 8289 983d b8fa 1bbe
00000350: 7de1 a73d 8ef7 3b3d 3043 2b3c 03fc 2bbd
00000360: df9c c03d 4c8a 1c3e 4a7f 3b3c 2bda ec3d
00000370: de35 793d c3ad eb3c 3d20 3cbc 8374 75bd
00000380: f18b a7bd e739 fb3c e2e0 d0bc 65c1 dbbd
00000390: 979d bf3d 14e5 4a3d da39 bf3d 4b58 07bd
000003a0: b43a efbd 6ab6 50bd 10ae 30bc 664d c2bd
000003b0: 59bd b23d ebd2 c1bd 4244 d4bb 049b ae3b
000003c0: 8827 c33b 727f 52bb dbf8 0fbd 8e80 10be
000003d0: f81b 1abd 9f37 95bd 48a1 b6bc b692 abbb
000003e0: f4b3 ff3d 54d3 783d ff56 9bbd 9909 853e
000003f0: 0a17 85bc 5759 443c 710f 3bbd cb99 ebbc

fc2.bias f4 [256]
0.050700188 -0.059697285 -0.087346055 0.006768759 0.048795503 0.055536963 -0.036815103 -0.052272078
-0.10697839 -0.022866469 -0.02512746 -0.10789927 -0.14665318 0.032479554 0.059058953 0.038613196
-0.11953439 -0.1213032 -0.010135158 -0.07713347 -0.026442863 -0.08193559 -0.06049845 0.020332191
-0.022873038 -0.047313426 0.00089634757 0.051398877 -0.045211587 -0.056234468 -0.15214434 -0.008363376
0.0010701547 0.07816792 -0.012702176 0.105955146 0.017541299 -0.08123123 -0.067944914 -0.03365986
-0.0015440878 -0.06976861 -0.13010606 0.004052828 0.037892174 -0.12716483 -0.020225903 -0.06994379
-0.0019034129 0.00082920137 -0.059600893 -0.04242178 -0.096679464 0.04120593 -0.09326353 0.09063858
-0.065198295 -0.07784305 -0.032764982 0.028837623 -0.018893044 0.056765422 -0.018234503 0.07948122
-0.06296362 -0.060254518 -0.116506 -0.15249519 0.03561113 -0.05956798 0.055477258 -0.038024258
-0.069559954 -0.10909956 -0.004202187 -0.008491393 0.024567928 -0.11375886 -0.100710005 -0.079680465
-0.040428977 0.07501696 -0.06839858 -0.08728295 -0.029033655 -0.077713795 -0.08900066 -0.03259185
-0.038968094 0.023811096 -0.08371393 0.039083146 0.022055235 0.08887638 -0.05127674 -0.06566819
-0.021101216 -0.060742762 -0.0518013 -0.07099374 -0.006466716 -0.019411327 -0.12736298 -0.03989414
-0.07078144 0.04397283 -0.0032310307 -0.115546435 -0.13770339 0.04333105 -0.12156832 -0.017408988
0.09181702 -0.07411897 -0.054552212 0.018759407 0.0793725 0.06005416 0.04857892 -0.08206252
0.040432584 -0.00025587046 0.0010736114 -0.1605742 -0.0008232019 -0.105994046 -0.028004497 -0.05988806
-0.012406188 -0.080529 0.041070547 0.034725502 -0.04117103 -0.010636639 -0.049443282 -0.029089551
0.09190379 -0.040962942 0.0031178398 0.08078739 -0.016212108 0.0073723686 0.06737679 0.0072221532
-0.037055638 0.023045449 -0.0031859302 -0.040129308 -0.043011416 0.013724367 0.017614126 -0.10614685
-0.13056624 -0.020994736 0.05887405 0.029055977 -0.08569018 -0.061841495 -0.10838817 -0.0033245482
0.07348041 0.025869263 0.021185694 0.07411524 -0.004204617 -0.0757244 0.029680256 0.022787312
-0.11524494 -0.052211452 -0.105613425 -0.004752216 0.022120574 0.068824634 -0.08578327 -0.027668098
-0.028196804 0.018501613 -0.09260733 -0.030297011 0.053950235 -0.012001176 -0.12515071 0.06026425
-0.01631255 0.008162253 0.011217117 -0.07843805 -0.106318444 -0.0013536852 -0.027783467 0.036611233
0.09751835 0.027825901 0.020682253 0.038132634 0.050262026 -0.06656772 0.11130275 -0.041183982
0.07086053 -0.03747998 -0.047699496 -0.09917669 0.009146496 0.028538803 -0.06967426 -0.08582043
-0.08457442 -0.031496525 0.08919694 -0.041981027 -0.059389357 -0.011730745 -0.051242467 0.03281441
-0.024913702 -0.151872 0.029590502 0.007423537 -0.09203192 -0.025369314 0.05071151 -0.1124875
-0.13602129 -0.13413483 0.022892697 -0.08293618 -0.04258106 -0.11653941 -0.02978308 -0.008859168
-0.012779752 -0.05944102 -0.036235526 0.0021777928 0.01048874 -0.00704608 -0.15252239 -0.042761434
-0.086966716 -0.045454204 0.06525445 0.00256405 -0.013565036 -0.10087732 -0.119389035 -0.050707273
-0.023885047 -0.18098737 -0.06231219 0.04874145 0.050522394 0.019156335 -0.14580034 -0.13856481
00000000: 00ab 4f3d 2485 74bd 7de2 b2bd 77cc dd3b
00000010: cbdd 473d ba7a 633d 6fcb 16bd 3f1b 56bd
00000020: 7c17 dbbd 7652 bbbc 1ad8 cdbc 4bfa dcbd
00000030: 402c 16be 4809 053d cde7 713d df28 1e3d
00000040: 72ce f4bd d06d f8bd ef0d 26bc 27f8 9dbd
00000050: b49e d8bc d9cd a7bd 39cd 77bd b28f a63c
00000060: 3d60 bbbc b9cb 41bd def8 6a3a a187 523d
00000070: c92f 39bd 1d56 66bd bacb 1bbe 8b06 09bc
00000080: 6f44 8c3a 8116 a03d ca1c 50bc 03ff d83d
00000090: c5b2 8f3c 8f5c a6bd b426 8bbd ecde 09bd
000000a0: fd62 caba d8e2 8ebd 863a 05be 96cd 843b
000000b0: d334 1b3d 7f37 02be cbb0 a5bc b13e 8fbd
000000c0: f07b f9ba c35e 593a 1120 74bd 76c2 2dbd
000000d0: e2ff c5bd 8dc7 283d f300 bfbd b8a0 b93d
000000e0: af86 85bd 2d6c 9fbd 9334 06bd e13c ec3c
000000f0: 96c5 9abc dc82 683d 8660 95bc 0dc7 a23d
00000100: 12f3 80bd 71cd 76bd b39a eebd b327 1cbe
00000110: fadc 113d 8efd 73bd 1f3c 633d 53bf 1bbd
00000120: 7375 8ebd 976f dfbd 80b2 89bb 7c1f 0bbc
00000130: ae42 c93c 68fa e8bd 0c41 cebd 832f a3bd
00000140: db98 25bd 7ea2 993d 8e14 8cbd 67c1 b2bd
00000150: fdd7 edbc 6928 9fbd fa45 b6bd 087f 05bd
00000160: 029d 1fbd 7d0f c33c 3572 abbd a615 203d
00000170: 2ead b43c d204 b63d 8f07 52bd 0b7d 86bd
00000180: 75dc acbc 67cd 78bd 9a2d 54bd 2a65 91bd
00000190: bfe6 d3bb 8104 9fbc 716b 02be 0a68 23bd
000001a0: dcf5 90bd db1c 343d b3bf 53bb 9ca3 ecbd
000001b0: 1e02 0dbe e67b 313d d0f8 f8bd 4b9d 8ebc
000001c0: 900a bc3d b0cb 97bd 2472 5fbd 54ad 993c
000001d0: 0d8e a23d 5afb 753d b1fa 463d 6510 a8bd
000001e0: a39c 253d 5a26 86b9 6cb8 8c3a 906d 24be
000001f0: 25cc 57ba 6813 d9bd b069 e5bc 2f4d 75bd
00000200: 5343 4bbc 63ec a4bd 9739 283d 543c 0e3d
00000210: f4a2 28bd 4c45 2ebc 0a85 4abd 364d eebc
00000220: 0e38 bc3d c2c8 27bd ac54 4c3b dc73 a53d
00000230: 41cf 84bc e993 f13b d8fc 893d d0a7 ec3b
00000240: a7c7 17bd cfc9 bc3c 0acb 50bb a15e 24bd
00000250: bd2c 30bd 2bdc 603c 804b 903c 8563 d9bd
00000260: 28b3 05be 27fd abbc ea25 713d cd06 ee3c
00000270: 557e afbd 824d 7dbd 9efa ddbd aae0 59bb
00000280: e67c 963d c7eb d33c 9f8d ad3c bbc9 973d
00000290: e2c6 89bb 6515 9bbd 0224 f33c 75ac ba3c
000002a0: 8a05 ecbd addb 55bd da4b d8bd 7ab8 9bbb
000002b0: 3536 b53c eef3 8c3d 24af afbd 35a8 e2bc
000002c0: fcfc e6bc b290 973c e9a8 bdbd 7031 f8bc
000002d0: ecfa 5c3d 95a0 44bc 8227 00be a5d7 763d
000002e0: e6a1 85bc f8ba 053c 00c8 373c 21a4 a0bd
000002f0: 7cbd d9bd 236e b1ba 279a e3bc a9f5 153d
00000300: b3b7 c73d 25f3 e33c d46d a93c f730 1c3d
00000310: 8edf 4d3d a854 88bd b2f2 e33d 89b0 28bd
00000320: 531f 913d 9c84 19bd 8c60 43bd 261d cbbd
00000330: 2fdb 153c 35ca e93c 61b1 8ebd 9fc2 afbd
00000340: 5a35 adbd 8002 01bd e3ac b63d 4cf4 2bbd
00000350: 4142 73bd 5032 40bc 9fe3 51bd 6768 063d
00000360: d217 ccbc 5584 1bbe c867 f23c 2441 f33b
00000370: 3b7b bcbd 4fd3 cfbc dfb6 4f3d d95f e6bd
00000380: 2a49 0bbe a45a 09be 7789 bb3c 72da a9bd
00000390: 7a69 2ebd 37ac eebd a5fb f3bc 0b26 11bc
000003a0: 2a62 51bc 6d78 73bd b46b 14bd 4db9 0e3b
000003b0: f7d8 2b3c cee2 e6bb d42e 1cbe 9d26 2fbd
000003c0: 9b1b b2bd 302e 3abd 20a4 853d 9f09 283b
000003d0: e23f 5ebc c598 cebd 3d82 f4bd 6eb2 4fbd
000003e0: 93aa c3bc c154 39be 113b 7fbd 1da5 473d
000003f0: 92f0 4e3d bfed 9c3c af4c 15be efe3 0dbe

fc3.weight f4 [256, 256]
0.020782344 0.0004706798 0.048594404 -0.03932498 -0.10176764 0.06839602 -0.08553845 -0.09552666
0.050292082 -0.026754765 0.0031670546 0.076549426 -0.079059996 -0.01730595 0.052278984 -0.14911577
0.1722075 0.012128938 0.05338798 -0.06825635 0.018214483 0.08907885 0.052087802 -0.039556503
-0.150464 0.061640464 0.048679903 -0.038613852 -0.16486083 -0.030355927 0.08102714 -0.028612722
-0.05320836 0.010968151 -0.037308324 -0.15110053 -0.09838771 0.020388884 0.054671563 -0.07240997
-0.05173812 -0.053932253 0.018489858 -0.09713319 -0.16466857 0.09057369 0.05122761 -0.049347397
0.06290185 -0.238245 0.01724812 -0.022960635 -0.032342423 -0.04862231 0.07697076 -0.11609259
-0.02490464 -0.10277047 0.07341865 0.0077779507 0.2001788 -0.20196356 -0.063905954 -0.047169227
0.055166654 -0.02722477 0.059946053 -0.05246719 0.042101283 0.072695054 -0.116009906 -0.12633225
0.023251167 0.18336996 0.11250627 -0.05694648 -0.060375452 0.050232675 0.03315556 -0.20311898
-0.015501971 -0.10458288 -0.07003924 -0.0364491 0.023384923 0.0015352044 -0.07615681 -0.085977845
-0.036666 -0.0034288475 0.032801382 -0.07719918 0.10318691 -0.15737985 0.19376346 -0.018597616
-0.07052495 0.08552191 0.023645299 -0.13838129 -0.06519301 0.039094124 0.0020235633 -0.019089233
-0.049321443 -0.09556092 -0.06859487 0.097395785 0.09373034 0.0069101416 0.008855118 -0.009794645
-0.10248553 0.0010122188 -0.07959209 0.024305157 -0.31770083 -0.078747995 0.013017389 0.045013778
-0.05961458 0.01907434 -0.021892672 0.069013886 -0.07733148 0.030588191 -0.12615149 0.028707415
-0.0098866215 -0.1287192 -0.11198917 -0.076024376 0.005986404 -0.021074634 -0.04280895 -0.12219511
-0.001920986 0.01694283 0.07672041 -0.05044284 0.020601287 0.039939925 -0.009015666 -0.07740383
-0.049562067 -0.054940082 -0.1487344 0.059327662 0.078241475 0.03614136 -0.15064926 -0.11754911
0.091277525 -0.07724498 -0.22668393 -0.00042298975 0.044721644 -0.04222024 -0.07639844 -0.031996403
0.028879523 0.028548101 -0.27080148 -0.05683627 0.030667812 0.020206476 -0.13204521 -0.02862947
0.06281174 0.018176835 0.057921913 -0.09821015 -0.15571803 0.009118124 -0.076279074 -0.17154902
-0.033315465 0.045750767 0.057792418 -0.06791362 -0.047836963 -0.11480149 -0.11320563 -0.06233581
-0.036132723 -0.043126702 -0.0050672186 -0.0047041858 0.074359775 0.010427262 0.00060659816 -0.114712045
-0.2800013 0.020422198 -0.20249131 0.004202553 -0.097464904 -0.033513352 0.062086213 0.018299177
0.05238033 -0.023677634 0.03989821 -0.0824813 -0.109653115 -0.048406135 0.11143869 -0.037416637
-0.03673822 -0.04262938 -0.085280605 -0.09188418 -0.041211586 -0.11846338 -0.01626423 -0.1335102
0.016871301 0.02844899 -0.21739848 -0.12384306 -0.122490786 -0.07006858 -0.042131677 0.028878285
0.15874046 0.03179618 0.1155882 0.10229115 0.29836398 -0.011584177 0.004087335 0.010744548
-0.04925302 0.030656721 0.09134306 0.019916309 -0.051729675 0.030497443 0.0730148 -0.081434995
0.046043485 -0.09926746 -0.1412246 -0.045893528 -0.082619034 -0.068543315 -0.057053868 -0.04818876
-0.16988076 -0.039762273 0.030105844 -0.053507462 -0.032182753 -0.08476952 0.12657268 0.021775363
00000000: bc3f aa3c 93c5 f639 ed0a 473d 3b13 21bd
00000010: 8d6b d0bd 3613 8c3d c82e afbd 7ba3 c3bd
00000020: 12ff 4d3d cf2c dbbc 5c8e 4f3b f2c5 9c3d
00000030: 35ea a1bd 35c5 8dbc 7d22 563d ceb1 18be
00000040: 2a57 303e 74b8 463c 5bad 5a3d fcc9 8bbd
00000050: 8a36 953c f96e b63d 055a 553d 0006 22bd
00000060: 3c13 1abe b67a 7c3d 9464 473d 8f29 1ebd
00000070: 47d1 28be feac f8bc 8ff1 a53d 3a65 eabc
00000080: 02f1 59bd c2b3 333c 9dd0 18bd 19ba 1abe
00000090: 7f7f c9bd 9706 a73c 4aef 5f3d ae4b 94bd
000000a0: 5aeb 53bd 11e8 5cbd 0b78 973c c4ed c6bd
000000b0: e19e 28be b37e b93d 0bd4 513d 7f20 4abd
000000c0: afd2 803d 7ff6 73be ee4b 8d3c f117 bcbc
000000d0: 7d79 04bd 3028 47bd d9a2 9d3d f4c1 edbd
000000e0: d104 ccbc 5379 d2bd 845c 963d 2ede fe3b
000000f0: acfb 4c3e 89cf 4ebe 20e1 82bd 8534 41bd
00000100: 6ef6 613d 7b06 dfbc fe89 753d d6e7 56bd
00000110: 6572 2c3d 25e1 943d 9a96 edbd 3e5d 01be
00000120: 3b79 be3c 56c5 3b3e b069 e63d b640 69bd
00000130: 404c 77bd c7c0 4d3d 20ce 073d 6cfe 4fbe
00000140: fbfb 7dbc 8d2f d6bd bc70 8fbd a74b 15bd
00000150: bd91 bf3c e938 c93a 1af8 9bbd 2715 b0bd
00000160: 162f 16bd 84b6 60bb be5a 063d 9b1a 9ebd
00000170: a953 d33d 2f28 21be ee69 463e 075a 98bc
00000180: 636f 90bd 1c26 af3d c9b3 c13c d3b3 0dbe
00000190: ea83 85bd 2921 203d c29d 043b 0661 9cbc
000001a0: 4805 4abd 72b5 c3bd 787b 8cbd 7177 c73d
000001b0: b1f5 bf3d 786e e23b 0f15 113c b879 20bc
000001c0: efe3 d1bd 6dac 843a 2d01 a3bd 9c1b c73c
000001d0: afa9 a2be a146 a1bd e346 553c 5e60 383d
000001e0: 6b2e 74bd ca41 9c3c 4358 b3bc 2757 8d3d
000001f0: f85f 9ebd 1694 fa3c db2d 01be d02b eb3c
00000200: 7ffb 21bc f7ce 03be 945a e5bd abb2 9bbd
00000210: 9929 c43b b6a4 acbc 7058 2fbd 6e41 fabd
00000220: 98c9 fbba b1cb 8a3c 971f 9d3d 279d 4ebd
00000230: 08c4 a83c 0c98 233d 72b6 13bc e685 9ebd
00000240: 9801 4bbd da08 61bd d54d 18be 9001 733d
00000250: 113d a03d f608 143d cd43 1abe 96bd f0bd
00000260: b6ef ba3d 9e32 9ebd d51f 68be b9c4 ddb9
00000270: 0b2e 373d 21ef 2cbd c976 9cbd a90e 03bd
00000280: c094 ec3c b5dd e93c 7ea6 8abe 26cd 68bd
00000290: 103b fb3c 0d88 a53c dc36 07be 5a88 eabc
000002a0: 71a3 803d 96e7 943c 873f 6d3d 6722 c9bd
000002b0: 8c74 1fbe 2f64 153c 3438 9cbd 8caa 2fbe
000002c0: cc75 08bd 2865 3b3d beb7 6c3d 4c16 8bbd
000002d0: b1f0 43bd 0b1d ebbd 5ad8 e7bd d653 7fbd
000002e0: e8ff 13bd a0a5 30bd e90a a6bb 9225 9abb
000002f0: f049 983d 1bd7 2a3c 1d04 1f3a 26ee eabd
00000300: 555c 8fbe 744c a73c e259 4fbe 92b5 893b
00000310: ae9b c7bd 4c45 09bd 1d4e 7e3d 28e8 953c
00000320: c28c 563d 99f7 c1bc 4e6c 233d f5eb a8bd
00000330: d091 e0bd 8345 46bd f839 e43d 3042 19bd
00000340: d17a 16bd 259c 2ebd 99a7 aebd c62d bcbd
00000350: 7bcd 28bd ee9c f2bd 903c 85bc e6b6 08be
00000360: af35 8a3c db0d e93c b59d 5ebe 6ea1 fdbd
00000370: 73dc fabd 1e80 8fbd 4492 2cbd 2792 ec3c
00000380: dc8c 223e b63c 023d 82b9 ec3d 067e d13d
00000390: 2ac3 983e 8fcb 3dbc 0def 853b e709 303c
000003a0: 89bd 49bd ce23 fb3c 1212 bb3d 8727 a33c
000003b0: 7fe2 53bd c6d5 f93c c988 953d 64c7 a6bd
000003c0: 1898 3c3d bd4c cbbd 2e9d 10be dafa 3bbd
000003d0: 2b34 a9bd 7060 8cbd 51b1 69bd 9461 45bd
000003e0: 39f5 2dbe c4dd 22bd 88a0 f63c a42a 5bbd
000003f0: 10d2 03bd a49b adbd 459c 013e 3f62 b23c

fc3.bias f4 [256]
-0.106557205 -0.13508835 0.08468345 -0.087625384 0.04157237 0.046607997 0.012839779 0.09887737
0.032622468 -0.16343044 0.00790995 0.048884705 0.07477035 0.02655254 0.008576018 0.08872453
-0.057940315 0.052832477 0.022011027 0.03914007 -0.06564045 -0.0104153445 0.010697684 0.066100135
-0.012813587 -0.025847124 0.03481549 0.022061817 0.06487206 0.03201602 -0.07715212 0.035522237
-0.20891051 0.022640994 0.016144283 0.11895463 -0.05985921 0.00223205 -0.049786124 0.047077075
0.08720841 -0.11594961 -0.07788558 -0.04995314 -0.18852311 0.054367933 0.093345016 -0.025306504
0.0007143037 0.04164044 0.05542892 -0.10871752 0.035638817 0.052678816 -0.02921391 0.021120518
0.019119352 0.07226598 0.010260752 0.07499138 -0.09274496 -0.015668076 -0.1863467 -0.06031139
0.024614094 -0.017943969 -0.08645763 0.080044456 0.025937434 0.027568467 -0.2150063 0.019656999
0.056409523 0.10575832 -0.031621017 -0.10442527 -0.03838138 0.047487855 0.024566965 -0.060128342
-0.18637581 -0.123162836 0.04936469 -0.06487162 0.019633498 0.016234199 0.017546048 0.09580041
-0.06865349 -0.036266204 -0.012216355 0.11040218 0.02727938 -0.024948983 -0.053119753 0.08244874
0.021613304 -0.08709993 -0.09144431 0.053094305 0.017467989 0.14751548 -0.0039042095 -0.008560168
-0.023570174 -0.08412601 0.033787496 0.029283954 0.085820004 -0.13588169 -0.010532583 0.06783356
-0.018807169 -0.07063557 0.12271145 -0.15964407 -0.058178037 0.009872033 -0.038262 0.013232792
0.008489375 0.017411727 0.0092063835 -0.032013316 0.070309676 0.013458944 0.0197322 -0.09453102
-0.14314336 -0.044165287 0.06594026 -0.031807672 -0.05919693 0.032877352 -0.020744693 -0.17934525
0.038721073 0.032211494 -0.07327865 -0.041507512 -0.046769794 -0.03262173 0.047732558 0.09034148
0.066766314 -0.010660202 -0.18593599 -0.17383051 -0.021512475 -0.1443714 -0.007690793 0.08987837
0.02347844 -0.025449324 0.09211601 0.027909616 -0.15014294 0.101322494 0.017292494 -0.050391145
-0.019426877 -0.011446596 0.04147749 0.012285509 -0.065683246 -0.04568661 -0.0031300741 -0.12439143
0.04330751 -0.13075815 0.05860689 -0.14827311 -0.017009951 -0.053891987 0.084261045 -0.0667042
0.022731446 -0.13690281 0.15541328 0.15459521 0.03937147 -0.031123104 0.18933342 -0.009723688
0.0380988 0.010413804 0.015115735 -0.13039948 -0.0051517156 -0.12145418 -0.09831453 -0.0517376
-0.091206774 0.08433369 0.017214984 0.014584676 -0.08375005 -0.100493655 0.0102746105 -0.026047384
-0.024267614 -0.044003516 0.04672495 -0.09812269 -0.19034554 0.01929748 0.067831084 -0.06917136
0.035796665 -0.014813364 0.028250251 -0.26925427 0.034145676 0.072445005 0.004954014 0.10928582
-0.0125695905 -0.008247682 -0.18787348 -0.13971837 -0.06273366 0.04557141 -0.0035927007 -0.06528182
0.021839272 -0.029823128 0.0006845897 -0.10178963 0.03231608 0.07188461 0.014611646 -0.056256
0.07531681 0.028510975 -0.12513158 -0.09766689 0.095379084 -0.03809292 0.029935485 -0.021766111
0.0032394163 0.15586421 0.0015476323 0.0028966772 -0.0668854 0.08587998 0.13539064 0.009973799
-0.020451391 0.03702991 0.007342821 -0.08640271 -0.15468092 0.018226173 0.11225601 -0.015420017
00000000: aa3a dabd 9a54 0abe 846e ad3d f074 b3bd
00000010: ca47 2a3d 07e8 3e3d f05d 523c 3880 ca3d
00000020: 239f 053d 4f5a 27be bc98 013c 543b 483d
00000030: 3221 993d b684 d93c 6d82 0c3c 35b5 b53d
00000040: d352 6dbd de66 583d 7850 b43c 5751 203d
00000050: 806e 86bd 1fa5 2abc 5745 2f3c 825f 873d
00000060: 14f0 51bc 59bd d3bc b09a 0e3d fcba b43c
00000070: a5db 843d 3b23 033d ee01 9ebd c47f 113d
00000080: a3ec 55be 9b79 b93c 0441 843c 7c9e f33d
00000090: ee2e 75bd 9647 123b 89ec 4bbd e4d3 403d
000000a0: 539a b23d fd76 edbd 7a82 9fbd aa9b 4cbd
000000b0: 340c 41be e9b0 5e3d ac2b bf3d 964f cfbc
000000c0: 1c40 3b3a 2a8f 2a3d 6f09 633d 4ba7 debd
000000d0: 02fa 113d bec5 573d 0352 efbc f004 ad3c
000000e0: 30a0 9c3c 3000 943d b71c 283c 1595 993d
000000f0: 12f1 bdbd 565a 80bc abd1 3ebe 1309 77bd
00000100: 7fa3 c93c 3bff 92bc b310 b1bd 59ee a33d
00000110: be7a d43c 44d7 e13c 9d2a 5cbe b707 a13c
00000120: ac0d 673d d197 d83d 0a85 01bd eadc d5bd
00000130: cb35 1dbd a082 423d a940 c93c 2349 76bd
00000140: 4dd9 3ebe cc3c fcbd a132 4a3d 69db 84bd
00000150: 6ed6 a03c 95fd 843c bbbc 8f3c 0133 c43d
00000160: 339a 8cbd df8b 14bd 1b27 48bc 8a1a e23d
00000170: 0279 df3c cf61 ccbc 1994 59bd e3da a83d
00000180: 620e b13c 7361 b2bd 2847 bbbd 6a79 593d
00000190: 0719 8f3c 4c0e 173e c4dd 7fbb f23f 0cbc
000001a0: 3d16 c1bc 424a acbd c264 0a3d e7e4 ef3c
000001b0: 66c2 af3d 9224 0bbe db90 2cbc 52ec 8a3d
000001c0: 7e11 9abc 62a9 90bd 2450 fb3d bc79 23be
000001d0: 184c 6ebd 4fbe 213c 9db8 1cbd 5ace 583c
000001e0: 0517 0b3c 0aa3 8e3c 5fd6 163c 6520 03bd
000001f0: 85fe 8f3d e782 5c3c 6ca5 a13c 7b99 c1bd
00000200: 2c94 12be a9e6 34bd b00b 873d c348 02bd
00000210: 7b78 72bd 67aa 063d c6f0 a9bc 48a6 37be
00000220: fd99 1e3d 33f0 033d 1e13 96bd c803 2abd
00000230: af91 3fbd 5d9e 05bd 3783 433d f404 b93d
00000240: c7bc 883d 21a8 2ebc 0166 3ebe a000 32be
00000250: ee3a b0bc 19d6 13be 0c03 fcbb 2712 b83d
00000260: db55 c03c 1a7b d0bc 52a7 bc3d b5a2 e43c
00000270: 12bf 19be 2b82 cf3d fda8 8d3c f266 4ebd
00000280: 1d25 9fbc 818a 3bbc 4de4 293d 2949 493c
00000290: f084 86bd e221 3bbd ee21 4dbb efc0 febd
000002a0: 3763 313d 77e5 05be c70d 703d e8d4 17be
000002b0: 7458 8bbc d8bd 5cbd 0e91 ac3d 369c 88bd
000002c0: 4c37 ba3c 4030 0cbe a924 1f3e 354e 1e3e
000002d0: fb43 213d e1f5 febc 9fe0 413e 1a50 1fbc
000002e0: 7d0d 1c3d a99e 2a3c fda7 773c 7187 05be
000002f0: b9cf a8bb f8bc f8bd 2159 c9bd ceea 53bd
00000300: 9eca babd 24b7 ac3d 7006 8d3c 91f4 6e3c
00000310: 2585 abbd 9ecf cdbd d756 283c 5361 d5bc
00000320: e0cc c6bc 083d 34bd a962 3f3d 8df4 c8bd
00000330: f1e9 42be c015 9e3c 06eb 8a3d b7a9 8dbd
00000340: 869f 123d c0b3 72bc 126d e73c b2db 89be
00000350: 56dc 0b3d 0c5e 943d 4855 a23b 3ed1 df3d
00000360: aff0 4dbc 4921 07bc e861 40be 5512 0fbe
00000370: 817a 80bd 16a9 3a3d 8473 6bbb 7ab2 85bd
00000380: 46e8 b23c a24f f4bc 0976 333a 1577 d0bd
00000390: de5d 043d 3d38 933d af65 6f3c b16c 66bd
000003a0: b33f 9a3d d98f e93c 7e22 00be 9405 c8bd
000003b0: 1c56 c33d 5207 1cbd 433b f53c d84e b2bc
000003c0: 634c 543b de9a 1f3e ecd9 ca3a 2ed6 3d3b
000003d0: 36fb 88bd d8e1 af3d d8a3 0a3e 2569 233c
000003e0: ad89 a7bc adac 173d 0c9c f03b e7f3 b0bd
000003f0: ad64 1ebe 0e4f 953c 7be6 e53d 3da4 7cbc

fc4.weight f4 [128, 256]
0.035915814 0.12059214 0.061810125 -0.022257563 -0.071539134 -0.07835174 0.010786021 0.027802547
0.08831826 0.11748362 -0.016051916 0.008284633 0.048624933 -0.011653232 0.02996085 0.038019914
0.077964514 -0.11074048 0.04176944 0.024473997 0.0055695223 -0.058267847 0.013411222 0.035111573
-0.020671733 0.05212401 -0.10824554 0.0055758753 -0.004636134 -0.088020764 -0.0047474178 0.04259404
-0.031118315 -0.096710734 -0.10796625 -0.08311289 0.222209 0.10143249 0.022369826 0.24517746
0.09219399 -0.014503789 -0.057725504 0.09121882 -0.21345684 0.1264848 -0.1303593 0.0031015764
-0.008251753 0.025803 0.055524167 -0.014985956 0.043077663 0.062234 -0.08119012 -0.040246688
0.025088223 0.2280789 0.06558404 0.004584653 0.009366848 -0.02822753 0.092960775 -0.21116148
-0.03452877 0.021666221 0.0018246883 -0.068188205 0.024438987 -0.057878733 0.061191622 -0.15222397
-0.015701594 -0.025312722 0.17058462 0.04396737 -0.08369698 0.121179484 -0.073847346 0.09093937
0.03614305 0.045424975 0.058155283 -0.024110513 -0.088100284 -0.011895146 0.12734902 -0.04727328
0.20790118 0.005042739 0.13890417 -0.015682021 -0.05104735 -0.015164687 -0.072996646 0.01665567
0.009438726 -0.050707977 0.0369969 0.17206164 -0.06854321 -0.077415995 -0.04340277 -0.0059967265
0.004724196 0.015175498 0.029475998 -0.0012738355 -0.12333542 0.06412559 0.27875063 -0.039074544
0.05209825 0.05202081 -0.015666375 -0.037025135 0.035170116 -0.0018093846 0.045208015 0.02443704
0.05834704 0.20714085 0.02251995 -0.025492536 -0.05549306 -0.074943006 0.33068222 0.07009775
-0.037072312 0.089937195 -0.016591547 0.10880247 -0.038396697 -0.0071424455 0.017927831 0.08092129
0.012240527 0.077893294 -0.033332024 0.07302908 0.0105550485 0.10193136 0.162804 -0.055684123
0.052889846 0.058944862 0.010443452 -0.14915073 0.10784763 0.025847245 -0.02914258 -0.014260378
-0.037199385 -0.019680718 0.032328025 0.023333311 0.098435886 0.014426463 -0.037131928 -0.018370273
0.16458505 0.41198447 0.022879554 -0.08067519 0.012930562 -0.0044664834 -0.0073638815 0.12352532
0.09868262 -1.1652465e-05 -0.12067897 0.19361348 0.050606932 -0.028475996 -0.014888144 0.05711697
0.06887332 0.019049197 -0.056362342 -0.009700084 -0.051109314 -0.10978949 0.085194595 0.03178089
-0.027165044 -0.08922377 0.04740608 0.036697064 -0.005586037 0.060545143 0.009321834 -0.12247478
-0.027768437 0.017759532 0.081559785 0.044565536 0.17262024 -0.033016253 -0.010845701 0.028984364
0.0356204 -0.011344453 -0.027621642 -0.07986415 0.104802586 0.0069882968 -0.0006953927 -0.09016849
-0.07586255 0.03403666 0.08657514 0.0065164044 -0.050246872 0.07393545 0.03447554 -0.08949795
-0.06889685 -0.14078826 0.016145462 0.035119563 0.0058010346 -0.007537243 -0.034183122 -0.043574106
-0.038440682 -0.102669716 0.012939701 -0.049166456 0.08005083 0.11024433 -0.02424573 -0.04359776
-0.068439886 0.01491948 -0.058553223 0.025456471 -0.0123913335 -0.04994079 -0.107909136 0.05915259
-0.11710888 0.25298077 -0.012336691 0.08603468 0.02442814 -0.058328155 -0.07359021 -0.035736617
0.014502413 -0.08825361 0.012288985 0.04794198 0.010378811 -0.06996222 -0.017236086 0.027376235
00000000: 761c 133d 03f9 f63d 9d2c 7d3d 7e55 b6bc
00000010: 1c83 92bd e176 a0bd dab7 303c 2bc2 e33c
00000020: 34e0 b43d 419b f03d 4f7f 83bc 45bc 073c
00000030: f02a 473d 33ed 3ebc 7570 f53c c5ba 1b3d
00000040: dcab 9f3d e8cb e2bd 6f16 2b3d b17d c83c
00000050: 8a80 b63b 44aa 6ebd beba 5b3c 27d1 0f3d
00000060: c457 a9bc fc7f 553d d6af ddbd d5b5 b63b
00000070: b6ea 97bb 3b44 b4bd 3a90 9bbb 1777 2e3d
00000080: d6eb febc 4710 c6bd 691d ddbd 1737 aabd
00000090: c28a 633e d6bb cf3d ed40 b73c cd0f 7b3e
000000a0: 34d0 bc3d 4da1 6dbc 9471 6cbd efd0 ba3d
000000b0: 6e94 5abe 3b85 013e e97c 05be d143 4b3b
000000c0: 5c32 07bc d060 d33c 4f6d 633d a887 75bc
000000d0: 3472 303d 14e9 7e3d 0147 a6bd b6d9 24bd
000000e0: d185 cd3c 848d 693e ed50 863d db3a 963b
000000f0: 6877 193c 6c3d e7bc 3862 be3d b73a 58be
00000100: 0a6e 0dbd 5c7d b13c 612a ef3a 42a6 8bbd
00000110: 4534 c83c 4012 6dbd 11a4 7a3d 9ae0 1bbe
00000120: a1a0 80bc a05c cfbc bcad 2e3e 2117 343d
00000130: 5269 abbd f32c f83d 473d 97bd 6c3e ba3d
00000140: bc0a 143d 8a0f 3a3d 3c34 6e3d 6983 c5bc
00000150: ec6d b4bd dce3 42bc c867 023e a0a1 41bd
00000160: 0ce4 543e 903d a53b e53c 0e3e 9577 80bc
00000170: 0717 51bd 4f75 78bc 447f 95bd 7971 883c
00000180: e3a4 1a3c 2bb3 4fbd 108a 173d ed30 303e
00000190: 6260 8cbd 478c 9ebd 1ac7 31bd 3080 c4bb
000001a0: 6ecd 9a3b a7a2 783c a677 f13c d4f6 a6ba
000001b0: 4897 fcbd 4754 833d 67b8 8e3e a10c 20bd
000001c0: f964 553d c613 553d c556 80bc aba7 17bd
000001d0: 8a0e 103d df28 edba 0a2c 393d 3030 c83c
000001e0: 4efd 6e3d bb1c 543e c27b b83c b9d5 d0bc
000001f0: b14c 63bd b87b 99bd 2e4f a93e 698f 8f3d
00000200: 23d9 17bd fe30 b83d ffea 87bc d4d3 de3d
00000210: db45 1dbd 2d0b eabb 63dd 923c 10ba a53d
00000220: 7e8c 483c 8586 9f3d 2987 08bd 4590 953d
00000230: 15ef 2c3c 64c1 d03d 17b6 263e 0915 64bd
00000240: 06a3 583d 2b70 713d 031b 2b3c f8ba 18be
00000250: 38df dc3d 9abd d33c 6cbc eebc 5ca4 69bc
00000260: 625e 18bd 7539 a1bc 646a 043d 8025 bf3c
00000270: c198 c93d f95c 6c3c a617 18bd 417d 96bc
00000280: fc88 283e a1ef d23e e76d bb3c 0939 a5bd
00000290: b5da 533c 945b 92bb b74c f1bb d8fa fc3d
000002a0: 1d1a ca3d f57e 43b7 8926 f7bd 9d42 463e
000002b0: 3749 4f3d 7e46 e9bc 67ed 73bc 7cf3 693d
000002c0: 750d 8d3d 100d 9c3c 33dc 66bd 1aed 1ebc
000002d0: 0058 51bd 50d9 e0bd 817a ae3d ae2c 023d
000002e0: 3a89 debc f4ba b6bd e12c 423d a94f 163d
000002f0: 130b b7bb 2ffe 773d 9bba 183c 0fd4 fabd
00000300: a27a e3bc 707c 913c d108 a73d 5a8a 363d
00000310: 5cc3 303e 0d3c 07bd 2bb2 31bc 9e70 ed3c
00000320: b2e6 113d 16de 39bc c846 e2bc d18f a3bd
00000330: bda2 d63d 15fe e43b 044b 36ba 42aa b8bd
00000340: d35d 9bbd 066a 0b3d 4f4e b13d 9087 d53b
00000350: aacf 4dbd 786b 973d 3936 0d3d b44a b7bd
00000360: cb19 8dbd cc2a 10be 7d43 843c 88d9 0f3d
00000370: 9b16 be3b fafa f6bb 9a03 0cbd c37a 32bd
00000380: fa73 1dbd 8044 d2bd 0a01 543c c462 49bd
00000390: b1f1 a33d c7c7 e13d fb9e c6bc 9193 32bd
000003a0: 362a 8cbd d670 743c 81d5 6fbd 178a d03c
000003b0: 0505 4bbc b78e 4cbd 77ff dcbd fc49 723d
000003c0: c8d6 efbd b286 813e d51f 4abc f332 b03d
000003d0: 861d c83c 81e9 6ebd 77b6 96bd 8f60 12bd
000003e0: 879b 6d3c 4fbe b4bd bd57 493c cf5e 443d
000003f0: e30b 2a3c 5a48 8fbd b132 8dbc 2044 e03c

fc4.bias f4 [128]
0.035005923 -0.12735964 -0.1161185 -0.06760457 0.030534733 0.0046386234 0.026965383 0.016605787
-0.023702642 -0.023064064 0.0405856 -0.04094676 0.11202371 0.044038698 0.054320663 0.1623695
-0.014307437 0.030409437 -0.030827919 0.08359399 -0.088234924 0.06215098 0.05833484 -0.19463652
-0.15074559 -0.14761041 0.028402738 0.038936567 0.09105009 -0.014680894 0.15651138 0.030317921
0.06002194 0.064337485 -0.048049692 -0.20463635 0.09634933 0.092441395 -0.04989451 0.00033090598
0.13554534 -0.15823965 -0.008111304 -0.1981115 0.023961661 0.001606328 -0.12621547 0.04225762
-0.038347397 0.0770116 0.0024175069 -0.005302699 0.031040497 -0.022450227 -0.0002467521 -0.091280885
-0.15235038 -0.12317915 -0.34130263 -0.034179416 -0.2410244 0.05225512 -0.07755624 -0.12573454
0.01643386 -0.24543725 -0.026406426 0.18451193 0.016626151 0.06891304 0.09465446 0.05218214
0.062157508 0.25133383 0.050370626 0.1964389 0.05278742 -0.025972167 -0.027342746 -0.060653087
0.08977726 -0.022007745 0.025747817 0.07926881 -0.11805464 0.24398966 0.20939036 0.17056632
-0.014810325 0.17454423 -0.009933672 0.053477753 0.09147894 -0.010996625 0.1358325 0.09507845
-0.019955019 0.019324323 -0.066557586 -0.08386198 0.098681234 0.027452702 -0.04670839 0.1288327
0.03941113 -0.0107935695 -0.20034313 0.061963134 -0.046136472 -0.10006239 -0.007901998 -0.006334101
0.10592099 0.09252565 -0.043356057 0.008249304 -0.13075338 0.07642048 0.0715916 -0.09540623
0.007133003 -0.16716102 -0.33494973 0.022662811 -0.015312038 -0.24083765 -0.077424936 -0.0070377877
00000000: 5f62 0f3d 916a 02be 89cf edbd 4474 8abd
00000010: fa23 fa3c 98ff 973b 82e6 dc3c dc08 883c
00000020: 0b2c c2bc d9f0 bcbc 163d 263d cab7 27bd
00000030: b06c e53d ec61 343d 587f 5e3d 3144 263e
00000040: be69 6abc 361d f93c d58a fcbc 5333 ab3d
00000050: 83b4 b4bd 0792 7e3d 83f0 6e3d cc4e 47be
00000060: 0d5d 1abe 2f27 17be dcac e83c f37b 1f3d
00000070: 7878 ba3d 2288 70bc 8544 203e 4a5d f83c
00000080: 91d9 753d 5fc3 833d c1cf 44bd 318c 51be
00000090: cc52 c53d ea51 bd3d 305e 4cbd 737d ad39
000000a0: 66cc 0a3e 9309 22be 46e5 04bc bedd 4abe
000000b0: 3f4b c43c 6c8b d23a a13e 01be 5316 2d3d
000000c0: 2912 1dbd 42b8 9d3d 096f 1e3b 43c2 adbb
000000d0: a448 fe3c 8ae9 b7bc 825e 81b9 79f1 babd
000000e0: bd01 1cbe 5a45 fcbd 38bf aebe b7ff 0bbd
000000f0: 1acf 76be 7709 563d ced5 9ebd 8ec0 00be
00000100: 4da0 863c e753 7bbe 4a52 d8bc b2f0 3c3e
00000110: 9133 883c 4822 8d3d 33da c13d f1bc 553d
00000120: df98 7e3d d4ae 803e 6e51 4e3d 4727 493e
00000130: 9f37 583d 95c3 d4bc e5fd dfbc 5f6f 78bd
00000140: 24dd b73d 9649 b4bc 16ed d23c b057 a23d
00000150: a2c6 f1bd 6dd8 793e 6d6a 563e f0a8 2e3e
00000160: 01a7 72bc b9bb 323e d7c0 22bc 7d0b 5b3d
00000170: 4f59 bb3d 302b 34bc ad17 0b3e 7eb8 c23d
00000180: b578 a3bc 0b4e 9e3c 584f 88bd d4bf abbd
00000190: 6319 ca3d 7de4 e03c 4c51 3fbd b8ec 033e
000001a0: 916d 213d 83d7 30bc c026 4dbe 0ecd 7d3d
000001b0: 99f9 3cbd 83ed ccbd 6277 01bc 4a8e cfbb
000001c0: 1bed d83d 177e bd3d 1f96 31bd 1728 073c
000001d0: 37e4 05be 5782 9c3d 9e9e 923d 5764 c3bd
000001e0: f7bb e93b 422c 2bbe 887e abbe 5ca7 b93c
000001f0: 58df 7abc 259e 76be f790 9ebd 3e9d e6bb
