checkpoints/checkpoint_qnetwork_local_WMT_without_trend.pth (torch_old, 339524 bytes, 10 tensors)

fc1.weight f4 [128, 12]
000000 8a 90 6a 3e e0 e2 1e 3e c7 e0 30 be be 68 66 bd
       0.229067 0.15516233 -0.17273246 -0.056252234
000010 a6 0f 18 be 1a 37 39 3d d9 12 c5 3d 38 cf 88 3e
       -0.1484972 0.045218565 0.096227355 0.26720595
000020 20 0e 9e bc 24 8c 88 3e 05 5c 2c be c1 13 cf bd
       -0.019293845 0.2666942 -0.16831978 -0.1011119
000030 8b 4a d3 bc 5e 2a ca bb ba cc ac bd e0 85 40 3d
       -0.02579238 -0.0061696013 -0.08437486 0.047002673
000040 0f de c4 bc 85 b7 ee 3b ee 21 4e bc 86 bf 93 bc
       -0.024031667 0.007285061 -0.012581332 -0.018035661
000050 47 d3 0e 3d 98 3d 93 3c e4 61 07 bf 9d 71 93 bc
       0.03486946 0.017973706 -0.52883744 -0.017998511
000060 09 0b 0c bd 7c 75 6c 3d 55 4b d2 3b b5 6f fa 3c
       -0.03419021 0.05772923 0.0064176717 0.030570844
000070 53 4c d2 3c f3 ed 7a 3c dd 07 90 3c 57 eb 88 3c
       0.02567116 0.015315521 0.017581875 0.016713781
000080 12 22 04 3d 26 04 35 3b 40 59 d7 be 71 b1 34 bf
       0.032259054 0.002762088 -0.4206028 -0.70583254
000090 79 cc f9 bd 62 92 79 3e e7 76 d3 bd 0c 1e a0 3d
       -0.12197203 0.24372247 -0.10325413 0.07818231
0000a0 a5 0d 58 be 5c 33 d0 3d 64 c5 e4 3d 2a a9 dd bd
       -0.21098955 0.10166046 0.11170462 -0.10823281
0000b0 d3 45 86 3d dc b7 50 bd d2 ce 06 bd 3a 11 46 bf
       0.06556287 -0.050956592 -0.032912083 -0.77370036
0000c0 14 04 ba bd 8e 3a b5 bd 8d 76 2c 3e b4 a3 cd 3d
       -0.09082809 -0.08849059 0.16842099 0.100409895
0000d0 db 0b a3 3c 48 a7 82 3d 9a 64 2d 3d 54 88 a3 bd
       0.019903114 0.063795626 0.04233227 -0.07984987
0000e0 49 4a 29 3e bb e7 e1 bc 38 cb dc be d9 73 83 be
       0.16532244 -0.027576318 -0.43123794 -0.25674322
0000f0 74 bd 14 3e fe 18 18 3e 83 27 84 be 86 2a 04 3e
       0.14525396 0.14853284 -0.25811395 0.12906846
000100 47 3a 1d 3e 86 cb bd bc 30 19 9a bc cd fb 2d 3e
       0.15354262 -0.023168337 -0.018810838 0.16990586
000110 43 cd 84 3e 0b 7e c9 3e d7 e5 08 be 91 05 f6 bd
       0.25937852 0.39353976 -0.13368927 -0.120127805
000120 d3 16 4d 3e 39 dd b8 3d 50 62 89 bd ba 35 a3 3e
       0.20028238 0.0902657 -0.06708205 0.31876928
000130 5d 2c bb 3d 94 f7 19 bd a5 63 d5 3a b5 e0 15 be
       0.09139321 -0.037589625 0.0016280307 -0.146365
000140 e1 d0 87 bd 5e c0 45 3e 16 ea ec 3e fc f9 5d bf
       -0.06631637 0.19311664 0.46272343 -0.8670957
000150 87 03 c1 bc 06 01 3f bc 62 16 88 bc d9 cd dd bd
       -0.023561252 -0.011657959 -0.016612235 -0.10830278
000160 b2 ef ca 3c 64 24 9f bd 3c 22 9f 3d 43 8a 04 3d
       0.024772499 -0.07770613 0.077702016 0.03235842
000170 77 fa eb 3d f5 43 dc bc de cb 8b be 32 15 66 bd
       0.11522382 -0.026887873 -0.27303976 -0.056172557
000180 81 70 94 3e 85 0b 9b be 3c 5c 2b be ac f9 37 bd
       0.28992084 -0.30282226 -0.16734403 -0.04491584
000190 69 c5 63 3d 89 93 dc bc ba 90 51 bd 71 a1 20 3c
       0.055608187 -0.026925819 -0.051163413 0.009804116
0001a0 04 de d4 3d e7 6c bd 3d d7 72 a8 be 96 97 22 bf
       0.103939086 0.09249287 -0.32900116 -0.6351255
0001b0 d5 d6 15 be 52 ff 2c 3e 88 23 c2 bd 09 d9 92 3e
       -0.14632733 0.16894272 -0.09479433 0.2868121
0001c0 98 42 c2 bd a8 f5 b0 3e 4f 77 b1 3d 2d a1 0f 3d
       -0.09485358 0.3456242 0.086653344 0.03506582
0001d0 ed 3e 38 bd 8c 6c 28 3e b8 9f 98 3d 3a 91 63 be
       -0.044981886 0.16447657 0.07452339 -0.22223368
0001e0 17 5e 36 be b7 88 e3 3d d8 8f dc bd b8 1b 03 3e
       -0.1780933 0.11110061 -0.107696235 0.12803543
0001f0 c3 cb 6e bd 94 92 11 be 0f 0f c3 3d e5 69 37 3d
       -0.05829979 -0.14216071 0.095243566 0.044778723
000200 cd 00 c7 3d 45 24 70 be bf 1a c9 be 35 e3 9a be
       0.097169496 -0.23451336 -0.39278218 -0.3025147
000210 fa 61 b1 bc a4 da a1 3e 40 29 9b 3e 8e 8d 6d 3e
       -0.021653164 0.31612122 0.3030491 0.2319853
000220 a3 1b 35 bd e3 2e da bd 72 39 ca 3c 0d d1 15 3e
       -0.04421581 -0.10653474 0.024685595 0.14630528
000230 1d 1c ac 3d 6a 6f b8 3d 4c a0 38 3e 33 03 58 bf
       0.084038 0.090056255 0.18029898 -0.8437988
000240 32 94 03 be 83 3f 12 be 47 3f 1e 3d ca 8f 78 3e
       -0.12849501 -0.1428204 0.038634565 0.24273601
000250 1a 7d 1e be 87 e5 de 3c dd 7a 06 bd d5 fd 72 bd
       -0.1547741 0.027209057 -0.032832015 -0.059324104
000260 54 53 0f 3e 99 fe af bd 32 36 dd bb 69 c5 48 bf
       0.13996631 -0.085934825 -0.0067508454 -0.78426224
000270 83 f4 88 3d 8e 95 c4 bd 66 d6 e1 3c ae 7b eb bd
       0.06687262 -0.09598838 0.027568053 -0.114981994
000280 6f 22 c0 bc b4 97 e7 bd dc c3 1d 3d 5f 12 04 3d
       -0.02345392 -0.11308232 0.038516864 0.032244083
000290 22 33 96 3d 12 7d 21 3e 66 e0 8a bf 7f 89 af 3d
       0.073339716 0.15770367 -1.0849731 0.08571147
0002a0 2d 18 de bd 1d a4 59 3e c3 e1 82 3e 92 22 af bd
       -0.10844455 0.2125401 0.25562868 -0.08551516
0002b0 43 54 14 3e 48 d6 98 bc 18 c1 01 3d 75 98 31 3c
       0.14485268 -0.018656865 0.03167829 0.010839571
0002c0 39 97 0b bd 0f 6d cc bd 8a c6 85 3e 4d ef 95 bf
       -0.034079764 -0.09981739 0.26128036 -1.1713654
0002d0 1d 67 54 3d 50 c0 a1 ba d2 69 9d 3d 38 0b 71 3d
       0.05185615 -0.0012340639 0.07686199 0.05884859
0002e0 48 38 d8 3c b0 a3 36 3c 78 a5 32 3d 23 cb 96 bd
       0.026394024 0.011147425 0.043614835 -0.07362964
0002f0 fb 4a 87 3d 78 2e cb 3d 2a 80 f4 bd 64 bc ca be
       0.06606098 0.099209726 -0.11938508 -0.39596856
000300 ba ec 5f be cc d0 52 3d b9 99 0e be 8e a0 1a be
       -0.21867648 0.051468655 -0.13925828 -0.15100309
000310 15 a3 35 3b 99 a7 14 3d ae 95 dc bc c2 4f 12 3e
       0.0027715613 0.036292646 -0.026926842 0.14288238
000320 86 f2 eb 3c 83 d2 5a 3e c0 3a 30 bc 50 88 dc be
       0.028802168 0.21369366 -0.010756195 -0.43072748
000330 38 cd c2 3c fa 57 ad 3c 60 62 66 bc 99 c8 50 3b
       0.023779497 0.021160115 -0.01406154 0.0031857847
000340 06 be 50 3d 58 71 9f 3b ca e4 aa 3c e4 82 a0 3c
       0.05096247 0.0048658065 0.020861048 0.019593664
000350 47 39 9a 3b e2 b5 c8 3c 11 f3 d2 be e5 f8 fa be
       0.004706535 0.024500791 -0.4120107 -0.49018016
000360 2e 46 0b bc 9e a1 a7 bd 16 5e fd 3e 22 e4 31 3e
       -0.008500619 -0.08185123 0.49485844 0.17372182
000370 1e e6 6c be c7 90 c4 3d d0 98 ec 3d 89 13 14 3e
       -0.23134658 0.095979266 0.11552584 0.14460577
000380 e8 c2 3b bd ce 6c 09 3e 31 3a ad be 9a 63 3a bb
       -0.045840174 0.13420412 -0.3383346 -0.0028440715
000390 b4 57 02 3e 41 2d 55 3c 0e 0d a0 3d d5 40 90 3e
       0.12728769 0.013011278 0.0781499 0.28174463
0003a0 15 4d 08 be 49 c0 79 3c 9e 3f d7 bc 25 a7 27 bd
       -0.13310654 0.015243598 -0.026275452 -0.040930886
0003b0 16 d9 12 be de b0 89 bd a4 c5 a7 be 61 e1 26 bf
       -0.14340624 -0.06723188 -0.32767975 -0.6518765
0003c0 d3 56 82 3e 5b 88 a6 3e d6 3a dc bd c3 09 95 3c
       0.25456867 0.32525906 -0.107534096 0.018193131
0003d0 91 61 c8 3c e6 ed 36 be 69 41 48 3e 85 ba 5a be
       0.024460586 -0.17864189 0.19556202 -0.21360214
0003e0 6b e6 b2 3b 49 06 5d be 67 c4 bc 39 0b b9 8d bd
       0.005459597 -0.21584429 0.00036004485 -0.0692006
0003f0 be 7d 06 bd 34 42 5f 3c ec a7 58 3b 3d b8 b2 bd
       -0.03283476 0.013626624 0.0033059074 -0.08726547

fc1.bias f4 [128]
000000 2b c9 f2 be 80 4e f7 3d ee 79 93 bd 37 d3 26 bf
       -0.47419104 0.120755196 -0.072009906 -0.6516604
000010 8b 6d 15 3f 3e 2e da be c2 37 c1 3e ca e0 90 3f
       0.58370274 -0.42613405 0.37737852 1.13186
000020 e2 02 54 bf df 47 39 3f 7a 1f 25 bf bf 60 fd be
       -0.828169 0.7237529 -0.64501154 -0.49487874
000030 b0 f6 54 bf 3d d9 30 be a5 5f 89 be f2 e6 9f 3c
       -0.83188915 -0.1727037 -0.26830783 0.019519303
000040 44 60 67 3f e9 0a ce 3b 95 05 ef be 2e bd fb 3d
       0.90381265 0.0062879217 -0.46683946 0.122919425
000050 61 b2 d7 be 1d d9 09 bf 7e cb 10 bf de c3 2b bf
       -0.4212828 -0.53846914 -0.56560504 -0.67095745
000060 46 9c be 3d c7 fc e0 bc f6 f1 b6 be ab 5f 27 bf
       0.093071505 -0.027464284 -0.35731477 -0.6538035
000070 74 73 54 be de 4e fe be 43 80 d8 be e0 2e 1f bf
       -0.20747167 -0.49669546 -0.42285356 -0.621809
000080 96 6e b7 be 9a 76 7b be 91 3d 1e bf a0 2f d6 be
       -0.35826558 -0.24556962 -0.6181269 -0.4183321
000090 6d 0d a7 3e 47 17 c6 be a3 ae 03 bf 51 86 c3 be
       0.3262743 -0.38689634 -0.5143835 -0.38188413
0000a0 ee 8c 5c 3c 8c d9 b2 be 4e b7 75 be ac 2a 12 3f
       0.013461335 -0.349316 -0.23995706 0.5709636
0000b0 2f 4b c3 be 5c 64 f0 be dd bf 20 bf fa ab c2 3d
       -0.38143298 -0.46951568 -0.6279276 0.09505458
0000c0 3a b5 8c 3c f2 31 f7 be 48 37 61 bf 01 18 d5 be
       0.01717626 -0.48280293 -0.8797498 -0.41619876
0000d0 45 c0 1a 3f 83 e5 5b bd 52 4b 67 bd cc 3c 02 be
       0.6044963 -0.053685676 -0.056468315 -0.12718505
0000e0 51 d8 14 bf 90 51 d5 be ce fa 84 3f c6 50 2a bf
       -0.5814257 -0.4166379 1.038904 -0.665295
0000f0 7d b3 32 bf 80 0c 1b bf c9 b9 24 3e f3 bb 00 bf
       -0.6980513 -0.6056595 0.16086496 -0.5028679
000100 3b ca 2b bf 79 06 43 3f 9e 98 41 3f bc f6 ee be
       -0.67105454 0.7618175 0.756235 -0.46672618
000110 7d 26 ed be 25 e4 d3 be a4 31 fa 3e 1d d0 85 be
       -0.46318427 -0.41384998 0.48865998 -0.2613534
000120 55 33 38 bf e5 8b 86 bd 8a b5 82 be 67 77 b0 be
       -0.71953326 -0.065696515 -0.25529128 -0.34466097
000130 33 ad d9 be 94 12 d7 be a2 43 23 bf bc 7a a4 be
       -0.42514953 -0.4200636 -0.63775074 -0.3212489
000140 d8 13 85 be 30 a2 30 bf 7c 3c 2b bf c3 5e e3 be
       -0.25991702 -0.6899748 -0.66889167 -0.44408235
000150 f0 28 71 3e e9 35 1a bf 57 43 36 bf 95 62 85 3f
       0.23550773 -0.6023851 -0.711965 1.042071
000160 a8 f7 01 3e 66 9c 14 3f c1 e7 7e 3f 65 39 1b 3f
       0.1269213 0.58051145 0.9957238 0.6063445
000170 fe 73 fb 3d d7 aa db 3d aa 29 6d be fe 97 90 be
       0.12277983 0.107259445 -0.23160425 -0.2824096
000180 99 dd 1e 3f 7b eb 0b bf e3 67 07 bf b8 4b 28 bf
       0.6205688 -0.5465619 -0.52892894 -0.6574054
000190 dd a0 23 be 82 a0 1c 3f a9 10 39 3f f3 ae ed be
       -0.15979333 0.61182415 0.72291046 -0.46422538
0001a0 57 17 22 3f c9 b4 0d bf 23 c0 47 bf 55 bf 50 bf
       0.63316864 -0.5535398 -0.7802755 -0.8154195
0001b0 db 2e 39 3f 56 2a 1c bf 71 e1 2d bf 07 74 07 3f
       0.7233712 -0.610021 -0.6792212 0.5291142
0001c0 5d 3e ef be f9 d4 fc be ff aa 10 be c3 b2 0a 3f
       -0.46727267 -0.49381235 -0.1412773 0.5417902
0001d0 35 86 2d bf f1 3f 21 bf 98 31 68 3e db 6a 30 3f
       -0.6778291 -0.6298819 0.22675169 0.6891305
0001e0 99 27 19 be 1f 90 08 bf 5a 57 9d be a0 22 a7 3e
       -0.14956512 -0.5334491 -0.30730706 0.32643604
0001f0 e6 65 65 bf 69 70 0c bf 93 20 a3 be ed 0e 4e 3e
       -0.8960861 -0.54859024 -0.3186079 0.20122881

fc2.weight f4 [256, 128]
000000 d0 0d c8 bd 7b bd c7 bd 14 0b a7 bd 9c 0d 0d 3d
       -0.097682595 -0.097529374 -0.0815641 0.034436807
000010 2a 8c 0e 3c 88 08 8a bd 3e a0 be 3c 29 f4 ef 3d
       0.00870041 -0.067399085 0.023269769 0.11716492
000020 62 11 03 be bb 61 9c bd dc 1a 15 3d 30 b1 ef bd
       -0.127996 -0.07635828 0.03640257 -0.11703718
000030 c7 40 d4 3d 5e df 8f bd d2 16 03 be f7 e8 06 be
       0.10363918 -0.07025026 -0.12801674 -0.13174807
000040 b4 76 bd bd 47 cc 59 bd fe f0 d8 bd 7e 34 3d be
       -0.092511564 -0.05317333 -0.105928406 -0.18477055
000050 f2 b2 9e bd 9e d9 9f bd 4f f5 6c bd 96 84 49 bc
       -0.07748975 -0.07805179 -0.057851132 -0.012299677
000060 34 ef 02 be 57 20 82 bc 97 72 89 bc 84 9e e3 bd
       -0.12786561 -0.015884561 -0.016778274 -0.11114219
000070 81 a3 95 3a 49 1d ff bd 42 19 9f 3c 9d 54 2e 3c
       0.0011416526 -0.124567576 0.019421224 0.010640291
000080 1d be 84 bd fd 8f 1b bd 01 af 64 be f8 29 d3 bc
       -0.06481574 -0.037979115 -0.22332384 -0.025776848
000090 8e d4 8d bd bb 4c 3e be 17 17 95 3c 56 9d 32 bd
       -0.06925307 -0.18583958 0.018199487 -0.04360708
0000a0 cc 7b 9a bd 04 a7 0f be 8f c1 27 bd 15 eb ac bd
       -0.07543144 -0.14028555 -0.040956076 -0.08443276
0000b0 ad 8c a6 bd bc 91 f6 3c 5c 94 8d 3d 83 f4 83 bd
       -0.081323005 0.030098788 0.06913063 -0.06443121
0000c0 ac 10 a3 bd 17 e0 98 bd 64 16 7a 3d 9f 9f bf 3d
       -0.07962164 -0.07464617 0.06105651 0.09356617
0000d0 1b eb 00 bd 3b 25 96 bd be 28 27 bd 22 77 2c be
       -0.031474214 -0.0733132 -0.04081034 -0.1684232
0000e0 7f 92 22 bd d2 6b af bd 3d e6 2d bd 8e 47 b5 bd
       -0.03969049 -0.08565487 -0.0424559 -0.088515386
0000f0 8d 42 ad bd 31 9f 5d bd ae 84 8d 3c 18 21 e4 bd
       -0.08459959 -0.054106895 0.01727518 -0.11139125
000100 3d 7e af bd 70 4f f5 bd 96 62 40 bd 50 ce 4e 3d
       -0.08569 -0.11978042 -0.04696902 0.050489724
000110 3f 64 ba 3c 1a b1 17 3d 02 57 7a bd 67 48 1b bd
       0.02275288 0.03703413 -0.061118133 -0.037910845
000120 73 99 db 3c 27 a0 ab bd 4a 58 80 3d b4 52 f1 3c
       0.026806569 -0.08380156 0.0626684 0.029458381
000130 f0 50 d9 bd 87 e4 51 3d f0 ba b6 bc 6b 83 80 bd
       -0.10611141 0.05124333 -0.022305936 -0.06275066
000140 e2 53 c6 bd 5b 2e f7 39 17 7c d1 bc 15 d9 80 3c
       -0.09683968 0.0004714605 -0.025571866 0.015728513
000150 e5 c2 5d be 9c 5b 8d bd 50 2a 54 bc b6 88 4f bc
       -0.21656378 -0.06902239 -0.012949541 -0.012666872
000160 95 71 37 3d 00 66 02 be 11 e1 86 bc 0b ba d0 bd
       0.044786055 -0.12734222 -0.016464742 -0.10191735
000170 82 15 af bd d9 d6 e2 3c 59 01 68 bd 0f 3c 58 bc
       -0.08549024 0.027690338 -0.05664191 -0.013197913
000180 80 50 0a be 83 af 45 bc 43 fc c0 bd db cf 3f bd
       -0.13507271 -0.012065771 -0.09423115 -0.046829086
000190 d6 28 59 3d 5f 25 30 be 20 97 31 bd b9 0e 56 3d
       0.05301746 -0.17201756 -0.043357015 0.052260134
0001a0 96 72 b9 bd d1 e6 0d be a1 bc 67 bd 59 df 31 bd
       -0.09055059 -0.1385758 -0.056576375 -0.04342589
0001b0 fb 62 98 bd 25 8e af 3c ef 11 7f bd 2a f3 96 ba
       -0.07440754 0.021430084 -0.062272962 -0.001151656
0001c0 b4 04 25 be b8 c0 9a bd cc b6 b3 bb f6 75 7a bd
       -0.16115075 -0.075562894 -0.0054844376 -0.061147653
0001d0 db 26 82 3d db 86 cf bc be bc 57 bc b7 42 f7 bd
       0.06355067 -0.025332859 -0.013167558 -0.12073272
0001e0 7f 41 7b bd 67 02 0d be 8e 38 ca bc 15 1b ff bd
       -0.06134176 -0.13770448 -0.02468517 -0.12456337
0001f0 ac 77 f7 bd c6 a9 f0 3a 32 ad 51 bb 38 bf 07 3c
       -0.120833725 0.0018361143 -0.0031994102 0.008285336
000200 4a 79 1a 3d c6 13 82 bd fe 52 24 3d 3b d9 70 bc
       0.037713327 -0.06351428 0.04011821 -0.014700229
000210 fc 8c 77 3b 0f 31 22 bc 3d 77 41 bc 78 91 60 3d
       0.0037773242 -0.009899392 -0.011808214 0.05482623
000220 0f bb 52 bd 5a 1a e4 bb 09 57 de bd 04 30 8a bd
       -0.051447924 -0.006961149 -0.108564444 -0.067474395
000230 4d c9 ec bd c8 06 83 3b 43 e1 30 be 3d 71 ae bd
       -0.115618326 0.003998611 -0.1727343 -0.08517692
000240 ba 9b 71 bd e1 d0 1c 3c 8b dc e9 bd b7 06 53 bc
       -0.058986403 0.009571285 -0.11419018 -0.012880019
000250 7a fb 75 bd fa 34 59 3c b8 87 6c bd 49 72 27 3d
       -0.06005428 0.0132572595 -0.05774662 0.040880475
000260 32 e7 e7 bb 41 34 57 bd 7c 8a 1f 3d ae 61 d6 bd
       -0.007077121 -0.052540068 0.03895043 -0.1046785
000270 b2 6d 6f bd 44 32 cb bc 71 6a 82 bd 2c f3 5e be
       -0.058454223 -0.024804242 -0.06367958 -0.2177245
000280 af 5f 18 be ba 27 8d bd b2 f6 e4 bd 93 09 86 3d
       -0.1488025 -0.06892343 -0.11179866 0.06544795
000290 61 cd 24 be ec 24 21 bd e7 0b ef bd 62 fa d2 bd
       -0.16093971 -0.039341852 -0.11672192 -0.10301663
0002a0 ae a7 ca bd cc 1a b2 bd b2 1e 8d 3c f3 c3 04 be
       -0.098952636 -0.08696517 0.01722655 -0.12965374
0002b0 d4 b0 b7 3d f9 66 63 3d ef 49 4a bd e6 c0 b2 bd
       0.08969274 0.055518124 -0.049386915 -0.08728199
0002c0 a8 b2 bd bc 50 8d 88 bd 6a 6a a5 bd bf 52 35 bd
       -0.023156479 -0.06667578 -0.080769375 -0.044268366
0002d0 9c f1 0a be 5f 60 08 be 66 d7 9a bb de bb 88 bd
       -0.13568729 -0.13318013 -0.0047253845 -0.06676458
0002e0 81 82 82 3c 38 c2 19 be 8e bd 39 3d 47 f7 90 bd
       0.01593137 -0.15015495 0.04534679 -0.070784144
0002f0 19 a0 fc bc a2 7a 82 bd af 7d 08 3d c4 62 c3 bc
       -0.03083806 -0.063710466 0.033322986 -0.023850806
000300 54 34 27 bd c4 75 0c 3d 04 63 4a bd f2 1d fc 3c
       -0.04082139 0.034291998 -0.049410835 0.030775998
000310 56 2a c3 bd c4 18 35 3d 60 bb 24 3d e2 99 86 3c
       -0.09529559 0.04421307 0.040217757 0.016430799
000320 ff b2 0e be 7c 3d 1f bd 1a df 6a bc f7 5b a8 bb
       -0.13935469 -0.038876995 -0.014335418 -0.005137916
000330 c2 d2 0d bd 61 7d fc bc af 49 10 3c 98 8e 74 bd
       -0.034624822 -0.030821504 0.00880663 -0.0597063
000340 e0 2d b5 bd e7 ad 43 bd 8a 37 28 3c a1 91 95 bd
       -0.088466406 -0.047773268 0.010267148 -0.07303167
000350 59 7d 4f bd 53 ba c0 bd 72 46 42 bd 4a 41 02 bd
       -0.05065665 -0.094105385 -0.047430463 -0.031800546
000360 d6 9c 85 3d 29 0e 42 be 23 88 7a bd c3 de 03 be
       0.06524055 -0.18950714 -0.061164986 -0.12877946
000370 0a c8 82 bd 45 57 2f bd ba 3a 8e 3b 9d 40 bd bd
       -0.06385811 -0.042807836 0.004340497 -0.0924084
000380 d6 7f da bd 34 18 2c bd 12 0b 11 be a9 b5 36 3d
       -0.10668914 -0.04201527 -0.14164379 0.04460684
000390 45 fc b0 3d ae c4 d4 bd dd 17 39 be 43 e8 94 bd
       0.086418666 -0.10389076 -0.1807551 -0.07270863
0003a0 fb 15 bf bd f8 bf ff bd 35 44 c1 bc f8 5d 3e bd
       -0.09330364 -0.12487787 -0.023592094 -0.046476334
0003b0 d1 aa 55 bd be 7b d6 3c 1a ac ea bd 65 32 0c bd
       -0.052164856 0.026182052 -0.11458607 -0.034227747
0003c0 55 45 95 bd 21 96 1c be ff 2b 84 bc bc 04 9e bd
       -0.07288615 -0.15291645 -0.01613426 -0.07715747
0003d0 cd 3e 09 be ae 80 06 3c b8 42 eb bc 92 4c de bd
       -0.13402863 0.008209391 -0.028718337 -0.108544484
0003e0 35 85 d9 bc 16 19 e6 bd 37 ec 9e 3c 25 5f 91 3c
       -0.026552776 -0.112352535 0.019399745 0.017745564
0003f0 40 c3 56 bd 09 6b b0 3c e0 9f 9e 3b 6d 07 11 bd
       -0.0524323 0.021535413 0.004840836 -0.035407472

fc2.bias f4 [256]
000000 c3 7a 96 3e 71 39 34 3e 66 b5 52 3f fd 81 05 be
       0.29390535 0.17600037 0.8230804 -0.13037868
000010 de 92 f4 bd 63 d6 85 3f 54 f2 af 3e 6e ae 04 3f
       -0.11942075 1.0456051 0.3436457 0.5182866
000020 70 8d 94 be 51 2d ee 3e a6 2d 89 be 5e fc 41 3e
       -0.29014158 0.4651895 -0.2679264 0.18943927
000030 31 f0 98 3d 8b 6a 53 bc 6d 14 af bd be d7 2e 3e
       0.07467688 -0.01290382 -0.08548818 0.17074487
000040 d5 ec 4e 3e 84 12 e6 3d 9c ea bc 3e 29 ba 2d 3d
       0.20207532 0.11234 0.36897743 0.042413864
000050 4a ab d9 3e 6b f6 68 3e 0b 0d 89 bd 40 71 45 bc
       0.42513496 0.22750251 -0.06691941 -0.012050927
000060 78 2b c4 3e ee f9 e0 bd 03 08 7f 3e 2a 3d 9a bb
       0.38314414 -0.1098517 0.249054 -0.0047069984
000070 82 f1 83 bd 53 f1 42 3d 13 3a 12 3e e8 90 e1 3d
       -0.06442548 0.047593426 0.14279966 0.11013967
000080 35 2e ee 3e b7 3c 99 3e 95 88 4e 3e ac e9 87 3e
       0.46519628 0.29929134 0.2016929 0.26545465
000090 e4 d9 07 be 8d 71 f0 3e 86 49 1b 3f 7d 68 03 3f
       -0.13266712 0.46961632 0.6065906 0.5133131
0000a0 38 ca ae 3e 39 5d 7f 3e d5 89 a7 3e df 9a e5 3d
       0.34138656 0.24937905 0.32722345 0.1121118
0000b0 c2 3e b4 bc f5 2e a7 3e 8f 02 e6 3e 12 c1 aa bd
       -0.022002582 0.32653013 0.44923827 -0.083376065
0000c0 8f 15 c8 3d 4a 74 fc 3b ba 4d 97 3e 7c 8e 2b 3f
       0.09769737 0.0077042924 0.29551488 0.6701429
0000d0 c7 2b 01 3e 79 07 89 3d a5 cc eb 3e 7e 84 cd 3e
       0.12614356 0.066908784 0.4605457 0.40140146
0000e0 b7 12 94 3e fa af 37 3c 68 ec 9c 3d 11 2c 2d 3d
       0.28920528 0.01121139 0.076622784 0.042278353
0000f0 7f 39 d7 3c 12 70 73 3e 7e ae 4d 3f fb bc 61 3e
       0.026272533 0.2377322 0.8034438 0.22044747
000100 48 13 a0 3e 24 e2 7d 3f ef eb 7c 3e 00 78 ac 3e
       0.3126471 0.9917319 0.24699377 0.33685303
000110 a7 e8 b8 3e 8d 5b 73 3f e6 f6 12 3f 48 ae 7e 3e
       0.36115 0.9506157 0.5740799 0.2487117
000120 85 e4 84 3d e7 1b 74 3d f9 8e ca 3b 90 eb 82 3e
       0.06488899 0.059596922 0.0061815945 0.25570345
000130 98 c9 44 3e 2c 20 6e 3e ff 70 13 3e 40 44 ec 3e
       0.19217527 0.2325446 0.14398573 0.4614582
000140 a3 54 7b 3d 7d 6a e3 3d 6e 44 2e 3e 16 ec 56 3e
       0.061360013 0.111042954 0.17018291 0.20988497
000150 2d 76 49 3f 52 74 be 3e 88 47 3f 3e 7d 21 2e 3d
       0.78695947 0.3719812 0.18679631 0.042512406
000160 c3 04 db 3e 51 76 cc 3e 5e 38 67 3f 47 97 10 bc
       0.4277707 0.39934018 0.90320385 -0.00882513
000170 be c4 3d 3d 4e fb 91 bd da 6c 76 3d 32 48 91 bd
       0.046330206 -0.07128011 0.060162403 -0.07093848
000180 96 a6 6c 3e d5 5d 0f 3f 63 48 f8 3d 5b 28 50 3d
       0.23110422 0.5600255 0.12123182 0.050819736
000190 9c 91 13 3e 1a 5b 41 3d 00 14 8a 3b cc d9 b9 bb
       0.14411014 0.04720602 0.00421381 -0.0056717154
0001a0 34 f7 3a be 8c 1e 1a bc 49 83 7a 3e 35 8f bc 3d
       -0.18258363 -0.009406697 0.24464144 0.09207002
0001b0 23 c6 1e 3e d1 31 43 3f 40 70 03 be ec 9e 9d 3e
       0.1550527 0.7624789 -0.12835789 0.3078531
0001c0 69 2f 18 bd ea 95 b3 3e ae f3 e1 3d 29 05 96 3d
       -0.03715459 0.35075313 0.11032806 0.07325203
0001d0 85 d3 d4 3d a4 a3 40 3d d7 8a 5d 3f ba 64 13 3d
       0.10391907 0.04703106 0.8653998 0.035984732
0001e0 74 ca 58 3d c8 7d 49 3e ca 0f c4 3e 23 ec 01 3e
       0.05292745 0.19676888 0.38293296 0.12687735
0001f0 29 d2 69 3f 62 62 d8 be 4c 2e 26 3e 29 e5 f7 bd
       0.91336304 -0.4226256 0.16228598 -0.12104256
000200 4e 38 3a 3c 0f 50 94 3e 56 e0 b2 3d b2 a7 3c 3e
       0.011365963 0.2896733 0.08734195 0.18423346
000210 74 37 14 3f 1f 4b 1f 3e 84 68 52 bc c4 f2 55 3d
       0.57897115 0.15556 -0.012842301 0.052233472
000220 a3 52 60 bc c6 57 c3 3e 23 b9 39 3e a0 8b 15 3d
       -0.013691577 0.38152903 0.1813703 0.03651011
000230 03 70 54 3e c7 d7 ff be e7 ff 98 bd 2d 0b ba 3e
       0.20745854 -0.49969313 -0.074706845 0.3633665
000240 71 82 a1 3e 49 a0 b6 3e 5c fb fe 3e 1b 27 c4 3e
       0.3154483 0.35669163 0.49801147 0.38311085
000250 1e 10 e3 bc 14 10 c8 3d 39 cb 8b 3e 11 f6 e0 3e
       -0.027717646 0.09768692 0.27303484 0.43937734
000260 72 c0 d0 3d 97 65 53 3e 50 c6 80 3e b8 95 88 bd
       0.10192956 0.20644222 0.251513 -0.066691816
000270 18 d9 61 3e cf e2 8f 3d 5a 22 b7 3e e5 cb ca bc
       0.22055471 0.07025682 0.35768396 -0.024755428
000280 1d ff 63 3e 5f 08 06 3d 7a f4 7e 3e 50 99 f9 3c
       0.22265287 0.032722827 0.24897948 0.030468613
000290 ed 22 ea 3e 10 a5 49 3e 5b 1a 82 3d f1 a7 fe 3d
       0.4572977 0.19691873 0.06352683 0.12434376
0002a0 d9 6a 6b 3e 2f a2 a0 3e 15 33 8d 3d 6a aa 51 3e
       0.22989978 0.31373736 0.06894509 0.20475164
0002b0 0f ab a3 3c 9c a9 5c 3e 2f e5 0f 3b 7b 0a 1e bd
       0.019979028 0.21549076 0.0021956672 -0.038584214
0002c0 46 29 02 3f db 71 c1 3d 91 10 b1 3c 2f 36 8e 3e
       0.5084423 0.09445544 0.021614345 0.27775714
0002d0 a5 9c 5f 3f d5 7c 9b 3e 7b 4f 17 be 08 21 a2 3b
       0.87348396 0.30368677 -0.14776413 0.0049477853
0002e0 e0 b1 79 3f 29 6d 88 3e cc 84 70 3e 38 25 02 3e
       0.9753704 0.26645783 0.23488158 0.1270951
0002f0 50 34 a4 3e 30 1b 35 bd 35 25 bb 3e a1 68 d6 3e
       0.3207116 -0.04421538 0.36551824 0.418767
000300 b5 a9 c5 3e 13 36 af 3e 60 d6 94 3e 11 85 f2 bd
       0.3860604 0.34220943 0.29069805 -0.11841787
000310 48 eb c7 3e 1d 25 3e bd 0d 6f 19 3e 44 2a e6 3e
       0.39046693 -0.046422113 0.14983769 0.4495412
000320 b9 86 69 bd 84 9c 7a 3f 2a 3b 0b 3e 5d 11 32 3f
       -0.057013247 0.97895074 0.13596788 0.69557744
000330 ff 62 c7 bc a8 8f 83 3e 34 eb 91 3e 91 db 2f 3f
       -0.024339197 0.2569554 0.28499758 0.68694407
000340 af 51 8a 3e 42 69 8e 3f ba 3c aa 3e 0e 91 26 bd
       0.27015445 1.1125872 0.33249456 -0.04066568
000350 9c b3 e2 3e c4 4e 9a 3e 14 1f 64 3e 89 d8 5f 3e
       0.44277656 0.30138218 0.2227748 0.21859945
000360 d0 10 1d 3e d3 c4 74 3f ca 47 8a bc 56 11 49 3d
       0.15338445 0.9561283 -0.016879935 0.0490888
000370 77 1f 1a 3e 4e 0f d2 3d f3 d7 c8 3d 01 b1 21 3f
       0.15051065 0.102568254 0.09806814 0.6316071
000380 b7 93 bc 3d d0 28 82 3e e2 69 34 bc 4e 41 8e 3e
       0.09207862 0.25421762 -0.011011573 0.277842
000390 08 98 9a 3d 4d a4 b2 bd fb 11 87 3f cd 4d 82 bd
       0.07548529 -0.08722744 1.0552362 -0.063624956
0003a0 a6 04 38 3e ea 3d 8b 3e fa a7 29 3f eb ca 8e 3e
       0.17970523 0.27195674 0.66271937 0.2788919
0003b0 9d d3 07 3f 5c 97 8b 3b 68 2d 87 bd 3e 0c e1 3e
       0.5305727 0.004259987 -0.066004574 0.43954653
0003c0 de b5 ee 3e 5a 81 02 be 34 64 42 3f f8 67 f2 3d
       0.4662313 -0.12744656 0.7593415 0.11836237
0003d0 3d f2 50 3e 7d a3 73 3e 74 be d6 bd 32 3b 5c 3e
       0.20404907 0.23792835 -0.10485545 0.21506956
0003e0 58 3d 3a 3f 37 c4 c4 3d 1d ac 52 3e 2e 3b 29 3d
       0.72749853 0.096077375 0.20573469 0.041316204
0003f0 ea 0e 56 3f dc 06 50 be 26 23 97 3e 95 7d cc be
       0.8361651 -0.20315117 0.29519004 -0.3993956

fc3.weight f4 [128, 256]
000000 b1 7e 41 3c a1 4e c6 3b 2d e9 42 3e 9a 79 60 3d
       0.011809991 0.0060518538 0.19034262 0.05480347
000010 ec ed 81 bd 45 4b 3c 3e 65 52 c5 bb a1 80 31 3c
       -0.06344208 0.18388088 -0.006021785 0.01083389
000020 b1 4b 2d 3d 62 9c a7 3d 5b 9a 4b 3b 22 bc a6 3d
       0.042308513 0.081841245 0.0031067345 0.08141352
000030 2d ba 13 bd 36 24 a7 3c c4 22 fb 3c 4b c0 3c 3e
       -0.036066223 0.020403009 0.030656226 0.18432729
000040 71 62 b5 bc b9 a4 94 3c ca 66 17 3e 8e 34 cb bc
       -0.022141667 0.018144952 0.14785305 -0.024805333
000050 47 05 db 3c 8d c8 1d 3d e4 41 2d bd 70 cd 31 bd
       0.026735915 0.03852134 -0.042299166 -0.04340881
000060 da 86 9a bd 77 f8 d4 bc 4f 61 cd bd 28 7a f6 3c
       -0.07545252 -0.025997384 -0.10028326 0.030087546
000070 55 73 a2 3c fc 3f 62 bb 66 2b 0a bd 47 7c e6 3c
       0.019830385 -0.0034523 -0.033732794 0.028135432
000080 6f dc c0 3b 0b ff 78 3c b0 d4 d2 bc f8 d7 c0 bd
       0.0058856527 0.015197526 -0.025736183 -0.09416193
000090 2e 81 82 be 31 75 a7 3d 26 3b 0f 3e c0 5c 04 3d
       -0.2548918 0.08176649 0.13987407 0.032315016
0000a0 44 e0 f2 3c 47 64 7c 3c d3 cf 77 3d 39 ac 06 3e
       0.029647954 0.015404767 0.06050093 0.13151635
0000b0 7f 23 ab bc e7 fe a6 3d f2 62 72 bd 49 33 7f bd
       -0.02089095 0.081540875 -0.059176393 -0.06230477
0000c0 69 c5 65 3d 76 01 a9 bc c8 dc 3b 3d 30 9c 98 3d
       0.056096468 -0.02063058 0.04586485 0.074516654
0000d0 c8 b9 c7 3b 69 f4 f3 bc ab d6 c3 3d 16 20 a4 bd
       0.006095145 -0.02977963 0.09562429 -0.080139324
0000e0 fc b0 16 3d 2e 49 78 bc e9 5c 5b bd fa 37 d2 bc
       0.03678988 -0.015154166 -0.053555403 -0.025661457
0000f0 96 23 41 bd 82 34 17 3d c5 95 7d bd ac c0 6e 3d
       -0.047153078 0.03691531 -0.06191041 0.058289215
000100 31 61 ca 3b 09 cc a5 3e 75 68 22 3e c4 89 5b bd
       0.006176137 0.3238223 0.1586016 -0.05359818
000110 68 ed b5 3d d6 da 35 3e 4a 2c b5 3c 52 4d 6b bc
       0.08883172 0.1775926 0.022115845 -0.014361696
000120 e3 0e 8d bd 32 29 7e bc 22 73 e0 3c 0f a4 8c 3d
       -0.06887605 -0.015512751 0.02739865 0.06867229
000130 6e 5a a2 3d b0 55 5e 3c f2 3a af 3d fd ba a2 3c
       0.07927404 0.013570234 0.08556165 0.019864554
000140 45 72 c6 bd 8a 95 98 3d 8e 88 09 bd 38 e4 7b bb
       -0.09689764 0.07450397 -0.033577494 -0.003843559
000150 3b a6 04 3e d6 5d 0f 3e e5 a1 0c bd f9 2b dc 3c
       0.12954037 0.1400064 -0.034334082 0.026876437
000160 62 68 87 3d 29 16 91 bd e7 19 d2 3d 06 ae 3d bd
       0.06611706 -0.07084305 0.10258847 -0.04630854
000170 fa 42 c1 bc a7 f0 83 3d 2a 61 30 bd 99 a4 21 3d
       -0.023591507 0.06442385 -0.043061413 0.039463613
000180 ff 34 0b bd a4 ad 8f 3d 03 ee 04 bc 26 ff 52 3c
       -0.033986088 0.07015541 -0.008113387 0.012878215
000190 0b b4 8c 3c c9 97 60 3d 04 a1 b8 3c 7a 92 36 3d
       0.017175695 0.054832254 0.022537716 0.044573285
0001a0 ce 81 10 3d e0 5a 89 bc a2 49 6e 3c af 5c 72 3d
       0.03528004 -0.016766965 0.014543923 0.05917042
0001b0 3f 5e 59 bc 29 f9 ff 3d 7d 21 9b bd ba 94 1a bd
       -0.013267099 0.124986954 -0.07574747 -0.037739493
0001c0 cc 4b d0 bd 17 5e 1f 3d 50 10 5e bd 43 6f 86 bd
       -0.10170707 0.03890809 -0.054214776 -0.0656419
0001d0 85 a8 88 3d 08 b0 85 3d 81 21 7b 3e 31 13 9b bc
       0.066727675 0.06527716 0.245245 -0.01893005
0001e0 f3 7a 41 3d b2 94 6b bc 47 13 0e 3e ab 16 b3 38
       0.047236394 -0.014378713 0.13874541 8.5396074e-05
0001f0 1e c1 10 3e f6 72 c8 bb 37 27 40 bd cd e5 e8 3d
       0.14136168 -0.00611722 -0.0469124 0.11371956
000200 35 aa 25 3d 11 82 07 bd 5d c0 c1 bd 3b 7b 5e bd
       0.040445525 -0.033083025 -0.094605185 -0.05431674
000210 96 62 c9 bc 59 52 36 bd 1e 8f 3e 3d 0f 4d 0b 3d
       -0.024583142 -0.044512127 0.046523206 0.034009036
000220 bb cc 17 3d b9 06 a3 3d 71 a8 a3 3b d1 b3 2a bd
       0.03706048 0.079602666 0.004994445 -0.041675393
000230 f7 1a 17 3d e3 7d 2a 3d 4e 8f 2a bd b2 d5 8b bd
       0.03689095 0.04162396 -0.041640572 -0.068278685
000240 45 12 b9 3c 31 8f 17 bd a8 87 18 3d 43 26 05 3d
       0.02259172 -0.037001792 0.037238747 0.032507192
000250 e8 3d 4c bd fb be 3b 3d e4 ce 2c bd 21 86 0d 3e
       -0.049863726 0.04583643 -0.042189494 0.13820697
000260 fe 79 83 bd 2a 30 08 bc ee 3b 23 3c 13 67 f0 bc
       -0.064197525 -0.008312264 0.009963019 -0.029346025
000270 2a 78 1d bd d3 43 61 3b b5 41 87 3b 11 1f ac bc
       -0.038444676 0.0034372702 0.004127706 -0.021010907
000280 ff 8d d8 3d 5a 69 d8 3d 63 e2 ae bc 73 60 a1 3d
       0.105739586 0.10566969 -0.021348184 0.07879724
000290 ff b3 73 bb 57 57 9b 3c 4a d9 4d bd 11 1c e8 3c
       -0.0037186143 0.018962545 -0.05025605 0.028333696
0002a0 42 31 84 bd be 28 5d bc 12 5c b5 bc b4 ab be bc
       -0.06454708 -0.013498483 -0.02213863 -0.023275234
0002b0 fc 13 73 bd 21 61 5f 3d ce a4 90 bd 59 62 a1 bd
       -0.05934523 0.05453599 -0.07062684 -0.078800865
0002c0 e3 6a 58 3e 32 c2 8a 3c 67 6d f7 3c 2c 24 94 bd
       0.21134524 0.016938303 0.030203534 -0.07233462
0002d0 f8 f8 11 3e 97 fe bb bd 8b 1e 85 bd 5a 5a 32 be
       0.1425513 -0.091794185 -0.06499966 -0.17417279
0002e0 fb e3 3d 3e 4f df f5 3d 33 21 1d 3e 81 c2 0f 3d
       0.18543999 0.12005483 0.15344696 0.035097603
0002f0 63 13 1f bd 58 d6 c2 bc 44 25 17 3d 5f 6a bf 3d
       -0.038836848 -0.023783848 0.036900774 0.093464606
000300 3e b7 41 3d 88 64 6d 3d de 08 8b bc 66 5e 05 3d
       0.047293894 0.057957202 -0.016972002 0.03256073
000310 ca a6 5c 3d 67 c0 e6 bd ca 0b 4a bd a1 48 54 bd
       0.05387 -0.112671666 -0.04932765 -0.051827077
000320 7f 5f 48 bc 65 7b 44 3e 79 57 0b 3c 8d 35 87 3d
       -0.012229799 0.19187696 0.008504742 0.06602011
000330 f7 b5 3c 3c 96 a9 a7 bc 9e 10 d0 3b e2 56 02 3e
       0.011517993 -0.020466607 0.006349637 0.12728456
000340 5f b5 47 bd 3e 76 80 3e 39 c5 79 3d 08 1d 51 bd
       -0.048756953 0.25090212 0.0609791 -0.051053077
000350 86 ed b1 3d 85 13 3c 3d f5 df 44 bd 10 20 23 bd
       0.08687882 0.045917053 -0.048065145 -0.0398255
000360 76 1a 1c 3d de f3 41 3e eb ea 07 bd 29 05 a5 bd
       0.038111173 0.18940684 -0.03318302 -0.08057625
000370 ee 60 1d 3e c8 5a b3 be a6 c7 b4 bc 4e 8b 3f 3e
       0.15369007 -0.35030198 -0.022067856 0.18705484
000380 c4 23 5e bd a2 04 30 3d 84 04 56 3d 63 b3 b9 3c
       -0.054233328 0.04297317 0.0522504 0.022668546
000390 18 8e 2d bd c5 87 ee 3c f8 66 9a 3e 65 ff 4b 3d
       -0.04237184 0.029117474 0.30156684 0.04980411
0003a0 23 ea 2c bd 92 d7 75 3c 75 be 84 3d 06 54 5a bd
       -0.042215478 0.015005009 0.06481639 -0.053302787
0003b0 05 fe 28 3e 38 a8 37 bd c4 00 81 3d a0 ca 04 be
       0.16503151 -0.04483816 0.06298974 -0.1296792
0003c0 b0 a6 56 3c 1e ca 68 bc d5 62 3f 3d e2 ad 37 3d
       0.013101265 -0.014208345 0.046725113 0.044843562
0003d0 1e de 76 bd 81 c8 9d 3d 0f d0 23 3d 3e 1b 0b 3d
       -0.06027042 0.07704259 0.039993342 0.033961527
0003e0 9b 84 cc 3d 85 40 2f bd e4 a9 fa bc 53 9c 9e 3c
       0.0998623 -0.04278614 -0.030598588 0.01936165
0003f0 66 39 20 3e 48 85 e4 3b 80 5f 46 bc 0c d4 09 3d
       0.15646896 0.006973896 -0.01210773 0.03364949

fc3.bias f4 [128]
000000 93 72 9d 3f 2e e7 5e 3f 8f f5 0b bd 2a b6 48 bd
       1.230059 0.870715 -0.03416973 -0.04900185
000010 6a b7 34 bc 1c 24 69 bc 58 77 26 3f 3c c4 5c 3f
       -0.011030057 -0.014229801 0.65025854 0.8623693
000020 60 40 8f 3e 38 ab 00 3d 7e 21 96 bb a9 88 9f 3f
       0.27978802 0.031413287 -0.0045816293 1.246358
000030 3f 6c 40 bd 8a e1 ce 3a d1 92 59 3f fd 14 ae be
       -0.04697823 0.0015783769 0.8498965 -0.34000388
000040 5a fd a1 3e 4a e8 8f 3f 07 55 5d 3f cf 9b 5d 3f
       0.31638604 1.1242764 0.86457866 0.8656587
000050 81 36 26 3c 5a f5 47 3f fb 3f 42 3e 15 eb 23 3f
       0.010144831 0.7810875 0.18969719 0.6403058
000060 4d c7 8a 3e 80 28 18 3e ab 54 47 bd a1 e5 4e 3f
       0.2710518 0.148592 -0.04866473 0.80819136
000070 83 ec 86 3f f7 dd 62 3e 1f c7 9a 3f 5c da 87 3d
       1.0540928 0.22154985 1.2092017 0.066334456
000080 9a 3f e2 3e a3 ef 1c bd 81 b3 4e 3f 9b b1 1e 3d
       0.4418915 -0.038314473 0.8074265 0.038743597
000090 57 14 c0 bd d7 3c 84 3f d3 20 7c bd 08 b0 3e 3f
       -0.093788795 1.0331067 -0.06155474 0.7448735
0000a0 24 0e 4d bd d7 ee 35 3c 5c 16 c6 3e 3b cf 19 bd
       -0.050062314 0.011104307 0.38688934 -0.037551146
0000b0 e3 74 10 3f 41 db b4 bd 59 8c 4b 3f 79 8a 41 bd
       0.56428355 -0.08830882 0.7951103 -0.0472512
0000c0 8e 9b 91 bd 12 bd 93 3e 89 a9 5d 3f 5f ba c5 3e
       -0.07109748 0.28855187 0.86586815 0.38618752
0000d0 cb fc 9c bc ef 20 65 3f 70 f0 92 bd f0 23 83 bd
       -0.01916351 0.8950338 -0.07174766 -0.06403339
0000e0 f5 15 5a 3f 8a 41 69 bd 8b d6 a4 bd cf c2 69 3e
       0.85189754 -0.05694727 -0.08048733 0.2282822
0000f0 a7 a0 aa 3e d7 d6 a5 3f f5 4b 47 3e 21 57 8e bd
       0.33325693 1.2956189 0.19462569 -0.06950212
000100 65 24 82 bd 33 a0 7b 3e ce 37 29 3f 28 71 4c bd
       -0.06354598 0.2457283 0.66100776 -0.0499126
000110 10 95 34 3f ca c2 dd 3e 1d 38 d2 3e 4e ef a6 3f
       0.7053995 0.43312675 0.41058436 1.304178
000120 df d4 01 3d 33 ee 9c 3f 75 89 14 3e 4f c9 93 3e
       0.03169715 1.2260193 0.1450556 0.28864524
000130 a1 0f 23 3e c7 77 09 3b 72 d7 15 3f 3e f2 0b 3f
       0.1592393 0.0020975934 0.5853187 0.5466651
000140 f4 60 b1 3e 65 b1 b9 3c 1e 4f 94 3f 19 0e 9f 3e
       0.34644282 0.022667596 1.1586645 0.31065443
000150 82 58 95 3f d4 64 eb 3e 88 3b 72 3f 21 39 6c 3e
       1.1667635 0.45975363 0.9462209 0.23068668
000160 e7 a9 8e 3e 2f 4f 65 bd 8a db 0c bd cf 52 86 3e
       0.27864 -0.05598372 -0.034389056 0.26235053
000170 4e b2 09 3e 31 38 f1 bc df 15 18 bd b9 26 57 3f
       0.13446924 -0.02944574 -0.037130233 0.8404346
000180 c8 08 a0 3e 76 9d 32 3f 8e ed 3f 3f 83 0b f8 3d
       0.312567 0.69771516 0.74971855 0.12111571
000190 54 c8 b3 3c 77 3a a0 3f 08 ac 96 3f 22 cc 88 3f
       0.02194611 1.2517842 1.177125 1.0687296
0001a0 4b 3d 9e 3e 03 d3 90 3e 14 73 25 3f b5 e8 18 3f
       0.30906138 0.2828599 0.6462872 0.5973008
0001b0 6c 79 aa 3e 71 a3 91 3f 28 80 5d 3f 4d b0 8b 3e
       0.33295763 1.1378003 0.86523676 0.27282944
0001c0 59 c0 82 3f 3c 1a 89 bd 8f 74 44 bc e8 69 71 bd
       1.021495 -0.06694457 -0.01199068 -0.05893889
0001d0 48 d6 8c 3f 3f a9 81 3e bf b4 3d 3f 05 c3 8b 3f
       1.1002893 0.25324437 0.7410392 1.091889
0001e0 7b 0e 7f 3f 79 3a 43 3e f2 cf 5f 3f 54 d6 35 bb
       0.9963147 0.19065274 0.87426674 -0.0027746158
0001f0 86 63 a9 3f f9 54 9c 3b 47 10 9f bd c6 95 1c 3e
       1.3233497 0.0047708717 -0.077667765 0.15291509

fc4.weight f4 [128, 128]
000000 73 da c3 3b b2 69 93 3c 99 54 d5 3c 87 3c 8c 3d
       0.005976969 0.017994735 0.026041316 0.06847482
000010 50 0e 8b 3d 30 3a 65 bc 7d 52 d1 bc 04 bb fc 3c
       0.06789839 -0.013990924 -0.025552029 0.030850895
000020 e9 06 8f bd a3 cb ad bd 3b 66 57 bd 61 d7 06 bd
       -0.0698374 -0.08486106 -0.05258773 -0.032920245
000030 fa 3d 45 bd be 99 54 3d 84 b1 c7 bd 90 ad da bb
       -0.04815481 0.051904432 -0.09750655 -0.0066735223
000040 5a cb a1 bd 8b 44 0f bd 3f 22 77 bd 85 0d 89 bd
       -0.07900114 -0.034977477 -0.060335394 -0.06692032
000050 4d 8e 52 bd 70 f2 73 bd 0e 2b cd bc 6a 1c d9 3c
       -0.05140524 -0.05955738 -0.025044944 0.026502807
000060 2e 19 46 3d 0b 68 93 3c 69 ae 03 bd 72 d6 47 3d
       0.048363857 0.017993947 -0.032148752 0.048788495
000070 f7 85 92 bd c3 e6 d2 3d 7c c1 05 3d 76 9f 57 bd
       -0.07154458 0.102979206 0.032655224 -0.05264231
000080 e9 03 95 3c 7d e8 9c bd 5e 1b 90 bd a6 2a 85 3c
       0.018190341 -0.07661531 -0.0703647 0.016255688
000090 fa 45 5e 3d 7d 6a db bd 5d b4 b1 3d b3 64 aa bd
       0.054265954 -0.107136704 0.0867698 -0.08319988
0000a0 1b 70 ae bd fc 38 2b 3d 53 ca 86 3c 3c 03 85 3c
       -0.08517476 0.04180239 0.016453898 0.016236894
0000b0 e4 6c 1b 3d e6 8d 98 3b b3 15 35 bb ee 03 c3 3c
       0.037945643 0.0046555875 -0.0027631342 0.023805585
0000c0 1b 2a e1 bb 0e e0 9c 3d 96 b6 10 3d 4c 6c a5 bd
       -0.0068714744 0.076599225 0.035330378 -0.080772966
0000d0 ac d5 51 bd 26 e1 b8 bd 9e 39 2e 3d 6e fb a4 3d
       -0.051229164 -0.09027319 0.042535417 0.08055769
0000e0 4d cb b4 bd b5 ec 82 bd dd 70 c6 bc bf 2a b1 bd
       -0.08827839 -0.063928045 -0.02422374 -0.08650731
0000f0 58 e8 ed bc 80 f6 f2 3c 76 88 8b 3d 28 fb 97 bc
       -0.029041454 0.029658556 0.06813137 -0.018552378
000100 22 f2 a2 bd e1 70 bc bd 1a e0 54 bc 29 ae 86 3d
       -0.079563394 -0.092012174 -0.012992883 0.06576187
000110 1c a8 14 3d 36 b0 48 bb 20 6a 10 3d 7c 7f d5 bd
       0.036293134 -0.0030622608 0.03525746 -0.10424706
000120 42 c1 88 3d 1b 27 0a bd 90 67 aa bd 7d fa fe 3c
       0.06677486 -0.0337287 -0.08320534 0.031125301
000130 25 95 71 bd 86 2f 91 3d 64 20 6d bd 34 f4 5b bd
       -0.058980126 0.070891425 -0.05789222 -0.053699687
000140 70 5f 86 3d 06 38 53 3d ae f8 2b bb b7 f2 52 3c
       0.06561172 0.0515671 -0.0026240754 0.012875251
000150 8b af 00 3b 70 c7 99 bd 7e 1e 4e 3c a7 7b 8f 3d
       0.0019635882 -0.07508743 0.012580512 0.07006007
000160 b7 4a 39 3d 24 ca 7d bd 1e 25 73 3d 3d 07 08 bd
       0.04523727 -0.061960354 0.05936157 -0.033210028
000170 40 bf 41 3c 84 08 9b bc d1 82 a0 bd 9b 2f 18 3d
       0.011825383 -0.018924959 -0.07837451 0.037154775
000180 03 e6 88 bd 92 7e a1 ba f0 0a 9a bc 75 79 bb bd
       -0.06684496 -0.0012321046 -0.018804044 -0.091540255
000190 1a b0 4a bd b2 e0 68 3d f5 83 0e 39 4b 4a d9 bd
       -0.04948435 0.05685491 0.00013591333 -0.106098734
0001a0 1d 2f d7 3c a2 49 5f bd 15 98 37 3d 04 79 01 bd
       0.026267583 -0.05451358 0.04482277 -0.03160955
0001b0 05 c1 17 3d b4 60 d7 bd d4 fd a9 bd 0c 4e 94 bd
       0.037049312 -0.105164915 -0.08300367 -0.07241449
0001c0 dd b4 1c bd 22 f1 d6 bc 7c 54 a1 3b 2a 50 4a 3d
       -0.038258422 -0.026238028 0.0049234014 0.049392857
0001d0 3b 51 13 3c c0 09 34 bc 95 b4 a6 bb ab 18 03 bd
       0.008991535 -0.010988653 -0.005087445 -0.032005947
0001e0 55 ad d7 bd af a6 8c 3d 80 5d 57 bd 20 e6 80 3c
       -0.10531107 0.0686773 -0.052579403 0.015734732
0001f0 06 e0 63 3c 9d 0f 4d bd 07 d7 a1 3d a3 f7 4d 3d
       0.013908392 -0.050063718 0.07902341 0.050284993
000200 b8 cd 1b 3d b0 03 b9 bc 87 28 ca bc 2b a6 1b bd
       0.038037986 -0.022584766 -0.024677528 -0.038000267
000210 9b 32 9c bd 99 fb 84 bd 28 8d f0 bc 2e 22 d7 bd
       -0.0762684 -0.06493301 -0.029364184 -0.10504566
000220 9a b1 4d bd a0 4a a1 3d 1f fc 4c bc 99 f5 b5 bd
       -0.050218202 0.07875562 -0.012511282 -0.08884735
000230 a8 33 8d 3d 83 d7 89 bc e0 8e 4b 39 f9 c5 0a 3c
       0.06894618 -0.016826397 0.00019412814 0.008470052
000240 dc 95 6e 3d 78 ad 39 3d 35 6f 59 bc 3d bd ef bd
       0.058248386 0.04533145 -0.013271143 -0.11706016
000250 92 c0 88 3d c6 ff a1 be b6 63 d1 3b c7 7f 02 3d
       0.06677355 -0.31640452 0.0063900603 0.03186014
000260 0b 45 a5 bd 13 d8 2d 3d 20 77 ad 3d 06 eb 7f bd
       -0.080698095 0.042442393 0.08469987 -0.062479995
000270 23 6c ac bd 9a 5a 3a 3d ac b8 07 be 0e da 37 3d
       -0.08419063 0.04549656 -0.1325404 0.044885688
000280 77 e2 b2 bc fc 70 a3 3d 4e b4 7a bd 33 76 03 bd
       -0.021836502 0.079805344 -0.06120711 -0.032095145
000290 7e 97 93 bd 1a b2 17 3c 2f 65 4e 3c ec 9a fc bd
       -0.07206629 0.009258771 0.012597366 -0.123342365
0002a0 f1 ce 16 3d 67 e6 b6 3d 7f 31 59 bc 23 d7 a6 3d
       0.03681845 0.089306645 -0.01325643 0.08146503
0002b0 5e 7f 97 bc ff ba e9 bc 3d 7c f4 bc cb 65 0b bc
       -0.01849335 -0.02853155 -0.029844398 -0.008508156
0002c0 e4 21 a0 3c fd 6c fc bc cd bd fb bc 46 14 b3 bc
       0.01954741 -0.030813688 -0.030730153 -0.021860253
0002d0 42 bc 3c bd 2c 8e a5 bd 30 bf 8c bd 2b ab 95 3d
       -0.046077974 -0.08083758 -0.068724036 0.07308038
0002e0 0b 0a 05 be ea f5 86 bc ee 99 ad 3b b5 ca f9 3d
       -0.12992112 -0.016474683 0.005297891 0.121968664
0002f0 55 df 1d be 20 17 98 bc 4f 84 24 3d 5c a1 1e bc
       -0.15417226 -0.018565714 0.04016524 -0.009682026
000300 95 67 19 bd 32 20 97 be 35 85 6e ba e7 c2 10 3d
       -0.0374523 -0.2951675 -0.0009098829 0.035342123
000310 62 95 11 bd 9b 53 e4 3c 93 67 30 be 20 a7 cd 3c
       -0.035542853 0.027871897 -0.1722701 0.025104105
000320 bf 11 55 3d 12 c5 22 bd 91 43 87 b8 f6 b4 9a bc
       0.052018877 -0.039738722 -6.449887e-05 -0.018885117
000330 9a a8 e6 bd 46 0f 0b bd 54 69 6d 3c 50 44 79 3c
       -0.11262627 -0.033950113 0.014490444 0.015214041
000340 0c c1 27 bd 84 0f 01 3c a9 b4 bd 3c ce 52 32 bd
       -0.04095559 0.007877234 0.023157435 -0.043536
000350 4c f9 c7 bc 30 b6 93 bd 6c 86 ee bd 74 cd f4 bc
       -0.024410866 -0.07212484 -0.11646733 -0.029883124
000360 d7 6f 6f 3c 74 28 d4 3c 4e 58 09 bb b2 4c 9d bd
       0.014614067 0.025898196 -0.0020957175 -0.07680644
000370 78 d1 bf 3c 51 a8 68 3d 55 0c 56 bc c8 e1 3b bd
       0.023415312 0.056801144 -0.013064464 -0.04586962
000380 43 a8 b1 bd 76 c2 b2 bc f4 8f 5b 3c 91 73 57 3c
       -0.086746715 -0.021821242 0.01340102 0.013150112
000390 f1 a1 7d bd 3e c0 6c bd ef 11 cf bd 31 a1 8c bc
       -0.061922017 -0.057800524 -0.101108424 -0.017166706
0003a0 c7 36 bb 3c 91 3f 6f 3d 2f a6 be bd 1c f6 b9 bb
       0.022853268 0.05841023 -0.09309041 -0.0056750905
0003b0 e3 80 03 bd 71 ac 0f be 9c a8 92 3d 3b bb f2 3c
       -0.032105338 -0.14030625 0.07161066 0.029630294
0003c0 72 84 00 be 48 2c bb 3d d8 b8 66 3d b6 b2 72 bd
       -0.12550524 0.09139305 0.056328624 -0.059252463
0003d0 ae 55 be 3b 97 e2 0d be 55 9f 9a bd d5 a5 4d bd
       0.0058085537 -0.13855968 -0.075499214 -0.050206978
0003e0 bd 47 8c bd 2b e0 54 3a 81 88 04 bd bc 43 d7 bd
       -0.068496205 0.0008120562 -0.032356743 -0.10510966
0003f0 fc 51 55 3d 0a 7d de bc 7e 1c f5 3d aa 04 5a 3d
       0.05208014 -0.027159233 0.11968325 0.053227104

fc4.bias f4 [128]
000000 de dd 97 bd de c6 07 3f 6d 06 52 bd 8d 30 0f 3f
       -0.07415365 0.5303782 -0.05127566 0.5593346
000010 e1 41 d1 bd e2 f0 7a 3c 72 5a 51 3f ca 43 9f 3f
       -0.102176435 0.01531622 0.81778634 1.2442563
000020 ea f0 d6 3e 7d e5 a4 3f 7a 36 b5 bd ac 50 79 3f
       0.41980678 1.2882534 -0.08848281 0.9738872
000030 cb f4 d0 3c cb 4c b3 bd 05 f6 84 bd e2 39 c0 bd
       0.025507351 -0.087548815 -0.06492237 -0.0938604
000040 fd 06 73 3f 21 28 8a 3f 14 4b 63 3f 34 28 d2 3c
       0.9493254 1.0793496 0.88786435 0.025653936
000050 a1 7e 11 3b 3c cb a3 3f 0e 90 84 3d 8b 84 93 bd
       0.002220072 1.2796397 0.06472789 -0.07203015
000060 26 cd 67 3e 28 e4 af 3f 5d b9 56 3e 32 2a 5a 3d
       0.22636852 1.3741503 0.20969148 0.053262897
000070 3c 3b 91 bd f6 d2 54 bc bc 53 93 3e 97 70 95 3f
       -0.07091376 -0.01298975 0.28774822 1.1674985
000080 0a 56 0a bd 70 76 6a 3d 63 ea 14 3f 97 e9 82 3f
       -0.03377346 0.057241857 0.58170146 1.0227536
000090 66 14 97 3f 6b 53 8a 3f 5d bb 87 3f 22 68 8a 3f
       1.18031 1.0806707 1.0604054 1.0813029
0000a0 e8 7e 3c 3f 06 a6 8b 3f 5c 00 89 3e 02 1a dd 3e
       0.73631144 1.0910041 0.26758087 0.43183905
0000b0 49 e1 aa 3e 1d 56 76 3f ec 57 28 bc 30 92 5b 3d
       0.33375004 0.9622515 -0.010274868 0.053606212
0000c0 6b cd 9e 3f 67 dc 9f 3e eb 20 b9 bd bf 19 1e bd
       1.2406439 0.3122284 -0.09039482 -0.038598772
0000d0 f2 48 b9 3d a5 11 a6 3e 12 f6 9e bd 27 6e dd 3e
       0.09047116 0.32435337 -0.07761778 0.43248102
0000e0 79 63 97 bd cf e3 88 3f 59 dd c4 bd 6d 11 2a 3e
       -0.0739202 1.0694522 -0.09612531 0.1660821
0000f0 ef db a7 3e 46 c2 7c bd ad 1f 0e bb 47 73 88 3f
       0.32784984 -0.06170871 -0.002168636 1.066018
000100 d1 99 e2 3d 50 52 a0 bd 40 28 e1 3e a7 e5 cb bd
       0.110644944 -0.078282 0.4397602 -0.09955912
000110 27 20 f9 3c 05 85 a4 3f c2 0a a4 3f 96 6a 33 bf
       0.03041084 1.2853094 1.2815783 -0.7008451
000120 b8 5d 50 3e 81 00 6e 3e f6 17 17 3f a1 4e 6a bd
       0.20348251 0.2324238 0.59020936 -0.057203893
000130 6d c5 8b 3f 49 bd 03 3d 96 2f 31 3e 8e cb 19 3d
       1.0919625 0.03216294 0.17303309 0.03754764
000140 63 60 a7 3f eb d6 b5 3e 8d f9 a6 3f b8 56 83 bd
       1.307629 0.35515532 1.3044907 -0.06413025
000150 06 e3 b1 3f 9d fd 91 bc 60 c0 94 3f ec 7e c8 3e
       1.3897407 -0.017821128 1.1621208 0.39159334
000160 88 9a c9 3e 3d e0 af 3f 9b 58 ab 3f f5 a9 9b 3f
       0.3937571 1.3740307 1.3386415 1.2161242
000170 32 5f 02 bf 26 49 a6 bd 5f 67 45 3f 39 01 3e 3f
       -0.50926507 -0.08119421 0.77110857 0.74220616
000180 4b 25 db 3c 82 e3 9d 3f 62 fd d6 bd 03 7d 9a 3d
       0.026751181 1.2335055 -0.10497548 0.07543375
000190 18 3c 77 3f e0 c7 8b 3f 42 50 97 3c 3e 61 97 3f
       0.9657607 1.0920372 0.018470887 1.1826551
0001a0 a6 dd fc 3c d0 3a d1 bc b4 7e 6f 3f e2 fc 16 3f
       0.030867409 -0.02554074 0.9355271 0.5897962
0001b0 e7 77 2d 3f 84 e9 39 3f 14 35 1f 3e ea fc 0b 3d
       0.6776108 0.7262194 0.15547591 0.034176745
0001c0 c8 3b 9b bd 87 a2 17 3f cf 4f ed bd b2 30 95 3f
       -0.07579762 0.5923237 -0.11587488 1.1655486
0001d0 30 8c 00 3f 05 32 b6 bd 9e 99 4e 3d 30 a0 63 3f
       0.5021391 -0.08896259 0.05043947 0.889163
0001e0 4b 9b 82 3e c6 64 a5 3f 08 e7 a0 3f db 8a 7b 3e
       0.25509104 1.2921379 1.2570505 0.24564688
0001f0 62 0b 8a 3d c5 90 78 3c a4 b6 0d bd ac 7e 9a 3f
       0.06740452 0.0151712345 -0.034598008 1.2069907
