checkpoints/checkpoint_qnetwork_local_WMT_with_trend.pth (torch_old, 340036 bytes, 10 tensors)

fc1.weight f4 [128, 13]
000000 dc 0c 5b be 72 94 86 3e b4 30 98 be df bd 56 3d
       -0.21391624 0.2628513 -0.29724658 0.05242717
000010 76 46 f0 be 9e a6 8a 3e 87 ae 55 bb cb 24 96 be
       -0.46928757 0.27080244 -0.0032605247 -0.29324946
000020 1a 29 30 3d a3 8a 1e 3f 9e f2 21 bd 4e 16 fd 3d
       0.043007948 0.6193029 -0.03953802 0.1235777
000030 eb 67 23 bf f8 23 b3 bd 01 10 27 bd 49 d1 9f 3c
       -0.6383044 -0.08747095 -0.040786747 0.019508975
000040 a7 c9 30 3b 99 02 52 3d 50 c0 81 bd e8 d5 85 bd
       0.0026975663 0.05127201 -0.06335509 -0.0653494
000050 23 5b a3 3d 1c 8a aa 3d 60 80 c0 bd 88 b8 1a 3e
       0.07976367 0.083271235 -0.093994856 0.15109456
000060 27 c8 5b be 77 b9 f8 3c 9c 40 7d 3e 3a 73 2b be
       -0.21463071 0.030361874 0.24731678 -0.16743174
000070 78 85 ec be 0a a8 80 3e 58 2c a1 bc 96 7a 01 3f
       -0.4619558 0.25128204 -0.019674465 0.50577676
000080 2f 00 32 3e be 3e 6a be 2b 3a 2f 3e dc 02 aa be
       0.17382883 -0.22875497 0.17112033 -0.33205307
000090 9d f9 15 bf 77 37 1b 3f a3 d9 36 3f 68 ab 07 3d
       -0.58584005 0.6063151 0.7142584 0.03312245
0000a0 55 f2 b5 3d 26 34 9a bc 1e 94 a1 bc e8 63 22 be
       0.08884112 -0.018823694 -0.019723948 -0.15858424
0000b0 77 de c8 bd ad 2f 69 bd 0e 46 b6 3c cb 71 d4 3d
       -0.09808057 -0.056930233 0.022250202 0.10373267
0000c0 3f e2 ca bd 7b 6d 98 3d 0a 46 e2 3d b4 e2 a5 3e
       -0.09906434 0.07442757 0.11048515 0.32399523
0000d0 0b 5c 10 3e cb c3 4b bc 9a ac 30 3e 49 eb 13 be
       0.14097612 -0.012436817 0.17253342 -0.14445223
0000e0 d1 37 41 3e 12 e8 52 be 94 57 4a be d6 02 54 bd
       0.18868949 -0.2059634 -0.19759971 -0.051760517
0000f0 ee a5 44 3d 28 09 2e 3d c0 24 19 be d3 91 76 3d
       0.048009805 0.0424892 -0.14955425 0.060197663
000100 e6 14 8d 3e cc 19 54 bc b8 a0 c9 bd cf f7 ca 3d
       0.27555007 -0.012945604 -0.09845108 0.09910547
000110 17 a4 7c 3d d8 27 0f 3f 12 b9 ac bd 86 ba ae 3d
       0.061679926 0.5592017 -0.08433737 0.0853167
000120 c3 0b 93 bd 1b 31 8b bb a5 6e a5 3e ec 1a c7 3d
       -0.07179978 -0.004247797 0.32310978 0.09721932
000130 cb a5 09 3f ae cd ca be 05 09 63 bd 2e f3 95 be
       0.53768605 -0.39610046 -0.055428524 -0.29287094
000140 b6 3f 0e 3e 87 24 0b 3f 4a 2b cd 3d c0 b1 bb bd
       0.13891491 0.5435261 0.10018022 -0.091647625
000150 4b 85 5f be 06 ac be bd be 88 2f 3e 08 55 9c be
       -0.21828191 -0.093101546 0.17142007 -0.30533624
000160 ba 23 58 bd e5 3d 54 bf 83 e8 18 be d2 c8 57 bd
       -0.052768447 -0.82906944 -0.14932446 -0.05268175
000170 1a 4b 94 3e 1a 11 e9 3d 76 c7 13 be 70 f7 c4 bd
       0.28963548 0.11380215 -0.14431557 -0.096175075
000180 b0 00 49 3c b7 fb a1 bd 89 60 8c 3e 7c f7 05 3e
       0.01226823 -0.07909339 0.274174 0.13082689
000190 66 a5 d6 3e 60 b6 8f 3e 06 7e 6f bf 96 b0 08 bf
       0.41923064 0.2806883 -0.9355167 -0.5339445
0001a0 a4 3d 89 be b5 35 c8 3b 9a be c2 be 8c 4c e6 be
       -0.2680484 0.006109918 -0.38036042 -0.44980276
0001b0 5a a4 eb be dd b5 16 be 7e 8e 17 bd 01 12 6f 3e
       -0.46023828 -0.14717813 -0.037001126 0.23346712
0001c0 1d 5c 7d 3e 34 3a f1 3e 16 3e fa 3e 4d d0 a4 bc
       0.2474217 0.47114718 0.48875493 -0.020118857
0001d0 cd 97 fe be 40 43 43 3e c2 00 a4 3d e4 17 73 3d
       -0.4972519 0.19068623 0.08007957 0.059348956
0001e0 57 85 24 bc 39 7b 39 3e 6e 31 10 3e a8 f4 cb bc
       -0.010041556 0.18113412 0.14081356 -0.024896935
0001f0 43 df 84 be 11 3f 7a be 48 ef 09 bf 62 de 59 bc
       -0.25951585 -0.2443812 -0.5388074 -0.013297649
000200 97 5e 2b bd de c6 91 be 10 43 ba bc 02 38 b4 3d
       -0.041838255 -0.28472036 -0.022737056 0.08799745
000210 ce 38 57 bd 5e 73 2a bd e6 36 06 bc cf eb 0b 3d
       -0.052544408 -0.04161393 -0.0081918 0.03416043
000220 e8 54 53 3d b3 f4 90 3d 68 13 a5 3d 76 f8 a0 3d
       0.051594645 0.07077923 0.08060342 0.0785989
000230 6d 4f c1 3e 95 2b 35 3e c0 73 7f 3e 03 5d 93 be
       0.3775591 0.17692406 0.24946499 -0.287819
000240 3b 30 fc be 09 3b 27 bd 8a 3d 2e 3f 93 fb ba bd
       -0.49255547 -0.040827785 0.6806265 -0.09130015
000250 9c 71 e4 bd d9 bf 25 3d 0c cd c5 be 0a a9 34 bf
       -0.11154482 0.040466163 -0.38633 -0.70570433
000260 4c 8d 04 3f 48 c4 29 3e b1 ae 2c 3d 1d 89 64 be
       0.517781 0.16578782 0.042158786 -0.2231793
000270 54 a7 41 3e c8 01 9f bd 20 b8 81 be 10 57 42 be
       0.18911487 -0.077640116 -0.2533579 -0.18978524
000280 31 4b 7a be e5 72 20 be 15 72 39 be 79 b1 1b be
       -0.24442746 -0.15668829 -0.18109925 -0.15204419
000290 91 1f 06 be a4 90 fa bd 6a 67 06 be 6b d4 1e 3e
       -0.13097979 -0.12234619 -0.13125387 0.15510719
0002a0 d0 8d 58 be 0e 32 38 be 51 e3 a1 3e 53 f3 14 be
       -0.21147847 -0.17987844 0.3161874 -0.14545946
0002b0 21 c9 0d 3f 30 8c 63 be bf c1 7e 3c ac de 01 3f
       0.55385023 -0.22221446 0.015549122 0.50730395
0002c0 45 22 30 3e 12 d6 05 be b0 c4 42 3f 59 9c bb be
       0.17200573 -0.13069943 0.7608137 -0.3664272
0002d0 02 45 99 3e cd b3 38 bf 74 4a 9c bc da ae 70 3d
       0.2993546 -0.72149354 -0.01907847 0.0587605
0002e0 0c 7e 72 be 68 21 4e be 0f 4e 3b 3e ae 7c a6 be
       -0.23680896 -0.20129931 0.18291496 -0.32516998
0002f0 3f 8e 05 be b9 f0 e5 3e b7 fe 99 3f 52 d5 3b 3f
       -0.13042544 0.4491022 1.2030858 0.73372376
000300 62 4b c0 bd dc fa 45 3d 85 bf ac 3e fe e4 9a be
       -0.09389378 0.04833494 0.33739868 -0.30252832
000310 5d ff 65 be d9 90 0f 3f 20 6c b5 3d 8d 69 a3 3d
       -0.22460695 0.56080395 0.08858514 0.079791166
000320 06 a3 e6 bc 63 c5 fe 3e 9a 02 18 3e 4d 20 11 bd
       -0.028153908 0.4975997 0.14844742 -0.035431195
000330 52 3a 66 be 41 ae d6 bd 75 ad ae be 7b 27 ca 3e
       -0.22483185 -0.10482455 -0.34116712 0.39483246
000340 b2 60 0c 3f 68 3a bd be d3 dd 56 be 70 06 02 3d
       0.54835045 -0.36958623 -0.20983057 0.03174442
000350 52 a0 d0 bd 5a d0 43 3e 5f 25 31 3d f9 ea 64 be
       -0.10186829 0.19122449 0.04324853 -0.2235526
000360 39 c7 09 be fc 04 d2 be 7f 0e 01 3f e1 62 7a bf
       -0.13454904 -0.41019428 0.50412744 -0.9780713
000370 3e ba 42 bf d8 a9 9d 3e 70 f3 e1 bd 57 27 2a be
       -0.76065433 0.30793643 -0.1103276 -0.1661657
000380 68 ad c6 bd 44 9b 08 bc 02 89 07 be e4 a0 92 bd
       -0.09701043 -0.008337799 -0.13235858 -0.07159594
000390 d5 05 c4 bd 83 63 95 3c 02 40 6a bd 11 9f 92 3e
       -0.09571425 0.018235927 -0.05718995 0.28636983
0003a0 bc 46 81 be 6c 34 c0 3e 91 52 d1 3e ca d8 83 be
       -0.2524928 0.37539995 0.40883306 -0.25751334
0003b0 f8 65 d2 3e 24 86 58 3e dd 4a 05 be 48 95 3c 3d
       0.4109342 0.2114492 -0.1301684 0.046040803
0003c0 37 cd 9a 3e e8 25 2a 3c 14 be d7 3e 1e 9e 43 3c
       0.30234692 0.010385014 0.42137206 0.011939554
0003d0 3f 1e 71 3a 5c f2 2c bf 80 ff e2 be fe 77 91 bd
       0.00091979274 -0.6755731 -0.44335556 -0.07102965
0003e0 1f b2 a7 3e 5e 1a b4 bd 32 e8 c4 be ae 4f ca 3e
       0.32753083 -0.08794092 -0.384584 0.39513916
0003f0 75 9f 1c bd a0 ce 8a be fe bf a4 3c 71 5b 6a 3d
       -0.038238008 -0.27110767 0.02011108 0.05721611

fc1.bias f4 [128]
000000 50 e6 7c 3e ba 9b 6d 3f 56 f3 2d bf 53 72 8f 3f
       0.24697232 0.92815745 -0.67949426 1.1206764
000010 07 ae 6f 3f e2 a8 5c 3e 8d 52 13 3f 55 6f d0 3e
       0.9362492 0.21548799 0.5754784 0.4070994
000020 eb 21 25 be ef 4e 3a 3f 35 12 64 3f c8 b9 66 3e
       -0.1612622 0.72776693 0.8909028 0.22531807
000030 d9 20 75 3f 7d 0c 1e bf 63 fc 19 bf 22 58 e5 3e
       0.95753247 -0.61737806 -0.60150737 0.44793802
000040 5e 9b 9b be 77 ee 5b 3f 64 b0 97 3e cf ea a8 be
       -0.30391973 0.85910743 0.29626763 -0.32991645
000050 0a af 2a 3e 57 5b 29 bf 3d 99 f0 3e fe 29 78 3f
       0.16668335 -0.66155 0.46991912 0.96939075
000060 4c 73 27 bf d0 04 81 3e 56 73 88 3f 0d a0 3c bf
       -0.65410304 0.25198984 1.0660198 -0.7368172
000070 ef 85 f2 be 47 86 a3 be 8b 3a 8b 3f 2a e3 5e 3f
       -0.47367808 -0.31938383 1.0877241 0.87065375
000080 e7 18 4d 3f aa 74 42 3f d8 da cb 3d 55 84 b4 3e
       0.8011612 0.75959265 0.099538505 0.3525721
000090 a4 bb 2d 3f 10 19 b6 be 39 59 cf 3e 36 b7 bb 3e
       0.6786444 -0.35565996 0.4049776 0.36663216
0000a0 c2 b0 04 3e 0b db 37 bf 76 cf 4f 3f 93 52 1d bf
       0.12958053 -0.7181861 0.81175935 -0.61454123
0000b0 20 18 9a be 1d 56 40 3f 9c 9c 4a 3f bd dd c7 3e
       -0.3009653 0.751314 0.79145217 0.3903636
0000c0 be 95 35 be 4b 1c 83 3e 31 3c 74 3f da a8 34 3f
       -0.17732903 0.25607523 0.95404345 0.7057015
0000d0 ce 3a 9d 3f 37 88 d8 3e d6 7c 9d 3f db c9 05 bd
       1.2283571 0.42291424 1.2303722 -0.032663208
0000e0 46 b1 89 3f 93 f7 d3 bd 4d a1 c9 be cd d2 94 3e
       1.0757225 -0.103499554 -0.39380875 0.29067078
0000f0 de ed bf bd ce a7 01 be 5b 16 84 3f 66 a4 65 be
       -0.093715414 -0.12661669 1.0319322 -0.22425994
000100 42 62 fd 3e 7b 8e 02 3f 93 f1 be 3e 1c 85 a3 3f
       0.49489027 0.5099866 0.37293682 1.2774997
000110 26 2d 81 3f b5 36 a0 3f ee a4 6d 3f ff 88 27 be
       1.0091903 1.2516695 0.9282979 -0.16360854
000120 e8 3f 11 bf 0e b5 5c be 6c 70 7d 3f 92 6d 1f 3f
       -0.5673814 -0.21553442 0.9899967 0.62276566
000130 52 62 cf 3e 59 cd 6c 3f 66 bc 9e bc 34 a9 de 3e
       0.405047 0.92500836 -0.019376945 0.43488467
000140 74 c5 58 be ba 6d b7 3e 28 a3 ea 3e dc 6e bf be
       -0.21169072 0.35825902 0.45827603 -0.37389266
000150 fa 39 16 bf 0b dd ab be 63 5d 87 3d 3a 7f 6c 3f
       -0.58682215 -0.3356708 0.06609609 0.9238163
000160 f4 b9 78 3f 45 0a 1a be fc b6 3b 3f 81 38 c4 bc
       0.9715874 -0.1504298 0.73326087 -0.023952724
000170 b9 8a 9f 3e 93 98 5e 3d 2b 71 c0 3e a9 82 cc 3f
       0.31160524 0.054344725 0.3758634 1.5977374
000180 3a 59 d0 be fb 0f e9 3c ff ee 63 3e d6 91 97 bd
       -0.40693074 0.028450003 0.22259139 -0.07400863
000190 1d 24 88 3f 04 3f 8b be 5a 3f 04 3f e8 d6 93 3f
       1.0636021 -0.27196515 0.51659167 1.1549959
0001a0 55 f3 a6 3e 28 e4 c1 be 40 de 48 bf 76 ef 9f 3c
       0.32607523 -0.37869382 -0.78464127 0.019523364
0001b0 09 b3 86 3e a8 f1 2e 3f 59 69 e9 be 47 65 78 3f
       0.26308468 0.6833749 -0.45588186 0.97029537
0001c0 ca d6 46 be 62 a7 fa be f4 4e 4a 3f 93 18 90 3f
       -0.19417873 -0.48955828 0.7902672 1.12575
0001d0 02 bb 9c 3f e4 d3 38 3f bd 8e 15 3f eb 31 cb 3e
       1.224457 0.7219832 0.58420926 0.39686522
0001e0 45 21 52 3f 59 6b dd bd a9 c2 31 be 42 29 22 bf
       0.82082015 -0.108114906 -0.17359413 -0.63344204
0001f0 a5 28 58 bf 87 45 08 3f 0b 17 79 3e df 8e 51 3f
       -0.8443702 0.5323109 0.24325196 0.8185863

fc2.weight f4 [256, 128]
000000 c9 e4 ec 3e 81 6e 4d 3e a3 b8 0e bf bf e7 0e 3e
       0.462683 0.20061685 -0.55750483 0.13955592
000010 cf 88 9e 3e 4b b1 3c bd 91 d5 9a 3d 02 de 8d 3b
       0.30963752 -0.046067517 0.07560266 0.004329444
000020 48 56 02 bf 42 bd 5c be e2 1c d4 3d 2c 3b 3e be
       -0.50912905 -0.21556571 0.103570715 -0.1857726
000030 60 3b 01 3e 39 6c 36 3f 42 86 18 bd b5 1f f2 bc
       0.12620306 0.71258885 -0.037237413 -0.029556135
000040 d9 fa 58 be ef c4 a8 3c ae 40 1d 3d 71 47 47 bf
       -0.21189441 0.020601718 0.03839176 -0.77843386
000050 e0 3f 4c 3e fc ff f7 be 15 e4 bd 3d 1f 7e 7d 3e
       0.19946241 -0.48437488 0.09272019 0.24755143
000060 8a 50 59 be 3c b0 85 3e 84 d4 28 3e 4a f1 ac be
       -0.2122213 0.2611102 0.16487318 -0.3377784
000070 4f 24 13 bf 4e 96 8b be a9 53 41 3e b5 15 de 3d
       -0.5747728 -0.2726311 0.1887957 0.10843984
000080 64 b1 2d be 42 8b 2d be 51 36 bd bb e5 e9 d2 bd
       -0.169622 -0.16947654 -0.0057742973 -0.10298518
000090 79 d5 04 3e bc 4e 53 3d 2d 7f ed be d2 46 c9 3d
       0.12972058 0.05158876 -0.4638609 0.09827961
0000a0 46 b8 7c 3d 53 68 fb 3d ff 7b f1 bd fc a4 ea be
       0.061699174 0.12275758 -0.117912285 -0.45828998
0000b0 73 ae 3e be 0f 9e ff 3d 18 ee ed bd 3a af f1 bd
       -0.18621235 0.12481319 -0.116176784 -0.11801
0000c0 42 b8 ba be 1a b2 68 be 53 b1 1d 3e 97 4d 0e 3e
       -0.36468703 -0.2272419 0.15399675 0.13896786
0000d0 46 a2 1e 3e 85 9c 0c be f1 34 85 3e 9f bd f9 bc
       0.1549159 -0.13731582 0.26016954 -0.030485926
0000e0 e7 d2 15 3d fc ca a3 be b3 62 65 3f ae b6 b8 be
       0.036578085 -0.31990802 0.8960373 -0.36076874
0000f0 b3 d5 23 3d 6a a4 b6 be ec 58 87 3e ec 6a 5a 3d
       0.03999872 -0.35672313 0.2643503 0.053324625
000100 41 1e 49 bd 56 a2 62 3e 29 45 7d 3d 99 f7 93 3e
       -0.049101118 0.22132239 0.061833534 0.2889984
000110 63 43 94 3d 87 5e 9d 3e f1 cf 15 3e 23 0d 55 3d
       0.072394155 0.3073618 0.14630105 0.05201448
000120 ea 31 26 bf d8 8b 35 3f 13 e4 d8 3d 79 9b f5 be
       -0.6491991 0.7091651 0.10590377 -0.4797018
000130 c0 ce 8a bd 12 c5 68 3e 01 c3 9c 3d 08 3c 33 be
       -0.06777716 0.22731426 0.076543815 -0.17503369
000140 6d b8 2f be 82 f5 2d bf 27 0a 27 3e 20 56 50 be
       -0.17160197 -0.6795274 0.16312467 -0.20345354
000150 39 5a 8a be 8b 68 a7 bf aa 4c 27 bf d9 54 1a 3e
       -0.2702196 -1.3078779 -0.65351355 0.1507143
000160 1f 74 da 3d 25 42 ee be 15 c6 08 3e ba 2f 42 be
       0.106666796 -0.4653484 0.13356812 -0.18963519
000170 70 a4 1e 3d cc 59 98 be 9e 05 1c 3d de 62 8a 3d
       0.03873104 -0.2975601 0.038091294 0.06757139
000180 ca 2b 4f bf c4 38 3a bf 80 cf 5b 3e f0 5d 6f 3d
       -0.8092619 -0.7274287 0.21465874 0.058439195
000190 79 42 85 3e 53 b0 37 be dc d1 33 be 6d e5 f3 3d
       0.26027277 -0.17938356 -0.17560524 0.11908994
0001a0 ab bb 50 be b9 34 83 bf f1 6e 56 bd 4d 5e ec be
       -0.2038409 -1.0250465 -0.052351896 -0.46165696
0001b0 58 df 61 be 6f 2b 23 be ed 92 e2 be be 1b 50 3e
       -0.22057855 -0.15934537 -0.4425272 0.20323083
0001c0 83 63 88 bd a8 18 f7 bd c8 67 df 3c 6d 3b 05 3e
       -0.06659605 -0.1206525 0.027271166 0.1301095
0001d0 ee 3d 08 3e f7 5a 0d 3c 26 66 8a 3d 22 41 d3 be
       0.13304874 0.008627645 0.067577645 -0.4126063
0001e0 de f1 d4 bd 01 23 45 be bb 1c a4 be ac c4 74 bf
       -0.10397695 -0.19251634 -0.3205317 -0.956126
0001f0 5e fb 31 be f7 80 cc be 14 e6 a2 3e 11 7a 6b 3e
       -0.17381045 -0.39942142 0.3181616 0.22995783
000200 30 f9 4e bd 69 63 3a 3e e4 28 ab 3d b5 79 bf 3e
       -0.050530612 0.18201984 0.08357409 0.37397543
000210 8a 7f 9e 3e 0f 10 63 3d c5 2c 95 3d 85 67 20 3e
       0.3095668 0.055435237 0.0728393 0.1566449
000220 e5 0f 06 bd 9f b3 86 3d be c1 54 3e 12 e1 31 3e
       -0.032730002 0.06577229 0.20777032 0.17371014
000230 be d7 6d 3e 4d 43 8e bd ef 6d 7d be 69 12 86 3e
       0.2322683 -0.0694643 -0.24748968 0.2618592
000240 59 fd d6 bd 88 54 ac 3e 00 b3 12 be ae bb 11 be
       -0.10497541 0.33658242 -0.14326096 -0.1423175
000250 ac 23 01 bf 30 8c 4d 3e 78 0c e7 3d 40 21 3e 3e
       -0.50445056 0.20073009 0.11281675 0.18567371
000260 f0 e7 e2 bd 71 58 07 3e c5 8b 53 3e 53 11 83 3e
       -0.11079395 0.13217331 0.20658787 0.25599155
000270 60 6e c0 3d 41 5a 8f bc a6 d9 8f 3e cc cf 69 3e
       0.09396052 -0.017499091 0.2809574 0.22833174
000280 67 a3 33 3e 95 c5 41 3d 87 9b 62 be 2e 8a 76 be
       0.17542802 0.04730757 -0.22129641 -0.24076149
000290 7b 28 6c 3e 86 b0 bc bd 22 64 a7 bd 1e b9 f3 3c
       0.23062317 -0.09213357 -0.08173396 0.029751357
0002a0 4d 3c cd 3d d4 fa 25 3e aa 70 51 3d 20 b7 15 3e
       0.10021267 0.16208965 0.051132835 0.14620638
0002b0 63 73 1a 3e 39 49 9d 3d 0f f2 96 3d 71 4e fc bd
       0.15083079 0.07679982 0.07370388 -0.12319649
0002c0 ae f8 b9 bd 1f cf e3 bd 6e 9f 85 3e 8c 33 70 3e
       -0.09080635 -0.111234896 0.26098198 0.23457164
0002d0 10 1c cf 3e b3 fa f8 bd 09 ff 90 3e 5e bd 4a bb
       0.40451097 -0.12157192 0.28319576 -0.0030935626
0002e0 06 8d 33 3e 44 43 ee 3d 28 35 3a 3e da f1 25 be
       0.17534265 0.11633924 0.1818434 -0.1620554
0002f0 ee 0d 23 3e f7 34 81 3c 1a 40 9a 3e 25 7e 95 3d
       0.15923283 0.015772326 0.3012703 0.07299451
000300 7c 0f 34 3e 23 3f ff bd d1 63 81 3e 93 62 a5 3e
       0.17584032 -0.12463214 0.25271466 0.3230177
000310 45 fb 2b 3e 47 a2 a5 3e e0 66 55 be 3f 3f a6 3d
       0.1679507 0.3235037 -0.20840025 0.08117532
000320 0a 68 d5 3d 7b e3 c5 be 78 90 dd 3d 26 f9 9b 3e
       0.104202345 -0.38650116 0.10818571 0.30463523
000330 25 58 30 3e 43 bc 75 3e 8f bc 82 be ca 15 17 3e
       0.17221124 0.23997597 -0.25534484 0.14754406
000340 75 3d 9c 3d 84 27 5b 3d 67 9b 88 3e 5c 42 fb 3d
       0.076289095 0.053504482 0.26681063 0.122685164
000350 be da b9 bd 7a f2 53 3d 44 ef ae 3c 46 b0 19 3e
       -0.09074925 0.051744916 0.021354325 0.15008649
000360 97 94 f9 3d e6 c1 bb bd c5 08 38 3e 2a 62 8e be
       0.121865444 -0.091678426 0.17972095 -0.27809268
000370 16 05 bb bb 7a ac 80 3e 1d 0e b8 3d 4f e0 1d 3f
       -0.0057073934 0.2513159 0.08987067 0.6167039
000380 f6 91 e9 3b fb 3f 85 3e 5f 8a aa be 1b 77 c1 3c
       0.0071279956 0.26025376 -0.33308694 0.023616364
000390 4d 79 38 3e 12 b3 52 bd 27 5e 7a 3e 95 f0 b1 3e
       0.18015023 -0.051440306 0.24449979 0.34753862
0003a0 40 58 f9 3d a0 a2 16 3e 15 fd 01 3e 3c 8a 13 be
       0.121750355 0.14710474 0.126942 -0.14408201
0003b0 c0 51 8a 3d b0 07 a7 3d 0a ad e9 bd 2b c4 54 3e
       0.06753874 0.08155763 -0.11409958 0.20777957
0003c0 3d 5b de 3e f8 34 13 3e ae 2f 78 3d 59 e5 9a 3e
       0.43428984 0.14375675 0.060592346 0.30253103
0003d0 ec 3b db 3e 41 64 8c 3e 82 b1 99 3e 5b a0 98 bd
       0.42819154 0.27420238 0.3001824 -0.074524604
0003e0 ee cc da 3d b7 d9 19 3e 5e 9d 61 3e 03 33 46 be
       0.106836185 0.15024458 0.22032687 -0.19355397
0003f0 e4 7f 3b 3d 92 16 f1 3d bf 5b 95 bc a2 bb 8c 3e
       0.045776263 0.11771883 -0.018232225 0.27486902

fc2.bias f4 [256]
000000 df 71 fc 3e 93 05 41 3f 34 b0 0b 3f 29 67 12 3f
       0.49305627 0.7539913 0.5456574 0.5718866
000010 9e 12 41 3f 4b 1d 0f 3f 63 80 ad 3e 58 71 f1 3e
       0.7541903 0.5590407 0.33887014 0.47156787
000020 27 99 01 3f 2a 0c 44 3f d1 46 09 3f f2 92 1d 3f
       0.50624317 0.7658106 0.5362368 0.61552346
000030 80 4d 4e 3f 09 58 8c bd b8 45 04 3f 39 00 fd 3e
       0.80587006 -0.06852729 0.5166888 0.49414232
000040 b2 05 6a 3f 24 72 70 3f 01 c2 6f 3f c1 ba 30 3f
       0.9141494 0.93924165 0.936554 0.69034964
000050 6f 7f f4 3e 02 bf 18 3f ce fd 1a 3f 24 31 12 3f
       0.47753474 0.59666455 0.60543525 0.5710623
000060 d4 43 5c 3f b6 42 09 3f 8a f0 1f 3f c3 31 59 3f
       0.86041 0.5361742 0.6247641 0.84841555
000070 74 ed bc 3e 9a ae 14 3f 47 c5 df 3e 07 60 c9 3e
       0.36899912 0.5807892 0.43705198 0.39331076
000080 26 e4 65 3f 5d f8 06 3f aa e7 4b 3f b9 c8 2a 3f
       0.8980125 0.5272272 0.79650366 0.6671253
000090 88 36 3b 3f 64 4a 68 3f ce 3b cb 3e d7 e6 2f 3f
       0.73130083 0.9073851 0.39694065 0.6871161
0000a0 d8 03 4d 3f d3 e5 32 3f 45 e7 1f 3f c0 41 6f 3f
       0.8008399 0.69881934 0.62462264 0.934597
0000b0 fc df f1 3e 54 05 15 3f 18 cf ec 3e 71 96 5d 3e
       0.472412 0.58211255 0.4625175 0.2163942
0000c0 b0 91 48 3f 30 a2 03 3f 6c 10 03 3f 46 a4 07 3f
       0.783473 0.51419353 0.5119693 0.52985036
0000d0 be 55 35 3f 92 6b 03 3f c3 aa 09 3f 4b 9f 03 3f
       0.7083396 0.51336014 0.53776187 0.51414937
0000e0 47 2e c8 3e 02 70 63 3f e9 1c 15 3f 5a bc 53 3f
       0.39097807 0.88842785 0.5824724 0.82709277
0000f0 e3 d2 6b 3f 8e 7b d4 3e 61 fe 3e 3f 49 2d f6 3e
       0.9211866 0.41500515 0.746069 0.48081425
000100 1e 7b 3c 3f a8 c0 39 3f 5c 19 2c 3f ff 9d 40 3f
       0.7362536 0.72559595 0.67226195 0.7524108
000110 88 51 f9 3b 28 60 1f 3f 49 66 2b 3f 20 0c d5 3e
       0.0076085962 0.622561 0.6695295 0.41610813
000120 dd ad fc 3e f0 c6 25 3f dc ef 16 3f 85 50 58 3f
       0.49351397 0.6475668 0.58959746 0.84497863
000130 57 39 02 3f f8 79 26 3f 0e d8 05 3f 9d 08 8e 3e
       0.50868744 0.6502986 0.522828 0.27740946
000140 b7 e9 45 3f bd 8f 18 3f 3a c6 08 3f 1b 21 28 3f
       0.77309746 0.5959433 0.5342747 0.65675515
000150 39 25 07 3f f8 5d 4e 3f 99 c2 16 3d 4f 66 25 3f
       0.5279117 0.80612135 0.036806677 0.64609236
000160 ed 64 50 3f de 05 12 3f a5 e2 22 3f d4 d9 e7 3e
       0.81404 0.570402 0.6362708 0.45283377
000170 6a 17 50 3f 1e b5 13 3f 36 d4 22 3f 98 be 06 3f
       0.8128573 0.5769824 0.6360506 0.52634573
000180 6a 18 0a 3f 1d b5 29 3f 69 fd ed 3e c0 21 0c 3f
       0.539435 0.6629198 0.464824 0.54739
000190 54 d1 25 3f 4d 48 2a 3f 0b 24 56 3f d6 8b 0a 3f
       0.64772534 0.6651657 0.8364875 0.5411962
0001a0 81 55 c9 3e 32 24 90 bd e8 27 3c 3f fd 45 1e 3f
       0.39323047 -0.07038154 0.7349839 0.61825544
0001b0 08 3d 15 3f 19 c3 ff 3e 57 ac 17 bd fc 76 09 3f
       0.5829625 0.49953535 -0.03702959 0.5369718
0001c0 8f b1 66 3f 54 93 0c 3f 58 c8 69 3f 8c cf fd 3e
       0.9011468 0.54912305 0.91321325 0.49572408
0001d0 0e 56 0f 3f ce 71 24 3d ac 35 16 3f c4 2c 2b 3f
       0.55990684 0.040147595 0.58675647 0.6686518
0001e0 d6 12 3c 3f 88 5d 49 3f b4 52 26 3f d4 ea 1a 3f
       0.7346624 0.7865834 0.64969945 0.6051457
0001f0 c2 58 61 3f 9b 70 05 3f 6d 6d 3e 3f 5d b7 06 3f
       0.8802606 0.5212495 0.7438572 0.5262354
000200 6f cc f4 3e 3a 2b 07 3f 82 21 45 3f 95 71 3d 3b
       0.4781222 0.52800333 0.77004254 0.0028906811
000210 68 8c b4 3e 1d 6a 06 3f 29 0a a9 3e 55 52 5b 3f
       0.3526337 0.52505666 0.33015564 0.85672504
000220 59 01 5d 3f 6f e5 15 3f 2b 8c 4f 3f 0c 58 6f 3f
       0.8633018 0.5855321 0.81073254 0.93493724
000230 80 ca ec 3e 48 14 39 3f 83 dd 53 3f 5c 9c 25 3f
       0.46248245 0.7229657 0.82759875 0.6469171
000240 2c 1d bd 3e ad c2 03 3f f1 be 1d 3f db 51 40 3f
       0.3693632 0.51468927 0.6161948 0.751249
000250 06 6a 55 3f 95 d9 63 3f 84 63 ea 3e c9 c2 4d 3f
       0.83364904 0.8900388 0.4577905 0.80375344
000260 f8 76 0e 3f 06 fb 97 bd 74 69 ef 3e ae 4c 70 3f
       0.5565028 -0.07420926 0.46760142 0.93867004
000270 76 56 02 3f 79 bd 1f 3f ad 07 09 3f ee 38 44 3f
       0.5091318 0.6239849 0.5352734 0.7664937
000280 4f 70 1c 3f 69 96 21 3f 4e ba 13 3f 66 42 d1 3e
       0.6110887 0.6312013 0.57706153 0.4087097
000290 78 13 34 3f fd 62 b3 3e 60 a5 57 3f a0 9b 5e 3f
       0.70342207 0.3503646 0.8423672 0.86956215
0002a0 e9 69 48 3f da 36 33 3f 88 1d 6c 3f 49 9f 54 3f
       0.78286606 0.7000557 0.9223256 0.8305555
0002b0 80 6a d8 3e 54 be 30 3f e8 16 09 3f 08 21 06 3f
       0.42268753 0.6904042 0.5355058 0.5239415
0002c0 88 93 91 3e 90 82 4e 3e ca 0d 01 3f 70 ab 10 3f
       0.2843287 0.20166993 0.50411665 0.5651159
0002d0 11 5e 46 3f 7e 95 c3 3e ee 44 43 3f 73 e4 d6 bd
       0.77487284 0.3819999 0.76277053 -0.10492792
0002e0 bd 66 f6 3e 86 9d 5c 3f b8 ea 36 3f 71 66 e6 3e
       0.48125258 0.8617786 0.714519 0.45000032
0002f0 4f 8b 19 3f fa ae 28 3f 88 80 c2 3e 11 37 22 3f
       0.59978193 0.65891993 0.37988687 0.63365275
000300 40 0b 15 3f d0 27 45 3f 92 bb 42 3f 29 3f 55 3f
       0.5822029 0.77013874 0.7606746 0.832995
000310 71 02 46 3f e1 8c 35 3f 15 bd 45 3f 5a 73 f4 3e
       0.77347475 0.7091809 0.7724164 0.47744256
000320 6e a9 20 3f 15 16 6c 3f 11 72 1a 3f 48 04 ff 3e
       0.6275853 0.92221195 0.603303 0.49807954
000330 c5 f5 52 3f f0 98 26 3f 15 0d 0a 3f c8 1b 1f 3f
       0.82406265 0.65077114 0.5392621 0.62151766
000340 6e f7 24 3f ba 2a 5e 3f ac ab f5 3e 84 24 fb 3e
       0.6444005 0.86783946 0.47982538 0.49051297
000350 1d fc 60 3f cf ce 50 3f ed 7e c5 3e f1 c4 07 3f
       0.87884694 0.81565565 0.385734 0.53034884
000360 c0 e6 17 3f e0 40 bd bd a0 fa 45 3f e6 d4 47 3f
       0.5933647 -0.092408895 0.7733555 0.7805923
000370 2c 8d 08 3f ee 31 35 3f 38 b9 da 3e 9e b6 3c 3f
       0.5334041 0.7077931 0.42719436 0.7371615
000380 c9 d9 ef 3e b6 f4 19 3f be f7 5f 3f b6 ba 51 3f
       0.46845844 0.60139024 0.874874 0.81925523
000390 7f 27 66 3f c2 08 20 3f 20 40 69 3f b8 dc 27 3f
       0.89904016 0.62513363 0.9111347 0.65571165
0003a0 b4 47 eb 3e 94 32 3b 3f 8f a9 c0 3e 5d 70 5b 3f
       0.45953143 0.7312405 0.37629363 0.8571833
0003b0 1e 0c 5c 3f c0 39 06 3f 7e bc 19 3f aa 63 0b 3f
       0.8595599 0.5243187 0.6005324 0.5444895
0003c0 63 8e 36 3f 6f 70 4c 3f 30 b6 b1 3e 7b cf 44 3f
       0.71311015 0.7985906 0.3470931 0.7687909
0003d0 6d 2f 10 3f 6d 58 24 3f ab a0 14 3f 61 70 32 3f
       0.56322366 0.6419743 0.5805766 0.69702727
0003e0 06 e9 6f 3f 27 e3 e6 bc 3e fa 83 3e 81 2c 2d 3f
       0.9371494 -0.028184487 0.25776857 0.6764603
0003f0 58 85 5a 3f 72 fa 26 3f 43 fd 31 3f 06 b3 c6 be
       0.85359716 0.652259 0.6952707 -0.3880846

fc3.weight f4 [128, 256]
000000 28 5a bf 3e 54 5b 35 be e7 3f 51 3f 14 df 42 bd
       0.3737347 -0.1771062 0.8173813 -0.047576025
000010 06 69 f5 bd d7 76 81 bd f1 38 bc 3e 1f 45 8a 3e
       -0.11982922 -0.06321495 0.36762193 0.2700586
000020 b2 3f 13 3e ab 50 45 3e 6f d3 09 be 17 22 57 3d
       0.14379767 0.19269054 -0.13459562 0.052522745
000030 e0 6c 19 bd 6c cc f9 bc 62 ee 84 be 90 7d 69 bd
       -0.037457347 -0.030492984 -0.25963122 -0.05700451
000040 4f a2 f3 bc ce 11 05 be e9 1b 90 3d 38 e8 9c bd
       -0.02974048 -0.12995073 0.070365734 -0.0766148
000050 6a dc 71 3e b4 17 73 3d ed a5 bb bc ef 1a 9d 3e
       0.23619238 0.059348777 -0.022906268 0.3068461
000060 e2 f2 0c 3f 8e ea 25 bd bf 68 f9 3e 5c 67 40 3f
       0.5505811 -0.040506892 0.48712727 0.75157714
000070 d5 26 6c 3e 48 bc fb bc 34 a0 5f 3f 60 45 fe 3e
       0.23061688 -0.030729428 0.87353826 0.49662304
000080 90 3f 9d bb 18 3f 28 3d a5 5c 1e 3f 71 73 71 3d
       -0.004798837 0.041075796 0.61860114 0.058947984
000090 4d 44 c1 3c 40 86 6d bd fd 82 9c 3b 87 06 4a bb
       0.023592139 -0.05798936 0.004776357 -0.0030826645
0000a0 30 b0 13 3e cf 22 14 3e 4e 85 aa bd aa 9d 21 be
       0.14422679 0.14466403 -0.08326207 -0.157828
0000b0 d0 36 07 3d 28 c7 e0 3c e8 51 a1 bd da 56 84 bd
       0.033011258 0.027438715 -0.078769505 -0.06461878
0000c0 b6 d0 74 3e bb 5c fe bd 89 07 e8 3d 64 98 79 3e
       0.23907742 -0.12420031 0.11329562 0.24374539
0000d0 7b 57 81 be a0 ea 05 be 3b 2d e2 bd 9f 27 ad 3d
       -0.25262055 -0.13077784 -0.11043783 0.08454823
0000e0 d9 32 cf 3e 31 2e 77 be 82 20 90 bb a0 be 5b 3f
       0.4046848 -0.24138714 -0.0043984065 0.85837746
0000f0 bd 61 b2 bd d8 d3 24 3e a4 6b 5a bd 78 76 a3 3e
       -0.08710048 0.16096437 -0.05332531 0.31926322
000100 68 8b 92 3e 2d cd d2 3d 7e ed ec bd b2 9b 0e bd
       0.28621984 0.102930404 -0.115687355 -0.03481645
000110 e0 16 a6 3c 03 f8 9c bd 11 a3 8e bf 4e 31 af 3e
       0.02027458 -0.07664492 -1.1143514 0.34217304
000120 91 7d dd 3d 56 b0 84 3e 35 db ca be 03 2e f8 3e
       0.108149655 0.25915784 -0.39620367 0.48472604
000130 0c cb dd 3d 43 90 9f bd 19 3b 04 3e e0 3e 53 3e
       0.10829744 -0.077911876 0.12913169 0.20629454
000140 0e 9f bb bd 75 a9 c9 bd f5 34 ab bc 18 9b 65 be
       -0.09161197 -0.098467745 -0.020899275 -0.22422445
000150 4b 7d ff 3e a6 29 26 3d b5 e6 4c bd a6 23 0b 3e
       0.49900278 0.040567063 -0.050024707 0.13587818
000160 fe a7 90 3d 32 92 d7 bd 4b 57 1d bd 52 fb bb bc
       0.07063292 -0.105259314 -0.038413327 -0.022946987
000170 f1 9b 3d 3f 0f 4e 52 be cd 03 ca bd ed c5 5f 3e
       0.7406607 -0.2053759 -0.09864006 0.21852846
000180 02 fc 35 3c 58 16 d8 bc 05 ea 93 3e 48 7e 6e 3f
       0.011107447 -0.026377842 0.2888948 0.9316144
000190 92 5d a6 bf 02 d0 7c bd 1c f3 3d bd 94 57 9b bc
       -1.2997305 -0.06172181 -0.046374425 -0.018962659
0001a0 f3 74 99 3e 6e 5a ad bd aa b4 90 3d 3f 47 d7 bc
       0.29972038 -0.08464514 0.07065709 -0.02627909
0001b0 a2 be ca 3c 8d de f4 bd df bf 00 bf 38 68 20 bf
       0.024749104 -0.11956511 -0.5029277 -0.62659025
0001c0 a3 05 d8 bd a6 7e 89 3d 85 92 93 3e 6b 78 45 3e
       -0.1054795 0.067136094 0.28822723 0.19284217
0001d0 9e 89 8b 3e 1e a7 42 3d d4 3f 0b 3e b0 b6 8a 3d
       0.2725343 0.047522657 0.13598567 0.06773126
0001e0 d6 0f 19 be 8c 9f e4 bd c7 84 37 bd bf 57 49 3e
       -0.14947447 -0.11163244 -0.04480436 0.19662379
0001f0 49 54 82 bd 18 11 da 3d f3 ca f3 3d 15 b3 00 bd
       -0.06363732 0.106477916 0.11903944 -0.031420786
000200 5b 57 2a be 2a 57 57 3c f5 dd a6 3d 9b 79 0c 3d
       -0.16634886 0.01314334 0.08147804 0.03429566
000210 a2 0b 9d 3e 51 18 9d bd f0 b8 0b 3f f9 26 20 3e
       0.30672938 -0.076706536 0.5457907 0.15639867
000220 b6 62 ed bd 14 f8 38 3f 57 b7 03 be 00 7a ca bd
       -0.11591093 0.7225354 -0.12862907 -0.09886551
000230 b5 d5 47 3d df e1 97 be 9b e5 b8 3e af 08 0a be
       0.04878779 -0.29664513 0.36112675 -0.13479875
000240 ec 4a 55 3f c6 2d 1d bf c1 a9 ba bd c3 db ff 3e
       0.83317447 -0.6139797 -0.09114409 0.49972352
000250 d5 6a 2d 3f 33 02 6a bd cf 9b 92 3e 97 fb 54 bd
       0.6774114 -0.057131004 0.28634498 -0.051997747
000260 1e 5d 5a be 55 4f e3 3c 23 7b ef be 6a 9c b1 bd
       -0.21324584 0.02774779 -0.46773633 -0.08672412
000270 74 79 25 be 16 50 39 bf b9 66 6e 3e 79 8d 2d bd
       -0.16159612 -0.72387826 0.23281373 -0.042371247
000280 9b 3a 86 bf 75 e4 25 3d ee b6 41 3e 2e db 02 3f
       -1.0486635 0.040501077 0.18917438 0.5111569
000290 b6 1e 53 bd cc e2 d8 3e 93 f2 b3 bd c1 57 01 be
       -0.05154296 0.42360532 -0.08786502 -0.12631132
0002a0 95 e1 ee 3d 00 1d 85 bc a0 35 54 bc a8 5e 53 3d
       0.1166412 -0.01624918 -0.012952238 0.051603943
0002b0 22 9d 2c 3e 40 c6 55 bc 29 91 0e be d5 c0 48 be
       0.16856816 -0.013047755 -0.13922562 -0.1960481
0002c0 4d c3 1b 3e d1 df b3 3e 2b f2 cb 3d 63 70 d2 bd
       0.1521122 0.35131696 0.09958299 -0.10275342
0002d0 2c 00 c3 3d 92 62 ea 3e ab 32 3b 3e b4 a8 55 3c
       0.09521517 0.45778328 0.18281047 0.01304071
0002e0 53 9f 21 be aa 3f e1 3c 30 42 07 3f 30 36 7e 3c
       -0.15783434 0.027496178 0.5283537 0.015515849
0002f0 a4 38 39 bd 1e 39 86 bd 2f 46 3a 3e 42 b1 9f 3e
       -0.045220032 -0.06553863 0.18190835 0.31189924
000300 7d 2f 05 c0 a4 c5 82 3e 02 c3 0c 3e c7 d7 42 3f
       -2.0810235 0.25541413 0.13746265 0.761105
000310 ce 52 1f ba cc 3a c1 3d 70 ab 08 3f a2 1f 7e 3e
       -0.00060777075 0.09435043 0.5338659 0.24816754
000320 dc cc c5 3e b6 b7 22 be cf 2c fa 3d f8 27 0d be
       0.38632858 -0.15890393 0.12215578 -0.13784778
000330 5e 06 a3 bd 67 b3 ae bd d0 c6 d7 3d 0f 91 55 be
       -0.07960199 -0.08530312 0.10535967 -0.20856117
000340 65 f0 46 be d8 df 2c 3b 14 58 a7 3d 9c 81 b5 3b
       -0.1942764 0.0026378538 0.081710964 0.0055391323
000350 fc 1f 57 3f 63 13 c9 3c 7a d0 6a be df 23 93 3e
       0.8403318 0.024545377 -0.2293109 0.28738305
000360 90 b7 31 bf 2e 8b 65 bd 15 3a bc bd a4 99 ce bd
       -0.6942072 -0.056040935 -0.09190766 -0.100878984
000370 e3 be 85 be 7f 38 10 be 16 18 00 bf 9d 74 c6 bc
       -0.26122198 -0.14084052 -0.5003675 -0.024225527
000380 8e 0f 93 3b d9 37 ba bd ba be 11 be d5 b2 8c bd
       0.0044879382 -0.09092683 -0.14232913 -0.06870047
000390 74 dc c2 bd 43 cd 84 3f c5 d5 37 bd 73 af 03 be
       -0.09514704 1.0375141 -0.0448816 -0.12859897
0003a0 ac b2 8a 3e 12 bb 47 bc 0c 11 d5 be 01 c4 4a be
       0.2708944 -0.012190597 -0.41614568 -0.19801332
0003b0 22 f6 d6 bd ae dc e1 3c 42 7b fd 3d 5a 23 36 3d
       -0.10496165 0.027571049 0.12377025 0.044467308
0003c0 b6 1b 9b 3b 90 9f 1e 3f b3 8c 22 3e 60 c1 bb bd
       0.004733528 0.61962223 0.15873985 -0.09167743
0003d0 4d da 46 bd 9b 4d fa be 20 5a ce bc fa 8b 52 bd
       -0.04854803 -0.48887333 -0.02518946 -0.051403023
0003e0 0b 0c 39 3f 5c 89 15 3d 42 f4 86 3f fa 01 ea bd
       0.72284 0.03650795 1.0543292 -0.11426158
0003f0 92 19 dd bd 45 0f c8 ba f1 04 85 3b 36 a1 89 3f
       -0.10795893 -0.001526334 0.004059427 1.0752323

fc3.bias f4 [128]
000000 2b 48 1b 3f 44 cd 55 3f 06 39 7d 3f 0b be 71 3f
       0.60656995 0.83516335 0.98915136 0.9443061
000010 47 7d 19 3d 88 fe 69 3f f3 33 0e 3f 99 c6 18 3f
       0.03747299 0.9140401 0.5554802 0.59678036
000020 65 67 0a bd 56 06 7a bd b8 2a 48 3f 91 a7 01 3f
       -0.03379001 -0.0610412 0.78190184 0.5064631
000030 72 ba 26 3f f1 b1 7c 3f a1 54 a7 bd 6d ae 42 3f
       0.6512824 0.9870902 -0.081704386 0.760474
000040 7f e4 86 3f 60 3f 84 3f d2 2a 50 3f 57 1d 29 3f
       1.0538481 1.033184 0.8131534 0.66060394
000050 d5 1f 81 3f 71 2b 9e bc d2 23 7e 3f 2c 45 86 bc
       1.0087839 -0.019307824 0.9927341 -0.016390406
000060 88 49 02 3d f1 b1 1e 3f 9f 61 16 3f bb 43 4f 3f
       0.031808406 0.6199027 0.5874271 0.80962723
000070 28 28 7e 3f f5 be b0 3c c3 d2 30 3f e9 23 6f 3f
       0.99280024 0.02157543 0.69071597 0.9341417
000080 16 7d 27 bc e0 80 6a 3f c2 f9 6f 3f 96 e9 55 3f
       -0.010222694 0.916029 0.93740475 0.8355955
000090 26 75 4d 3f e2 32 6a 3f f6 29 21 3f 0a a0 35 bd
       0.8025688 0.9148389 0.6295465 -0.04434208
0000a0 e4 a5 8c bd 8b 68 e3 3c 0a b7 8a bc 4c d6 17 3f
       -0.068675786 0.02775981 -0.016932983 0.59311366
0000b0 cd af 07 3f 51 56 6e 3f 94 df 33 3f a9 2d 1f 3f
       0.53002626 0.9310046 0.7026303 0.62179047
0000c0 97 00 18 3f b4 a2 79 3f f3 28 67 3f 4f 11 56 3f
       0.593759 0.9751389 0.9029686 0.8362016
0000d0 6d 5f 45 3f 78 8e 4f bd 5c 4c a6 3c 9b a8 86 3f
       0.77098733 -0.05067298 0.020300083 1.0520204
0000e0 55 a2 a7 bd 47 6a 32 3f 02 64 2a 3f 52 4e 77 3f
       -0.08185259 0.69693416 0.6655885 0.9660388
0000f0 7c 9f 03 bd b9 f2 9c ba a6 ad 63 3f 53 55 aa bc
       -0.032134518 -0.0011974192 0.8893684 -0.020792639
000100 3b da 06 3f a8 78 cd bd 7d 9b 18 3f 7a e3 84 3f
       0.52676743 -0.10032779 0.59612256 1.038192
000110 7d 58 8d 3f c6 15 34 3f 38 55 7a 3f 68 45 c5 bd
       1.104263 0.70345724 0.97786283 -0.09632379
000120 74 80 24 3f ba ff 21 bd af a5 41 3f 12 bf 6e 3c
       0.64258504 -0.03955052 0.7564344 0.014571922
000130 01 eb 7b 3f 92 d0 84 3f c3 f5 20 bd 4e 1d 7d 3f
       0.9840546 1.0376151 -0.039296877 0.9887284
000140 23 4d 16 3f d8 58 86 3f bf ab 52 3f 8d 93 7a 3f
       0.5871145 1.0495863 0.82293314 0.97881395
000150 d7 60 54 3c 1f 7b 3d 3f b9 51 8f 3f ce a9 39 3d
       0.012962542 0.7401599 1.1196815 0.045327954
000160 94 05 0c 3c 31 05 4e 3f 94 ad 25 3f 0b a2 29 bd
       0.008546252 0.8047667 0.64717984 -0.0414143
000170 7f dc 5f 3f 09 b3 4e bd 28 28 b6 bd b3 b2 18 bb
       0.87445825 -0.05046371 -0.08894378 -0.0023299872
000180 91 04 60 3f 58 df 35 3f 4f b3 3a 3f 24 9c 0f 3f
       0.8750697 0.7104392 0.72929853 0.56097627
000190 cf f6 ef 3e 18 b7 49 3f f2 44 80 3f 4c 41 91 bd
       0.46867988 0.78795004 1.002104 -0.070925325
0001a0 52 8b 72 3f 84 f1 06 3f 5b c2 17 3f 26 52 4a 3f
       0.94743836 0.52712274 0.5928094 0.790316
0001b0 7f 83 47 3f 36 97 67 3f 8a c0 a7 bd c8 7a 53 bd
       0.7793502 0.90465105 -0.08191021 -0.051630765
0001c0 fb d9 4a bd fc f7 a8 bc 08 bb dc 39 9b ca bf 3c
       -0.04952429 -0.02062606 0.0004210102 0.02341204
0001d0 59 b0 94 3c f9 7c 7f bc 0c 67 64 3f a0 dd 5c bc
       0.018150495 -0.015593761 0.8921974 -0.013480574
0001e0 03 71 73 bd b5 c8 6f 3f 33 d9 2e bd 56 6a 29 3f
       -0.05943395 0.9366563 -0.042687606 0.6617788
0001f0 a8 65 58 3f bd 07 11 3f 33 97 46 3d 63 04 65 3f
       0.84530115 0.5665243 0.04848404 0.8945982

fc4.weight f4 [128, 128]
000000 65 85 6f 3d 7c 3a 8e bd b5 f1 de bd 63 60 ee bd
       0.058476824 -0.06944749 -0.10885946 -0.11639478
000010 ba 2a c1 bd a9 e6 08 be ef 11 6c bc 7f f5 f2 bc
       -0.094319776 -0.1336924 -0.014408573 -0.029658077
000020 5c 87 d4 bc 3b 1b 8b 3d 85 1c d7 bd 13 f5 b8 bd
       -0.02594345 0.06792303 -0.105034865 -0.09031119
000030 67 91 0b 3d 75 bb a9 bd dd dd 82 3c 33 78 f8 bc
       0.034074213 -0.08287708 0.015974933 -0.030330753
000040 9e fd 7d bc 50 1a fa 3c c9 3d b1 bd a6 6e bf bd
       -0.015502362 0.030530125 -0.08654363 -0.093472764
000050 d4 13 5d bc a6 22 33 bd 1b ef b9 bd a7 9a 6b 3d
       -0.013493497 -0.043734215 -0.09078809 0.057520535
000060 17 cb a6 bd 74 26 81 3c db 6e 4e 3d 04 c6 b3 bd
       -0.08144205 0.015765406 0.05039869 -0.08778003
000070 5b fd fa bd 6c d0 9d 3d 5d d9 e9 bd 19 68 0e bd
       -0.12255355 0.07705769 -0.11418412 -0.034767244
000080 e6 29 42 bb 2d 9a f2 3a 7d ba 3f bd 9b 61 a9 bd
       -0.0029627024 0.0018509083 -0.04680871 -0.0827057
000090 69 7a 0c be d4 95 90 3c 7c b4 99 bd b0 e0 9b 3b
       -0.13718571 0.017649569 -0.07505128 0.0047570094
0000a0 52 90 a5 3c 28 2e 9a 3d ab 7a 9a 3c 3e 08 52 3d
       0.020210419 0.07528335 0.01885732 0.05127739
0000b0 76 6d 6c 3a bb fe 9e bd 9d 68 07 bd 07 7a 3f bd
       0.00090189965 -0.0776343 -0.03305875 -0.046747234
0000c0 75 13 27 bd 5b da 4b bd 4c 5b 5e bd 6b 72 bb bd
       -0.04079004 -0.049768787 -0.054286286 -0.09152683
0000d0 8e 59 03 be e4 f5 a3 bd 39 83 52 bd 70 a2 4a 3c
       -0.12827131 -0.08005884 -0.051394675 0.01236783
0000e0 66 e5 6a bd 8b 99 ae bd 52 d8 b1 bd 4a e4 52 bc
       -0.057347678 -0.0852538 -0.08683838 -0.012871811
0000f0 d7 aa 89 3d 4b 50 75 ba 53 f5 8f 3a e6 81 ea bc
       0.06722038 -0.0009357973 0.0010983146 -0.028626394
000100 b0 87 1c bd f0 c5 9a bc 25 85 11 3d 4b 22 3d bd
       -0.03821534 -0.018893212 0.035527367 -0.046175282
000110 70 da 92 bd 70 ee 3e 3d 34 ea 5a bd 5d 38 04 3d
       -0.0717057 0.04661411 -0.05344601 0.032280315
000120 4c ed 9e 3c 16 dd f6 bc 90 00 8a 3b b9 13 f2 bc
       0.019400261 -0.030134719 0.004211493 -0.02955042
000130 2b a7 19 be eb 68 e5 bd 00 4a f9 3c 0c 44 c2 bc
       -0.15005176 -0.11201652 0.030430794 -0.023714088
000140 49 75 3e bd b3 9d af bd f9 ab a4 bc 57 3b c8 bd
       -0.04649857 -0.085750006 -0.020101534 -0.09776943
000150 6c b9 c6 3c f0 4a 7c bd 3c 74 00 be 5f 14 4e bd
       0.024258338 -0.061594903 -0.1254434 -0.050312396
000160 ae d9 15 3d 81 9f 9d bd 95 b5 cf bc d9 d5 c2 bc
       0.03658455 -0.076964386 -0.02535514 -0.023783611
000170 e5 89 98 bd 38 64 9b 3d 40 70 ad bc a9 d3 32 bd
       -0.07448176 0.075874746 -0.021171689 -0.043658886
000180 7f 89 21 be b5 27 8d bd 77 97 d6 3c 2e 71 ff 3b
       -0.15775107 -0.06892339 0.026195271 0.0077954745
000190 75 d1 da bd 80 f8 a2 bd c8 0b 20 be 5b eb 5b 3c
       -0.10684482 -0.07957554 -0.15629494 0.013422812
0001a0 0c 51 7d bc 4d 88 19 3d 45 8c 49 bd d5 15 1b bc
       -0.015461218 0.037483502 -0.049206037 -0.009465654
0001b0 12 1e bf bd 15 7f 11 be 0b ff 8e 3d 2a ce 5e 3d
       -0.09331907 -0.14208634 0.06982239 0.054395832
0001c0 e0 b9 af bd 9d 08 9f 3d 9e 64 30 3d d1 03 95 bd
       -0.08580375 0.07765315 0.043064706 -0.072761185
0001d0 50 59 50 3d bf 89 a8 bd 05 4a 09 3c 4f b7 2a bc
       0.050866425 -0.08229398 0.008379464 -0.010419681
0001e0 5c e8 c3 bc e6 af 03 bd 40 fe 25 3d 6e b7 bc bd
       -0.023914509 -0.03215017 0.040525675 -0.09214674
0001f0 0b d5 97 3c 97 26 59 bd 98 cb 7f 3d ec 97 fd 3c
       0.018534204 -0.053015318 0.06245002 0.030956231
000200 f0 7a 13 bd 4e 31 85 bc fb a3 5c be d9 fc 03 bd
       -0.036005914 -0.016258862 -0.21546929 -0.032223556
000210 9c 7e 0f bd 99 f5 7b bd 23 21 34 be 2f c5 38 be
       -0.035032853 -0.061513517 -0.17590766 -0.1804397
000220 21 c2 00 3c 3d 8c 06 bd 7a b9 3c bc 6a b3 12 3e
       0.007858784 -0.032848585 -0.01151883 0.14326254
000230 a9 7a a3 3e 18 63 76 3e f6 df 80 bb d8 8c 08 bd
       0.3192952 0.24061239 -0.003932948 -0.033337444
000240 05 ae 2d 3e 0f b0 b5 3d 1d b6 8e bd eb b8 9b 3e
       0.16960914 0.08871471 -0.06968329 0.3041452
000250 40 74 46 3e b1 08 3c 3d 4d 0a 30 bc 3b 23 32 3d
       0.19380283 0.045906726 -0.010744643 0.04349063
000260 82 f1 29 bd 58 14 b4 3e 0a 49 eb bc 07 e3 2c 3e
       -0.041490085 0.3517177 -0.028721351 0.16883479
000270 1a 6a a8 3d 87 41 7c bd d2 0c 8e 3e f0 52 a2 3d
       0.08223362 -0.06158593 0.27744156 0.07925975
000280 b5 f1 b6 bc 88 52 86 3e c9 a2 b3 bb 91 59 78 3e
       -0.022332052 0.2623484 -0.005482052 0.24252917
000290 61 e5 7c bc 6d 67 18 3e ee 29 bf be a8 13 11 3d
       -0.015435548 0.14883204 -0.37336677 0.035419136
0002a0 24 84 88 3b 7b 10 87 bd 04 0d 8f bc 90 92 90 3e
       0.004166143 -0.0659494 -0.017462261 0.28236818
0002b0 ea 16 f0 3d a6 71 98 bd 8f 42 c0 bd 1e 6b 38 3e
       0.117231205 -0.07443552 -0.09387695 0.18009612
0002c0 20 fe 2c 3e 4d e3 e0 bd 5b 3a e6 bd e1 75 21 3e
       0.16893816 -0.10980854 -0.11241599 0.15767623
0002d0 01 17 a9 bd 84 3c a6 bc 7c d4 88 3d 9c 9d 41 bc
       -0.08256341 -0.020292528 0.06681153 -0.011817362
0002e0 7c a7 3e 3d f3 92 13 3e 2d 81 e2 bd b7 44 1a 3e
       0.046546444 0.14411525 -0.110597946 0.15065275
0002f0 eb 1f 81 3d 92 2d 67 3d 4a d5 97 3e 1b 71 e3 3c
       0.06304916 0.056439944 0.29654914 0.027763894
000300 ae 5e 21 be b3 4f c2 bd f8 a3 0e be ad 5f dc bc
       -0.15758774 -0.09487858 -0.13929737 -0.02690109
000310 14 db 91 bb b1 46 ba 3d 7e a0 4a 3e 98 54 0e bd
       -0.004451165 0.090955146 0.19787785 -0.034748644
000320 73 fc 51 3e aa 52 aa bd aa 61 97 bd 29 35 bd bd
       0.20506458 -0.08316548 -0.07391675 -0.09238655
000330 dc db 18 3d ce 39 14 3d 0d 9f 52 3d 4e 55 10 3d
       0.03731905 0.03618794 0.051421214 0.035237603
000340 0d 49 4a 3e 76 84 cf 3d ad 31 f7 3d c3 79 00 bd
       0.19754429 0.10132687 0.12070022 -0.03136612
000350 33 af 3b 3d 2f d0 bd bd d4 e3 6f 3e 7e 9b 99 3b
       0.04582138 -0.092682235 0.23426753 0.0046877256
000360 e9 22 0f bd 63 f8 a1 3a 6f ba 22 3e 2d 01 8a 3d
       -0.034945402 0.001235735 0.15891431 0.067385055
000370 71 c6 df bb 7a 75 f5 bc af 34 c7 bd f8 c4 82 ba
       -0.006829076 -0.029963244 -0.097268455 -0.0009976914
000380 31 dd 0b 3e c6 ef 4c bd 8d 1b 14 3e af 72 b6 3d
       0.13658597 -0.050033353 0.14463635 0.08908593
000390 2d 2e 75 3e c5 4a 11 3e 2d 37 10 3e 75 e1 28 3c
       0.23943396 0.14188679 0.14083548 0.010307659
0003a0 a0 cb ca bc 1b 13 67 3d 20 50 5c 3e 2a a6 1c 3e
       -0.0247553 0.056414705 0.2151494 0.15297762
0003b0 2b 1a 1f 3d 09 0e 39 3e 6d e1 9b bc a1 d9 2e bd
       0.038843315 0.1807176 -0.01902839 -0.042688016
0003c0 9b 7e 63 bd ef 0e 96 bd 2e ff 4d 3d 58 c0 26 bd
       -0.055540662 -0.07327067 0.050292186 -0.040710777
0003d0 f1 44 2c bd 38 69 c3 3c 90 38 57 3e 55 97 71 3c
       -0.042057935 0.023853883 0.2101767 0.014745553
0003e0 43 dc a0 bc ea a8 80 bb 84 08 84 bd 1b 44 21 3e
       -0.019636279 -0.003926386 -0.06446937 0.15748636
0003f0 72 c7 3e 3e 88 a4 0e 3d 22 e8 7d bc c7 0f 59 3e
       0.1863077 0.034824878 -0.015497239 0.21197425

fc4.bias f4 [128]
000000 cd 37 7c bd 14 42 09 3f fb 6a b7 3f c9 82 07 bc
       -0.061576653 0.5361645 1.4329523 -0.008270928
000010 82 26 71 3f 78 b1 70 3f 6e 8b 60 3f 64 5c bb 3e
       0.94199383 0.94020796 0.8771275 0.36593926
000020 13 79 93 bb b9 ef 00 3f 99 91 20 3f bc 87 87 3f
       -0.004500517 0.5036579 0.62722164 1.0588298
000030 78 50 46 bc 3c 5c af bc dd ae 18 3f ff 62 a3 bc
       -0.012104146 -0.021406285 0.5964182 -0.019944666
000040 f7 84 9f 3c 85 49 30 bd 99 31 f9 bc bb f6 2c 3d
       0.019472582 -0.043038864 -0.030419158 0.042227488
000050 2a f2 a9 bc 27 f2 52 3f 7f 39 bc 3f 2c b4 83 bd
       -0.020745356 0.82400745 1.4705046 -0.064308494
000060 3f eb 62 3f fa 69 3d 3e 21 7d 5d 3f 04 b0 0b bd
       0.8864021 0.18497458 0.86519057 -0.03410341
000070 e1 dc 97 3f ab 7a ca 3c b4 7b 92 3e f2 c1 ba bd
       1.1864282 0.024716696 0.28610003 -0.091190234
000080 ab 82 6c 3d a8 fe b6 3f 22 70 e1 bd 34 da 42 3d
       0.057741802 1.4296465 -0.11007716 0.047571376
000090 36 7e 8d 3d ca 01 56 3f fb 47 40 3d 3e 5f 86 bd
       0.069088385 0.8359648 0.046943646 -0.06561135
0000a0 0b a6 3f 3f c0 a5 17 3f 45 c1 ee bb 88 7d be bd
       0.74862736 0.5923729 -0.007286223 -0.09301287
0000b0 a3 84 1f 3f 65 2b 96 bd c8 27 e8 bd 0b 88 3a 3f
       0.6231176 -0.073324956 -0.11335713 0.72863835
0000c0 59 03 12 3f e9 38 3b 3f 39 74 82 3f 26 04 56 3f
       0.5703636 0.73133713 1.0191718 0.8360008
0000d0 8f 74 f6 3c 94 f2 47 3f fe ff f4 bd 4c 9d 31 3f
       0.030084876 0.7810452 -0.11962889 0.6938064
0000e0 be 1b c6 3f ca 93 47 3f 44 6e 3a bc 82 c4 48 3f
       1.5477216 0.77959883 -0.011378828 0.7842485
0000f0 1c 24 25 3f db 4f 71 3f 2e 19 c9 bc 8c 78 5b 3f
       0.64508224 0.94262475 -0.02454814 0.85730815
000100 df bd 37 bd 96 63 3b 3f 76 2b 4b 3f d9 6d 74 3f
       -0.04485881 0.7319883 0.7936319 0.95480114
000110 61 8b 64 3f 99 9c c1 3d 4d 21 be bd 61 1c 08 3f
       0.89275175 0.09453697 -0.09283695 0.531683
000120 9b 8e 5a 3f cd 08 35 bc ff b1 65 3f e1 fa ab bd
       0.8537385 -0.011049462 0.89724725 -0.08397461
000130 38 25 50 3f 53 de bd 3f d3 49 85 3b ae 3e 86 bd
       0.8130679 1.4833473 0.0040676384 -0.06554924
000140 f6 c7 e0 3e 74 9d 9a bd dc 94 eb bd 0e 88 cc 3f
       0.43902558 -0.07549563 -0.11503002 1.597902
000150 95 3d a1 bb 9d d9 11 3f 8e cb 3c 3f 9f eb 6d bd
       -0.004920671 0.56972677 0.737481 -0.058086034
000160 6a 37 1b 3f c2 86 41 3c ae 80 60 3f bf 31 9c bc
       0.6063143 0.011811914 0.8769635 -0.01906669
000170 fb 9a 12 3f 62 99 9b bd 8e 1e 22 3f d3 6e db 3e
       0.5726773 -0.07597615 0.6332787 0.4285799
000180 cb f3 23 3d 20 70 4a 3f 12 37 b2 3c 23 fe 9e 3f
       0.04002742 0.7907734 0.021754775 1.2421306
000190 22 72 e1 3e fc 93 c3 3d a4 10 63 bd 5f d8 5e 3f
       0.4403239 0.0954971 -0.05543579 0.87048906
0001a0 2e ed 4e 3d e9 43 49 3f 6d 54 eb bd 62 e8 29 3f
       0.05051916 0.7861925 -0.11490712 0.66370213
0001b0 24 b3 59 ba 8d d8 bf 3e 70 04 30 3f 50 63 7a 3f
       -0.0008304587 0.37469903 0.6875677 0.9780779
0001c0 6c f9 f4 bd 80 d6 ee bd cc ab 5b 3f 63 c5 15 3f
       -0.11961636 -0.116620064 0.85809016 0.58504313
0001d0 fb 92 48 bd 44 05 7b bd 09 3e 78 3f 4b 93 02 3f
       -0.048968296 -0.06128432 0.9696966 0.51006
0001e0 7d fd 22 3d 58 ba b9 3e 90 9a 80 3e 4d 95 42 3f
       0.039792527 0.36274981 0.25117922 0.76009065
0001f0 4c 45 b1 3f 40 f6 53 3b 6b 8d ce bc a6 84 45 3f
       1.3849273 0.0032342821 -0.025213918 0.7715553
