checkpoints/checkpoint_qnetwork_local_WMT_PER.pth (torch_old, 340036 bytes, 10 tensors)

fc1.weight f4 [128, 13]
0	0xbe4df691	-0.20113589
1	0x3e044070	0.12915206
2	0xbe3ec9a3	-0.18631606
3	0xbe5ee5b3	-0.21767311
4	0xbd90118b	-0.07034596
5	0x3e3145a9	0.1731173
6	0xbd7cd412	-0.061725684
7	0x3e826595	0.25468126
8	0x3c508f85	0.01272953
9	0x3d82d0e2	0.063874975
10	0xbe976bab	-0.29574332
11	0x3e55492c	0.20828694
12	0xbe64905c	-0.22320694
13	0xbe8e4740	-0.27788734
14	0xbd36e758	-0.04465422
15	0xbd152837	-0.036415305
16	0x3c4fe419	0.01268866
17	0x3e084a56	0.13309607
18	0xbe0e5676	-0.1390017
19	0xbd4dfd54	-0.05029042
20	0x3dbecc0a	0.09316261
21	0x3e696e5b	0.22796004
22	0xbd64182d	-0.05568712
23	0x3e86415b	0.26221737
24	0xbe8fb678	-0.280689
25	0x3d7e08c0	0.062020063
26	0x3e4c28a8	0.19937384
27	0xbe634213	-0.22193174
28	0xbdfd09f0	-0.12355411
29	0xbe07b273	-0.13251667
30	0xbe141cfe	-0.14464185
31	0x3e8fa03c	0.28051937
32	0xbe247586	-0.16060457
33	0xbdfba653	-0.12287583
34	0xbe1cd761	-0.15316536
35	0xbe5b56e5	-0.21419866
36	0xbedf808e	-0.43652767
37	0x3f13f57c	0.57796454
38	0x3e09f4d3	0.134723
39	0x3c12848c	0.008942734
40	0xbc34cf9a	-0.011035824
41	0xbdfe7fe1	-0.12426735
42	0x3ca7d5f6	0.020487767
43	0xbe87ac70	-0.26498747
44	0xbe44de97	-0.19225536
45	0xbd17939a	-0.037006
46	0x3e3935af	0.18086885
47	0x3d310bf6	0.043224297
48	0xbd8ef305	-0.06979946
49	0xbe25a146	-0.16174802
50	0x3e9a0e3c	0.30088985
51	0x3e8a68c4	0.27033055
52	0x3d91c3eb	0.071174465
53	0xbcebffc0	-0.028808475
54	0x3e479dd4	0.194938
55	0xbe45cb6c	-0.1931588
56	0x3d6649ee	0.05622285
57	0xbe2cda94	-0.16880256
58	0xbde0096a	-0.109392956
59	0xbc83f708	-0.016109005
60	0x3db7257e	0.08942698
61	0x3c25fc8c	0.010131013
62	0xbea02b30	-0.3128295
63	0x3e0671b2	0.13129309
64	0x3e5327a9	0.20620598
65	0xbd9c2f25	-0.076261796
66	0x3d8fe14b	0.07025393
67	0x3d9ff0c2	0.07809593
68	0x3e87bfaa	0.26513416
69	0x3e4c585b	0.1995558
70	0xbe32e912	-0.17471722
71	0x3c16fcb1	0.00921552
72	0x3e35bec1	0.17748548
73	0x3e05c3df	0.13063
74	0x3e6e410c	0.23267001
75	0x3ebd40eb	0.3696359
76	0xbe1ccdbe	-0.1531286
77	0xbe6e7ca0	-0.23289728
78	0x3d6cd535	0.057820518
79	0xbe16c24c	-0.14722556
80	0xbe630259	-0.22168864
81	0x3e850a62	0.25984484
82	0x3e2216ba	0.15828982
83	0xbe93a530	-0.28836966
84	0x3d0e15f4	0.034688905
85	0xbd5d8fd5	-0.054092247
86	0x3d22997c	0.039697155
87	0xbdfd3b7c	-0.12364861
88	0x3eb84721	0.35991767
89	0xbe825d56	-0.25461835
90	0x3dc41b87	0.09575563
91	0x3e35f541	0.17769338
92	0x3e09a227	0.13440762
93	0x3d7c7eb8	0.061644286
94	0xbe70d128	-0.23517287
95	0xbe020561	-0.12697364
96	0x3e0524e6	0.13002357
97	0xbc78f90e	-0.015196098
98	0xbe307d33	-0.1723526
99	0xbe0eeccd	-0.1395752
100	0x3e3dcb41	0.18534566
101	0x3eaf169d	0.3419694
102	0xbec0eaa4	-0.37679017
103	0xbe47b4a0	-0.19502497
104	0xbe605998	-0.21909177
105	0x3d430072	0.047607847
106	0xbe3bc827	-0.18338071
107	0xbe428a50	-0.18998075
108	0xbe59f0d5	-0.21283276
109	0x3dd413c4	0.103553325
110	0xbe07fbd1	-0.13279654
111	0x3e59f540	0.21284962
112	0xbe1c7080	-0.1527729
113	0x3e39df37	0.18151556
114	0x3ecbbdb7	0.39793178
115	0xbe18f172	-0.14935854
116	0xbd80d780	-0.06291103
117	0xbd7f3e74	-0.06231542
118	0x3d1153ad	0.03548019
119	0x3d1c3498	0.038136095
120	0xbd17338b	-0.03691439
121	0x3cfe2b9a	0.03102665
122	0xbddf56c8	-0.10905224
123	0x3e2a87b4	0.16653329
124	0xbe7b4578	-0.24538219
125	0xbd80376b	-0.0626057
126	0xbd8211e5	-0.06351069
127	0xbe6a178a	-0.22860542
128	0xbd43e2e9	-0.04782382
129	0xbe5499c8	-0.20761788
130	0xbe1b0fef	-0.15142797
131	0x3de15564	0.11002615
132	0xbe450ec6	-0.19243917
133	0x3d3a781e	0.04552471
134	0x3d6db21c	0.058031186
135	0xbb67adf7	-0.0035351494
136	0x3e2a850a	0.16652313
137	0x3d8d82b3	0.069096945
138	0x3d474f93	0.048659872
139	0x3dfe7fd2	0.124267235
140	0x3ea2e823	0.3181773
141	0x3e0b15b2	0.13582495
142	0x3e8b21d3	0.27174243
143	0xbc184fe1	-0.009296388
144	0xbe4b2f93	-0.19842367
145	0xbda80057	-0.0820319
146	0x3e2f228b	0.17103021
147	0xbd2a3fc7	-0.04156473
148	0xbe821828	-0.25409055
149	0xbd80ffaa	-0.06298764
150	0xbe6c72fd	-0.2309074
151	0xbe330ce1	-0.17485382
152	0xbe310cd8	-0.17290056
153	0x3eb797a1	0.3585787
154	0x3dd63e96	0.10461156
155	0xbe5829eb	-0.2110974
156	0x3d90c7db	0.070693694
157	0xbe149f47	-0.14513884
158	0xbd5f46ec	-0.054510996
159	0xbe11c659	-0.1423582
160	0xbb92c82a	-0.004479428
161	0xbcac6f92	-0.021049295
162	0xbe28cac4	-0.16483599
163	0xbe2b30a1	-0.16717769
164	0xbd8506a8	-0.0649541
165	0xbcb4fb90	-0.02209261
166	0xbed1fe98	-0.41014552
167	0x3e4972bf	0.19672678
168	0xbe7d1273	-0.24714069
169	0xbe1bf376	-0.15229592
170	0x3e7c1641	0.24617864
171	0xbcc08a5c	-0.023503475
172	0x3e8ca747	0.27471372
173	0xbd5dd715	-0.054160196
174	0xbe8e3929	-0.27777985
175	0x3db6f384	0.08933166
176	0xbcc5da3e	-0.024151918
177	0xbd815fa7	-0.06317072
178	0x3db8bef8	0.090207994
179	0xbef837d8	-0.48480105
180	0x3e89227b	0.2678412
181	0x3ce721ba	0.028214324
182	0x3e3490fe	0.17633435
183	0x3df72e0d	0.1206933
184	0x3c9bfbc5	0.019040952
185	0x3e0fc9b6	0.1404179
186	0x3e154134	0.14575654
187	0xbdf6f419	-0.12058277
188	0xbe8aa9a6	-0.27082556
189	0x3e8d9e64	0.27659905
190	0x3e79cfe3	0.24395709
191	0x3de9eebb	0.11422487
192	0xbde878c0	-0.11351156
193	0x3e3b3d88	0.18285191
194	0xbe303442	-0.17207435
195	0xbe36eeba	-0.17864504
196	0xbe113b65	-0.14182813
197	0x3df0f160	0.11764789
198	0xbe3efe66	-0.18651733
199	0xbc853613	-0.016261136
200	0xbc805651	-0.015666159
201	0x3dc8bfc8	0.09802204
202	0xbdd2f824	-0.10301235
203	0xbdc9b05a	-0.098480895
204	0xbde58f89	-0.11209018
205	0x3ef42b71	0.47689393
206	0xbe3daeba	-0.18523684
207	0x3e5b4f6e	0.21417019
208	0x3e65ce92	0.22442082
209	0x3d772a9e	0.060343377
210	0xbd31edbd	-0.043439616
211	0xbddeb463	-0.1087425
212	0xbc80b203	-0.015709883
213	0xbd8581a3	-0.06518867
214	0xbdaea100	-0.08526802
215	0x3dbfb824	0.09361294
216	0xbe02a9bf	-0.12760065
217	0xbe22bd87	-0.15892611
218	0x3f0b302c	0.5437038
219	0xbe5267bf	-0.20547388
220	0x3cd3500e	0.025795009
221	0x3e46e770	0.19424224
222	0x3da37bf0	0.079826236
223	0x3c6df9c6	0.014524883
224	0xbe5c1cc5	-0.2149535
225	0x3d835b5c	0.0641391
226	0xbe17e628	-0.14833891
227	0xbcebccef	-0.028784243
228	0xbd2c1162	-0.042008765
229	0xbd3a5549	-0.04549149
230	0xbd534fd6	-0.05158981
231	0x3ea62944	0.32453358
232	0xbe1598a0	-0.14609003
233	0x3e83d824	0.2575084
234	0x3e541ba1	0.20713665
235	0xbe144cb9	-0.14482392
236	0x3da7fcdb	0.08202525
237	0xbe3c9c91	-0.184191
238	0xbe6d6fb2	-0.2318714
239	0x3dd20d99	0.102565
240	0x3cdaef65	0.02672548
241	0x3e7e152b	0.24812762
242	0x3c4cadfe	0.012492655
243	0xbcec8f48	-0.028876916
244	0x3eec2c88	0.46127725
245	0xbeec6672	-0.4617191
246	0x3dac4195	0.08410946
247	0xbe823585	-0.25431457
248	0xbd983193	-0.074313305
249	0x3c34f99b	0.011045839
250	0xbe27d5be	-0.1639013
251	0xbc9b973a	-0.018993009
252	0x3e78459e	0.24245307
253	0xbd44cf6e	-0.048049383
254	0xbd943432	-0.07236518
255	0xbddff665	-0.10935668

fc1.bias f4 [128]
0	0xbdd503ae	-0.104010925
1	0x3ea1c1e4	0.3159324
2	0xbe720404	-0.23634344
3	0x3f07e0e5	0.53077537
4	0x3eeb9e1d	0.46019068
5	0x3e221bde	0.15830943
6	0x3d0590e0	0.032608867
7	0x3d2241b8	0.039613456
8	0xbe76ed7a	-0.24114028
9	0x3e5572b8	0.20844543
10	0x3e9a2af1	0.30110887
11	0xbe914278	-0.28371024
12	0x3f189466	0.5960144
13	0xbe74b2a2	-0.23896268
14	0xbebbffd4	-0.3671862
15	0xbde71a15	-0.11284272
16	0xbe99349d	-0.29922953
17	0x3ef70e5c	0.48253143
18	0xbe0f4f17	-0.13995014
19	0xbea0a708	-0.31377435
20	0x3e12b9c2	0.14328673
21	0xbea740f0	-0.3266673
22	0x3d236756	0.03989347
23	0x3da0209a	0.07818718
24	0xbe6e5edc	-0.23278373
25	0x3e80e399	0.25173643
26	0x3ebaf339	0.3651369
27	0xbdd6d900	-0.10490608
28	0x3dfb8383	0.12280943
29	0xbe5c1739	-0.21493234
30	0x3eed5ff4	0.4636227
31	0x3f0df3f7	0.55450386
32	0x3c600236	0.013672402
33	0x3dedc12e	0.11609112
34	0xbeb205e4	-0.3477012
35	0xbd6e8f3e	-0.058242075
36	0x3ea74749	0.32671574
37	0xbe7025ad	-0.23451872
38	0x3e7760b8	0.24157989
39	0xbbef94e9	-0.0073114526
40	0x3d9a419f	0.075320475
41	0xbe5c0c5f	-0.21489094
42	0x3eb076ac	0.3446554
43	0xbe4b0472	-0.19825915
44	0xbdb56828	-0.08857757
45	0x3dc7d300	0.09757042
46	0x3eee3df1	0.46531633
47	0x3e86e104	0.26343548
48	0xbca2e14f	-0.019882826
49	0xbd5a0255	-0.05322488
50	0x3eb00c6d	0.3438448
51	0x3e7ca593	0.24672537
52	0x3ef219c4	0.47285283
53	0xbbb29da6	-0.005450922
54	0x3ef094a4	0.46988404
55	0xbe69ec2b	-0.22843997
56	0x3ea7fbb0	0.3280921
57	0xbe056bcb	-0.13029401
58	0xbe858741	-0.26079753
59	0x3e06b0bb	0.13153355
60	0x3cbb717b	0.02288126
61	0x3e72a439	0.23695458
62	0x3f0e15ff	0.55502313
63	0xbe83ca74	-0.25740397
64	0x3ea6a3db	0.32546887
65	0xbe933c3d	-0.28756896
66	0x3e7516c3	0.23934464
67	0x3efccfaf	0.493772
68	0x3ef14d2c	0.4712919
69	0x3f0c746f	0.54865164
70	0x3eb1c742	0.34722334
71	0xbd2efcc4	-0.042721525
72	0xbe257514	-0.16157943
73	0xbe6d2131	-0.23157193
74	0x3ed6f5a7	0.41984293
75	0x3dfcf59f	0.12351536
76	0xbe9b171a	-0.30291063
77	0x3f07efec	0.53100467
78	0xbe6da23f	-0.23206423
79	0x3e000c6d	0.1250474
80	0xbda40921	-0.08009554
81	0x3de82275	0.11334697
82	0x3dfaa0ab	0.12237676
83	0xbe7f935a	-0.24958554
84	0xbea55f76	-0.32299393
85	0xbeab5c0e	-0.3346867
86	0xbce65699	-0.028117465
87	0x3ef6361a	0.4808815
88	0x3ed945c0	0.42436028
89	0xbea0d498	-0.31412196
90	0x3d2f05c2	0.0427301
91	0xbea220ee	-0.31665748
92	0xbdaba835	-0.08381692
93	0xbe0edfd1	-0.13952567
94	0xbe1dad16	-0.15398058
95	0x3e9728d6	0.29523343
96	0xbe4b1413	-0.19831876
97	0x3e0df642	0.13863471
98	0xbe8c8b63	-0.27450094
99	0xbdfcb5f7	-0.123393945
100	0x3f08520d	0.532502
101	0xbdfeb617	-0.12437075
102	0xbdd42548	-0.10358673
103	0x3f0d9412	0.5530406
104	0x3eb5683a	0.3543108
105	0xbebf8faa	-0.37414294
106	0xbe043d04	-0.129139
107	0xbe6233b9	-0.22090043
108	0xbe1d28aa	-0.15347543
109	0x3e9bf7d8	0.30462527
110	0xbe3bca36	-0.18338856
111	0x3efbaf8f	0.49157378
112	0xbe7950e4	-0.24347264
113	0xbdbe6cb6	-0.09298079
114	0x3e8c3f15	0.27391878
115	0x3ec73ea4	0.38914979
116	0x3f16beaa	0.5888468
117	0x3e63d5cf	0.2224953
118	0x3e81a0ff	0.25318143
119	0x3daf35f6	0.08555214
120	0x3eadcda5	0.33945957
121	0xbe86dd14	-0.26340544
122	0x3d4b4d18	0.04963407
123	0xbe9f1e5a	-0.31077844
124	0xbea85582	-0.32877737
125	0x3ec672d5	0.38759485
126	0xbd8614c9	-0.06546933
127	0x3ee284e3	0.4424201

fc2.weight f4 [256, 128]
0	0x3d52804a	0.051391877
1	0x3d9067b6	0.07051031
2	0xbb925b33	-0.004466438
3	0x3c06f667	0.008237458
4	0x3d950651	0.072765954
5	0x3d6a82e6	0.05725374
6	0x3c3d39e5	0.011549448
7	0xbca1a3cb	-0.019731423
8	0xbb631964	-0.0034652585
9	0xbc3cfdc2	-0.01153511
10	0xbc09058e	-0.008363141
11	0xbb07c386	-0.0020715906
12	0xbd0fcf4d	-0.035109807
13	0xbaba01ee	-0.0014191249
14	0xbe092b98	-0.13395536
15	0xbd0b92d5	-0.034075577
16	0xbd9325e5	-0.07184962
17	0x3de74d62	0.112940565
18	0xbda71e92	-0.08160128
19	0x3d23ccce	0.03999024
20	0x3d82fb8d	0.06395636
21	0x3d3b4e5c	0.045729026
22	0x3ce3e90e	0.02782109
23	0x3cc7bd08	0.02438213
24	0x3cf3595c	0.029705696
25	0xbc740d7a	-0.014895791
26	0x3d2d6389	0.042331252
27	0xbdb96065	-0.09051589
28	0xbcd89bec	-0.026441537
29	0xbc4b355b	-0.012402858
30	0x3d72c0dd	0.05926596
31	0x3c944e47	0.018103732
32	0xbdb368b1	-0.08760203
33	0xbcf2fe42	-0.029662255
34	0xba7f5440	-0.0009740032
35	0x3dc0f41e	0.09421562
36	0xbd24d508	-0.040242225
37	0x3b89bd24	0.0042034555
38	0xbd8f5a08	-0.06999594
39	0xbd9fdc97	-0.07805746
40	0xbcb3e3f8	-0.02195929
41	0xbd28c0f8	-0.041199654
42	0x3d12e3f3	0.03586192
43	0xbdd194b9	-0.10233445
44	0x3d81761b	0.06321355
45	0x3d84c973	0.06483736
46	0x3cc9aeb3	0.024619436
47	0x3de9fb9b	0.11424943
48	0xbc680d1c	-0.014163282
49	0xbd261ced	-0.04055493
50	0x3c0a9b20	0.008459836
51	0x3d10ba5c	0.035333976
52	0xbc7f4aed	-0.015581829
53	0xbda5178f	-0.08061134
54	0x3d881604	0.06644824
55	0x3b7fa095	0.0039005626
56	0x3da440ee	0.08020197
57	0xbcf701ec	-0.030152284
58	0x3cbdeeb2	0.023185108
59	0xbcbdc3ac	-0.023164593
60	0x3c4ba60c	0.012429725
61	0x3bc461b4	0.0059930924
62	0x3e0bbfca	0.1364738
63	0x3c3d314e	0.0115474
64	0x3d92803e	0.071533665
65	0x3c3d59e3	0.011557075
66	0x3c6e933f	0.014561473
67	0x3e06783b	0.13131802
68	0xbd111fea	-0.035430826
69	0x3e12491a	0.14285699
70	0x3dabf33e	0.08396004
71	0x3dbec84b	0.093155466
72	0xbd4e10f0	-0.05030912
73	0xbd19d099	-0.03755245
74	0x3ce1ede7	0.027579261
75	0x3cf250c8	0.029579535
76	0x3c48cffc	0.012256619
77	0x3da25432	0.07926215
78	0x3ccd3866	0.025051307
79	0xbcfa69c5	-0.030568013
80	0xbcd335dc	-0.025782518
81	0x3c86dbea	0.016462285
82	0x3d12b249	0.035814557
83	0xbda2dcc9	-0.07952268
84	0xbc8d931d	-0.017282063
85	0xbddbb13e	-0.10727166
86	0xbd29e6ad	-0.041479755
87	0x3bc9e0f7	0.006160851
88	0x3dd004ff	0.10157203
89	0xbdaf251c	-0.08552
90	0xbcf06734	-0.029346086
91	0xbe1e3350	-0.15449262
92	0xbc0b03eb	-0.008484821
93	0xbe0afae3	-0.13572268
94	0x3c162f5f	0.009166568
95	0xbd2c68c7	-0.04209211
96	0xbd9dbbf9	-0.077018686
97	0xbbbcf31d	-0.005766286
98	0xbcb828ea	-0.022480447
99	0x3d42e7cd	0.047584344
100	0x3e065d0d	0.13121434
101	0xbc86fd93	-0.016478335
102	0xbd86a9ce	-0.065753564
103	0x3ca23347	0.019799842
104	0xbd09078f	-0.033454474
105	0xbd361f1a	-0.044463255
106	0x3ce448fb	0.027866831
107	0xbbf276f8	-0.007399436
108	0x3ce7e19e	0.028305825
109	0x3d0ea435	0.03482457
110	0xbd9af181	-0.075655945
111	0xb8dadbd4	-0.00010435996
112	0xbb6779b8	-0.0035320353
113	0xbd905d08	-0.07048994
114	0x3c12b2d8	0.0089537725
115	0xbc8354a6	-0.016031574
116	0xbd053b9f	-0.032527562
117	0x3d93b2e6	0.072118565
118	0x3bd78540	0.006577164
119	0xbd742e62	-0.059614547
120	0x3da9732e	0.08273922
121	0xbdb5c8ed	-0.08876214
122	0x3d19b2e6	0.037524126
123	0x3d935830	0.07194555
124	0xbcc0e908	-0.023548618
125	0x3d8ecf7d	0.06973169
126	0x3d09dbb0	0.033656776
127	0x3da15419	0.078773685
128	0xbca4f33a	-0.02013551
129	0xbcbb0a2b	-0.022831997
130	0x3b950bd7	0.0045485306
131	0x3e273790	0.16329789
132	0x3e09edac	0.13469571
133	0x3e448d87	0.19194613
134	0xbd037ce0	-0.032101512
135	0xbcea4192	-0.02859572
136	0xbc38d9c7	-0.011282391
137	0x3d4892db	0.048968177
138	0xbcb0fcee	-0.021604981
139	0xbdec81de	-0.11548208
140	0x3e14784d	0.14499016
141	0x3cdd84c6	0.02704085
142	0x3d1716d1	0.036886994
143	0xbd13907d	-0.036026467
144	0xbdabca9e	-0.083882555
145	0x3d89993f	0.067186825
146	0xbdfd453c	-0.12366721
147	0xbe834a76	-0.25642747
148	0xbd660510	-0.05615717
149	0xbdcc39a9	-0.09971935
150	0xbe126700	-0.14297104
151	0xbbea5d38	-0.007152226
152	0xbd786d1a	-0.060650922
153	0x3dc85863	0.097824834
154	0x3dc83b1b	0.097768985
155	0x3dedcc15	0.11611191
156	0x3e54a6c3	0.2076674
157	0xbca05080	-0.019569635
158	0xbc453cb8	-0.012038402
159	0x3d607265	0.054796595
160	0x3da3d1a5	0.07998971
161	0x3d646cec	0.05576794
162	0xbdf3e6cb	-0.11909255
163	0xbc88d464	-0.016702838
164	0x3e5fe31d	0.2186398
165	0xbd8e8a8f	-0.06960022
166	0xbcf1c1a6	-0.029511284
167	0x3e189b3b	0.14902966
168	0x3e0b9a3c	0.13633054
169	0x3d08e3c6	0.033420347
170	0xbd136c65	-0.035992045
171	0x3d95e67a	0.073193505
172	0x3b36af0c	0.0027875332
173	0xbda5f4c5	-0.08103327
174	0xbb9efdc0	-0.0048520267
175	0xbd12c5c3	-0.03583313
176	0xbd29ab95	-0.0414234
177	0xbdd890b9	-0.10574479
178	0xbc0d06bb	-0.008607562
179	0x3d0d7c66	0.034542464
180	0x3de101f0	0.10986698
181	0xbd93c39e	-0.072150454
182	0x3d4f8b61	0.05067003
183	0xbcf86c5a	-0.030325104
184	0x3d0727f4	0.032997087
185	0x3db1baea	0.08678229
186	0x3b1661e3	0.0022946529
187	0xbbb77b9d	-0.0055994526
188	0xbd6d2451	-0.057895962
189	0x3d969ecb	0.07354506
190	0x3e2a66c0	0.16640759
191	0x3d71ad8f	0.05900341
192	0x3df51184	0.119662315
193	0x3d210685	0.039312858
194	0x3e06e960	0.13174963
195	0xbd137115	-0.035996515
196	0x3e0ffd3d	0.14061446
197	0x3e194b1c	0.14970058
198	0xbe20e0bc	-0.1571073
199	0xbdde19a6	-0.10844736
200	0x3d4eaab6	0.05045577
201	0xbdd519fc	-0.10405347
202	0x3c16484a	0.0091725085
203	0x3e3a271d	0.18178983
204	0xbd75cb57	-0.060008373
205	0x3db3c4d3	0.087777756
206	0xbe0b5088	-0.13604939
207	0x3d3ab5f6	0.045583688
208	0x3df0a924	0.11751011
209	0xbdbdd39f	-0.09268879
210	0x3e14bdeb	0.14525573
211	0x3ca00b94	0.01953677
212	0xbc8bae1e	-0.017050799
213	0xbd047fc2	-0.0323484
214	0xbd3c7801	-0.046012882
215	0x3d50c052	0.05096466
216	0xbd7d05d0	-0.06177312
217	0x3d36a007	0.044586208
218	0xbd365bd8	-0.044521183
219	0xbdba147f	-0.090859406
220	0xbb6ef12a	-0.0036459663
221	0x3d2199b7	0.039453235
222	0x3d427bfb	0.04748152
223	0x3d96c58e	0.07361899
224	0xbcd8eaff	-0.026479242
225	0x3d8003e4	0.06250742
226	0xbddf7b3f	-0.10912179
227	0x3c85ddd2	0.016341124
228	0xbdab9c53	-0.08379426
229	0xbd271da1	-0.04079974
230	0x3cb94c9d	0.02261954
231	0xbcbd3e68	-0.023101047
232	0x3df9abaf	0.12190949
233	0xbc119724	-0.008886132
234	0x3e239f12	0.1597865
235	0xbcf2f25a	-0.029656578
236	0xbc88be5a	-0.01669233
237	0x3cf6cc8e	0.030126836
238	0x3cbb3929	0.022854405
239	0x3e7fcc17	0.24980198
240	0xbd6fdc6d	-0.058559824
241	0xbaeb1119	-0.0017934173
242	0x3d0ef468	0.034901053
243	0x3d1882bf	0.037234064
244	0x3d9dbefa	0.077024415
245	0xbab4fb2d	-0.0013807766
246	0x3e2c9bba	0.1685628
247	0x3d3d6531	0.04623908
248	0x3dd06671	0.10175789
249	0xbe3a18b6	-0.18173489
250	0x3e2d9ada	0.16953602
251	0x3d88e228	0.06683761
252	0x3d7e1656	0.06203302
253	0x3e534b9a	0.20634308
254	0x3dddbe55	0.108273186
255	0x3d188cf4	0.0372438

fc2.bias f4 [256]
0	0x3de12da1	0.10995031
1	0x3da8715e	0.08224748
2	0x3e1b54ce	0.15169069
3	0x3ea51765	0.3224441
4	0x3cde4fe9	0.027137714
5	0x3e5adb2a	0.21372667
6	0x3e421e64	0.18956906
7	0x3c9f60c6	0.019455325
8	0x3e032fe7	0.12811242
9	0x3e6507e8	0.22366297
10	0xbdc06554	-0.09394327
11	0x3dfb202b	0.12261995
12	0x3e486594	0.19569999
13	0xbd8c5809	-0.06852729
14	0x3e53d62a	0.20687166
15	0x3e818f1c	0.25304496
16	0x3e95981e	0.2921762
17	0x3e83ac4a	0.25717384
18	0x3dc032d8	0.09384698
19	0x3e5469f3	0.20743541
20	0x3e9f0789	0.31060436
21	0xbc945b3d	-0.018109912
22	0x3eaeeb95	0.3416411
23	0x3e904f5f	0.28185555
24	0x3ea63aa9	0.3246663
25	0x3e43f706	0.191372
26	0x3e224109	0.15845121
27	0x3cfda466	0.03096218
28	0x3e6527ea	0.22378507
29	0x3e4ae030	0.19812083
30	0x3e055a48	0.13022721
31	0x3d0b5c26	0.034023426
32	0x3e8191ee	0.25306648
33	0x3d446509	0.047947917
34	0xbd5131f5	-0.051073033
35	0x3ea6c2b0	0.3257041
36	0x3e97e439	0.29666308
37	0x3e9a4815	0.3013312
38	0xbd393a6e	-0.04522174
39	0x3e14b8a0	0.14523554
40	0x3e589ea6	0.2115427
41	0x3e84ee9e	0.259633
42	0x3e3de920	0.18545961
43	0x3e8a44fb	0.27005753
44	0x3dce9748	0.10087448
45	0x3e6b9172	0.23004702
46	0x3dffd2b1	0.12491358
47	0x3d78044f	0.060550984
48	0x3e55dd6f	0.20885251
49	0x3d066025	0.032806534
50	0xbc692121	-0.01422909
51	0x3e582641	0.21108343
52	0x3e841772	0.25799137
53	0x3e4226e3	0.18960147
54	0x3e169ec7	0.14709006
55	0x3db20dcc	0.08694038
56	0x3e2829c8	0.16422188
57	0x3e1fec9f	0.15617608
58	0x3e21c73c	0.15798658
59	0x3e673529	0.22578873
60	0x3e866a48	0.2625296
61	0x3e10b8f8	0.1413306
62	0x3e45f461	0.19331504
63	0x3ea26b7d	0.31722632
64	0x3e9248f4	0.28571284
65	0x3e924701	0.28569797
66	0x3e876dc8	0.26450944
67	0x3da35fcf	0.079772584
68	0x3e788c42	0.24272254
69	0x3d9ef514	0.07761589
70	0x3e55e46c	0.20887917
71	0x3d861c67	0.06548386
72	0x3d34a43c	0.04410194
73	0xbc84cf04	-0.016211994
74	0x3e3f2427	0.18666135
75	0x3e351b79	0.17686261
76	0x3d5b4ce3	0.05354012
77	0x3e82ceca	0.25548393
78	0x3e8e9314	0.27846587
79	0x3e3fc9c0	0.18729305
80	0x3e7d38c4	0.24728686
81	0x3e8a17f4	0.269714
82	0x3e740d41	0.23833181
83	0x3d800d4e	0.06252538
84	0x3ea0070f	0.31255385
85	0x3e8aa2ef	0.27077433
86	0xbde95d6f	-0.11394774
87	0x3e4bd65b	0.19905989
88	0x3e6567ab	0.22402827
89	0x3e3294c3	0.1743956
90	0x3e2d4b07	0.16923152
91	0x3e190725	0.14944132
92	0x3e02de6a	0.12780157
93	0x3d8c9462	0.06864239
94	0x3e191584	0.14949614
95	0x3e973857	0.2953517
96	0x3d4042a0	0.04693854
97	0x3e994611	0.2993627
98	0x3e345781	0.17611505
99	0x3eaafc9a	0.33395845
100	0x3e820e86	0.25401706
101	0x3e492543	0.1964312
102	0x3e681b8a	0.22666755
103	0x3e05782a	0.1303412
104	0x3e5944d5	0.21217664
105	0x3dc38cf1	0.09548367
106	0x3e56906c	0.2095353
107	0x3e9edaf4	0.31026423
108	0x3e74ecd5	0.23918469
109	0x3e0ea401	0.1392975
110	0xbcaf2235	-0.021378616
111	0xbd16fbb7	-0.036861148
112	0x3e76c3b1	0.24098088
113	0x3e291cc6	0.16514882
114	0x3dcbdefa	0.09954639
115	0x3dc8c9ec	0.098041385
116	0x3e433c74	0.1906603
117	0x3eac3dec	0.33640993
118	0x3dc052c5	0.09390787
119	0x3e758609	0.23976912
120	0x3e3f8371	0.18702485
121	0x3e0b1f5b	0.1358618
122	0x3e3eeefc	0.18645853
123	0x3e9982e8	0.29982686
124	0x3e6a4e7e	0.22881505
125	0x3e20ca9e	0.15702292
126	0x3e903810	0.28167772
127	0x3e0a54e5	0.13508947
128	0x3e5de6b4	0.21670038
129	0x3e7e398c	0.2482664
130	0x3e809f36	0.25121468
131	0xbe52e0b1	-0.20593525
132	0x3e4c986a	0.19980016
133	0x3e8b41d5	0.27198663
134	0x3e2d4ffb	0.16925041
135	0x3e846b26	0.25862998
136	0x3e69e0b1	0.22839619
137	0x3e2986b5	0.16555293
138	0x3e15d9e6	0.14633903
139	0x3e8e9336	0.27846688
140	0x3df9900e	0.121856794
141	0x3ec0b190	0.3763547
142	0x3dd9010e	0.10595904
143	0x3e85e765	0.26153103
144	0x3ce03fa0	0.027374089
145	0x3e25553a	0.16145793
146	0x3e79b1b2	0.24384192
147	0xbe857fe8	-0.26074147
148	0x3dfa1e23	0.122127794
149	0x3e7db981	0.24777795
150	0x3e15dd17	0.1463512
151	0x3de43785	0.11143402
152	0x3db6144f	0.08890592
153	0xbe3650d7	-0.17804275
154	0x3e3b14bf	0.18269633
155	0x3e962095	0.29321733
156	0x3e3db63a	0.18526545
157	0x3e59a63d	0.21254821
158	0xbbdfa740	-0.0068253577
159	0x3ea7102b	0.32629523
160	0x3e777c0a	0.24168411
161	0x3dc989e6	0.09840755
162	0x3e3eddb7	0.18639265
163	0x3e93b64d	0.28850022
164	0x3e01d26e	0.12677929
165	0x3e0a9eec	0.13537186
166	0x3e6d5a27	0.23178922
167	0x3e6d0079	0.23144712
168	0x3e4e5cbe	0.20152566
169	0x3e517bc0	0.20457363
170	0x3e9af37a	0.30263883
171	0x3e727bba	0.2368001
172	0x3db7dfe3	0.0897825
173	0x3e93e7fb	0.28887925
174	0x3e9f40fe	0.31104273
175	0x3e0fd246	0.14045057
176	0x3dc09ee2	0.094053045
177	0x3d6e9e47	0.058256414
178	0x3e32289e	0.17398307
179	0x3e372d2b	0.17888324
180	0x3e5d2254	0.21595126
181	0x3e136075	0.14392264
182	0x3eaac0ee	0.3335032
183	0xbdbb2985	-0.091387786
184	0x3e42a454	0.19007999
185	0x3e5e1ad2	0.21689919
186	0xbda086ae	-0.07838188
187	0x3deea832	0.116531745
188	0x3e228734	0.15871888
189	0x3e97e88e	0.29669613
190	0xbcc69099	-0.024238871
191	0x3e9ec450	0.3100915
192	0xbcabcf40	-0.020972848
193	0x3d6d8e5e	0.0579971
194	0x3e736c27	0.23771726
195	0xbc12713c	-0.00893813
196	0x3e816396	0.2527129
197	0x3db89456	0.09012668
198	0x3e4a6196	0.19763789
199	0x3e122bb3	0.14274482
200	0x3e24c6c0	0.16091442
201	0x3e62fd86	0.22167024
202	0x3e643787	0.22286807
203	0x3de6a37c	0.11261651
204	0x3e59968d	0.21248837
205	0x3da1de32	0.079037085
206	0x3e8be819	0.27325514
207	0x3e6f33ab	0.23359554
208	0x3e9ade6d	0.30247822
209	0x3e87e92a	0.26545078
210	0x3e3fd95a	0.18735257
211	0x3e79b0d9	0.24383868
212	0x3e43bb01	0.19114305
213	0x3e68c753	0.22732286
214	0x3e05cbd5	0.13066037
215	0x3e3fe7d4	0.18740779
216	0x3e649caa	0.22325388
217	0x3e298760	0.16555548
218	0x3e366618	0.17812383
219	0x3dee2320	0.11627793
220	0x3e7aed2c	0.24504536
221	0x3e980a91	0.29695562
222	0x3db95da8	0.09051067
223	0x3e987796	0.29778737
224	0x3e2915d5	0.16512235
225	0x3ea23738	0.31682754
226	0x3e4f5791	0.20248248
227	0x3e7b2342	0.24525169
228	0x3e876574	0.2644459
229	0x3e3f8807	0.18704234
230	0x3e714043	0.2355967
231	0x3e996e6e	0.29967064
232	0xbd8bb0e3	-0.06820848
233	0x3e532f02	0.20623401
234	0x3e8ae901	0.27130893
235	0x3e794c38	0.24345481
236	0x3e666ad1	0.22501685
237	0x3e421eed	0.1895711
238	0x3dcf3194	0.10116878
239	0x3e375cc5	0.17906483
240	0x3dbb5621	0.09147287
241	0x3cd2042e	0.025636759
242	0x3d2c2432	0.042026706
243	0x3e1e18fa	0.15439215
244	0x3e956a82	0.29182822
245	0x3ea6d276	0.32582444
246	0xbc82a5da	-0.015948225
247	0x3dda1639	0.1064877
248	0x3e095abb	0.13413517
249	0x3cbf5f4c	0.02336087
250	0x3d2260d4	0.039643124
251	0x3e76cb3a	0.24100962
252	0x3e5c3456	0.2150434
253	0x3e812d03	0.25229654
254	0x3e31ac54	0.17350894
255	0x3e528422	0.20558217

fc3.weight f4 [128, 256]
0	0x3d182d82	0.037152775
1	0xbd3035ab	-0.04301993
2	0x3b844ab6	0.0040372266
3	0xbd5bfef5	-0.053709943
4	0xbce0d081	-0.027443172
5	0xbd3ce9a4	-0.046121255
6	0x3ca20af7	0.01978062
7	0x3c4e1f60	0.012580723
8	0x3d5b1ac8	0.053492337
9	0x3d2b4737	0.041815963
10	0xbc86eb18	-0.016469523
11	0xbd1c9e8c	-0.03823714
12	0x3d4100e4	0.04711999
13	0xbcf9cc6c	-0.030492984
14	0xbcf8e513	-0.030382669
15	0xbd3491f1	-0.044084493
16	0xba9f5cc9	-0.001215839
17	0xbcfc5089	-0.03080012
18	0xbc54e468	-0.012993909
19	0x3c6c6b67	0.014429904
20	0xbd59cfee	-0.053176813
21	0x3d186941	0.037209753
22	0xbd87251e	-0.065988764
23	0x3cfef830	0.031124204
24	0xbd15390a	-0.03643135
25	0xbb7877a1	-0.0037913101
26	0x3aff565a	0.0019480691
27	0xbcc633ef	-0.024194686
28	0x3c565ed0	0.0130841285
29	0x3b201a59	0.0024429767
30	0xbd2dbf2d	-0.042418648
31	0xbd151a14	-0.036401823
32	0x3cfdadd5	0.030966679
33	0xbd024736	-0.031806193
34	0xbc9a522d	-0.018838013
35	0x3c975141	0.018471362
36	0xbd1c6abf	-0.03818774
37	0x3d29ac4b	0.041424077
38	0xbd13deaf	-0.03610104
39	0xbc6dfa8a	-0.014525065
40	0xbd58e35d	-0.052951206
41	0xbd05e42e	-0.032688312
42	0xbd5a157c	-0.053243145
43	0xbd149efd	-0.036284436
44	0xbd530939	-0.051522467
45	0x3cfe7c3f	0.031065105
46	0xbd702883	-0.058632385
47	0xbd683ce9	-0.056698713
48	0x3d2944b2	0.04132528
49	0xbc8604d8	-0.016359732
50	0x3d118ec8	0.035536557
51	0xbbc268f5	-0.005932922
52	0x3d1bcaee	0.038035326
53	0xbd87a5f0	-0.06623447
54	0x3c2f4cfa	0.010699505
55	0xbd3a66ae	-0.04550808
56	0x3b51ef6b	0.0032033573
57	0xbcabec1a	-0.020986605
58	0xbd4d4a03	-0.05011941
59	0x3d65b6d7	0.056082573
60	0xbd3f01ea	-0.046632685
61	0xbb9061fc	-0.004406212
62	0xbc4e1c15	-0.012579937
63	0x3d317742	0.043326624
64	0xbcbdd7ce	-0.023174193
65	0x3d659930	0.056054294
66	0xbd3a2e18	-0.045454115
67	0x3d1b0222	0.03784383
68	0x3cd68c4f	0.026189951
69	0xbd46dcb5	-0.048550326
70	0xbd4e63a7	-0.050388005
71	0xbc8bd68d	-0.01707008
72	0xbb991f3f	-0.0046729143
73	0x3cad0f2c	0.021125399
74	0xbc4cc06b	-0.012497048
75	0xbcba8f79	-0.022773491
76	0x3d733827	0.059379723
77	0xbcd05c20	-0.025434554
78	0xbd133aaa	-0.03594462
79	0x3d4df095	0.050278265
80	0xbcce1f6a	-0.025161464
81	0x3c44ee91	0.012019769
82	0x3d46296b	0.048379343
83	0xbd239a94	-0.03994234
84	0x3d3a90a1	0.045548085
85	0x3d459d36	0.04824563
86	0xbd36650d	-0.044529963
87	0xbae0b76a	-0.0017144505
88	0x3d1addc7	0.03780916
89	0xbc9e1756	-0.019298237
90	0x3c80df42	0.015731458
91	0xbcb38132	-0.021912191
92	0x3d4b34fc	0.049611077
93	0xbd1e1045	-0.038589735
94	0xba5b16ff	-0.00083576137
95	0x3d54f422	0.051990636
96	0xbd442fb6	-0.047897063
97	0x3d17fc68	0.037105948
98	0x3d42239d	0.047397245
99	0x3c7213da	0.014775241
100	0xbd6febed	-0.058574606
101	0x3c96f7e8	0.018428758
102	0x3d18de50	0.03732139
103	0x3d5837ea	0.0527877
104	0xbd5e5eec	-0.054289743
105	0xbd8bcc24	-0.06826046
106	0xbd09237a	-0.0334811
107	0xbce370ee	-0.02776381
108	0x3d24f2ed	0.040270735
109	0xbd38ceef	-0.045119222
110	0x3d616e42	0.05503679
111	0xbd645a65	-0.05575027
112	0xbd74c2e8	-0.05975619
113	0xbc4cd8ca	-0.012502858
114	0x3d176e73	0.036970567
115	0x3c012745	0.007882898
116	0xbd657857	-0.05602297
117	0x3d2c56e1	0.04207504
118	0x3ccb4fa9	0.024818258
119	0xbd146233	-0.036226463
120	0x3c070556	0.008241018
121	0xbcfc0921	-0.030766072
122	0xba966321	-0.0011473635
123	0xbd3d20f3	-0.046174
124	0x3b05f2cc	0.0020438908
125	0x3cf6a27b	0.030106774
126	0xbc2987d7	-0.010347328
127	0xbc4ce160	-0.012504905
128	0xba42fca0	-0.0007438157
129	0xbd70f36d	-0.0588259
130	0x3d25ed5d	0.04050957
131	0x3cae23e0	0.02125734
132	0xbc99b0bd	-0.018761033
133	0x3c8791a3	0.016548937
134	0x3d64a4ea	0.055821337
135	0x3d3999d4	0.045312718
136	0xbd7ce502	-0.061741836
137	0xbc8345eb	-0.01602455
138	0xbbbd1b6a	-0.0057710903
139	0x3d4c0f7c	0.049819455
140	0xbcb51d6d	-0.022108758
141	0xbd6a3391	-0.057178084
142	0xbd346ad0	-0.044047177
143	0xbd42e215	-0.04757889
144	0xbc937cae	-0.018003788
145	0x3c21490e	0.009844078
146	0x3ccf3784	0.025295027
147	0xbc33d738	-0.010976605
148	0xbba3de70	-0.005000882
149	0x3bcd158f	0.0062586735
150	0x3ce65b70	0.028119773
151	0x3d2489d8	0.04017052
152	0x3d5fffeb	0.05468742
153	0xbd3db8be	-0.046318762
154	0xbd55d138	-0.05220148
155	0xbd705ca4	-0.0586821
156	0x3cfe9a65	0.03107948
157	0xbd138c04	-0.0360222
158	0xbd5da82c	-0.05411546
159	0xbd32d545	-0.04366042
160	0xbd120f4d	-0.035659123
161	0x3d495ee8	0.049162775
162	0xbbfd800f	-0.007736213
163	0xbce4dd54	-0.027937569
164	0x3d055e32	0.032560535
165	0xbb6980b4	-0.0035629692
166	0xbcbed301	-0.023293974
167	0xbd4ba957	-0.049722042
168	0x3b74ce39	0.0037354364
169	0x3cd99f9c	0.026565365
170	0xbcc1d41b	-0.02366071
171	0x3d25047b	0.040287476
172	0xbd2f95d7	-0.042867508
173	0xbca8320f	-0.020531682
174	0xbb2f6f5d	-0.0026769259
175	0xbd7bd9de	-0.06148707
176	0x3b92d162	0.004480527
177	0xbd1970a8	-0.037460953
178	0xbd45ad49	-0.04826096
179	0x3cdefe2d	0.02722081
180	0xbc853e72	-0.016265128
181	0x3c4ca220	0.0124898255
182	0x3c9ead57	0.019369764
183	0x3d377e50	0.044798195
184	0xbd51b910	-0.05120188
185	0x3c53e0b2	0.0129319895
186	0x3d0ef63a	0.03490279
187	0xbccb9060	-0.024849117
188	0x3c93e1ec	0.018052064
189	0xbd13106a	-0.035904326
190	0x3c20198b	0.009771715
191	0x3c8aa03e	0.016922113
192	0xbd897f13	-0.067136906
193	0x3b8813a0	0.00415273
194	0x3d5eafc9	0.05436686
195	0xbd881118	-0.066438854
196	0x3d2d96bd	0.042380083
197	0xbc8c4af6	-0.017125588
198	0xbaabb730	-0.0013100859
199	0xbd2c0fc2	-0.042007215
200	0x3cc5187a	0.024059523
201	0xbd1086a9	-0.035284672
202	0x3a9cef00	0.0011973083
203	0xbc029f88	-0.0079726055
204	0xbc9286c1	-0.017886521
205	0xbd354d84	-0.044263378
206	0xbcfbf217	-0.030755086
207	0x3d5fc5af	0.054631885
208	0x3d3dfb0c	0.046381995
209	0x3ce2423e	0.027619477
210	0x3ca983a7	0.02069266
211	0xbc647962	-0.013944956
212	0x3d8238f7	0.063585214
213	0x3d4d83b7	0.05017444
214	0xbd70d6d5	-0.05879863
215	0x3c995cb6	0.018720966
216	0xbd54803f	-0.051880118
217	0xbd00763c	-0.031362757
218	0xbbad927c	-0.0052970033
219	0xbc9b15cf	-0.018931298
220	0x3cb26ad4	0.021779455
221	0xbc9ba02e	-0.018997278
222	0xbd2421a9	-0.040071163
223	0xbd234153	-0.03985722
224	0x3d2c2eb6	0.042036735
225	0xbd4d4846	-0.050117753
226	0xbce74f23	-0.028235978
227	0xbd69381b	-0.056938272
228	0xbc8a2d64	-0.016867347
229	0x3d359caf	0.04433888
230	0x3d4d2b1e	0.050089948
231	0xbcbb7410	-0.022882491
232	0x3cb7b7e6	0.022426557
233	0x3c0b2b31	0.008494184
234	0xbd5065de	-0.050878398
235	0xbd3509c6	-0.044198774
236	0xbd1279a9	-0.035760555
237	0x3c8194e3	0.015818065
238	0xbbc8c8c3	-0.0061274483
239	0xbd12ed19	-0.035870645
240	0x3d30e273	0.04318471
241	0x3c82ed98	0.015982434
242	0x3b77e232	0.0037824032
243	0xbd63c042	-0.055603273
244	0x3c269954	0.010168392
245	0x3d159335	0.03651734
246	0xbd08dbdd	-0.033412803
247	0x3d068613	0.032842707
248	0xbd0f4ae8	-0.034983546
249	0x3d7a0e31	0.06104869
250	0xbce8dc6c	-0.028425418
251	0x3b9a06b3	0.0047005056
252	0xbd4d7738	-0.050162524
253	0x3d33f47e	0.043934338
254	0x3d0368d8	0.03208241
255	0x3d652bb0	0.055949867

fc3.bias f4 [128]
0	0x3c724006	0.014785772
1	0x3e895a10	0.26826525
2	0x3c84d068	0.016212657
3	0x3e5572b7	0.20844541
4	0x3e37a22d	0.17932959
5	0x3e6a07fc	0.22854608
6	0xbc8861fd	-0.016648287
7	0x3e91cd33	0.28476867
8	0xbcfa427a	-0.030549277
9	0xbd7cf6d9	-0.06175885
10	0x3e1047cb	0.14089887
11	0x3e64078d	0.22268505
12	0xbcd1125a	-0.025521446
13	0x3e8d6758	0.27617908
14	0xbd4c8b2e	-0.04993742
15	0x3e2e646a	0.17030492
16	0x3d8a1c45	0.06743673
17	0x3e690ae2	0.22758058
18	0x3de5a5c9	0.11213262
19	0x3ddc2a30	0.10750234
20	0x3e1d4321	0.15357639
21	0xbc960f3f	-0.018317817
22	0x3dec8e96	0.115506336
23	0x3ca6c78f	0.020358829
24	0x3d121058	0.035660118
25	0x3c2964ef	0.010339006
26	0x3e53036d	0.20606776
27	0x3e53cd45	0.20683773
28	0x3e1a2894	0.15054542
29	0x3d4c5757	0.04988798
30	0x3e79359a	0.24336854
31	0x3e15e9b0	0.14639926
32	0x3c6b2e17	0.01435425
33	0x3e4315e8	0.19051325
34	0x3e31d2e1	0.173656
35	0x3e54d02e	0.20782539
36	0x3e15ebef	0.14640783
37	0x3e3d9a9b	0.18516009
38	0x3d6220ed	0.05520718
39	0xbd584a9c	-0.052805528
40	0xbd87bd88	-0.06627947
41	0x3ce3a6c8	0.027789488
42	0x3e7ca78f	0.24673294
43	0x3e223d23	0.15843634
44	0x3ce8b5a6	0.02840693
45	0x3e0c0d53	0.13676958
46	0x3e4c7fb4	0.1997059
47	0x3e4784d1	0.19484259
48	0x3e6002a1	0.21876003
49	0x3e5e6f41	0.21722127
50	0x3e83cce5	0.2574226
51	0x3d5cc855	0.05390199
52	0x3e278c00	0.16362
53	0xbd643ea5	-0.055723805
54	0x3cc498cc	0.02399864
55	0x3e902d5d	0.2815961
56	0xbd84bd66	-0.064814374
57	0x3e1b3e97	0.15160595
58	0x3db537fb	0.08848568
59	0x3e0f9bf3	0.14024334
60	0xbcdb37db	-0.026760032
61	0x3cd44b45	0.025914798
62	0x3e6beb58	0.23038995
63	0xbc9cb81c	-0.019130759
64	0x3e312007	0.17297374
65	0xbd88da87	-0.06682306
66	0x3e29b796	0.16573939
67	0x3e7496f2	0.23885706
68	0x3e0a305c	0.1349501
69	0x3e01da1f	0.12680863
70	0x3e80c9cc	0.2515396
71	0xbd838359	-0.06421537
72	0x3e87de7b	0.26536927
73	0xbc41c03f	-0.01182562
74	0x3dfa9367	0.12235146
75	0x3ca250fe	0.01981401
76	0x3db87e22	0.09008433
77	0x3e90e837	0.28302166
78	0xbd1b0f8b	-0.03785662
79	0x3e176c68	0.14787447
80	0x3dee7f3b	0.11645361
81	0x3e143ed1	0.14477088
82	0x3e190678	0.14943874
83	0xbca1cf01	-0.019752027
84	0x3c5e77d3	0.013578373
85	0x3e3f59cf	0.18686603
86	0x3e8565c5	0.26054206
87	0x3d2cb7b5	0.042167384
88	0x3cebd5bd	0.028788442
89	0x3e1e8bbf	0.15482996
90	0x3d137c62	0.036007293
91	0xbcd7ecc1	-0.02635801
92	0x3dd68205	0.10474018
93	0xbc7a9bc7	-0.015295929
94	0xbd80d7f0	-0.06291187
95	0x3cee938b	0.029123088
96	0x3e292b3e	0.16520402
97	0x3e6f3da7	0.23363362
98	0x3e43263b	0.19057553
99	0x3e2046e0	0.15652037
100	0xbd16b205	-0.036790866
101	0x3e872b55	0.26400247
102	0x3e208224	0.15674645
103	0xbd720a30	-0.059091747
104	0x3e19319f	0.14960335
105	0x3e5df1d3	0.2167428
106	0x3e759f69	0.23986591
107	0x3e6552df	0.22394894
108	0x3e324861	0.17410423
109	0x3e17352a	0.14766374
110	0x3e1c8e40	0.15288639
111	0xbd962bc0	-0.073325634
112	0xbd0ca01b	-0.034332376
113	0xbd9e8218	-0.07739657
114	0x3b141fb1	0.0022601897
115	0x3ceba14d	0.028763438
116	0x3c91627c	0.017747156
117	0xbc6362be	-0.013878522
118	0x3e1e9b74	0.15488988
119	0xbc2f6275	-0.010704626
120	0xbd71e3a2	-0.05905498
121	0x3e66139f	0.22468422
122	0xbd212b7c	-0.03934811
123	0x3e578a9a	0.21048966
124	0x3e37479b	0.17898409
125	0x3e34a151	0.17639662
126	0x3d5d08ce	0.053963475
127	0x3e848683	0.25883874

fc4.weight f4 [128, 128]
0	0x3db64963	0.08900716
1	0xbcacb31f	-0.021081505
2	0xbd1d2630	-0.038366497
3	0xbd76f162	-0.060288794
4	0xbdbbd3b7	-0.09171241
5	0xbdabe3b9	-0.08393044
6	0x3ad756c0	0.0016429052
7	0xbcae23a6	-0.021257233
8	0xbcc3e638	-0.023913488
9	0x3d8b1b3b	0.06792303
10	0xbd25e2e8	-0.040499598
11	0xbd9a2fd4	-0.07528654
12	0x3d89ea07	0.0673409
13	0xbd22549c	-0.03963147
14	0x3c82e80d	0.015979791
15	0x3bc111e2	0.0058920244
16	0x3d407013	0.046981882
17	0x3d959b19	0.07304973
18	0xbcbc63df	-0.022996841
19	0xbd9c59ab	-0.0763429
20	0x3d323981	0.04351187
21	0xbd3322a6	-0.043734215
22	0xbd65a0d8	-0.056061596
23	0x3d6b9fd0	0.057525456
24	0xbda6cb17	-0.08144205
25	0x3cdb6235	0.026780227
26	0x3d7408f0	0.059578836
27	0xbd69276e	-0.05692237
28	0xbd78f13d	-0.060776938
29	0x3da28bc5	0.07936815
30	0xbdc2c7c0	-0.095107555
31	0x3cc7725e	0.024346527
32	0x3ca02232	0.019547556
33	0x3d5e9714	0.054343298
34	0x3c04cad3	0.008104998
35	0xbd541060	-0.05177343
36	0xbdb78597	-0.08961027
37	0x3d54c8a6	0.051949166
38	0xbb9ea36f	-0.00484126
39	0x3b9be0b0	0.0047570094
40	0x3cb73b27	0.022367073
41	0x3d9a39c3	0.075305484
42	0x3c7cb161	0.01542315
43	0x3d75239d	0.059848417
44	0x3cbdcc9c	0.023168854
45	0xbd36cbdc	-0.04462801
46	0x3c3a2228	0.011360683
47	0xbcde181f	-0.027111111
48	0xbcc0a25c	-0.023514919
49	0xbc57bf54	-0.013168175
50	0xbca034f4	-0.0195565
51	0xbb9adc82	-0.0047259936
52	0xbd92dd41	-0.07171107
53	0xbda3f5e4	-0.08005884
54	0xbd4aa8f9	-0.04947755
55	0x3d3e63ea	0.046482004
56	0xbd63f88b	-0.05565695
57	0xbd77a658	-0.060461372
58	0xbcb5b91f	-0.022183
59	0x3d277453	0.04088242
60	0x3d90bfb2	0.07067813
61	0xb8328558	-4.2562693e-05
62	0x3d1f1599	0.038838957
63	0xbcd69a93	-0.026196754
64	0xbcf10d6a	-0.029425342
65	0xbc9ac5f0	-0.018893212
66	0x3d32c1e2	0.043641932
67	0x3c99f759	0.018794702
68	0xbc8ae583	-0.016955143
69	0x3d80ac97	0.06282919
70	0xbc5cff3c	-0.013488587
71	0x3d0d5ec3	0.0345142
72	0x3cdde7cf	0.027088074
73	0xbc948384	-0.018129118
74	0x3d48b172	0.04899735
75	0xbcd83e4a	-0.02639689
76	0xbdbf67e5	-0.09345988
77	0xbd5387c5	-0.05164315
78	0x3d36349d	0.04448377
79	0x3d04ffb9	0.03247044
80	0xbcc8ac2f	-0.024496166
81	0xbc66bf06	-0.0140836295
82	0x3d773644	0.060354486
83	0xbcd300ad	-0.025757158
84	0x3cc6b96c	0.024258338
85	0xbc923ffa	-0.017852772
86	0xbd9ade49	-0.07561929
87	0xbd450712	-0.048102446
88	0x3d15d9ae	0.03658455
89	0x3c780fce	0.015140487
90	0xbc10f3d0	-0.008847192
91	0xbc40f754	-0.011777718
92	0x3c34ad44	0.011027638
93	0x3d9c384c	0.07627925
94	0xbcad7040	-0.021171689
95	0xbd298d70	-0.04139465
96	0xbd8a5b06	-0.067556426
97	0xbac75d52	-0.0015210307
98	0x3d4873c4	0.048938528
99	0x3cb76406	0.022386562
100	0xbdae0f73	-0.084990405
101	0xbd6cbfc3	-0.057800066
102	0xbd92baff	-0.07164573
103	0x3c8bfe62	0.017089073
104	0x3d32716d	0.043565203
105	0x3d7200bf	0.059082743
106	0xbd17dfd2	-0.037078686
107	0x3c7d8f31	0.015476034
108	0xba374b07	-0.0006992076
109	0xbdadc677	-0.0848512
110	0x3d968c42	0.07350971
111	0x3d5ece2a	0.054395832
112	0xbdafb76d	-0.085799076
113	0x3d9f089d	0.07765315
114	0x3d30649e	0.043064706
115	0xbd950134	-0.0727562
116	0x3d81ce84	0.06338218
117	0xbda7e7fe	-0.08198546
118	0x3d4956ba	0.049154975
119	0x3acfe24b	0.0015860287
120	0xbcc3e85c	-0.023914509
121	0x3cc87ad9	0.02447264
122	0x3d572a13	0.05253036
123	0xbd8acc50	-0.06777251
124	0x3d3eb1cd	0.046556283
125	0xbd1e82a9	-0.038698826
126	0x3d846aad	0.06465659
127	0x3d9ec388	0.077521384
128	0x3da41bcb	0.080131136
129	0x3d77dd9d	0.06051408
130	0xbcc08025	-0.023498604
131	0x3cd22813	0.025653875
132	0x3cf6831e	0.030091818
133	0xbd4bebd8	-0.049785465
134	0xbd8d4b08	-0.06899077
135	0xbd400a1d	-0.046884645
136	0x3b9bd083	0.004755081
137	0xbd05d546	-0.032674097
138	0x3dc2d04f	0.09512388
139	0x3d7048d5	0.058663208
140	0x3d91bd69	0.07116205
141	0x3e4b6c70	0.19865584
142	0x3ce409db	0.02783673
143	0xbc4b5ffd	-0.012413022
144	0x3d226604	0.03964807
145	0x3d21e92d	0.039529014
146	0xbdf05a23	-0.11735942
147	0x3d44ef51	0.048079792
148	0x3deb51a7	0.11490183
149	0x3d3d30ad	0.046189
150	0xbd975b51	-0.07390464
151	0x3d1e8804	0.038703933
152	0xbd1d1999	-0.03835449
153	0x3ba00ae8	0.0048841126
154	0x3de25f33	0.11053314
155	0x3c194160	0.0093539655
156	0xbdd389a9	-0.10328991
157	0x3b5a44ac	0.0033305092
158	0x3dbfb7a6	0.093612
159	0x3cb4eae8	0.022084668
160	0xbd881c94	-0.06646076
161	0x3d701f90	0.05862385
162	0xbddc93cd	-0.10770378
163	0x3d5354b1	0.05159444
164	0x3dd55cc4	0.10418084
165	0x3ce9ef6d	0.02855655
166	0xbd9f825c	-0.07788536
167	0x3d10fe1e	0.035398595
168	0x394b7886	0.00019404487
169	0xbd8702bb	-0.06592318
170	0xbe8493e2	-0.25894076
171	0x3d4a3fe5	0.04937734
172	0xbd00e906	-0.03147223
173	0x3c68a7b8	0.0142001435
174	0xbdea089f	-0.114274256
175	0x3d708ba7	0.058726933
176	0x3c53977a	0.012914533
177	0xbd2d8a73	-0.042368364
178	0xbd82d9b4	-0.0638918
179	0xbd57a298	-0.052645296
180	0xbdcff10c	-0.10153398
181	0xbcda41a1	-0.026642622
182	0x3d8daa8b	0.06917294
183	0xbd487f63	-0.04894961
184	0x3d37de82	0.044889934
185	0xbd0593b2	-0.032611556
186	0xbe5c9d34	-0.21544343
187	0xbd406644	-0.046972528
188	0x3d6c523a	0.057695605
189	0x3c9ba500	0.018999577
190	0x3dd9bf4b	0.10632189
191	0x3cf2f6e8	0.02965875
192	0x3c2e31ba	0.010631973
193	0xbd807751	-0.06272758
194	0x3da02591	0.07819665
195	0xbe05f615	-0.13082154
196	0xbd4d682f	-0.050148185
197	0x3d814fe8	0.06314069
198	0xbc9e31bc	-0.019310825
199	0xbc9d7fa7	-0.019225908
200	0xbc42dcc5	-0.011893456
201	0xbd6d79a0	-0.05797732
202	0xbdbda654	-0.0926024
203	0xbdc01e30	-0.09380758
204	0xbe0e69b3	-0.13907509
205	0xbc6b4482	-0.014359595
206	0x3d429509	0.047505412
207	0x3d0069b5	0.03135081
208	0x3d911e59	0.070858665
209	0x3d510eea	0.051039614
210	0x3d219dba	0.03945706
211	0x3d98e7df	0.07466101
212	0x3d3db769	0.04631749
213	0x3c330766	0.010927057
214	0x3d25a375	0.040439088
215	0x3bcc7ea1	0.0062406813
216	0xbc6e76a4	-0.014554653
217	0xbcf12c17	-0.029439969
218	0xbc350bba	-0.011050159
219	0x3d66a22e	0.05630701
220	0x3ca32879	0.01991676
221	0xbd837a99	-0.06419868
222	0xbd77951f	-0.060444947
223	0xbc5c482c	-0.0134449415
224	0x3d2e5a48	0.042566568
225	0x3e02e311	0.12781931
226	0x3b8db608	0.0043246783
227	0x3d8063c9	0.062690325
228	0x3d877211	0.06613553
229	0xbd24f501	-0.040272716
230	0x3e0af44c	0.13569754
231	0x3c353687	0.011060364
232	0x3c585c29	0.013205566
233	0xbd339318	-0.04384145
234	0x3d83fe5a	0.06444998
235	0xbcea11a5	-0.028572867
236	0xbd6fbc9d	-0.058529485
237	0xbe21eaf2	-0.15812281
238	0x3d837b7b	0.064200364
239	0xbd05125b	-0.03248821
240	0xbf162bbc	-0.58660483
241	0xbe12dbd2	-0.14341667
242	0x3d4df99f	0.050286885
243	0xbd1c0937	-0.038094725
244	0xbd2745e6	-0.040838145
245	0x3ca627f3	0.020282721
246	0x3d8c69a1	0.068560846
247	0x3c974f9e	0.018470582
248	0xbcbb9278	-0.02289699
249	0xbcc11bc1	-0.023572804
250	0xbd804c3c	-0.062645406
251	0xbc8d12c5	-0.017220864
252	0x3db82f40	0.08993387
253	0xbd521cbc	-0.051296934
254	0xbc92d383	-0.017923122
255	0x3d65f69b	0.056143384

fc4.bias f4 [128]
0	0xbcf271d1	-0.029595288
1	0x3e4dc3ae	0.20094177
2	0x3e1268d0	0.14297795
3	0x3cc6b9ce	0.02425852
4	0x3e0b16aa	0.13582864
5	0x3def3599	0.11680145
6	0x3dea82c3	0.11450722
7	0x3dc457f5	0.09587089
8	0xbda5a7c4	-0.080886394
9	0x3e2d4521	0.16920902
10	0x3e1e5d74	0.15465337
11	0x3e3ce213	0.18445615
12	0xbd603d56	-0.054745995
13	0xbcaf5155	-0.021401087
14	0x3e0e4521	0.13893558
15	0xbc8111b6	-0.015755516
16	0x3e526dbf	0.20549677
17	0xbd1d0af0	-0.03834051
18	0xbcf7dccf	-0.030256657
19	0x3d3a33ad	0.045459438
20	0xbc9e6c51	-0.019338759
21	0x3dc6d4e6	0.09708576
22	0x3e189281	0.14899637
23	0xbd6fc8de	-0.05854117
24	0x3d7be443	0.061496984
25	0x3d817a17	0.06322115
26	0x3e15e55d	0.14638276
27	0xbbc950ed	-0.0061436803
28	0x3e0c6454	0.13710147
29	0x3d02319b	0.03178559
30	0x3d4cab3b	0.049967986
31	0xbd691148	-0.056901246
32	0x3d8a5c33	0.06755867
33	0x3e252cb0	0.16130328
34	0xbdb35bc7	-0.087577395
35	0x3d6f9fdc	0.058502063
36	0x3d9eb016	0.077484295
37	0x3e0d97dd	0.13827462
38	0x3d4df94a	0.05028657
39	0xbda91247	-0.08255439
40	0x3e1620ce	0.14660951
41	0x3df1f9b7	0.118152075
42	0x3cee13fc	0.029062264
43	0xbdc57511	-0.09641469
44	0x3e496090	0.19665742
45	0xbe566ff9	-0.20941152
46	0xbdbea95c	-0.093096465
47	0x3dd30902	0.103044525
48	0x3deff4b8	0.11716598
49	0x3d7203e7	0.059085753
50	0x3e209fe7	0.15685998
51	0x3e0cde3b	0.13756649
52	0x3d1c7a40	0.038202524
53	0x3e09d4c7	0.13460074
54	0x3d07b014	0.033126906
55	0x3e0dd454	0.13850528
56	0x3d9f7d82	0.077876106
57	0x3db8be00	0.090206146
58	0xbba7ccf9	-0.00512087
59	0x3dc1979b	0.094527446
60	0x3e06548f	0.13118194
61	0x3e259b0a	0.16172424
62	0xbc8a345f	-0.016870676
63	0x3e215d8c	0.15758342
64	0xbd141fe7	-0.036163237
65	0x3e2e09f3	0.16995983
66	0x3db74ec2	0.08950569
67	0x3e0b45d5	0.13600858
68	0x3e3752b6	0.17902645
69	0x3e10b183	0.14130215
70	0xbdb9f559	-0.090799995
71	0x3e36a19d	0.17835088
72	0x3e10f58d	0.1415617
73	0x3cab4037	0.020904643
74	0xbd95c712	-0.0731336
75	0xbd9a0d13	-0.07522025
76	0x3e3732f5	0.17890532
77	0x3db653d2	0.08902706
78	0x3c53186f	0.012884243
79	0x3e3e428f	0.18580078
80	0x3dfddfd3	0.12396207
81	0xbd673b11	-0.056452814
82	0xbdadba4e	-0.084828004
83	0x3e423d5d	0.1896872
84	0x3c8130ad	0.01577028
85	0x3df44da9	0.11928875
86	0x3e289789	0.16464056
87	0x3de97e8a	0.114010885
88	0x3e13fdfe	0.14452359
89	0x3c53a6a1	0.012918145
90	0x3dc60ad6	0.096700355
91	0xbc67a7b9	-0.014139109
92	0x3de5046d	0.11182485
93	0xbd3fc0b2	-0.046814628
94	0x3df3a42a	0.11896546
95	0x3c64ff5a	0.013976896
96	0x3d67a8de	0.05655753
97	0x3e0402e1	0.12891723
98	0x3ce9bae2	0.028531495
99	0x3df092fa	0.117467836
100	0x3e189a42	0.14902595
101	0xbd5cd5a8	-0.053914696
102	0xbd4fd0d8	-0.05073628
103	0x3e049afb	0.12949745
104	0x3d605ca9	0.054775868
105	0x3e12fcc6	0.14354238
106	0xbdbf76bc	-0.09348819
107	0x3a966ff5	0.0011477458
108	0x3cbba466	0.02290554
109	0x3e13a289	0.14417471
110	0x3df4ae27	0.119472794
111	0x3de0062c	0.10938677
112	0xbe8ade97	-0.27122948
113	0xbdadc838	-0.08485454
114	0xbd8f5e82	-0.07000448
115	0x3d857cc6	0.06517939
116	0xbd5bd6f8	-0.053671807
117	0xbd6b1d3d	-0.05740093
118	0x3d9b1568	0.07572442
119	0x3dbf3b4a	0.0933748
120	0x3d3bf8cd	0.04589157
121	0x3e73bcd4	0.23802501
122	0x3d2ec30b	0.042666476
123	0x3d02f353	0.031970333
124	0x3e22184e	0.15829584
125	0xbbe57d6f	-0.0070034782
126	0xbdb4f49a	-0.088357165
127	0x3deeef2d	0.11666713
