checkpoints/checkpoint_qnetwork_local_WMT_V5_.pth (torch_old, 340036 bytes, 10 tensors)

fc1.weight f4 [128, 13]
000000 c6 f7 f7 3d fb b8 64 bd f6 79 01 be 46 28 19 bf
       0.12107806 -0.055840474 -0.1264418 -0.5982708
000010 d2 34 94 3e 17 be 18 3f 41 ac 42 3f 00 80 de 3e
       0.2894655 0.59665054 0.7604409 0.4345703
000020 1d 61 d5 be ee d0 e9 bd e8 62 84 bf 23 5a a6 bd
       -0.41675654 -0.11416803 -1.0342684 -0.08122661
000030 50 da 7e bf 2b 2a 59 3c 1f 58 95 bc f5 0f 1e 3c
       -0.9955187 0.0132546825 -0.018230496 0.009647359
000040 69 c1 65 bc cf 46 7c 3c f7 49 0d 3c 88 3a 54 bc
       -0.014023163 0.015397741 0.008623592 -0.012953408
000050 b2 4d 45 bd 47 1a 1d 3d 40 d5 84 3c f8 9e 0b be
       -0.0481698 0.03835514 0.016214967 -0.1363486
000060 45 c6 d6 bf e7 32 eb be 67 05 18 be 43 5d 97 be
       -1.6779257 -0.45937273 -0.14845811 -0.2956334
000070 8b 62 24 3e 48 23 23 bf d5 52 1b be 09 27 1a be
       0.16053216 -0.6372571 -0.15168317 -0.15053953
000080 fe 41 77 bb ff 05 0e bf 6d f3 44 bd b2 cd 6e be
       -0.0037728543 -0.554779 -0.04808371 -0.23320654
000090 e6 b8 9e bf 8f cb d8 3c 0d fa 74 3e 1e c3 88 3e
       -1.2400177 0.026464252 0.23923512 0.26711363
0000a0 6d bc a8 bd f6 b6 2c 3e 1b d9 34 3d 99 09 e3 bc
       -0.08239064 0.16866669 0.04415236 -0.027714537
0000b0 0d ea 7d 3e 79 43 4f be ac 95 03 be 51 d4 4f be
       0.24796315 -0.20240583 -0.12850064 -0.20295836
0000c0 2c 0e 0c bf 60 93 ee be 18 22 8c 3f fb f3 02 3e
       -0.54709125 -0.46596813 1.0947905 0.12788384
0000d0 14 db c8 3c 80 f4 ec 3e ee 69 af 3d 0d b9 01 3e
       0.024518527 0.4628029 0.08565126 0.12668248
0000e0 9c 7e 06 3e 4e 8f d2 3e a0 80 a7 3e 49 a4 19 3c
       0.13134235 0.41124958 0.3271532 0.009377548
0000f0 53 cb 16 3e bc 82 36 bd 7d 36 95 bf e7 d6 d4 be
       0.14726 -0.04455827 -1.1657254 -0.41570207
000100 ae 5b b4 be b5 42 ac bd 83 fb 2e be c1 e3 93 bd
       -0.35226196 -0.08411161 -0.17088132 -0.07221175
000110 97 ff 05 3e f2 33 0c bd f4 67 16 3e 6c 2e 20 bd
       0.13085781 -0.034229226 0.14688092 -0.03910677
000120 a7 07 44 3e d7 4c 3e 3d 09 d8 21 bd c7 ff 49 be
       0.19143544 0.04646 -0.039512668 -0.19726478
000130 ca 2d eb bf 6d 76 9b bf 57 23 ea bd e6 74 24 bb
       -1.8373349 -1.2145516 -0.11432522 -0.002509409
000140 06 71 c6 bd b2 c5 d1 bd 0e 91 83 bd 83 ce 62 bc
       -0.09689526 -0.102427855 -0.06424151 -0.013843182
000150 78 9d d3 3c dd b3 64 3d 48 c2 ca 3b b8 95 c9 3c
       0.025831923 0.055835593 0.006187711 0.024607524
000160 e3 c5 8a be ed 00 dd bf 4d 8e d0 be 6c a9 37 bd
       -0.271041 -1.7265908 -0.40733567 -0.044839308
000170 f5 2e ae 3d 34 9a 64 3d ca 00 bf bd 5e cb 99 bd
       0.0850505 0.055811122 -0.093263224 -0.07509492
000180 ee 4d 0e 3f b8 da 80 3e 23 d8 1d bd 62 f8 9d be
       0.5558766 0.2516687 -0.038536202 -0.30853564
000190 74 b4 28 bc d6 70 15 be e2 09 5c c0 b8 1c d2 be
       -0.01029693 -0.14593825 -3.4381032 -0.41037536
0001a0 be 6e 40 3b 98 3a b0 3e f9 6c 8d 3e 4b 73 42 be
       0.0029362882 0.34419703 0.27622202 -0.18989293
0001b0 0d 04 c0 be 3e 43 9c be bc bd 1d 3f e7 cc 62 3f
       -0.3750309 -0.30520052 0.61617637 0.88593906
0001c0 15 97 57 be fa 9a 7f be 86 65 cd bd 85 a6 c5 bf
       -0.21053727 -0.24961463 -0.1002913 -1.5441443
0001d0 9e e3 e8 bd 65 6f 9d bd 4a 99 4c bc 8c 9d cf bd
       -0.113715395 -0.076872624 -0.012487719 -0.101374716
0001e0 80 35 3c 3d 04 e2 32 bc dc 33 aa 3d 5b b5 20 3b
       0.04594946 -0.010918144 0.08310673 0.0024522159
0001f0 0f 22 5e bd 56 e2 82 3d da b6 10 3d 94 d7 1d bf
       -0.0542317 0.063908264 0.03533063 -0.6165707
000200 a6 f0 ac be d6 1a cb be 9d 5c 3d 3d ae 6a 91 3e
       -0.3377735 -0.39668912 0.0462309 0.28401703
000210 02 61 35 3e b4 b2 c5 3e 25 e5 be 3d 69 5d b0 3e
       0.17712787 0.38612902 0.093210496 0.34446266
000220 a3 0d 6c 3e c5 a6 85 bb 71 b4 62 3e 7a 72 d7 3d
       0.23052077 -0.0040787184 0.22139145 0.105198815
000230 ee 8c 7f 3e 4b 74 6d bf 17 50 d1 be 97 2c 33 bd
       0.24956104 -0.92755574 -0.40881416 -0.043743696
000240 a6 22 ac bb cb f9 83 bd 2c 78 b4 3b b3 1a 5c bd
       -0.005253154 -0.064441286 0.0055074897 -0.0537364
000250 44 4f 63 bd b0 c2 79 3b 77 c5 0f 3b 37 46 08 3d
       -0.055495515 0.0038110428 0.0021937767 0.033270087
000260 d5 cd d0 3c 1f 42 e9 3b 7c 28 9a be 3d 66 e3 be
       0.025488773 0.007118478 -0.30109012 -0.4441394
000270 7f d6 c4 3c b7 4d bc be 57 ed 43 3e 50 6a c5 3e
       0.024028061 -0.36778042 0.19133507 0.38557673
000280 b1 1e 98 3e 06 6b b5 be ad 7d ef be fa e9 df be
       0.29710916 -0.35433215 -0.4677557 -0.43733197
000290 44 c2 8d 3e e4 5a aa 3d 5a 81 37 bf ab d3 8a 3e
       0.27687275 0.08318117 -0.7168175 0.27114615
0002a0 b1 c3 b2 bf 8f 20 47 bd 28 f6 09 3f 7b e1 c5 be
       -1.396597 -0.048615035 0.5389123 -0.3864859
0002b0 3a 99 98 3d 2d 5b 15 be a4 df e1 3e 7a e8 8c 3e
       0.07451101 -0.14585562 0.44115937 0.27521116
0002c0 48 a6 22 3f 40 df 4f bd 4c bc 88 3e 3a 25 04 be
       0.63534975 -0.050750017 0.2670616 -0.12904826
0002d0 4a 0f 3e be fd 5e 41 bf 1a 99 3c 3d 80 aa 96 be
       -0.1856052 -0.75535566 0.046044447 -0.29426956
0002e0 93 25 83 3e aa 80 c1 3e d5 30 a1 3d 3e 46 c2 be
       0.25614604 0.37793475 0.07870642 -0.37944216
0002f0 c0 e9 07 bf 89 16 34 3e 20 0d 03 bd 76 b6 fc 3e
       -0.5309105 0.17586721 -0.03199494 0.49357957
000300 35 8e 0c bf 24 6a ba 3d d6 1e 02 3f 78 cd 1b be
       -0.5490449 0.09102276 0.508283 -0.15215099
000310 b1 95 39 3d 10 67 08 bd 32 7f 49 bc 7e 71 11 be
       0.045308772 -0.033301413 -0.012298392 -0.1420345
000320 46 f5 54 3d a9 7a 16 bd 82 a0 36 bd 23 66 92 3d
       0.051991723 -0.03673807 -0.044586666 0.07148387
000330 7f 1c ba bd c5 3c 90 be 81 07 cd bf ab bf 07 bf
       -0.090874664 -0.28171363 -1.6017915 -0.5302684
000340 eb 6b 55 be 75 79 34 3f 64 25 6c 3f 89 31 2e 3d
       -0.20841949 0.7049783 0.92244554 0.04252771
000350 9e 82 88 3e cf 48 f1 be 75 df cf 3d 19 76 65 3d
       0.26662153 -0.4712586 0.10150043 0.05602083
000360 bb c8 dc 3e 03 bc c9 3d 3d 50 87 be 8d 8c 60 bf
       0.43121895 0.098503135 -0.26428404 -0.87714463
000370 96 7d 37 bf 4b cf 06 bf b8 9b 7c 3e 47 80 4f bf
       -0.71676004 -0.52660054 0.24668777 -0.8105511
000380 2e f1 e7 be 7d 8f 62 bd ee 1c 21 be 2a a4 5c be
       -0.45301193 -0.055312622 -0.15733692 -0.21546999
000390 2a 4b e3 3e 33 b1 3d be 6b d6 d2 3e 53 65 1a bf
       0.44393283 -0.18524627 0.41179213 -0.6031086
0003a0 51 48 17 bf 55 0a e0 be 12 fd 1e bd d6 5a 6c 3e
       -0.5909472 -0.43757883 -0.038815565 0.23081526
0003b0 2c ee e5 bd 37 e7 f3 be 9f de ce 3d 58 29 04 3f
       -0.11227068 -0.4763734 0.10101055 0.51625586
0003c0 95 dc 7f be fe 69 bf 3d 7a ef e6 3c 47 3d d2 bd
       -0.24986489 0.09346388 0.028190363 -0.10265594
0003d0 9c 79 82 bd 97 6b 0d c0 62 b6 3a 3f e5 8a ed be
       -0.063708514 -2.2096918 0.72934544 -0.4639503
0003e0 4f 23 82 be 1b 27 cb bc 4f 33 1d be 32 9d e9 bd
       -0.25417563 -0.02479892 -0.15351604 -0.11406936
0003f0 0e 12 da bd a4 b6 3c be f3 6f 38 bd 40 e2 60 3b
       -0.10647975 -0.18429047 -0.045028638 0.0034314543

fc1.bias f4 [128]
000000 1a 2e 98 bf ce c7 79 be fb 0a 49 bf 26 5b 0f 40
       -1.1889069 -0.24392626 -0.7853238 2.2399383
000010 19 8e 86 3f e0 ff 76 bf fc 34 63 bf 61 ad 42 bf
       1.0512115 -0.96484184 -0.8875272 -0.76045805
000020 ea 94 b0 bf 91 ea 38 bf 1b 89 d6 3e 9d 59 17 bf
       -1.3795445 -0.7223292 0.41901478 -0.59121114
000030 13 7a 78 3f 58 af 14 bf 2b 19 79 bf a5 3c 8b bf
       0.9706127 -0.58080053 -0.9730403 -1.0877882
000040 75 4a cc bf 4b 72 43 bf 7c 70 ae bf 31 bb fd bf
       -1.5960222 -0.7634627 -1.3628078 -1.9822751
000050 9a b1 14 bf 95 d8 c7 bf 17 47 7f bf 32 29 82 bf
       -0.580835 -1.561297 -0.9971785 -1.0168822
000060 8b cf 27 bf 7c 74 90 bf ff 14 69 bf 60 f8 ea be
       -0.6555106 -1.1285548 -0.9104766 -0.4589262
000070 4c 8c 18 bf f8 2d fd bf 9d 74 68 3d 0f 72 bb bd
       -0.59589076 -1.9779654 0.056751836 -0.09152614
000080 64 cd 8f bf 97 c2 8a bf dd ae 46 bf 03 cf d4 bf
       -1.1234555 -1.0840634 -0.7761057 -1.6625675
000090 2c a3 9c bc b3 32 cd bf 51 c5 86 bf 25 77 11 bf
       -0.019120775 -1.6031097 -1.0528966 -0.56822425
0000a0 0d 32 53 bf a8 02 e8 bf 25 90 32 be 73 eb dd bf
       -0.82498246 -1.8125811 -0.174378 -1.7337478
0000b0 15 63 2d bf 1e bf b8 bf c4 8c 20 bf 41 22 2c bf
       -0.6772931 -1.4433324 -0.6271479 -0.6723977
0000c0 00 d3 82 bf e3 5e aa bf 7c 1a 28 bf 1e 8b 1c bf
       -1.0220642 -1.3310207 -0.6566541 -0.61149776
0000d0 ad 72 4f bf 6c c2 04 bf 47 06 51 bf 50 78 c4 bf
       -0.81034356 -0.51859164 -0.81650203 -1.5349216
0000e0 35 cb 31 bf 65 14 63 bf d8 12 c3 bf ec 4b e2 be
       -0.69450694 -0.88702995 -1.5240126 -0.4419855
0000f0 3f f8 e1 bf 79 93 03 bf 29 dd 16 40 f6 a5 67 bf
       -1.7653884 -0.513969 2.3572485 -0.9048761
000100 b2 8e 3d bf ce f8 57 bf d3 2b 4b be 04 60 33 bf
       -0.7404586 -0.8436402 -0.19840936 -0.70068383
000110 33 c6 53 be fc 7a 2f 3f 8d 39 e4 be 13 fc 92 bf
       -0.20681076 0.68547034 -0.44575158 -1.1483177
000120 c8 ab 48 bf 73 34 25 bf 8c ed ab be ee f7 d8 bf
       -0.7838712 -0.64533156 -0.3357967 -1.6950662
000130 55 6e 87 bf e1 b0 b7 3c 39 91 b5 bf 70 9e fc be
       -1.0580546 0.02242321 -1.4184943 -0.49339628
000140 71 90 b5 bf 58 82 5f bf c4 39 3a bf f8 69 3c bf
       -1.4184705 -0.87308264 -0.72744393 -0.73599195
000150 f9 88 19 bf d9 07 b6 bf 68 f6 b0 bf 61 9e 9b be
       -0.5997463 -1.4221145 -1.3825197 -0.3039427
000160 1f c5 81 bf 52 e6 3c bf fa 70 ae be 60 8a 20 bf
       -1.0138282 -0.7378894 -0.3407057 -0.62711143
000170 e7 5a 0c bf 1c 5f e6 bf c9 2b 8e bf 59 76 1f bf
       -0.54826206 -1.7997775 -1.1107112 -0.6228996
000180 bb 31 8a bf ca d6 e9 be 73 17 c3 bf 36 4a be 3d
       -1.0796427 -0.45671684 -1.5241531 0.09291498
000190 d5 50 8f 3e 38 e4 cd bf 50 f9 b5 bf 70 61 84 3f
       0.27991357 -1.6085272 -1.4216709 1.0342236
0001a0 98 c4 14 bf 18 81 98 bf 9a bc ea be b2 9d 37 bf
       -0.5811248 -1.1914396 -0.45847017 -0.71725
0001b0 9a 2c 97 bf 3b b5 9a bf 10 16 73 be 39 6e 04 3f
       -1.1810486 -1.2086557 -0.23738885 0.51730686
0001c0 3f 65 1f bf d2 2d 94 bf 9a 32 0e bf e5 19 9e 3c
       -0.62263864 -1.1576483 -0.5554596 0.019299457
0001d0 43 ec 5d bd 3b 31 a3 bf 32 7a 1c bf 70 3c 82 bf
       -0.054180395 -1.2749399 -0.61123955 -1.0174694
0001e0 1f 57 7e 3e 27 26 99 bf d2 dd 58 bf 53 d2 b3 bf
       0.24837922 -1.1964768 -0.8471347 -1.4048561
0001f0 46 dc f9 be 0e b5 81 3f 8c 83 36 bf cc a6 2a be
       -0.48800868 1.0133379 -0.71294475 -0.1666519

fc2.weight f4 [256, 128]
000000 8c 25 80 3e 71 ab 91 3b cb b4 82 bd 4f d3 32 3d
       0.25028646 0.0044454862 -0.0638214 0.04365855
000010 b2 24 d6 3d ae 94 1e 3c 92 cb b5 bb 3d e7 0e be
       0.10456218 0.009679003 -0.005547949 -0.13955398
000020 3f 0f 01 bf 44 47 c4 bc a4 8f f8 be 1e bc bb 3b
       -0.5041389 -0.023959763 -0.4854709 0.0057292124
000030 8f 0d 04 bf 3d d8 84 3e 9c 7a a2 be 17 58 90 bd
       -0.5158319 0.25946227 -0.3173417 -0.07048052
000040 88 43 f8 bd 92 c4 ec 3c a2 16 d3 be 04 44 fc 3d
       -0.121222556 0.028902326 -0.41228205 0.123176605
000050 6f 7a e4 3c 20 06 c2 ba c9 4e 4a bd ab 18 60 bd
       0.027890412 -0.0014802851 -0.04939154 -0.054711025
000060 3f 8d 0c 3e a2 2d 5d bf 77 fc 79 bd 9b 63 fc bd
       0.13725756 -0.86397755 -0.061031785 -0.12323686
000070 57 c2 1d bd 23 60 ba 3b 0c 32 3e bd 40 73 6c bf
       -0.038515415 0.00568773 -0.046434447 -0.9236336
000080 3c 3e ae bd bc c1 94 be dc b0 94 3a 67 ef f8 3c
       -0.08507964 -0.29054058 0.0011344212 0.030387593
000090 a8 fe f9 bd 8b bb 08 be d3 3f af 3c 07 33 ce 3e
       -0.12206775 -0.13352792 0.021392738 0.40273306
0000a0 18 82 8e 3e b5 64 b8 be 03 16 78 be 4a 05 33 bf
       0.2783363 -0.36014333 -0.24227147 -0.69929945
0000b0 5f e4 c3 3e 93 29 fd 3c 7d c4 16 bf 66 d7 1b bd
       0.3826017 0.030903613 -0.5889357 -0.038047217
0000c0 c3 30 5d bd 4e 8d a9 be 7f 5a d0 be 0d 67 0e bf
       -0.05400158 -0.3311562 -0.40694043 -0.55625993
0000d0 f0 b2 86 be ae e7 dc bd 96 96 92 bd 96 4f 4b bf
       -0.26308393 -0.10786377 -0.07157628 -0.79418314
0000e0 f9 22 26 3d b4 32 b1 bd 92 c9 84 3e 68 b8 ef 3e
       0.040560696 -0.08652249 0.25935036 0.46820378
0000f0 f4 3d 1a 3e a2 d4 f8 3c 6b 3b af bd 3b b8 64 3e
       0.15062696 0.030374829 -0.08556255 0.22335903
000100 8a f4 d8 be c8 c3 fc 3c c7 3c cf bc 66 77 bf bd
       -0.42374068 0.030855075 -0.025297536 -0.09348945
000110 f1 07 fa be 5d be 70 bd 7b 5a 2f 3e 45 10 00 bf
       -0.48834184 -0.058775295 0.1712436 -0.50024825
000120 13 0d a1 bd 2d de 69 bd a6 35 10 be fd ec 36 3e
       -0.07863822 -0.05709665 -0.14082965 0.17863841
000130 70 dc 85 bc d8 7f ee bc 24 9b 83 3d 93 a6 8f bd
       -0.016340464 -0.029113695 0.06426075 -0.070141934
000140 03 4d bc bd c7 21 27 bc 5f ee fe be cd ca a8 be
       -0.09194376 -0.010200924 -0.49791238 -0.32967225
000150 c3 2a 3b 3c 92 30 8a be 1f 6a ba be d8 95 22 bd
       0.011423769 -0.2699018 -0.3640909 -0.039693683
000160 2c ef 16 3f 3d f1 fb bd 16 48 87 bd 20 f3 bd bd
       0.589587 -0.12301872 -0.06605546 -0.09274888
000170 b4 a9 fd 3e 31 5c 3e 3c 4b 11 b7 3e 81 ac 31 bd
       0.49543536 0.01161866 0.3575538 -0.043377403
000180 28 d7 02 be 89 93 86 bd 27 d2 50 bd a6 8c 4d 3c
       -0.12777388 -0.06571109 -0.050981667 0.01254574
000190 a4 e1 db bd 7d 2b ab 3c 25 c6 f4 bd 24 e1 a3 be
       -0.10736397 0.02089476 -0.119518556 -0.32007706
0001a0 2d 38 5b bd 7d 6c ca 3e 21 f7 eb bc ea 72 47 bb
       -0.05352037 0.39535895 -0.028804364 -0.0030433484
0001b0 4e 40 90 3c 07 30 74 bd bb 6b 05 3e 9e 90 9f be
       0.017608788 -0.059616115 0.13029377 -0.31165022
0001c0 8e 74 24 bc a4 12 31 bf e7 56 92 3e 9b 2a 8e bd
       -0.010037554 -0.6916907 0.28581926 -0.0694172
0001d0 e8 36 34 bf b5 35 f9 3c af 29 b1 3b 1b a5 92 bd
       -0.7039628 0.030421117 0.0054065804 -0.071603976
0001e0 63 c4 dc 3d fb 2e b2 3d 8f fb 92 3c a5 48 32 3d
       0.10779645 0.08700367 0.017942218 0.04352631
0001f0 9f cd d5 3c 97 29 c6 bd 76 ae 7a bb 64 99 37 3d
       0.026099024 -0.096759014 -0.003825096 0.04482402
000200 38 15 5e 3c 69 cb b7 bd c5 05 a1 bc fd 19 ff 3b
       0.013554864 -0.08974344 -0.019656071 0.0077850805
000210 33 c3 91 bd f8 3e 83 bc 8b 7c e1 3b 6a c5 2e bd
       -0.071173094 -0.016021237 0.0068813018 -0.042668737
000220 c7 3e f9 bc 31 a3 af 3c 82 9c 5c be 5a 6d 06 3c
       -0.030425442 0.02144012 -0.21544078 0.008204782
000230 5a 50 e3 bc cc c8 71 bd f8 9a b4 bc f0 d3 b0 bc
       -0.027748276 -0.059029385 -0.022046551 -0.021585435
000240 fc 15 0f bd 61 4e d2 bc 53 5f 16 be 2b 5e 1f be
       -0.034933075 -0.02567214 -0.14684801 -0.15563266
000250 16 19 ad bd 7f d6 b0 3c 17 9d 43 be d2 e0 9e bd
       -0.084520504 0.021586655 -0.19102894 -0.07757725
000260 63 c4 a7 bd 03 25 e2 bb 54 32 ee bd b5 bc d8 3d
       -0.08191755 -0.006901385 -0.11630693 0.10582868
000270 50 8a b8 3d 1e 54 77 bc ea ae df bd 0e 06 86 bd
       0.09010756 -0.015095739 -0.10922034 -0.065441236
000280 cb cb 8a 3c 60 ee 04 3d 1e e9 92 bd 8e 73 78 bd
       0.01694288 0.032453895 -0.0717337 -0.060657077
000290 d8 d8 ef bd 8b e9 ab bd 3a 17 0f be 9f 18 cf bd
       -0.117112815 -0.08394154 -0.13973704 -0.10112118
0002a0 dd 72 2f 3d 12 ec 90 bd d9 49 2c be 88 2e 7d 3d
       0.04283415 -0.07076277 -0.16825046 0.061811954
0002b0 96 40 c1 bd 8a 1e e5 bd cc 91 0c be fd e5 ff bd
       -0.09436147 -0.111874655 -0.13727492 -0.12495039
0002c0 01 17 40 bd 10 7c c2 bd 8b fc 36 be a6 d9 03 be
       -0.04689694 -0.09496319 -0.17869775 -0.12875995
0002d0 16 4c 59 bd f2 46 d8 bd 9f 3b 9d bd dd 56 34 bd
       -0.053051077 -0.10560407 -0.076773874 -0.04402815
0002e0 6e 8d 9a bc a4 84 a3 3d 8b 47 fd bc 2c f9 1a be
       -0.018866267 0.079842836 -0.030917903 -0.15134114
0002f0 6a 1f a3 bd cc 71 22 be bd 54 d3 bc ef 89 cc bc
       -0.07964976 -0.15863723 -0.025797242 -0.024968116
000300 22 aa 40 bd 33 83 14 3b f1 f7 0e 3d d9 08 17 be
       -0.04703725 0.0022661209 0.034904424 -0.14749469
000310 21 fd d3 bd 30 0e 76 3c de ff 1f be 7c 45 56 bd
       -0.10351015 0.015018031 -0.1562495 -0.05231236
000320 7a 6e 11 3e b6 89 4c bc 75 5f e9 bd 69 0f 42 3d
       0.142023 -0.012484005 -0.1139516 0.047377978
000330 04 08 ac bd 37 9e ea bd 81 62 fb bd 36 7c 2d 3d
       -0.08399966 -0.11455958 -0.122746475 0.042354785
000340 b9 6c af 3c 83 27 65 bd 40 d4 87 bd 16 75 10 3d
       0.021414148 -0.055945884 -0.0663228 0.03526791
000350 77 6c a6 3d 37 a2 41 bd 9b 11 f6 bc 42 67 4d bd
       0.08126157 -0.04727384 -0.030037692 -0.050147302
000360 1f 13 23 bd 8e 84 08 3e 4e fd 05 bd 59 68 16 3d
       -0.039813157 0.13331816 -0.032712273 0.036720607
000370 ca cb d2 bd c6 13 08 bd 58 de 28 3d a7 8e de bb
       -0.10292776 -0.033221982 0.04122767 -0.006791908
000380 97 c1 c3 bd b2 df 46 3d 73 57 23 be 39 24 1f bd
       -0.09558409 0.048553176 -0.15951328 -0.038852904
000390 68 9a 3b be 9e 45 82 bc da 73 3d 3d 59 bf df bd
       -0.1832062 -0.015902337 0.046253063 -0.109251685
0003a0 76 ed 3d bd b0 52 cc bc ee eb 49 bd 83 58 97 bd
       -0.04636904 -0.024941772 -0.049297266 -0.07389929
0003b0 ff d3 0e bd 21 14 4a 3d 8a c6 58 bd 53 c7 cb bc
       -0.034870144 0.049335603 -0.052923717 -0.024875319
0003c0 53 0f 7c bd 0d c5 66 bd 6f b9 b8 bd bc 47 81 ba
       -0.06153805 -0.056340266 -0.09019744 -0.0009863297
0003d0 54 3e e2 bc 7c ef fa bd 34 f4 80 bd f7 15 58 bd
       -0.027617611 -0.12252709 -0.06296578 -0.052755322
0003e0 bf a2 04 be 6e 13 50 bd 42 56 20 bd 10 3d 12 bd
       -0.12952708 -0.05079978 -0.03914476 -0.035702765
0003f0 66 34 6b bd 4f 55 5d bd 50 ee 46 3d 1b 11 31 be
       -0.057423018 -0.054036435 0.048567116 -0.17291681

fc2.bias f4 [256]
000000 38 fc e8 bd c7 1b b6 3d a7 b8 47 3d e5 87 1a 3f
       -0.11376232 0.08892017 0.048760083 0.6036361
000010 92 61 94 3c 55 b2 2b 3d 5d 9a b7 3d 95 b9 03 bd
       0.018112931 0.041918118 0.08964989 -0.032159407
000020 2a 3a 9c 3d d8 01 28 be f0 4a 08 3f 19 23 b2 3d
       0.076282814 -0.16406953 0.53239346 0.086981006
000030 c7 b4 55 3e af 34 cd bd 03 c5 3d 3e 1f 3d 83 3d
       0.20869742 -0.10019814 0.18532185 0.06408142
000040 33 c2 22 3e 6e 2b 2d 3f 7d a1 21 be 4c 8c 03 3f
       0.15894394 0.67644393 -0.15784259 0.5138595
000050 6b 2e 7d 3f 9b 2b 22 be 23 2c de 3f fb 7e 40 3e
       0.98898953 -0.15836947 1.735722 0.18798439
000060 92 40 af 3f 0f 5b 08 3e 75 10 4c bd 03 46 9a 3e
       1.369158 0.13315986 -0.049820382 0.3013154
000070 d1 88 14 3e 96 38 49 3c f7 0c ea 3e 3a aa 73 bd
       0.14505316 0.012281558 0.45713016 -0.059488513
000080 38 9f 02 3f b1 74 51 bd bd 48 ad 3e 0e ee d2 3f
       0.510242 -0.051136676 0.33844557 1.6478899
000090 f8 d0 c6 3e 67 0d 59 3f d7 95 00 bc 30 d1 4b 3c
       0.38831306 0.84786075 -0.007848225 0.012440011
0000a0 4f 7c 17 3e 51 da 7b be 21 7e 6d 3d 3c 80 82 3e
       0.14793514 -0.24595 0.057981614 0.2548846
0000b0 51 2c b1 3e f3 6c ff 3c dc f2 3c 3d 03 3f d6 bc
       0.34604123 0.03117988 0.046130046 -0.026153093
0000c0 87 b7 be 3d ce 0f 6b bd bc b3 2a be c5 f5 2b 3e
       0.09312349 -0.05738812 -0.16670126 0.16792972
0000d0 13 a7 9b 3d 08 d4 89 3d 1b 0b 95 bb 96 60 16 be
       0.07600226 0.06729895 -0.004548443 -0.14685282
0000e0 d8 cf 10 be 43 12 ad 3f 97 4d 87 3c 1a 64 f0 bc
       -0.14141786 1.3521198 0.01651649 -0.029344607
0000f0 da 48 99 3e 5b 4a d2 3d 09 a1 40 bc 69 96 51 3e
       0.29938394 0.102680884 -0.011757144 0.20467533
000100 01 c5 81 3e ea be 5d 3e 77 ff 66 3e 1e 3e 4d 3d
       0.25345615 0.21654859 0.2255839 0.050108068
000110 ad 7a 64 bd 6a 28 1e bc 47 fc 78 bc 4b 34 d5 bd
       -0.055781055 -0.00965319 -0.015196866 -0.10410365
000120 bc be 39 bd d7 9e 53 3d 44 d1 37 3e 5f ed 74 be
       -0.045347914 0.051665153 0.17950922 -0.23918675
000130 e4 4a 1b be 2b 5b fe 3f d0 de 3b be 02 90 d1 3c
       -0.15165287 1.9871572 -0.18346715 0.025581364
000140 12 72 75 3e 70 2e 08 3e 23 2f 48 3e 0f 17 83 bb
       0.23969296 0.13298965 0.19549231 -0.0040005515
000150 78 3d 67 3e 1d c7 bd 3e ef 53 be be 22 55 1b 3e
       0.22582042 0.37065974 -0.3717341 0.15169194
000160 ff e4 ac 3e d1 69 37 3e b3 4d be be 8d 0c a9 3c
       0.3376846 0.1791146 -0.37168655 0.020635867
000170 41 2b a4 3d de 64 4b bd 1f f2 d9 3c c1 9e 91 3d
       0.080160625 -0.04965674 0.02660471 0.07110358
000180 97 df 9f 3d 72 31 b5 3e 92 17 87 bd b9 bc 0c 3f
       0.07806318 0.35389286 -0.065962926 0.5497547
000190 77 6a 6b 3f 3d 64 1c 3d 3d ea 26 3f 48 87 d6 3d
       0.9195933 0.038181532 0.6520117 0.104750216
0001a0 0c 40 2f 3d e2 d1 bb bd e2 49 2f 3e 08 29 e5 3e
       0.04278569 -0.09170891 0.17118028 0.44757867
0001b0 aa 7d 85 3e 06 25 08 3d 53 27 4c 3f ee 54 c2 be
       0.26072437 0.033238433 0.79747504 -0.3795542
0001c0 6b f5 13 be db c9 f6 3e bc 7f ab 3f 76 16 06 be
       -0.14449088 0.48200879 1.3398356 -0.13094506
0001d0 80 0e 4a be ed e3 9e be 3f ea cc 3c 29 2a 05 3e
       -0.19732094 -0.3103327 0.025014041 0.13004364
0001e0 8f 97 f5 3f fa ca f1 3d c7 f6 00 3e 58 e2 20 3e
       1.9186877 0.11806293 0.12594138 0.15711343
0001f0 47 0f 8c 3e 5a fa 7e 3c 24 d7 4e 3e a3 17 ed 3b
       0.27355406 0.015562618 0.20199257 0.0072354837
000200 ac ec a6 be 69 16 05 3e 47 3a 1f 3d b9 e6 7c bd
       -0.3260244 0.1299683 0.038873937 -0.06174347
000210 61 0e 75 3b 14 0b 8b 3e 7c e4 c9 3d 3c 42 1e be
       0.0037392604 0.2715689 0.09858033 -0.15454954
000220 06 82 8b 3e 32 67 48 3e 50 2c cb 3e 11 a2 ba 3f
       0.27247638 0.19570616 0.39682245 1.4580709
000230 3b 11 95 be 9e 30 9d 3f 5b 45 34 3e f9 2d df 3e
       -0.29114708 1.2280462 0.17604582 0.43589762
000240 fa 6d d1 bd d5 e8 9b 3d a6 c5 0d 3f b9 37 f6 be
       -0.102260545 0.076127686 0.5537971 -0.48089388
000250 f5 c4 d1 3e 01 f9 97 3e 37 92 be 3d ef 54 b5 be
       0.4097058 0.29682162 0.09305232 -0.35416362
000260 13 9f b2 bd b1 f8 ae bd 72 6d 6e bd 3d 6a 80 3f
       -0.08721747 -0.08543528 -0.058209844 1.0032421
000270 d1 59 4f bd 5b bb 48 3e ee 19 e6 bc 5c 17 95 3e
       -0.050622765 0.1960272 -0.028088536 0.29119384
000280 62 04 27 be 1e 00 76 3d 58 7f 01 bc cf 7d ae 3f
       -0.16310266 0.060058706 -0.007903896 1.3632144
000290 9b 97 0f 3d 34 bb 6c bd e5 e7 04 3f 58 bf a2 3e
       0.03505669 -0.05779572 0.5191634 0.3178661
0002a0 3a 04 12 3e e4 8a a7 bc 2f b6 e9 3e 3d bb 16 3e
       0.14259425 -0.02045197 0.45646808 0.14719863
0002b0 40 75 44 bd 43 e0 8c be 4c c3 d8 3f 53 8d 8e 3d
       -0.04796338 -0.27514848 1.69346 0.06960549
0002c0 0a e8 ee bd b3 9b d3 bd f7 ea 0c 3e 9e 7c 49 be
       -0.11665352 -0.10332432 0.13761507 -0.19676444
0002d0 3a 33 27 3e 8c 1e b6 3d 0a 77 b0 bc 6d f1 d6 bd
       0.16328135 0.08892545 -0.021541137 -0.10495267
0002e0 05 91 0f 3e 47 1f fc 3e 25 d2 7e 3d 65 86 c3 bc
       0.14020164 0.49242613 0.06221213 -0.023867795
0002f0 c3 7d 17 3e 88 2e 4f 3e 9c a7 97 be fb e2 0a 3e
       0.14794068 0.20232594 -0.29620063 0.13563149
000300 1c 36 ac 3f 64 bb 01 bd 23 e1 c3 3e 6c 9d 4f be
       1.3454013 -0.03167285 0.38257703 -0.20274895
000310 c7 d8 ac 3d 06 37 bc be 87 4c 1a be c9 6a 64 3c
       0.084397845 -0.3676073 -0.15068255 0.013941475
000320 3c aa b0 bd 4a e4 b7 3e 19 d5 47 3e bf 24 a0 be
       -0.0862622 0.35916358 0.19514884 -0.31278035
000330 5d a2 a5 3e 85 16 05 bd f8 42 8c 3e 8a d0 3d 3f
       0.32350436 -0.03249218 0.27394843 0.7414633
000340 1c 01 0d 3e 89 59 50 3e 00 79 44 3c 78 61 11 3f
       0.13769954 0.20346655 0.011991739 0.5678935
000350 26 c7 fa bd 99 bb 68 3e 1f 73 d9 bd 77 db ec 3d
       -0.12245016 0.22727813 -0.10617661 0.11565297
000360 36 f4 19 3f 5f 7c fc bd 07 d8 52 3e 3a c9 b0 3d
       0.6013826 -0.123284094 0.2059022 0.08632131
000370 78 dd d0 3e b6 c0 13 3f 76 ea 35 bd 08 a8 71 3e
       0.40793967 0.5771593 -0.044413052 0.23599255
000380 0c b8 ae 3c 07 bf 89 3e ab ba f5 3e 7d e8 57 bd
       0.021327995 0.26903555 0.4799398 -0.052711952
000390 72 24 84 3e ca 85 a1 bd ae 05 a1 3e cd cc f1 3e
       0.25809056 -0.07886846 0.31449646 0.47226563
0003a0 15 b3 c5 3d ff 14 c8 3d eb d2 61 3f f9 a2 81 3f
       0.09653298 0.0976963 0.8821246 1.012786
0003b0 6b 6b 8a 3e 6e 57 82 3e a0 bd 19 be 15 8f ca 3d
       0.27035078 0.2545733 -0.15013742 0.09890572
0003c0 87 a8 47 3d b8 5f 3d 3e 9c a1 d2 bd 84 e1 56 3c
       0.048744705 0.18493545 -0.10284731 0.013115291
0003d0 6f 6c cb 3e ab d8 b4 3e 14 a6 9a 3e 98 0b bb 3c
       0.39731166 0.35321555 0.30204833 0.022832677
0003e0 cf 4e 65 3e 2a 7f 03 bc ba 40 6f 3e 93 3b 11 3e
       0.22393344 -0.008025924 0.23364535 0.14182882
0003f0 6f 3c 17 3e c8 dc 83 3d d6 ab d3 3d fb 86 94 be
       0.14769147 0.06438595 0.103355095 -0.29009232

fc3.weight f4 [128, 256]
000000 d6 6c c7 3e e2 4c d0 bc 6d 26 f8 bc 73 ab f9 be
       0.38950223 -0.025427286 -0.03029176 -0.48763618
000010 ec 72 a2 be 10 ca 19 40 ea 28 a5 3c c2 5f e6 bd
       -0.31728303 2.402958 0.02016111 -0.11248733
000020 59 d8 36 bf cf af 26 bd c3 ff 73 be 28 8b 09 bd
       -0.7142387 -0.040695008 -0.23828034 -0.033579975
000030 f8 a5 fa 3d 6c cc f9 bc a0 89 0b bd 28 99 12 be
       0.12238687 -0.030492984 -0.034066796 -0.14316237
000040 1f 45 a6 3e 5b b7 60 bd 1b 87 ec 3c b8 20 25 bf
       0.3247461 -0.05486236 0.028873017 -0.6450305
000050 6d 9e c0 bd 62 21 d0 3e c1 7b 1d bf 28 34 ed 3c
       -0.09405217 0.4065047 -0.6151696 0.028955534
000060 50 35 77 3f 6f 0a 14 be 6c d0 f4 bd be 85 38 bf
       0.96565723 -0.14457105 -0.11953816 -0.72079074
000070 6a a7 31 3d 31 eb 87 3f f8 9d 11 be 8c 6f 9d bc
       0.04337255 1.061865 -0.14220417 -0.019218229
000080 d0 55 a3 3c 5c 9a b1 bb 21 b5 38 bd 69 9b 4b 3e
       0.01993838 -0.0054200124 -0.045094613 0.19883503
000090 16 63 be bd 0f 66 d0 be 70 8e 15 3c cd 27 18 bd
       -0.09296243 -0.40702865 0.009128198 -0.037147332
0000a0 e3 1a 52 bd 9c 82 09 c0 84 d7 b4 bc 28 c7 03 bf
       -0.051295172 -2.1485968 -0.022075422 -0.51475763
0000b0 a7 8f 4e bc 44 02 09 3f 85 68 ca bd a2 c1 15 bd
       -0.012607492 0.5351908 -0.09883217 -0.036561616
0000c0 f3 df aa 3c 58 e6 85 bb fd ad e2 3d 79 e0 be 39
       0.02085874 -0.004086297 0.11068342 0.0003640687
0000d0 34 46 22 3f 94 5a c2 bd ce 8d 13 bc 3d 44 aa bb
       0.6338837 -0.09489933 -0.009005977 -0.005196123
0000e0 a8 18 d9 be a4 cb 70 3e 0d a4 91 bd 3f fa 42 3e
       -0.42401624 0.23515183 -0.07111368 0.19040774
0000f0 41 e3 93 ba 6a 10 ad 3d 92 d7 ff 3e de 27 51 3f
       -0.0011282937 0.08450396 0.49969155 0.8170146
000100 3e d8 b4 3c 75 ee 98 3d 93 76 11 bd f2 81 13 3e
       0.022075769 0.07467357 -0.03551347 0.14405039
000110 3b fc 26 be c4 e2 25 bd 00 e6 82 be 90 d7 8c 3d
       -0.16307156 -0.040499464 -0.255661 0.06877053
000120 cc f3 af 3b 39 8c 15 3e c8 94 8b 3d c3 ab c1 ba
       0.005369639 0.14604272 0.06815487 -0.001477592
000130 58 44 f8 3d fc 9f 59 bf 11 c5 aa bd ce f2 5b 3d
       0.121224105 -0.8500974 -0.08338369 0.053698353
000140 84 d9 8e be ab d2 30 3f d3 b8 9c 3d 6a ce 41 bf
       -0.27900326 0.69071454 0.0765244 -0.7570559
000150 26 13 14 3d 32 c4 4a 3d 17 20 11 bd 6c 43 c7 3e
       0.036151074 0.049503513 -0.035430994 0.38918626
000160 bd 3d 5e 3d cd e7 e2 bb a6 c4 16 40 1d c6 9a bd
       0.054258097 -0.0069246055 2.3557525 -0.07557318
000170 28 f5 28 3e 83 b9 0d bf 17 09 52 3d 21 48 a9 3d
       0.1649977 -0.55361193 0.0512782 0.082657106
000180 58 3c cd be 75 03 93 bd 18 c1 23 3f c9 92 8d be
       -0.400851 -0.07178394 0.6396651 -0.2765105
000190 c3 83 a8 be 89 ce 6d be 2f 24 86 3e 71 21 80 3d
       -0.32913026 -0.23223318 0.2619948 0.062563784
0001a0 61 b7 31 3c 10 6e 83 bd 2f 09 34 bd d3 0a b4 3c
       0.010846944 -0.06417477 -0.04395407 0.021977818
0001b0 56 bb 78 3d a9 27 a9 bd f0 76 1a bf 29 16 56 be
       0.060725532 -0.08259518 -0.60337734 -0.20906891
0001c0 73 f7 48 bd 5e ca ca be 65 a2 84 bd 5c 96 16 bd
       -0.04906411 -0.3960752 -0.06476287 -0.036764488
0001d0 f5 c6 be 3f cc d1 cb be 67 1d 4c 3d 84 12 99 bf
       1.4904467 -0.398085 0.049832728 -1.1958776
0001e0 5b b0 2b bf b3 c7 3a bd 4b ba ca 3a 63 36 fa 3d
       -0.6706597 -0.045600604 0.0015466897 0.12217405
0001f0 31 25 f1 3c f6 01 b7 3d 39 ac ff bd 6c d6 39 bd
       0.02943668 0.08935921 -0.12484021 -0.045370504
000200 08 b1 34 3e f5 c0 d4 be 12 a7 9f be 3b ea 5e 3d
       0.17645657 -0.41553465 -0.31182152 0.0544226
000210 a4 d2 48 3c 8b eb 2f 3e a6 28 ce 3d 90 f2 62 3e
       0.012257252 0.17179696 0.10066347 0.22162843
000220 2a b0 e9 be b6 e7 ff bc 0d ab 3a bf 0c e9 86 bf
       -0.45642215 -0.031238418 -0.7291725 -1.053987
000230 02 cd ea bd f6 f0 10 bf 93 7e 79 3d 5d 0a fa bb
       -0.114648834 -0.5661768 0.060911726 -0.00763063
000240 4d 90 89 3d 7d ee eb 3b 37 31 80 3e be 32 21 3c
       0.06716976 0.007200061 0.25037548 0.009838758
000250 65 bf cf be 2c 23 3e 3d 22 cd 5c 3d 74 88 04 c0
       -0.4057571 0.04642026 0.053906567 -2.0708284
000260 e9 a1 00 40 db 2a 40 bd c6 ce 30 bd cd ae ca bf
       2.0098822 -0.04691587 -0.043165945 -1.5834595
000270 0e 62 56 3d c6 72 04 bb 33 85 e1 bb cc 11 eb 3d
       0.052339606 -0.0020210012 -0.0068823337 0.11478004
000280 da 23 88 3e 79 c2 97 3d 6e fd a3 3c 90 a5 09 bc
       0.26589853 0.074101396 0.020018306 -0.00840129
000290 bb f4 a4 3b 6e f5 dd 3c 8a 30 78 bd a1 85 ac 3f
       0.005034057 0.027094569 -0.060593165 1.347828
0002a0 a3 8c e7 3c fd a8 25 3e 77 ec 89 bd 70 b4 fa bc
       0.028265303 0.16177745 -0.06734555 -0.030603617
0002b0 ee 1b fd bb 3a 46 64 3e 8a fd 63 bf c5 de 99 bd
       -0.0077242767 0.22292414 -0.89058745 -0.07513193
0002c0 21 98 a6 bf 7f b1 be 3c 6b 85 5d 3d 4b 3e c2 3d
       -1.3015176 0.023277996 0.054082315 0.09484538
0002d0 e4 68 07 bd af e9 bd be 11 3a b1 be 50 7e 37 3d
       -0.033059016 -0.3709235 -0.34614614 0.044798195
0002e0 55 ff 64 bd 13 15 36 be 52 ba 3e 3d cf 37 54 bc
       -0.055907566 -0.17781477 0.046564408 -0.012952759
0002f0 fb c0 88 3d e9 ea 3f bc 24 32 b4 be 40 08 05 3e
       0.06677433 -0.011713722 -0.35194504 0.12991428
000300 b1 5f b0 bf b2 91 57 3d 19 d1 5a 3f 15 da 55 3c
       -1.3779203 0.05262918 0.8547531 0.013052483
000310 91 48 cb bc 93 18 5e 3f 13 4b 48 bc 80 b9 b4 bc
       -0.024814876 0.8675625 -0.01222493 -0.02206111
000320 35 6f 10 3e 7a c4 45 3d 40 de 53 3d 0a 3e ab 3d
       0.14104922 0.048283078 0.051725626 0.083614424
000330 4d 93 0c bd ca 0d 0f be 9a 36 81 3d 28 78 d2 bd
       -0.034320164 -0.13970104 0.063092425 -0.10276824
000340 04 f7 21 be 60 75 50 bc 5f 7f 92 3d 59 42 84 be
       -0.15816885 -0.012723297 0.071532 -0.2583187
000350 58 04 05 bd a9 da 74 3d fd 54 37 3e 08 cc f6 bc
       -0.032474846 0.059778843 0.17903514 -0.030126587
000360 ba 29 7d be 7b ce d8 bc 31 28 dc 3d c7 06 77 3c
       -0.24722949 -0.026465645 0.107498534 0.015077299
000370 7a c9 64 be 2f 8e 96 3e 4d 2f bd bb 61 c5 78 bc
       -0.22342482 0.29405352 -0.005773461 -0.015183778
000380 e1 64 bf 3c a1 41 90 39 31 0d 45 ba ff 85 31 bf
       0.023363532 0.00027514718 -0.0007516919 -0.69345087
000390 db 8c 9b 3e db be 0c bf 74 2c c8 be 18 aa 2e 3e
       0.30380902 -0.5497872 -0.39096415 0.17057073
0003a0 ad d3 91 3c 32 94 4b 3d f2 e9 42 3f 4c 4c 34 bf
       0.01780113 0.049701877 0.7613822 -0.7042892
0003b0 c3 0c 2e bc 38 48 02 bd 77 43 9b 3f ae 86 ab bb
       -0.01062316 -0.031807154 1.2129964 -0.005234561
0003c0 bb 0d d1 3d c3 a5 d4 3d 3d a4 bc be 11 45 d3 be
       0.10207697 0.10383179 -0.36844054 -0.4126363
0003d0 bb ab a1 be 90 69 05 3e 0c 25 f3 3e e1 ec 3f 3c
       -0.31576332 0.1302855 0.47489202 0.011714191
0003e0 79 26 ce bf 03 e5 8c 3d 0e 89 23 bf ef c1 fc 3c
       -1.6105491 0.06879618 -0.63881004 0.030854193
0003f0 6b 8a 98 bb 64 1a e7 bf 38 de 23 3d 1c b2 69 3e
       -0.0046551726 -1.8054929 0.040006846 0.2282185

fc3.bias f4 [128]
000000 34 a3 b1 3f 1c 63 ab 3f c1 b1 e1 3f 30 80 25 be
       1.3877931 1.3389621 1.7632371 -0.16162181
000010 62 13 83 be d8 68 24 3f 9f f4 f5 3f 55 3c d7 3f
       -0.25600725 0.6422248 1.9215277 1.6815287
000020 8e 56 35 be c6 b5 48 be 45 d9 98 3f e3 b6 d5 3f
       -0.17708799 -0.19600591 1.1941305 1.6696438
000030 be f6 90 3f 45 05 1c 40 6e 8b 89 be 70 a3 4a 40
       1.13253 2.4378216 -0.2686419 3.1662254
000040 5b e6 8f 3f ef 6f 55 40 12 74 2f 40 33 2a 98 3f
       1.1242174 3.334957 2.7414594 1.1887878
000050 bd fe 03 40 22 17 2e be 12 d5 41 40 6c 25 f8 3e
       2.062423 -0.17001012 3.0286298 0.4846605
000060 5c df 2a be 3e d6 af 3f 56 df b2 3f ab 0a 92 3f
       -0.16686767 1.3737257 1.3974407 1.1409506
000070 f2 9b ac 3f eb 90 01 bf a7 12 34 3f 5c 6d 40 40
       1.3485091 -0.5061175 0.7034096 3.0066748
000080 3f 07 73 be 83 b5 d3 3e 15 a9 c0 3f 2b 6a c6 3f
       -0.23733233 0.4134942 1.50516 1.550115
000090 a2 cf 7a 3f 66 d4 ca bd 54 e0 c3 bf 1a 28 f9 bd
       0.9797307 -0.09903793 -1.5302835 -0.12165852
0000a0 71 cb 53 be 17 96 52 be 88 7b ea be 09 1b c9 be
       -0.20683075 -0.20565067 -0.45797372 -0.3927844
0000b0 73 2e 8d 3f 90 2e d0 3f 5c f3 c3 3f e1 dd 6e 3f
       1.10298 1.626421 1.5308642 0.9330731
0000c0 30 e3 f0 be a8 1a 47 40 ca 62 46 3f db 95 a5 3f
       -0.4704833 3.111002 0.7749449 1.2936357
0000d0 cf 08 fe be a2 fd 15 be 31 48 ed bd df 41 48 40
       -0.49616095 -0.14647534 -0.11586035 3.1290205
0000e0 16 aa 4c be 1f 9d 36 3f eb ad bb 3f 1c 24 77 3e
       -0.19986758 0.713335 1.466245 0.24134868
0000f0 09 6f 75 be e4 23 13 bf 99 59 1a 40 ec 1e 02 be
       -0.23968138 -0.5747664 2.4117186 -0.12707108
000100 4e e3 7c 3f 73 e2 fd bd 44 bd 84 3f a0 5d 33 40
       0.9878434 -0.123967074 1.0370259 2.8025894
000110 32 e2 4c 40 53 ae 80 3f 2d e7 8b 3f 1c ff 40 bf
       3.2013059 1.00532 1.0929924 -0.75389266
000120 11 55 3e 3f b9 64 0f be 86 72 68 3f a1 82 0c be
       0.7434855 -0.14003266 0.9079975 -0.13721706
000130 ce f6 51 3f c5 bf 9a 3f 2f 96 0b be fb 69 c6 3f
       0.8201722 1.2089773 -0.13631509 1.5501093
000140 64 ca 7c 3f 16 8a 4a 40 50 da bd 3f 9d 0d aa 3f
       0.98746324 3.164678 1.4832249 1.3285404
000150 e0 95 82 be 54 b3 8a 3f 11 c5 23 40 a7 e4 3e be
       -0.2550497 1.0835977 2.558903 -0.18641911
000160 c2 8a 01 be 28 09 99 3f 0e 12 f8 3d 38 2b 22 be
       -0.12650588 1.1955919 0.12112819 -0.15836799
000170 38 23 8c 3f 66 e3 1e be 0f bb e5 be 1d 4e 0d 3f
       1.0948248 -0.15516433 -0.44869277 0.55197316
000180 28 d5 4e 3f 2b 19 5b 3f ba 4c 3d 40 50 ce 96 3f
       0.80794 0.8558528 2.957808 1.1781712
000190 d2 46 56 3f 12 5f 0b 40 09 41 4b 3f 92 d2 e3 bd
       0.83701813 2.1776776 0.7939611 -0.111241475
0001a0 ba 32 50 40 69 04 95 3f 94 15 05 3f 75 ff 3d 40
       3.253096 1.1641971 0.5198605 2.9687169
0001b0 30 4f ac 3f dd 7d 83 3e 31 88 10 be 6e 2f 7a be
       1.3461666 0.25681964 -0.14114453 -0.24432155
0001c0 e8 61 4e be 66 5c 08 3f 1c 8f 11 be b7 bb 81 bf
       -0.20154536 0.5326599 -0.14214748 -1.0135411
0001d0 7a 82 1f bf b2 79 cf bd 89 f7 c3 3f 9d 4f 32 3f
       -0.62308466 -0.101306334 1.5309917 0.6965273
0001e0 f0 30 39 be 98 9b 57 40 f5 95 45 be f5 da 93 3f
       -0.18085074 3.3688717 -0.19295485 1.1551195
0001f0 a2 51 80 3f e0 f9 25 3f 7a 19 ea bd 68 f8 07 3f
       1.0024912 0.64834404 -0.114306405 0.5311341

fc4.weight f4 [128, 128]
000000 ab ff 12 3d 9b b2 fb bc 99 f9 25 bd 84 82 85 bd
       0.035888355 -0.030724814 -0.040521238 -0.065190345
000010 d2 9a bf bd 3f 46 b8 bd e1 3c 2f bd 21 80 b7 bd
       -0.093557015 -0.089977734 -0.042782668 -0.089599855
000020 a1 9b d3 bc 3b 1b 8b 3d 90 f6 a9 bd 11 08 e8 bd
       -0.025831046 0.06792303 -0.08298981 -0.113296635
000030 a3 b9 bb 3c 3e bc 7f bd dd dd 82 3c 69 6b f7 bc
       0.022915667 -0.06243538 0.015974933 -0.030202584
000040 ab 09 08 3d 2b 13 32 3b ab 86 ee bc d5 7d a7 bd
       0.033212345 0.002717207 -0.029116949 -0.081782974
000050 87 a2 13 3d a6 22 33 bd 75 9b 05 be b0 9a 6b 3d
       0.03604367 -0.043734215 -0.13047583 0.05752057
000060 17 cb a6 bd fe a5 90 bc ca b6 27 bc 35 a9 d3 bd
       -0.08144205 -0.017657276 -0.010236451 -0.10335008
000070 6a e1 9a bd b4 c1 9d 3d 7b 39 0b be ed eb 92 3c
       -0.075625256 0.077029616 -0.13596146 0.017934764
000080 60 d5 92 3c de e7 44 3d 2d 55 ac 3a 78 b9 c3 bd
       0.01792401 0.04807269 0.0013147943 -0.0955686
000090 fd d5 cc bd 5e e5 44 3d f3 25 a0 bc b0 e0 9b 3b
       -0.100017525 0.048070304 -0.019549346 0.0047570094
0000a0 48 9b a5 3c ea 36 9a 3d 34 81 9a 3c 3e 5d 5c 3d
       0.020215645 0.07530005 0.018860437 0.05379986
0000b0 5c d6 c0 bc e9 89 b5 bd 56 29 f5 3b 70 b9 91 bd
       -0.023539715 -0.08864195 0.0074817343 -0.071154475
0000c0 83 86 07 bd a3 07 67 bd ac 04 ec bc 24 07 34 bc
       -0.033087265 -0.056403767 -0.028810821 -0.010988031
0000d0 43 26 a3 bd e4 f5 a3 bd 1b 58 52 bd 6b 0f 10 3c
       -0.07966282 -0.08005884 -0.051353555 0.008792738
0000e0 d8 ec 6a bd 3e cb 90 bd b1 62 c3 bc 3b 13 44 3d
       -0.057354778 -0.07070015 -0.02385077 0.047869902
0000f0 a3 ee 8d 3d a3 63 e7 b9 ab 3b 98 bb 7c b7 d9 bc
       0.06930282 -0.0004413399 -0.004645785 -0.02657675
000100 88 94 8a bd f0 c5 9a bc 1b 18 d8 3b d5 ef ca bc
       -0.06766611 -0.018893212 0.0065946705 -0.024772564
000110 7b 4f be bd 3d 4b 6c 3d a4 37 b1 bc 23 95 04 3d
       -0.092925034 0.05768894 -0.021632977 0.03236879
000120 4d 0c be 3c 39 79 94 bc 29 40 ed 3b 18 0c e8 bc
       0.023199225 -0.01812421 0.0072403145 -0.02832608
000130 ca 01 ce bd f3 8f 2f bd 72 50 29 3d b3 ca da 3c
       -0.10058935 -0.04286189 0.041336484 0.026707983
000140 84 77 21 bd 9c 53 66 bd c9 3e 4c 3d 50 83 e6 bc
       -0.03942062 -0.05623208 0.049864564 -0.028138787
000150 6c b9 c6 3c 94 78 f6 bc 0a 98 e6 bd 13 28 4e bd
       0.024258338 -0.030086793 -0.11259468 -0.050331187
000160 ae d9 15 3d 6c 11 b0 3b a9 2a 5a bd 5b e3 40 bc
       0.03658455 0.0053731706 -0.05326334 -0.011772956
000170 4e 3e 50 3b f8 d0 35 3d 40 70 ad bc 6e f9 32 bd
       0.0031775418 0.04438874 -0.021171689 -0.043694906
000180 48 37 d8 bd 55 15 5c bb 38 a7 cb bc 14 39 84 3c
       -0.10557419 -0.003358205 -0.02486001 0.016140498
000190 47 59 06 be 39 bb ca bd 3a 49 b1 bd 23 7b 73 3c
       -0.13119994 -0.09898991 -0.08656545 0.014860901
0001a0 41 5d d3 3b 05 94 65 3c 23 86 28 bd 32 96 db bc
       0.0064503257 0.014012341 -0.041143548 -0.026805017
0001b0 ec d7 58 bc f7 4d b4 bd f1 71 18 3d 2a ce 5e 3d
       -0.013235074 -0.08803933 0.037218038 0.054395832
0001c0 cb bf af bd 9d 08 9f 3d 9e 64 30 3d c6 03 95 bd
       -0.085815035 0.07765315 0.043064706 -0.0727611
0001d0 ae 95 fd 3c ba 9a a8 bd 16 57 17 3d 9d 86 d0 3a
       0.030955162 -0.08232637 0.036948286 0.0015909259
0001e0 5c e8 c3 bc 93 08 7d 3c a8 2c 57 3d 77 8b e6 bd
       -0.023914509 0.015443939 0.052532822 -0.112570696
0001f0 e4 c8 07 3d b8 a1 9d bd 86 a3 7f 3d e1 22 89 3d
       0.03315057 -0.07696861 0.062411807 0.06696106
000200 e6 45 72 3d fa e3 01 3d a8 22 8f be 55 90 44 bb
       0.05914869 0.031711556 -0.27956128 -0.0029993255
000210 a2 94 13 bd 51 71 60 bd 47 ad 9a bd 22 b1 b3 bd
       -0.03603042 -0.054795567 -0.07552581 -0.0877402
000220 9c ee 02 3c e8 fc 05 bd 90 c7 ac bc 8e 58 1d bc
       0.007991459 -0.032711893 -0.021091253 -0.009603633
000230 12 cf a1 bc fd 62 0f be ce ff e3 3c e6 e4 b0 bd
       -0.01975206 -0.14002605 0.027831938 -0.08637409
000240 05 26 23 3d 69 e3 bf 3c e1 83 d6 bd bc 4c 67 3d
       0.03983118 0.023423867 -0.10474373 0.056469664
000250 9d 5e a1 3c 57 ea 3b 3d eb ad 84 bd 88 db 30 3d
       0.019698435 0.04587778 -0.06478485 0.04317811
000260 5c 75 28 bd c2 02 1c bd 41 64 59 3d da 43 b7 bc
       -0.041127548 -0.038088568 0.053074125 -0.022371221
000270 04 0e a9 bd 2e 04 95 3b d6 be 5f 3d 62 ed 2c 3c
       -0.082546264 0.0045476174 0.054625355 0.010554643
000280 fe e6 8b bd eb ef 72 3d 10 4a 35 be ab 2b ed 3c
       -0.06831168 0.059310835 -0.17704034 0.028951487
000290 ee 71 3d 3d 3a cc 83 3c c6 ae bc bd a8 13 11 3d
       0.04625123 0.016088594 -0.09213023 0.035419136
0002a0 f0 2f 88 3b 7b 16 87 bd 97 ec 43 bd a7 b5 1d 3d
       0.004156105 -0.06596085 -0.04783305 0.038503315
0002b0 17 bc 50 bd 00 dc 94 bd 08 63 31 3d d5 87 a4 bc
       -0.050960626 -0.07268524 0.043307334 -0.020084301
0002c0 4c 83 a6 bb 1e f3 8a bd aa 53 84 bd fd 73 be 3d
       -0.00508157 -0.06784652 -0.0646127 0.09299467
0002d0 f3 14 9d bd 52 16 4f bd 26 cc 88 3d 1d 5b a2 bd
       -0.07670011 -0.050558396 0.06679563 -0.07927535
0002e0 1c 81 36 3d f4 ff 3d bd 8a c6 a5 bd 24 94 81 bd
       0.044556722 -0.046386674 -0.08094509 -0.06327084
0002f0 54 ac 81 3d e2 13 68 3c 33 c9 a2 3d 27 a9 e5 3c
       0.06331697 0.014164897 0.07948532 0.02803476
000300 ba 65 84 bd ef 15 80 bd dc d5 37 bd 33 f8 bd bd
       -0.06464715 -0.062541835 -0.044881687 -0.09275856
000310 ae cd 5e bd c5 3a 57 3d f5 9b 88 3b ec 5d 8e bc
       -0.05439537 0.05254628 0.004168982 -0.01737877
000320 db 6e 6c bd 40 91 c1 bd fd ac 6b bc ec cd c5 bd
       -0.057722908 -0.09451532 -0.014384505 -0.09658417
000330 77 f4 07 be e6 74 0a be 30 b9 41 3d f8 60 a5 bd
       -0.1327685 -0.13521156 0.04729575 -0.08075136
000340 6a 40 b1 3c 75 bf e9 bc 94 c3 7a 3d fc d8 6d be
       0.02163716 -0.028533677 0.061221674 -0.23227304
000350 10 d7 37 3d c1 44 2a bd d6 f9 6a 3d 36 54 aa 3b
       0.044882834 -0.041569475 0.05736717 0.005198027
000360 d0 03 83 bc 36 8e 67 bd b9 ee 19 3d 50 4a 90 3d
       -0.015993029 -0.056532107 0.03758118 0.07045424
000370 cb d7 94 bd 29 4e 7e bd d1 1f b6 bd 3d 20 5e bb
       -0.07267722 -0.062086258 -0.08892787 -0.0033893727
000380 0c bf 80 3d d8 c5 b9 3a b9 ff 3a bc 90 24 5b 3b
       0.06286439 0.0014173342 -0.011413508 0.003343854
000390 9a ce 27 3d b4 a6 91 bd 26 03 12 3d ff a7 39 3c
       0.040968515 -0.07111874 0.035647534 0.011331557
0003a0 ef b0 9a bd 5c 0f e0 bd 76 b8 e2 3c af 2c 78 bd
       -0.07553279 -0.109404296 0.027675848 -0.06058949
0003b0 7d 5d 1b 3c 91 d9 18 be 5b 82 1f bd b1 d9 2e bd
       0.009482739 -0.14926745 -0.038942676 -0.042688075
0003c0 14 9f c2 bc dc b8 95 bd 3a ed 4d 3d 40 07 27 bd
       -0.023757495 -0.0731065 0.050275065 -0.0407784
0003d0 01 8a 34 bc c8 f8 ab 3c 94 d5 ac 3d df 5c 75 3c
       -0.011019231 0.020992652 0.08439174 0.0149757555
0003e0 d3 4b a4 bc fc ad 20 bc 13 5f 84 bd f8 87 56 bd
       -0.020055687 -0.009807106 -0.064634465 -0.052375764
0003f0 af 4d 55 bb b6 1a f5 bd 45 49 8c bc 90 73 a1 3d
       -0.0032547524 -0.11967985 -0.017124781 0.0788337

fc4.bias f4 [128]
000000 de d6 c8 bd ff fe 9d 3e 72 cf 82 3e 20 ee e1 bc
       -0.09806608 0.3085861 0.25548893 -0.027579367
000010 d8 2c b3 3e b3 1d e4 3d 89 92 5f 3f 04 58 5d 40
       0.3499515 0.11138477 0.8733297 3.458497
000020 3f 8d a2 3e c4 6f 2e 40 16 d1 67 3f 9b b7 61 40
       0.31748387 2.7255716 0.90553415 3.5268314
000030 4e 01 b1 bd 2c 1a 59 bd ef e0 40 3f f9 12 64 bc
       -0.08642827 -0.053003475 0.7534322 -0.013920539
000040 9b de 4e be 8a bd b4 bd eb 72 87 bd 04 0a 7e bc
       -0.20202105 -0.08825214 -0.06613716 -0.015505318
000050 4d 52 df bd 66 1d 3e 3f 71 e5 12 40 af 29 c4 bd
       -0.109043695 0.7426361 2.295254 -0.09578263
000060 b6 ac 68 40 56 44 61 40 1d a1 bc 3e 89 2c ba bd
       3.6355414 3.519796 0.3684167 -0.09090526
000070 39 0d 5f 40 a0 7f 51 bd d0 c2 50 40 d6 c7 b8 bd
       3.485182 -0.051147103 3.2618904 -0.09022491
000080 c7 cd 2f 3d ab 91 2b bd eb b6 90 3d 5c df 17 3c
       0.042920854 -0.041886967 0.07066139 0.009269562
000090 f5 d2 f0 3d 65 b4 06 3f fc db 82 bd a7 80 d8 be
       0.11758987 0.5261901 -0.06389615 -0.42285654
0000a0 d0 55 c4 3f 70 69 88 3d ae d8 1f bd 99 01 db bd
       1.5338688 0.066607356 -0.039025 -0.10693664
0000b0 1c 5f 20 3f 80 c6 d7 bd fd 18 1c be 6c bd 73 3e
       0.62645125 -0.10535908 -0.15243907 0.23802727
0000c0 f8 ac 96 3e c9 c5 af 3e 86 bc 92 3f 67 be 1a 3e
       0.2942884 0.34330586 1.1463783 0.15111695
0000d0 47 9c 74 bd 47 63 2e 3e 2d 8d f1 bd da 59 01 3f
       -0.05971935 0.17030059 -0.11794505 0.5052773
0000e0 9d 40 8a 3d 5b 6a d0 3e 08 a1 4b be 78 a2 4b 40
       0.06750605 0.40706143 -0.19885647 3.1817913
0000f0 52 89 9f 3d c1 e9 89 3e e5 87 90 bd b0 4c 0d 3f
       0.07789864 0.26936153 -0.0705717 0.5519514
000100 9c 40 9c bd b0 ba 14 3e 1a 43 fb 3e e7 f6 bc 3f
       -0.07629511 0.1452434 0.49074632 1.4762849
000110 2e 11 5c 3f 8e d4 a6 3f 21 fe 1e be 42 b6 98 3f
       0.85963714 1.3033617 -0.1552663 1.1930621
000120 a9 cc eb 3e a9 62 89 bd b8 41 13 be 79 7e ed bd
       0.4605458 -0.06708271 -0.14380538 -0.11596388
000130 69 75 67 3f 25 48 cc 3f c4 62 13 bd 42 f3 04 be
       0.9041353 1.5959517 -0.035982862 -0.1298342
000140 99 42 a2 3e 19 3e b2 bd ec 18 d9 bd 38 bf 63 40
       0.31691435 -0.087032504 -0.106004566 3.558546
000150 da 5c a1 3c d8 71 99 3d 5f 7c 59 3e cd 88 db 3c
       0.019697595 0.07492417 0.2123885 0.02679863
000160 39 59 b6 3e 63 80 1d bd 3d d5 72 40 00 fb e7 bd
       0.35614946 -0.038452517 3.794265 -0.11327171
000170 f3 9d f0 3e 8a 08 d1 bd ff a1 a2 3e cc f6 76 3f
       0.46995506 -0.10206707 0.31764218 0.9647033
000180 9d be c2 3c 21 00 f6 3f a3 0c 72 bd 90 98 5a 40
       0.023772532 1.9218789 -0.059094083 3.4155617
000190 71 10 00 3f f8 c1 ac be 8d 1d 54 be ab 64 80 40
       0.5002509 -0.33741736 -0.20714398 4.0122886
0001a0 5a f4 ee bc b2 4d 86 3e cc 85 22 be f1 f1 4f 40
       -0.02916925 0.26231152 -0.15871352 3.249142
0001b0 e2 a0 1f bd e0 c9 60 40 1f 74 88 3e 0d f4 82 3f
       -0.03897179 3.5123215 0.26651093 1.0230728
0001c0 70 0c 33 be 09 a8 18 be 54 f8 20 3e 32 0f aa 3e
       -0.17485213 -0.1490785 0.1571973 0.33214718
0001d0 26 0e 2a bf 95 22 be bd d9 57 14 3f 33 33 58 3e
       -0.6642784 -0.0928394 0.57946545 0.21113281
0001e0 8d 30 b0 ba 4b a0 67 3f a2 a8 54 40 23 9a 49 3f
       -0.0013442204 0.9047896 3.3227925 0.7875082
0001f0 88 37 62 40 85 79 7c bd 6e de 3c bd 44 b7 a0 3f
       3.5346394 -0.061639328 -0.046110563 1.2555928
