checkpoints/checkpoint_qnetwork_target_WMT_V5_.pth (torch_old, 340036 bytes, 10 tensors)

fc1.weight f4 [128, 13]
00000000: e97b d53d 8493 36bd ef4e 06be f052 17bf
00000010: a274 923e eaea 1b3f 0c16 403f d6a2 db3e
00000020: a9a8 d7be 2c61 e3bd 7b84 83bf 97a1 9bbd
00000030: e890 78bf 6b2c 593c 0255 95bc 5113 1e3c
00000040: 1dc3 65bc e944 7c3c 644a 0d3c af3e 54bc
00000050: 6a4e 45bd 381d 1d3d 4cd6 843c b29c 0bbe
00000060: 3ac3 d6bf c331 ebbe f720 1abe 5b67 88be
00000070: 6444 183e 71e3 20bf 5737 26be 2339 14be
00000080: ab4b a2bc cab8 07bf 1631 43bd 52bb 70be
00000090: 7623 a0bf a33f f03c b2fb 873e e212 8f3e
000000a0: a7af bebd 9f88 303e 54a2 303d bdd5 77bd
000000b0: 677b 6f3e 694e 3abe 4c40 01be c3ac 54be
000000c0: ab86 10bf d6e0 ecbe f2d7 8a3f c989 0b3e
000000d0: 11fb 903c 0d69 f03e c8c5 a93d 8a51 0c3e
000000e0: edaa 0a3e bed0 d43e a031 b03e e290 873c
000000f0: 6827 183e 5de7 16bd 276f 93bf fa08 d2be
00000100: 9597 acbe 2d44 acbd 80fb 2ebe d0e5 93bd
00000110: 1503 063e 0a35 0cbd 7366 163e 642e 20bd
00000120: 4a06 443e 6d4d 3e3d 14dc 21bd a7fd 49be
00000130: db2d ebbf 7073 9bbf 5220 eabd 2774 24bb
00000140: 7c6f c6bd c5c9 d1bd 1392 83bd 4ccd 62bc
00000150: 869e d33c 94b5 643d f8c0 ca3b 2f94 c93c
00000160: dac5 8abe e700 ddbf 5c8d d0be b560 12bd
00000170: d38a 903d 5870 713d a030 9fbd 7860 b5bd
00000180: bcd2 0d3f 8a08 8f3e c7df 4bbd 4683 a5be
00000190: dcc2 b6b9 a674 0bbe 417a 5bc0 5bfe cfbe
000001a0: 6cfb 903c 7e10 af3e d48c 953e 7a65 1ebe
000001b0: 432b cfbe 3300 a4be 54f3 1d3f a96a 613f
000001c0: 385a 52be 03c0 82be 4eda e6bd 6361 c2bf
000001d0: d825 00be 2873 9dbd a199 4cbc 139f cfbd
000001e0: 4236 3c3d 82e3 32bc d334 aa3d 34b3 203b
000001f0: df25 5ebd 32e6 823d 67b5 103d d2d4 1dbf
00000200: 0ef0 acbe d01a cbbe b50d 303d 7369 963e
00000210: 8698 363e 0c48 c53e 401a b43d 344b b43e
00000220: d902 6e3e e193 1bbc fd2c 693e 68bb c83d
00000230: 4c90 823e f101 6abf 2ec6 dbbe bb2d 33bd
00000240: ed24 acbb a4f7 83bd c479 b43b 6e1a 5cbd
00000250: 1b52 63bd 5fc0 793b 36c3 0f3b 3745 083d
00000260: c4cf d03c 9045 e93b 6727 9abe a465 e3be
00000270: 870f 2d3c 0dff b5be e252 543e a26f c43e
00000280: c28f 9b3e 309d acbe 35f6 edbe b824 d9be
00000290: 384d 973e 8542 c43d 22c9 38bf e84b 903e
000002a0: 74da b5bf 2883 05bd 9509 053f 061d d0be
000002b0: 45af 643d 4c69 2abe c968 d73e e6b4 8c3e
000002c0: dde6 1d3f a56a 86bd 8e81 7a3e ae1d 0abe
000002d0: f1e7 4ebe 38a5 3abf 0190 573d bb2d 99be
000002e0: d816 893e 4895 c23e c9eb 7c3d 89eb babe
000002f0: 6d30 0abf 5d8c 2b3e f10d f8bc c94f 033f
00000300: c60e 09bf f04d b33d a55c 003f 48cd 1bbe
00000310: 7992 393d 5f68 08bd a680 49bc ce74 11be
00000320: 47f6 543d fb79 16bd 76a4 36bd 1863 923d
00000330: 321b babd 4e3c 90be 0107 cdbf 7fbc 07bf
00000340: bb04 5fbe 650d 373f 5523 6e3f bc56 603d
00000350: 7000 8d3e 7a4e eabe 8058 ad3d 5058 833d
00000360: 8f53 e03e 97c0 da3d d614 93be 368f 5ebf
00000370: 2bb8 32bf a742 06bf 39c7 7c3e 794e 4fbf
00000380: d069 edbe ed54 76bd 52c3 11be 9172 4fbe
00000390: 8de1 eb3e 2fc1 4dbe 9625 d43e 341e 17bf
000003a0: ecc4 1dbf dec9 debe b2b8 2dbd 651b 713e
000003b0: 61a0 eabd 1d9a f1be 7ccb b63d d615 053f
000003c0: c277 80be 7933 d03d da98 bf3c dc55 ccbd
000003d0: 2195 82bd 2387 0bc0 3d2e 3a3f f186 ebbe
000003e0: 041f 80be 3673 ebbc 603d 21be feb0 f1bd
000003f0: 0600 d2bd d7ad 38be e14a 28bd a2a0 f13b
0.104240246 -0.044574276 -0.13116048 -0.5911093 0.2860461 0.60905325 0.7503364 0.4289767
-0.42120865 -0.111025184 -1.0274805 -0.0759918 -0.9709611 0.013255219 -0.018229011 0.00964816
-0.014023569 0.015397289 0.008623693 -0.012954398 -0.048170485 0.038357943 0.016215466 -0.13633993
-1.6778328 -0.45936403 -0.15051638 -0.26641354 0.14869839 -0.6284705 -0.16232048 -0.14474921
-0.019811472 -0.5301634 -0.047654234 -0.23508957 -1.2510822 0.02932722 0.26559216 0.27944094
-0.09310847 0.17239617 0.04312356 -0.06050657 0.23386918 -0.18193974 -0.12622184 -0.20769028
-0.56455487 -0.46265286 1.0847151 0.1362678 0.017697843 0.46955147 0.08289677 0.1370298
0.13541766 0.41565508 0.3441286 0.016548578 0.14858782 -0.03684174 -1.1518296 -0.41022474
-0.33709398 -0.08411441 -0.17088127 -0.07221568 0.13087113 -0.03423027 0.14687519 -0.03910674
0.19143024 0.046460558 -0.039516523 -0.19725667 -1.8373369 -1.2144604 -0.11431946 -0.0025093646
-0.09689233 -0.102435626 -0.06424346 -0.013842892 0.025832426 0.05583723 0.0061875544 0.024606792
-0.27104074 -1.72659 -0.4073285 -0.03573676 0.070577286 0.05894503 -0.07772946 -0.088562906
0.5539968 0.27936202 -0.049773958 -0.32326716 -0.00034858927 -0.13618717 -3.4293368 -0.40623745
0.017698012 0.3419227 0.29209006 -0.15468398 -0.40462694 -0.32031402 0.61699414 0.88053375
-0.20542228 -0.25537118 -0.11272107 -1.518597 -0.12514436 -0.0768798 -0.0124878 -0.10137763
0.04595018 -0.0109185 0.08310857 0.0024520876 -0.054235335 0.063915625 0.03532925 -0.61652863
-0.33776897 -0.39668894 0.042981822 0.29377326 0.1783162 0.3853153 0.08794069 0.35213625
0.23243274 -0.009495706 0.22771068 0.0980137 0.25500715 -0.9140921 -0.42924637 -0.043744784
-0.0052534253 -0.06443718 0.0055076797 -0.053736143 -0.055498224 0.0038109047 0.0021936423 0.033269133
0.025489695 0.007118888 -0.30108187 -0.44413483 0.010562784 -0.3554615 0.20734742 0.3836642
0.30383116 -0.33713675 -0.46476904 -0.42410827 0.295511 0.09583 -0.72181904 0.28182912
-1.4207292 -0.032595783 0.51967746 -0.40647143 0.055831213 -0.1664173 0.42072132 0.27481765
0.61680394 -0.065633096 0.24463484 -0.13487884 -0.20205666 -0.72908354 0.052627567 -0.29917702
0.2677524 0.38004518 0.0617483 -0.36507824 -0.5398014 0.16752763 -0.030280085 0.5129362
-0.5353817 0.087551 0.50141364 -0.15215027 0.045305703 -0.03330266 -0.012298739 -0.14204714
0.05199268 -0.036737423 -0.044590436 0.07147807 -0.09087218 -0.2817101 -1.6017762 -0.53022
-0.21779148 0.71504813 0.9302266 0.054770216 0.27539396 -0.45762998 0.08464146 0.06413329
0.4381375 0.10681265 -0.28726834 -0.8693727 -0.6981227 -0.52445453 0.24685372 -0.80979115
-0.4636979 -0.060139585 -0.14234665 -0.20258547 0.4607052 -0.20093225 0.41434926 -0.5903046
-0.61628604 -0.43513387 -0.042412467 0.23545606 -0.11456371 -0.47187892 0.0892553 0.51986444
-0.25091368 0.10166068 0.023388315 -0.09977314 -0.063761 -2.180123 0.72726804 -0.4600139
-0.25023663 -0.02874146 -0.15746069 -0.11801337 -0.10253911 -0.18035065 -0.041087035 0.0073738853

fc1.bias f4 [128]
00000000: 1422 96bf 2fc8 79be b85f 46bf 2e27 0f40
00000010: 7779 873f 55fd 76bf dc32 63bf 919d 3fbf
00000020: 9891 afbf 81ea 38bf ad49 dd3e a458 17bf
00000030: d459 7a3f 48d9 19bf adcb 76bf 0a3b 8bbf
00000040: dc43 cbbf 8205 43bf 106c aebf 4a3d febf
00000050: f2b0 14bf ddd6 c7bf 7446 7fbf 57bd 81bf
00000060: 26e9 2dbf 6296 8fbf 50fb 69bf 2bf7 eabe
00000070: 5589 18bf b9f7 f9bf edb5 7f3d 1c66 efbd
00000080: 06cb 8fbf ef5a 8dbf fcad 46bf f25f d2bf
00000090: 4b08 92bc e96e cebf d4d4 85bf 953e 11bf
000000a0: 3501 51bf 9e30 e6bf 9f5a 37be a4a2 debf
000000b0: e5de 2fbf 88bf b8bf 32be 27bf 3de4 2abf
000000c0: abd2 82bf 7902 aabf 0311 25bf 954e 1bbf
000000d0: 68f5 4bbf c5c2 04bf 9ac0 4fbf ead1 c2bf
000000e0: 43ca 31bf 9c13 63bf 4a91 c1bf c9d4 eabe
000000f0: ab2e e1bf ad67 04bf 71aa 1640 a9aa 64bf
00000100: 9f3d 40bf 7527 5cbf 702a 4bbe 5363 31bf
00000110: 61aa 45be 3215 333f f427 e1be 2fb4 93bf
00000120: cea9 48bf 9033 25bf 8b91 aabe 9f8f d9bf
00000130: 5f6e 87bf fb8c 413d 7cc3 b8bf c29e fcbe
00000140: d745 b5bf 8981 5fbf 6ace 37bf 46a5 39bf
00000150: 3e87 19bf 2b2b b6bf 7f66 b3bf 689e 9bbe
00000160: c747 82bf 0ce6 3cbf e06e aebe 3c88 20bf
00000170: c334 0abf 061b e5bf d817 92bf cb76 1fbf
00000180: 6931 8abf 1ad6 e9be 0118 c3bf 4d86 ad3d
00000190: 077e 833e 21f9 ccbf 96f8 b5bf 38fa 843f
000001a0: 7ac4 14bf c92a 98bf e077 f1be 8f9a 37bf
000001b0: c429 97bf cb76 9abf 1796 82be 1ebc 063f
000001c0: 4363 1fbf f86c 93bf 1c74 11bf 211b 9e3c
000001d0: 44c9 76bd ee2f a3bf 76cc 1dbf 4f3a 83bf
000001e0: e0bf 733e fbdd 98bf 4bde 58bf ccd1 b3bf
000001f0: c2b3 fabe 2484 803f 4e81 36bf 9241 26be
-1.172915 -0.2439277 -0.77489805 2.2367663 1.0583943 -0.96480304 -0.8874948 -0.748498
-1.3716307 -0.72232825 0.43220273 -0.5911963 0.97793317 -0.6009717 -0.96404535 -1.0877392
-1.5880084 -0.7618028 -1.3626728 -1.9862454 -0.580825 -1.5612446 -0.9971688 -1.0135907
-0.6793388 -1.1217768 -0.913991 -0.458917 -0.5958455 -1.9528724 0.062429357 -0.11689398
-1.1233833 -1.1043376 -0.7760923 -1.643553 -0.01782622 -1.6127597 -1.0455575 -0.5673612
-0.81642467 -1.7983587 -0.17905663 -1.7393384 -0.68699485 -1.4433451 -0.6552459 -0.66754514
-1.0220541 -1.3282005 -0.6447908 -0.6066678 -0.79671335 -0.51859695 -0.8115326 -1.5220311
-0.6944925 -0.88701797 -1.5122464 -0.45865467 -1.7592367 -0.51720697 2.354153 -0.89322907
-0.75094026 -0.85997707 -0.19840407 -0.6929218 -0.19303276 0.69954216 -0.43975794 -1.1539363
-0.783841 -0.64531803 -0.33314165 -1.6996955 -1.0580558 0.04725359 -1.4434657 -0.49339873
-1.4161938 -0.8730703 -0.7179934 -0.7251781 -0.5997199 -1.4231924 -1.4015654 -0.30394292
-1.0178155 -0.73788524 -0.34068966 -0.6270788 -0.5398676 -1.7898872 -1.1413527 -0.6229064
-1.0796329 -0.4567116 -1.52417 0.084728815 0.2568209 -1.6013528 -1.4216487 1.0388861
-0.581123 -1.1888057 -0.4716177 -0.7172021 -1.1809621 -1.2067503 -0.25505134 0.52630794
-0.62260836 -1.151763 -0.56817794 0.019300045 -0.060250536 -1.2749002 -0.6164011 -1.0252169
0.23803663 -1.1942743 -0.8471419 -1.40484 -0.4896527 1.0040326 -0.71291053 -0.1623595

fc2.weight f4 [256, 128]
00000000: f48a 853e 66af 913b e225 7dbd 227b 0d3d
00000010: bfa0 c33d 2198 1e3c b6c9 b5bb 74e8 0ebe
00000020: 980d f9be ca44 c4bc eb5a ffbe 43b9 bb3b
00000030: 4573 07bf 1bbe 7b3e c8ae a4be a657 90bd
00000040: ae35 05be 4b6b 163d ac09 d3be 49f2 073e
00000050: fd7a e43c 9006 c2ba c74b 4abd c14d 5fbd
00000060: 2bb6 013e bbed 5dbf 8223 4bbd 2964 fcbd
00000070: 31c5 1dbd b778 8f3c f63b 13bd 29c7 6abf
00000080: ff3f aebd 5bdd 8cbe d9b4 943a 56f1 f83c
00000090: ec81 0fbe 848e 17be 9bdc 013d 63e7 ca3e
000000a0: 25b1 983e 8a79 b1be 8de0 83be ed0a 33bf
000000b0: a0a9 c93e 612b fd3c 29a5 09bf cf2e 1abd
000000c0: ae33 5dbd 4f84 a3be 456c cfbe c1c2 0bbf
000000d0: deb2 86be 8fe5 dcbd e095 92bd e5d6 4abf
000000e0: c025 263d ea31 b1bd 379c 8c3e d43c e13e
000000f0: 79a3 113e 1bcd 133d a3c1 c4bd 8940 653e
00000100: 21aa d3be ebca a13c 6b3d cfbc c0b4 bbbd
00000110: 2e18 f9be 2e22 91bd 1e2b 3d3e 6916 f6be
00000120: f310 a1bd eadd 69bd ff03 10be 831d 293e
00000130: 05dc 85bc 9f70 d8bc cb9d 833d f6a3 8fbd
00000140: 634c c6bd c21f 27bc df17 06bf 0d5a a1be
00000150: a12c 3b3c 49ba 8ebe 587a b9be ae93 22bd
00000160: 5927 153f e0f2 fbbd 4f47 87bd 95f3 bdbd
00000170: 92cd f83e 2672 8b3c 89a6 c83e e9ae 31bd
00000180: 93d6 02be 9e93 86bd c5cf 50bd c438 633c
00000190: d6df dbbd 8d65 ae3c ebc6 f4bd e760 9ebe
000001a0: dd37 5bbd 3417 cc3e 826f 26bd 4d71 47bb
000001b0: 1d44 903c b17f 48bd 6396 eb3d e69e 9ebe
000001c0: 2774 24bc d64d 2ebf 7290 953e f32c 8ebd
000001d0: 188f 31bf a637 f93c c28e 8e3c c24f aabd
000001e0: cd82 c23d d668 9f3d 58ff 923c 2a4b 323d
000001f0: 77c0 c93c fc79 e5bd a8ae 7abb 4325 2e3d
00000200: 5812 5e3c 70c9 b7bd 2309 a1bc 7b1b ff3b
00000210: efc2 91bd 233c 83bc 5a7d e13b d0c4 2ebd
00000220: 773f f9bc 60a7 af3c 579b 5cbe 8e6c 063c
00000230: 344e e3bc 49c9 71bd 0599 b4bc 2ad4 b0bc
00000240: 5417 0fbd 964e d2bc 8a62 16be 735b 1fbe
00000250: 1f17 adbd 2ad4 b03c d29c 43be 5ae2 9ebd
00000260: d2c3 a7bd 3a29 e2bb 652f eebd 23bb d83d
00000270: bf8c b83d 2c57 77bc 81ac dfbd 1603 86bd
00000280: a9cd 8a3c bded 043d e8e7 92bd 3d78 78bd
00000290: 2fd9 efbd 55ea abbd 3c1b 0fbe 5b16 cfbd
000002a0: 9874 2f3d 17ec 90bd 1648 2cbe 4a2f 7d3d
000002b0: 583f c1bd 0e1f e5bd e38e 0cbe 9ce6 ffbd
000002c0: 7716 40bd c17b c2bd 67fa 36be 64d8 03be
000002d0: ac4b 59bd f345 d8bd 9138 9dbd 845a 34bd
000002e0: de90 9abc dd85 a33d ba46 fdbc 6ff6 1abe
000002f0: 661c a3bd 8670 22be 4f54 d3bc 018a ccbc
00000300: ffa6 40bd 1282 143b fcfb 0e3d 9c06 17be
00000310: 47fc d3bd 0b0f 763c 6b03 20be 5142 56bd
00000320: ff6c 113e 018a 4cbc 015d e9bd 4712 423d
00000330: 9509 acbd 529d eabd 5962 fbbd 9680 2d3d
00000340: b070 af3c de26 65bd efd3 87bd e576 103d
00000350: f86f a63d 00a1 41bd f312 f6bc c264 4dbd
00000360: 9514 23bd b883 083e 46fb 05bd 5a6a 163d
00000370: 96cb d2bd 6f12 08bd 13dd 283d 588f debb
00000380: fabf c3bd c3e0 463d fe56 23be db20 1fbd
00000390: 039a 3bbe f149 82bc ac72 3d3d 09c0 dfbd
000003a0: c5eb 3dbd 5153 ccbc 1fea 49bd a458 97bd
000003b0: 05d1 0ebd 1615 4a3d dbc6 58bd b0c6 cbbc
000003c0: 2012 7cbd d6c8 66bd b8b7 b8bd 2248 81ba
000003d0: c33c e2bc 28ed fabd 31f2 80bd 2b13 58bd
000003e0: 9c9f 04be 5c10 50bd 7455 20bd ef3f 12bd
000003f0: c331 6bbd ef52 5dbd 63f0 463d c20e 31be
0.26082575 0.004445958 -0.061803706 0.034541257 0.09552144 0.009679825 -0.0055477275 -0.13955861
-0.48643184 -0.023958582 -0.49874052 0.005728872 -0.5291026 0.24584238 -0.32164598 -0.070479676
-0.13008758 0.036723416 -0.41218317 0.13276018 0.027890677 -0.0014802981 -0.049388673 -0.05451751
0.12667148 -0.8669087 -0.04959441 -0.123237915 -0.038518135 0.017513616 -0.035945855 -0.91710144
-0.085083 -0.2751263 0.0011345401 0.030388515 -0.14014405 -0.14800459 0.031704526 0.3962966
0.2982265 -0.3466304 -0.25757256 -0.69938546 0.39387226 0.030904474 -0.5376764 -0.037642296
-0.054004364 -0.3193688 -0.4051229 -0.54594046 -0.2630834 -0.10785972 -0.07157493 -0.79234153
0.040563345 -0.086520985 0.27462932 0.4399172 0.14222516 0.036084276 -0.09607246 0.223879
-0.41340736 0.01975008 -0.025297841 -0.09165335 -0.4865126 -0.070865974 0.18473479 -0.48063973
-0.07864561 -0.0570964 -0.14064024 0.16515164 -0.016340265 -0.02642089 0.06426581 -0.07013695
-0.09682538 -0.010200443 -0.52380174 -0.31514016 0.011424215 -0.278765 -0.36226153 -0.03969162
0.58263165 -0.12302184 -0.06605398 -0.09274975 0.48594338 0.017022204 0.39189556 -0.043379698
-0.12777166 -0.065711245 -0.050979394 0.013868514 -0.10736053 0.021288658 -0.11952003 -0.30933306
-0.053520072 0.39861453 -0.040633686 -0.0030432523 0.017610604 -0.0489499 0.11503293 -0.30980605
-0.0100374585 -0.6808752 0.29211766 -0.06942167 -0.6935897 0.030422043 0.017402057 -0.08315994
0.094976045 0.07783668 0.017944023 0.043528713 0.024627907 -0.11204907 -0.0038251076 0.042516004
0.013554178 -0.08973968 -0.019657677 0.0077852583 -0.07117259 -0.016019886 0.006881398 -0.042668164
-0.03042577 0.021442115 -0.21543632 0.008204592 -0.027747251 -0.05902985 -0.022045622 -0.021585543
-0.034934357 -0.025672238 -0.14686027 -0.15562229 -0.084516756 0.021585543 -0.19102791 -0.07758017
-0.08191647 -0.0069018872 -0.116301335 0.105825685 0.0901122 -0.015096467 -0.109215744 -0.06543557
0.01694377 0.032453287 -0.07173139 -0.060661543 -0.11711346 -0.08394305 -0.13975233 -0.10111686
0.0428358 -0.070762806 -0.16824374 0.061812676 -0.0943591 -0.11187564 -0.13726382 -0.12495157
-0.046896424 -0.094962604 -0.17868958 -0.12875515 -0.053050682 -0.10560217 -0.07676805 -0.044031635
-0.018867906 0.07984517 -0.030917514 -0.1513307 -0.07964401 -0.15863237 -0.025797037 -0.02496815
-0.04703426 0.0022660536 0.03490828 -0.14748615 -0.103508525 0.015018235 -0.15626304 -0.052309338
0.14201735 -0.012484075 -0.11394692 0.047380712 -0.08400265 -0.11455788 -0.12274618 0.042358957
0.021416038 -0.05594527 -0.0663222 0.035269637 0.08126825 -0.047272682 -0.030038333 -0.05014492
-0.03981455 0.13331497 -0.032710336 0.03672252 -0.10292737 -0.033220705 0.041226458 -0.0067919903
-0.09558101 0.048554193 -0.15951154 -0.038849693 -0.1832047 -0.015904399 0.046251938 -0.109253
-0.046367425 -0.024942072 -0.04929554 -0.07389954 -0.034867305 0.049336515 -0.05292402 -0.024875015
-0.061540723 -0.056343876 -0.090194166 -0.0009863416 -0.027616864 -0.12252265 -0.06296194 -0.052752655
-0.12951511 -0.05079685 -0.039143994 -0.035705503 -0.057420503 -0.05403417 0.048569094 -0.17290786

fc2.bias f4 [256]
00000000: c09d fbbd a51f b63d 84bb 473d 0e89 1a3f
00000010: d162 943c a4b3 2b3d 769e b73d 24b9 03bd
00000020: 04ea 913d 26fa 21be 074d 083f f236 b23d
00000030: b0b5 553e fa31 cdbd 9cc8 3d3e 0a40 833d
00000040: c5c6 213e 8e2e 2d3f 7da1 21be 3729 033f
00000050: 492f 7d3f 352a 22be 86e3 de3f ee7f 403e
00000060: 7be3 ae3f a75c 083e e910 4cbd a646 9a3e
00000070: e189 143e 553a 493c b110 ea3e c2a9 73bd
00000080: e29f 023f d573 51bd e649 ad3e 6909 d33f
00000090: 0bd5 c63e 1311 593f 7194 00bc 67d2 4b3c
000000a0: b37f 173e abfd 57be 9c7f 6d3d 072e 803e
000000b0: c978 af3e e1cf d93c abf5 3c3d 693e d6bc
000000c0: ccba be3d 9b0e 6bbd d5b1 2abe f5f9 2b3e
000000d0: 1faa 9b3d 90d7 893d ca0a 95bb a35e 16be
000000e0: d7cc 10be 3613 ad3f 1e4f 873c e761 f0bc
000000f0: 4469 933e 954e d23d 2d66 e0bb 9f35 473e
00000100: 09c9 813e 4fc0 5d3e 6e03 673e 9941 4d3d
00000110: fd7a 64bd da26 1ebc 3b45 3cbb c834 d5bd
00000120: 71bd 39bd 6ea2 533d 27d5 373e fbed 74be
00000130: 7848 1bbe bbf7 fd3f 17af 29be 1493 d13c
00000140: 8b53 783e c1d3 0b3e b430 483e 1315 83bb
00000150: ef41 673e 9cc8 bd3e 5551 bebe 1758 1b3e
00000160: dbbf b03e ae6b 373e 6d4d bebe da0f a93c
00000170: d62d a43d 0865 4bbd a3f3 d93c c69f 913d
00000180: c5e8 a23d 30ea b23e 7cb0 72bd c2bd 0c3f
00000190: 5a6c 6b3f 9f65 1c3d f8ec 263f a188 d63d
000001a0: cf41 2f3d b3d0 bbbd 874d 2f3e c52a e53e
000001b0: b9e4 823e f625 083d 7f48 493f b054 c2be
000001c0: 71f5 13be 74ce f63e dc80 ab3f 9e16 06be
000001d0: 470d 4abe 5be2 9ebe a8eb cc3c 3c2c 053e
000001e0: fda5 f53f 30cd f13d 00fa 003e fbe5 203e
000001f0: e211 8c3e 3bfc 7e3c 60d5 493e 0c1a ed3b
00000200: f9ec a6be b418 053e f7db 153d 12e5 7cbd
00000210: f051 753b f8c7 903e 36e6 c93d 3242 1ebe
00000220: 0099 8c3e 4d6b 483e c667 cd3e 47eb bb3f
00000230: b20e 95be a834 9d3f fc46 343e 802f df3e
00000240: 056c d1bd 87ec 9b3d 63c7 0d3f 1c36 f6be
00000250: dcc5 d13e b4fc 973e bc93 be3d 8554 b5be
00000260: 4571 b2bd 98f7 aebd e66d 6ebd 7cc3 803f
00000270: c358 4fbd 55bd 483e 0f19 e6bc 691a 953e
00000280: 17ad 29be 5303 763d d27e 01bc 6b41 ae3f
00000290: 3d98 0f3d 64b8 6cbd d4e9 043f 8dc2 a23e
000002a0: 5705 123e 3a89 a7bc c1ba e93e 63bc 163e
000002b0: aa73 44bd 03dd 8cbe 9b74 d93f 9c8e 8e3d
000002c0: 585b e3bd 9f9a d3bd a2ec 0c3e bf7c 49be
000002d0: 3137 273e 4001 c43d 4388 92bc 1af2 d6bd
000002e0: 5594 0f3e 664c f73e 2bd5 7e3d 6185 c3bc
000002f0: b37f 173e b231 4f3e c4a6 97be 19e5 0a3e
00000300: d492 ad3f 6ab9 01bd 21e3 c33e 2c9b 4fbe
00000310: 702b a63d be38 bebe 8f4a 1abe 446f 643c
00000320: 32a9 b0bd afe8 b73e dcd6 473e ac22 a0be
00000330: 7e29 a73e cd14 05bd aa44 8c3e 54d4 3d3f
00000340: 1204 0d3e 935a 503e 797b 443c 2e65 113f
00000350: 18c6 fabd d8bc 683e bc72 d9bd 73df ec3d
00000360: 85f8 193f 9a7b fcbd 35db 523e 59cc b03d
00000370: f444 d13e a8c2 133f f6e8 35bd 07aa 713e
00000380: 17b9 ae3c 20c0 893e 03bd f53e 33e8 57bd
00000390: 8326 843e ec3f 8bbd 4e36 a03e 18d1 f13e
000003a0: fab3 c53d 4419 c83d 32d7 613f d713 823f
000003b0: 006c 8a3e 9159 823e eebd 19be 1692 ca3d
000003c0: e4ab 473d 0b63 3d3e 9ea0 d2bd 79e2 563c
000003d0: bf70 cb3e d236 b83e 460d 9c3e 610d bb3c
000003e0: d551 653e 8b7e 03bc bd44 6f3e 1e3e 113e
000003f0: 4b3d 173e 33e0 833d 26ae d33d fa85 94be
-0.12285948 0.088927545 0.048762813 0.6036538 0.018113526 0.041919366 0.08965771 -0.032158986
0.07124713 -0.1581808 0.53242534 0.08701886 0.2087009 -0.10019298 0.18533558 0.06408699
0.15798481 0.6764916 -0.15784259 0.51234764 0.98900276 -0.15836413 1.7413185 0.18798801
1.3663172 0.13316594 -0.049820814 0.30132025 0.14505722 0.012281974 0.4571586 -0.059488066
0.5102521 -0.051135857 0.33845443 1.6487247 0.38834414 0.8479168 -0.007847891 0.012440301
0.14794807 -0.2109286 0.057983026 0.25035116 0.3427184 0.026588382 0.046132725 -0.026152806
0.093129724 -0.057386976 -0.166694 0.1679457 0.076008074 0.067305684 -0.0045484053 -0.14684539
-0.1414064 1.3521488 0.016517218 -0.029343558 0.2879125 0.102688946 -0.006848118 0.19454049
0.2534869 0.21655391 0.22559902 0.050111387 -0.055781353 -0.009652818 -0.0028727788 -0.10410458
-0.04534668 0.051668577 0.17952405 -0.23918907 -0.15164363 1.9841226 -0.16570698 0.025582828
0.24250619 0.13654996 0.19549829 -0.004000315 0.22583745 0.37067115 -0.37171426 0.15170322
0.34521374 0.1791217 -0.37168446 0.020637441 0.08016555 -0.049656898 0.026605433 0.071105525
0.079545535 0.34944296 -0.05925034 0.5497705 0.91962206 0.03818285 0.65205336 0.10475279
0.04278737 -0.091706656 0.17119418 0.44759193 0.25565127 0.033239327 0.78626245 -0.37955236
-0.14449097 0.48204386 1.33987 -0.13094565 -0.19731627 -0.3103207 0.025014713 0.13005155
1.9191281 0.118067145 0.12595367 0.1571273 0.27357394 0.015563066 0.19710302 0.007235771
-0.3260267 0.12997705 0.036586728 -0.061741896 0.0037432872 0.28277564 0.098583624 -0.15454939
0.2746048 0.19572182 0.40118235 1.4681176 -0.29112774 1.2281694 0.17605203 0.43590927
-0.10225681 0.076134734 0.55382365 -0.48088157 0.40971267 0.29684985 0.09305522 -0.35416046
-0.08713011 -0.085433185 -0.058210276 1.0059657 -0.05062176 0.19603474 -0.02808812 0.29121712
-0.16569935 0.060061764 -0.0079037715 1.3613714 0.035057295 -0.057793036 0.51919293 0.31789055
0.1425985 -0.020451177 0.45650294 0.14720301 -0.04796187 -0.2751237 1.698871 0.06960794
-0.11101407 -0.10332226 0.13762143 -0.19676493 0.16329648 0.09570551 -0.01788724 -0.10495396
0.14021428 0.48300475 0.06221501 -0.023867311 0.14794807 0.20233801 -0.2961942 0.13563956
1.3560433 -0.031670965 0.38259223 -0.20274037 0.08113754 -0.37152666 -0.15067504 0.013942543
-0.086260214 0.3591971 0.19515556 -0.31276453 0.32648844 -0.03249054 0.27396137 0.7415211
0.13771084 0.20347051 0.011992329 0.5679501 -0.12244815 0.22728288 -0.10617587 0.11566057
0.60144836 -0.123282626 0.20591433 0.08632726 0.4087292 0.57718897 -0.044411622 0.23600017
0.021328492 0.26904392 0.47995767 -0.052711677 0.25810632 -0.067993015 0.3129143 0.47229838
0.096534684 0.09770444 0.88218987 1.0162305 0.27035522 0.2545896 -0.15013859 0.09891145
0.048747912 0.18494813 -0.102845415 0.013115519 0.39734456 0.35979325 0.30478877 0.022833528
0.22394498 -0.008025776 0.23366065 0.14183852 0.14769475 0.06439247 0.103359506 -0.29008466

fc3.weight f4 [128, 256]
00000000: cb02 bd3e db4e d0bc 3626 f8bc efa8 f9be
00000010: 8670 a2be a6c9 1940 d827 a53c 5f5f e6bd
00000020: 3fd7 36bf 79ae 26bd 9903 74be 588d 09bd
00000030: d7a6 fa3d 6ccc f9bc 2a89 0bbd e095 12be
00000040: e848 a63e 09ba 60bd 9c85 ec3c 0820 25bf
00000050: 2e9f c0bd e323 d03e c356 1dbf 6435 ed3c
00000060: ec37 773f e00c 14be bbce f4bd f084 38bf
00000070: 1aa7 313d 5feb 873f df9b 11be 2873 9dbc
00000080: fd56 a33c 619b b1bb d0b3 38bd b691 283e
00000090: dc64 bebd 336a d0be b38b 153c ad27 18bd
000000a0: cd1b 52bd 8885 09c0 85d7 b4bc dcc4 03bf
000000b0: a38d 4ebc 9f04 093f 1f67 cabd 7bbe 15bd
000000c0: b4e0 aa3c d5e3 85bb 0cae e23d f6dd be39
000000d0: 7449 223f 9858 c2bd f98b 13bc 7444 aabb
000000e0: e418 d9be 47cf 703e afa3 91bd a8fc 423e
000000f0: e9e1 93ba 3613 ad3d e3da ff3e a520 513f
00000100: 85d7 b43c cdf2 983d b678 11bd 2884 133e
00000110: 99fc 26be 70df 25bd 1aea 82be 33d5 8c3d
00000120: 99f1 af3b b38b 153e e294 8b3d b7ac c1ba
00000130: 8e41 f83d 571a 62bf 44c9 aabd 45f7 5b3d
00000140: d5d8 8ebe 13e0 2b3f a9b7 9c3d dfcf 41bf
00000150: b014 143d dfc4 4a3d df1e 11bd 1846 c73e
00000160: 503d 5e3d bce4 e2bb 34c4 1640 a7c3 9abd
00000170: 6af8 283e abbb 0dbf 4608 523d 724a a93d
00000180: ca39 cdbe 4103 93bd e1c6 233f 9b94 8dbe
00000190: 3b83 a8be bdcd 6dbe 3d26 863e 3b20 803d
000001a0: a1ba 313c ea6e 83bd 7c08 34bd 630c b43c
000001b0: 8dbe 783d 4b27 a9bd 8775 1abf 5817 56be
000001c0: eef7 48bd c8c8 cabe 83a3 84bd 5495 16bd
000001d0: 85c6 be3f 4fd6 cbbe 8820 4c3d 0e12 99bf
000001e0: bdaf 2bbf f9ca 3abd 0fbd ca3a 9035 fa3d
000001f0: 1f29 f13c 3702 b73d 04ac ffbd e1d4 39bd
00000200: 75b0 343e 98bf d4be aba5 9fbe 31e9 5e3d
00000210: c5d4 483c c9e9 2f3e 1228 ce3d 74f0 623e
00000220: f1b2 e9be 9ce6 ffbc d2a7 3abf 3bdb 89bf
00000230: 1ad0 eabd e6f3 10bf f77d 793d 7e0e fabb
00000240: 4091 893d 2bf1 eb3b e12e 803e 3530 213c
00000250: 3bc2 cfbe 7522 3e3d 37ca 5c3d 2c88 04c0
00000260: 10a4 0040 e62d 40bd 5acc 30bd 70ad cabf
00000270: 9161 563d a374 04bb 1289 e1bb 8312 eb3d
00000280: f625 883e 04c6 973d f6fe a33c c9a4 09bc
00000290: f7f8 a43b fff6 dd3c ed31 78bd 9586 ac3f
000002a0: 288c e73c c0a8 253e 00ef 89bd 77b6 fabc
000002b0: c21b fdbb 3448 643e d45f 61bf 15e1 99bd
000002c0: f09a a6bf 15af be3c b785 5d3d 2741 c23d
000002d0: 766a 07bd c4eb bdbe 10ea b0be 507e 373d
000002e0: ceff 64bd ee13 36be b4be 3e3d c73a 54bc
000002f0: 50be 883d 65ef 3fbc 7433 b4be 2d05 053e
00000300: b6ff aebf 4292 573d 65ce 5a3f d9d8 553c
00000310: af49 cbbc 4016 5e3f 2548 48bc 2cbc b4bc
00000320: fd72 103e 9bc3 453d 07dd 533d 753e ab3d
00000330: 3c22 0ebd 840f 0fbe 9a34 813d a675 d2bd
00000340: 6df7 21be d379 50bc 707e 923d dc41 84be
00000350: 4501 05bd 73da 743d 3f54 373e 74ce f6bc
00000360: 612b 7dbe abce d8bc 2626 dc3d 2505 773c
00000370: 1ec9 64be 6b91 963e 4330 bdbb 5dc6 78bc
00000380: ad66 bf3c 1d44 9039 ea0f 45ba d987 31bf
00000390: c78e 9b3e 424a 0cbf cd2c c8be 5fad 2e3e
000003a0: 90d2 913c e893 4b3d 21e9 423f e54a 34bf
000003b0: 1e11 2ebc 0a46 02bd 8f44 9b3f c584 abbb
000003c0: 2c12 d13d 40a4 d43d 8ba7 bcbe 9648 d3be
000003d0: 34ad a1be bc6a 053e d928 f33e 65ef 3f3c
000003e0: 1128 cebf d3e4 8c3d de85 23bf eac1 fc3c
000003f0: 3c8d 98bb df1a e7bf b6df 233d 0aaf 693e
0.36916193 -0.025428226 -0.030291658 -0.487617 -0.31726474 2.4029326 0.0201606 -0.11248659
-0.7142219 -0.040693734 -0.23829497 -0.03358206 0.122388534 -0.030492984 -0.034066357 -0.14314985
0.32477498 -0.054864917 0.028872304 -0.64502 -0.09405361 0.4065238 -0.6146051 0.028956123
0.96569705 -0.14458036 -0.11953493 -0.72077847 0.04337225 1.0618705 -0.14219616 -0.01921995
0.01993894 -0.005420134 -0.045093358 0.16461834 -0.09296581 -0.40706024 0.009127545 -0.037147213
-0.051296044 -2.148775 -0.022075424 -0.5147226 -0.012607011 0.53522676 -0.0988295 -0.03655861
0.0208591 -0.0040859976 0.11068353 0.00036404998 0.6339333 -0.09489554 -0.00900554 -0.0051961485
-0.42401803 0.2351657 -0.07111298 0.19041693 -0.0011282536 0.0845093 0.49971685 0.81690437
0.022075424 0.074681856 -0.03551551 0.14405882 -0.16307296 -0.04049629 -0.2556923 0.06876602
0.005369377 0.14604072 0.068155065 -0.0014776204 0.121218786 -0.8832144 -0.083391696 0.05370261
-0.27899805 0.67138785 0.07652218 -0.7570781 0.03615254 0.049504157 -0.03542983 0.38920665
0.05425769 -0.00692424 2.3557253 -0.07556849 0.16501012 -0.55364484 0.05127742 0.082661524
-0.40083152 -0.07178355 0.6397534 -0.2765244 -0.3291262 -0.23223014 0.26201048 0.062561475
0.010847718 -0.064176396 -0.043953404 0.021978563 0.0607286 -0.08259448 -0.6033558 -0.20907342
-0.04906457 -0.3960631 -0.064765 -0.036763504 1.4904333 -0.39811942 0.04983571 -1.1958635
-0.6706503 -0.045603726 0.0015467721 0.122172475 0.029438553 0.08935969 -0.12483981 -0.045369033
0.17645438 -0.41552424 -0.31181082 0.054421607 0.012257759 0.17179026 0.100662366 0.22162038
-0.45644334 -0.031237893 -0.72912323 -1.0770029 -0.114654735 -0.5662216 0.060911145 -0.007631122
0.06717157 0.0072003803 0.25035766 0.009838154 -0.40577874 0.04641958 0.053903785 -2.0708113
2.0100136 -0.046918772 -0.043163635 -1.5834179 0.05233914 -0.0020211122 -0.006882795 0.1147814
0.26591462 0.07410815 0.020019036 -0.008401104 0.0050345617 0.027095316 -0.060594488 1.3478571
0.028265074 0.16177654 -0.06735039 -0.030604584 -0.0077242563 0.22293168 -0.8803685 -0.07513634
-1.3016033 0.023276845 0.0540826 0.09485083 -0.033060513 -0.37093937 -0.34553576 0.044798195
-0.055908017 -0.1778104 0.046568587 -0.012953467 0.06676924 -0.011714791 -0.35195506 0.12990256
-1.3671787 0.052629717 0.85471183 0.013052189 -0.024815409 0.867527 -0.012224232 -0.022062384
0.14106365 0.048282247 0.05172446 0.08361522 -0.034700617 -0.13970762 0.06308861 -0.10276346
-0.15817042 -0.012724358 0.07153022 -0.25831497 -0.032471914 0.059778642 0.17903231 -0.030127741
-0.24723579 -0.026465734 0.10749464 0.01507691 -0.22342345 0.2940782 -0.0057735755 -0.015184012
0.02336439 0.0002751657 -0.0007517325 -0.6934791 0.30382368 -0.5480081 -0.3909668 0.17058323
0.0178006 0.0497016 0.76136976 -0.7042678 -0.010624198 -0.031805076 1.2130297 -0.005234333
0.10208544 0.10382891 -0.36846575 -0.41266316 -0.31577456 0.13028997 0.47492102 0.011714791
-1.6105977 0.06879582 -0.6387614 0.030854184 -0.0046555083 -1.8055075 0.04000827 0.22820678

fc3.bias f4 [128]
00000000: 9d8e ae3f 05ad a93f 0ad5 e03f ccc2 0abe
00000010: 2b11 83be ca7d 243f a52e f53f e6f4 d13f
00000020: 8554 35be 86b5 48be 5e58 973f e5a8 d33f
00000030: 4834 8d3f 0c3c 1b40 7189 89be a72f 4a40
00000040: 0139 8e3f 1803 5540 1b03 2f40 f30a 943f
00000050: 0f33 0340 0715 2ebe ef7b 4140 c240 f23e
00000060: cddc 2abe da6f ad3f 614a b13f e128 913f
00000070: 5274 ac3f a0a9 ffbe 32a7 313f 51ee 3f40
00000080: b205 73be c296 ce3e 843e bf3f 3fc0 c43f
00000090: e4bd 773f 08ba a9bd db39 c1bf 0728 f9bd
000000a0: 7fc9 53be 0fae 42be 7655 ecbe 161b c9be
000000b0: 867c 893f cb9f cb3f 214b bf3f 94ac 693f
000000c0: 9958 e7be d9a0 4640 4a15 483f 8276 a33f
000000d0: 7dcd fcbe 7cc6 fcbd ed48 edbd 98ce 4740
000000e0: 41a9 4cbe 7a96 333f 6e12 ba3f 7bf7 6f3e
000000f0: 2c65 75be 592a 13bf 319a 1940 9e15 d8bd
00000100: ac65 793f de46 fdbd 0b60 833f 68f5 3240
00000110: 2a7a 4c40 eb1b 7e3f e449 8a3f 4ed3 3ebf
00000120: 290b 3b3f 8d61 0fbe 90de 653f 437f 0cbe
00000130: aa14 4f3f ddbc 9a3f 8105 efbd e2dd c13f
00000140: b522 743f 451a 4a40 070f bc3f 0ae1 ab3f
00000150: 0a5d 80be 5dc8 893f edfb 2240 dee1 3ebe
00000160: 8a8a 01be 0578 973f b60a 033e 352a 22be
00000170: dfd6 8b3f 0f03 20be fc14 e1be 88b5 0b3f
00000180: 85d2 493f 6310 583f 71dc 3c40 71ef 953f
00000190: c742 543f 7c4d 0940 5c3b 483f 05d3 e3bd
000001a0: 2eb3 4f40 aaff 923f 75ec 093f 3a7d 3d40
000001b0: 3bd1 aa3f ee6b 873e 29ef 0fbe c02d 7abe
000001c0: 4199 42be 09b7 053f 5f1a 1abe 1c95 84bf
000001d0: f03d 1dbf 0478 cfbd 3771 c23f 7b98 363f
000001e0: d130 39be f521 5740 bb94 45be f24a 923f
000001f0: 5f9d 773f 5f31 233f 8218 eabd 4d07 063f
1.3637272 1.3255926 1.7565014 -0.13550872 -0.25599036 0.6425444 1.915486 1.6402862
-0.17708023 -0.19600496 1.1823843 1.6535918 1.103158 2.42554 -0.26862672 3.1591585
1.1111146 3.3283138 2.7345645 1.1565841 2.0499914 -0.17000209 3.0231893 0.4731503
-0.16685791 1.3549759 1.3850824 1.13406 1.3472998 -0.499341 0.69395745 2.9989207
-0.23732641 0.40349394 1.4940953 1.5371169 0.96774125 -0.08287436 -1.5095781 -0.12165838
-0.20682333 -0.1901171 -0.46158952 -0.39278477 1.0741127 1.590814 1.4944803 0.9127896
-0.45184782 3.1035674 0.78157485 1.2770541 -0.49375525 -0.123425454 -0.11586175 3.1219845
-0.1998644 0.70151484 1.4536874 0.2343425 -0.23964375 -0.5748649 2.400036 -0.10550998
0.97420764 -0.123670325 1.0263685 2.7962284 3.1949563 0.9926135 1.08038 -0.74541175
0.73063904 -0.14002056 0.8979273 -0.13720421 0.80890906 1.2088886 -0.11670972 1.5145838
0.9536546 3.1578534 1.4692086 1.3428051 -0.25070983 1.0764271 2.5466263 -0.18640849
-0.12650505 1.1833502 0.12797055 -0.15836413 1.0924948 -0.15626167 -0.43961322 0.5457387
0.7883685 0.84400004 2.9509547 1.1713697 0.82914394 2.1453543 0.78215575 -0.11124233
3.2453113 1.1484272 0.5387643 2.9607682 1.3345102 0.2644953 -0.14056076 -0.24431515
-0.19003774 0.52232414 -0.15049122 -1.0358005 -0.61422634 -0.10130313 1.51908 0.71326417
-0.18085028 3.3614476 -0.19295017 1.1429121 0.96724504 0.6374721 -0.11430456 0.5235489

fc4.weight f4 [128, 128]
00000000: 4003 133d 79b0 fbbc e1f6 25bd 2d82 85bd
00000010: 7699 bfbd 7046 b8bd 003a 2fbd 377f b7bd
00000020: 9f9a d3bc 3b1b 8b3d 54f6 a9bd 4005 e8bd
00000030: 2abd bb3c a4bb 7fbd 62de 823c b56a f7bc
00000040: 9e0a 083d 7a14 323b 5685 eebc 827d a7bd
00000050: 68a3 133d a622 33bd 9d99 05be 229f 6b3d
00000060: 17cb a6bd c7a5 90bc 32b4 27bc 57a6 d3bd
00000070: ffde 9abd 31c5 9d3d 2237 0bbe b7ef 923c
00000080: 47d8 923c dae8 443d b557 ac3a 2ab8 c3bd
00000090: 39d4 ccbd dae8 443d ac22 a0bc d0e0 9b3b
000000a0: 079d a53c ee3a 9a3d 2685 9a3c bd60 5c3d
000000b0: dfd5 c0bc 4e87 b5bd 7a2c f53b 37b7 91bd
000000c0: cf85 07bd 5707 67bd b404 ecbc 9404 34bc
000000d0: 3624 a3bd e4f5 a3bd 6656 52bd 5511 103c
000000e0: 73eb 6abd efc8 90bd 3962 c3bc e915 443d
000000f0: 5bf2 8d3d 3061 e7b9 353b 98bb 24b5 d9bc
00000100: 1193 8abd f0c5 9abc fa1a d83b d8ef cabc
00000110: 6d4d bebd eb4e 6c3d d235 b1bc cb97 043d
00000120: ec0e be3c 417a 94bc 1c41 ed3b 2809 e8bc
00000130: 0201 cebd f38f 2fbd 5b4e 293d 64ce da3c
00000140: 8576 21bd a753 66bd c83f 4c3d 8782 e6bc
00000150: b4b9 c63c 8478 f6bc 0f96 e6bd 1228 4ebd
00000160: d3d9 153d c014 b03b 552a 5abd 7ee5 40bc
00000170: 3b3f 503b 6dd5 353d 4070 adbc 0cf7 32bd
00000180: 5336 d8bd 9e12 5cbb 70a7 cbbc 0b3a 843c
00000190: 0659 06be 28b9 cabd 5a49 b1bd c97e 733c
000001a0: 0660 d33b 2598 653c 3b83 28bd 9e95 dbbc
000001b0: 7bd6 58bc e54a b4bd cc75 183d 2ace 5e3d
000001c0: d1be afbd 9d08 9f3d 9e64 303d fa02 95bd
000001d0: c198 fd3c ab9a a8bd a358 173d 8c85 d03a
000001e0: 5ce8 c3bc 210c 7d3c b22c 573d 578a e6bd
000001f0: 1ecc 073d 0aa2 9dbd 1ba8 7f3d df23 893d
00000200: 304a 723d 49e8 013d 0d23 8fbe 028f 44bb
00000210: b097 13bd d26f 60bd 37ac 9abd a4ae b3bd
00000220: 03ee 023c 2dff 05bd 16c5 acbc d157 1dbc
00000230: 75cc a1bc 8d61 0fbe e401 e43c cae3 b0bd
00000240: 1d28 233d 95e7 bf3c d180 d6bd a74d 673d
00000250: fc62 a13c 0aec 3b3d 54ab 84bd fadb 303d
00000260: 8277 28bd 1000 1cbd 0367 593d b740 b7bc
00000270: f30b a9bd fa02 953b 08c0 5f3d 0df0 2c3c
00000280: ebe6 8bbd 28f2 723d cd48 35be 942d ed3c
00000290: ab72 3d3d abcc 833c 5caf bcbd a813 113d
000002a0: c72d 883b 6d18 87bd d9ee 43bd 79b9 1d3d
000002b0: 3dbc 50bd eadb 94bd b164 313d af87 a4bc
000002c0: 8183 a6bb d2f0 8abd 7c51 84bd 6478 be3d
000002d0: 6915 9dbd 5b16 4fbd 08ca 883d 1559 a2bd
000002e0: 3685 363d 4dff 3dbd 18c4 a5bd 5a92 81bd
000002f0: caa9 813d df14 683c 5dca a23d adab e53c
00000300: 0465 84bd 8314 80bd 28d5 37bd 7df7 bdbd
00000310: d8cd 5ebd 513c 573d 0f9f 883b d55b 8ebc
00000320: 2c6e 6cbd 6091 c1bd dbaa 6bbc 6bcb c5bd
00000330: 2ff3 07be d173 0abe 57bc 413d 885e a5bd
00000340: 8941 b13c aabe e9bc 17c6 7a3d 75d9 6dbe
00000350: 0fd9 373d 7444 2abd 12fb 6a3d 1454 aa3b
00000360: 8b01 83bc 288c 67bd ceec 193d 0648 903d
00000370: 02d8 94bd 5a50 7ebd a61f b6bd 101e 5ebb
00000380: 50c3 803d 28c9 b93a c2fd 3abc 3c28 5b3b
00000390: 89cf 273d afa3 91bd 5705 123d 01a6 393c
000003a0: 1fb0 9abd 2a0e e0bd c3b9 e23c 1e2a 78bd
000003b0: e75f 1b3c 75d7 18be 8382 1fbd 3fdc 2ebd
000003c0: d0a2 c2bc 92ba 95bd 7aed 4d3d 5008 27bd
000003d0: 4c8d 34bc 0ef6 ab3c 9dd8 ac3d 435f 753c
000003e0: 164d a4bc 64ab 20bc 345d 84bd a288 56bd
000003f0: 384c 55bb f318 f5bd 9348 8cbc 8476 a13d
0.03589177 -0.030723797 -0.040518645 -0.0651897 -0.09355442 -0.0899781 -0.042779922 -0.08959811
-0.025830565 0.06792303 -0.082989365 -0.11329126 0.022917349 -0.062434807 0.015975181 -0.030202249
0.03321325 0.002717285 -0.029116314 -0.081782356 0.03604451 -0.043734215 -0.1304688 0.057524808
-0.08144205 -0.017657174 -0.010235833 -0.10334461 -0.075620644 0.07703627 -0.1359525 0.01793657
0.017925395 0.048073627 0.0013148697 -0.09556611 -0.10001416 0.048073627 -0.019547783 0.0047570243
0.020216478 0.07530771 0.018862318 0.053803194 -0.023539482 -0.08863698 0.0074821087 -0.071150236
-0.033086594 -0.056403484 -0.028810836 -0.01098742 -0.07965891 -0.08005884 -0.051351927 0.008793195
-0.057353448 -0.07069575 -0.023850547 0.047872458 0.06930991 -0.00044132164 -0.00464573 -0.026575632
-0.06766332 -0.018893212 0.0065950127 -0.02477257 -0.092921115 0.05769245 -0.021632109 0.032371324
0.023200475 -0.018124701 0.0072404277 -0.028324679 -0.10058786 -0.04286189 0.04133449 0.026709743
-0.03941967 -0.05623212 0.049865514 -0.028138412 0.024258472 -0.030086763 -0.1125909 -0.050331183
0.036584686 0.0053735673 -0.053263027 -0.011773465 0.003177597 0.04439299 -0.021171689 -0.043692634
-0.105572365 -0.0033580433 -0.024860114 0.016140958 -0.13119897 -0.09898597 -0.08656569 0.014861771
0.006450656 0.014013325 -0.041140776 -0.026804741 -0.01323473 -0.088033475 0.037221715 0.054395832
-0.08581317 0.07765315 0.043064706 -0.07275958 0.030956628 -0.082326256 0.036949765 0.0015908941
-0.023914509 0.015444786 0.05253286 -0.11256855 0.033153646 -0.07696922 0.062416177 0.06696295
0.059152782 0.031715665 -0.2795643 -0.0029992466 -0.036033332 -0.05479414 -0.075523786 -0.087735444
0.007991317 -0.032714058 -0.021090072 -0.009603457 -0.019750813 -0.14002056 0.027832933 -0.08637197
0.039833177 0.023425857 -0.104737885 0.05647054 0.01970052 0.0458794 -0.06477991 0.043178536
-0.041129597 -0.038085997 0.053076755 -0.022369726 -0.08254232 0.004547474 0.054626495 0.010555279
-0.068311535 0.05931297 -0.17703553 0.028952397 0.046251934 0.016088804 -0.09213135 0.035419136
0.0041558477 -0.06596456 -0.047835205 0.03850696 -0.050960768 -0.07268508 0.043308917 -0.02008423
-0.0050815945 -0.06784214 -0.064608544 0.093003064 -0.07670099 -0.05055843 0.066791594 -0.07927147
0.044560634 -0.046386052 -0.080940425 -0.063267425 0.06331213 0.014165132 0.07948754 0.028035963
-0.0646458 -0.06253912 -0.044881016 -0.0927572 -0.054395527 0.052547757 0.004169352 -0.017377773
-0.057722256 -0.09451556 -0.014383997 -0.096579395 -0.13276361 -0.13520743 0.047298755 -0.08074671
0.021637695 -0.028533299 0.06122407 -0.23227485 0.044884738 -0.04156919 0.057368346 0.005198011
-0.015991947 -0.056530148 0.03757935 0.070449874 -0.07267763 -0.062088348 -0.08892755 -0.003389243
0.06287253 0.0014174329 -0.01141304 0.003344073 0.040969405 -0.07111298 0.035649624 0.011331082
-0.07553124 -0.109402016 0.027676469 -0.06058704 0.009483314 -0.1492594 -0.038942825 -0.04269051
-0.023759276 -0.07310976 0.050275303 -0.04077941 -0.011020016 0.020991351 0.08439753 0.014976325
-0.020056289 -0.009806488 -0.064630896 -0.052376397 -0.003254665 -0.11967649 -0.01712445 0.07883933

fc4.bias f4 [128]
00000000: c6d4 c8bd c9ff 9d3e aad2 823e a3ee e1bc
00000010: bb2d b33e 2421 e43d 1095 5f3f 8204 5d40
00000020: c58f a23e c04f 2e40 90ce 673f 9263 6140
00000030: 22ff b0bd e418 59bd 96e1 403f 8511 64bc
00000040: c3db 4ebe 2dbc b4bd 4772 87bd 0b0a 7ebc
00000050: a952 dfbd 8c1e 3e3f 96d8 1340 7229 c4bd
00000060: 8850 6840 48f2 6040 a3a3 bc3e d22a babd
00000070: b5bc 5e40 8d7f 51bd 3080 5040 58c7 b8bd
00000080: 70ce 2f3d 7d90 2bbd 4eb9 903d 5ce1 173c
00000090: 00cc ed3d c5b6 063f 7bda 82bd 8b80 d8be
000000a0: 6a54 c43f 476c 883d 73d8 1fbd 2d01 dbbd
000000b0: 2b61 203f 0bc5 d7bd 8017 1cbe 31c1 733e
000000c0: abb0 963e a0c6 af3e d7c0 923f bebf 1a3e
000000d0: f39b 74bd 0f67 2e3e c88a f1bd a95b 013f
000000e0: f044 8a3d 1b6e d03e a09f 4bbe d98b 4b40
000000f0: 528a 9f3d 18eb 893e 8686 90bd 4b4e 0d3f
00000100: 903e 9cbd a9bc 143e 0047 fb3e 6987 bc3f
00000110: 9d12 5c3f 88d5 a63f b3fd 1ebe 34b8 983f
00000120: 02ce eb3e 6062 89bd c141 13be b57b edbd
00000130: 9f78 673f 804b cc3f 0161 13bd a5f1 04be
00000140: 8c45 a23e 8b3b b2bd e418 d9bd d36c 6340
00000150: 2daa 943c b573 993d 737e 593e 531e d03c
00000160: 3d5a b63e e17e 1dbd 4392 7240 88f9 e7bd
00000170: 67a0 f03e 7506 d1bd 4da3 a23e 6cf9 763f
00000180: 10c2 c23c 5303 f63f b10b 72bd cc4b 5a40
00000190: 8e12 003f 2ec1 acbe 871b 54be cb3c 8040
000001a0: b6f2 eebc 3551 863e 0e84 22be 72db 4f40
000001b0: db9d 1fbd 7a72 6040 ff77 883e d2f5 823f
000001c0: 940a 33be ada4 18be 83f9 203e ab11 aa3e
000001d0: c40d 2abf 7522 bebd 015b 143f 5236 583e
000001e0: 1930 b0ba 97a3 673f ca4c 5440 fe9b 493f
000001f0: c4e4 6140 b277 7cbd 85db 3cbd a2e4 a13f
-0.09806208 0.3085921 0.2555135 -0.027579611 0.34995827 0.111391336 0.87336826 3.4534001
0.31750312 2.7236176 0.90549564 3.5217023 -0.08642413 -0.053002253 0.75344217 -0.013920193
-0.2020102 -0.08824954 -0.066135935 -0.015505324 -0.10904438 0.7426536 2.3100944 -0.095782176
3.6299152 3.5147877 0.36843595 -0.090901986 3.4802678 -0.051147033 3.257824 -0.09022397
0.042921484 -0.04188584 0.07066594 0.009270038 0.116111755 0.52622634 -0.06389328 -0.4228557
1.5338261 0.06661277 -0.03902478 -0.10693584 0.62648267 -0.1053563 -0.1524334 0.23804165
0.29431662 0.34331226 1.14651 0.15112206 -0.059719037 0.17031501 -0.117940485 0.5053049
0.0675143 0.40709004 -0.19885111 3.1804106 0.077900544 0.26937175 -0.07056908 0.5519759
-0.0762912 0.14525093 0.49077606 1.4728824 0.859659 1.3033915 -0.15526466 1.1931214
0.4605561 -0.06708217 -0.14380552 -0.11595861 0.9041843 1.5960541 -0.035981182 -0.12982805
0.31693685 -0.08702763 -0.10600451 3.553517 0.018147552 0.074927725 0.21239643 0.025405085
0.3561572 -0.03845108 3.790177 -0.11326891 0.46997377 -0.1020631 0.31765214 0.9647434
0.023774177 1.9219764 -0.05909318 3.4108763 0.5002831 -0.33741134 -0.20713626 4.007421
-0.029168468 0.2623383 -0.15870687 3.2477689 -0.038968902 3.506987 0.2665405 1.0231268
-0.17484504 -0.14906569 0.15720181 0.33216605 -0.66427255 -0.09283916 0.5795136 0.21114472
-0.0013442069 0.90483993 3.3171868 0.7875365 3.5295877 -0.061637588 -0.046107788 1.2647898

fc5.weight f4 [3, 128]
00000000: a242 29bc b872 92bd d418 bdbb e931 31bd
00000010: 44d4 213a 83ab 58bc 493e 1ebc 97bf 09bd
00000020: b685 dd3b 6e15 9e3d ea5e 943d c1e5 f6bc
00000030: d2e1 69bc bf9d 2ebc 9675 363b d62f 793c
00000040: 47cd 9bbd 9549 dabc 0d12 19bd a4bb 7fbd
00000050: 014c f33c 7cce 84bd f218 f53d 206c c23c
00000060: d5ee 6ebd fab8 583d 840a 973b 278c 673d
00000070: 17ce 2d3e 94cc 59bc 5d1f 6c3e b789 873b
00000080: 5adc 1f3d 9234 73bb 2397 17bc 729b cd3c
00000090: b51a 4f3e 319e 393d d05f f1bd 064f 5dbd
000000a0: b259 ba3c c3a6 97bc 20c2 de3c acaa 17bd
000000b0: 82c5 82bb 5314 ecbc 0e0c 1a3c 773f 79bc
000000c0: 006c 0a3e b109 9dbc 724a a939 36d5 d33c
000000d0: 6b2a 84bd 3702 b7bc da6b c43d 9e88 0f3d
000000e0: dd91 a13b 0107 4d3c 35da 84bc 40ec 76be
000000f0: d4a5 cfbb 386e c1bc aaf0 c43d 90c1 9b3b
00000100: 33cf 8dbd f8cb 41bc 9d68 78bd 953e 04bd
00000110: e7d1 a43b af65 b8bd 62a2 7e3d 0ca6 0e3d
00000120: 579b 5c3d fc87 813c 5ecf 9abd a7c8 923c
00000130: 8f17 b83c e106 153e f891 123b d1be 2fbb
00000140: 1372 ecba 3075 81bc 80c3 54bc 6af1 fbbd
00000150: 7564 7f3e fd67 99bb 0b96 9fbc 2cc7 10be
00000160: 494f 94bc 22cc 4e3d 95de 763d de58 c0bb
00000170: e9d0 1d3d 70d4 2e3e e146 c33c 041c 343c
00000180: ca20 033d 6782 2ebc 97ad 103c e475 c73d
00000190: a72f 25bd 67f4 37be 9d12 dc3a 595a 733c
000001a0: 940a 33bd b89f 253c 50e1 423c 0ede 1dbe
000001b0: 0362 61bc 9f7f 6cbd 6eda 2dbc 8fbd 713c
000001c0: defd ab3d 7e5d c9bd 1d62 523b 5ec4 233c
000001d0: e46c a0bd 484c f1bb c944 c43b 9f01 e6bc
000001e0: d184 00bd 3b7d a9bb 2bb8 dcbd 19f6 00bd
000001f0: 7fe8 123e 460d ca3c ae5d 773d 273e 9fbd
00000200: b90c 4e3d 6158 e0bb 5f09 cabc 9ebc bfbc
00000210: 457e 853b bebc f73c 3aa5 94bc f71a 47bf
00000220: b72f c13d 5465 b3bd c1ad 9d3d d9ba 8f3e
00000230: 55d3 953d 0a0e 283d c385 b2bc cb54 333d
00000240: acc6 84bd dfd5 403d 76aa b5bc 62eb ce3c
00000250: ebbb fd3c 487e 4c3e 1308 b7bd 3c16 173d
00000260: 1f2b 46bf ddba 56bf 4e04 b6bc 802f 5f3d
00000270: 00a8 223e 77e3 dd3b 35cb 34bf e45b aabc
00000280: a9c7 8b3c 3519 ac3c ef30 f1ba 12ab 4dbc
00000290: 4b85 a3be 124a babb 43eb 963d e5ea ee3d
000002a0: 63f0 463c d834 f13c 92cd 603c 06d6 86bd
000002b0: d5ea d2bb 4f03 af3c e6cb 513d 671d f1ba
000002c0: 3486 bdbd 3747 ddbc d55c dc38 3912 263b
000002d0: 5712 de3d aaad f33c 8003 1bbb 08f8 39bd
000002e0: 87f4 6f3d 75b0 343d e9f7 01bd 82a5 a7bc
000002f0: 94e2 c7bd 613a 1ebd a9ad 733d aab2 eb3c
00000300: 8d6e db3a 947c 3cbd aac1 8cbd 5433 bd3e
00000310: a3f2 0b3c 30f2 80bc a1e4 f1bc cd93 dabb
00000320: 80b2 de3b 01d3 9c3c bb17 45bc 86f4 ef3c
00000330: b02b 893c 7b59 583c c92c 81bc b132 56bc
00000340: 78d6 91bb 39c7 003d 270f e7bd 8612 813e
00000350: a097 c93d f0f0 42ba fb80 e3ba a005 b7bd
00000360: 7b26 76bb 799d b0ba 560c 5dbe 69bf 00bd
00000370: 3ba4 8dbc 63f0 463c 85fe 18bc 6096 b9bc
00000380: 6c9e 62bc b4fc 17be 8874 133d d168 063e
00000390: df18 12bc 6732 11bd f937 cc3d ba9b 88be
000003a0: cc0f 8d3d 2dcd 2a3d e316 84bd 1f1e a2be
000003b0: 2a62 a7bc ad89 4bbf 74d7 983a c93f 4c3d
000003c0: 6ff2 703d 2845 2c3c a1d3 fbbc d7c8 e63c
000003d0: 6d74 a23d bdaf 2bbc 7395 4e3c 7d4d da3c
000003e0: cae3 303d 78a3 2fbd bbc4 19bf 23b9 833b
000003f0: 493f 3e3e c884 723c 8965 f23c c30d 2a3d
-0.010330828 -0.07150787 -0.005770782 -0.04326049 0.00061732926 -0.013224485 -0.009658405 -0.03362998
0.0067603244 0.07718931 0.07244666 -0.030138852 -0.014275031 -0.010657727 0.0027841083 0.015209159
-0.07607513 -0.026646415 -0.03737073 -0.062434807 0.029699327 -0.06484696 0.119676486 0.023733199
-0.058333237 0.052910782 0.004609408 0.056530144 0.16973148 -0.013293404 0.23058839 0.00413629
0.039028503 -0.0037110192 -0.009252342 0.025098536 0.20225032 0.04531688 -0.11785853 -0.05403044
0.022747848 -0.018512135 0.027192175 -0.037028 -0.00399083 -0.028818285 0.009402288 -0.015212885
0.13517761 -0.01916966 0.00032289658 0.025858503 -0.06453403 -0.022339923 0.095908836 0.035042398
0.0049307183 0.012513877 -0.01621733 -0.2411356 -0.006336907 -0.023612127 0.096162155 0.004753299
-0.06924286 -0.011828415 -0.060646642 -0.032286245 0.005029905 -0.090037696 0.06216658 0.034826323
0.05385908 0.015811913 -0.075590834 0.017917944 0.022472171 0.14553405 0.0022364836 -0.0026816616
-0.0018039368 -0.01580295 -0.012986064 -0.123019055 0.24940665 -0.004681586 -0.019480726 -0.14138478
-0.018104212 0.050487645 0.060270865 -0.005869969 0.03852931 0.17073226 0.023837509 0.010993008
0.032013692 -0.0106512075 0.00883045 0.09739283 -0.040328648 -0.17964326 0.0016790215 0.0148530835
-0.04371126 0.010108881 0.011894539 -0.15416738 -0.013756278 -0.057738896 -0.01061116 0.014754667
0.08398031 -0.09832285 0.0032101937 0.009995548 -0.07833269 -0.0073638298 0.005989645 -0.028076945
-0.031376664 -0.0051723993 -0.10777315 -0.031484697 0.14346503 0.024664532 0.060392074 -0.077755265
0.050305102 -0.006846473 -0.024662672 -0.02340537 0.0040738904 0.030241366 -0.018145192 -0.7777552
0.09432929 -0.08759561 0.076991566 0.2807224 0.07315699 0.041029014 -0.021792298 0.043782037
-0.06483206 0.047078963 -0.022176009 0.025258724 0.030973395 0.19970047 -0.08937087 0.03688644
-0.7740955 -0.8387888 -0.02221885 0.05448866 0.158844 0.0067715007 -0.7062257 -0.02079577
0.017062979 0.021008113 -0.0018401424 -0.012552993 -0.31937632 -0.0056850994 0.07369091 0.11665896
0.012142274 0.029444143 0.013720887 -0.065837905 -0.0064366856 0.021363882 0.051219843 -0.0018395603
-0.09254113 -0.027011497 0.00010507709 0.0025340451 0.10843342 0.029745895 -0.002365321 -0.045402557
0.05858281 0.044113595 -0.031730566 -0.020464662 -0.09760013 -0.038629893 0.059491787 0.028771717
0.0016741321 -0.046017244 -0.06872876 0.36953223 0.008541736 -0.015740484 -0.029527964 -0.0066704513
0.006796181 0.019143583 -0.012029584 0.029291403 0.016744465 0.013204928 -0.015768426 -0.013073609
-0.0044506155 0.031439994 -0.11282187 0.25209445 0.09843373 -0.0007436415 -0.0017357165 -0.0893662
-0.0037559557 -0.0013474665 -0.21586737 -0.031432543 -0.017290225 0.012142274 -0.009338026 -0.022654712
-0.013831716 -0.14842492 0.035999805 0.13125922 -0.008917063 -0.035448458 0.099716134 -0.2668131
0.06887779 0.041699577 -0.06449678 -0.31663606 -0.02043255 -0.7950695 0.001166089 0.049865518
0.058824953 0.010514535 -0.030740561 0.02817194 0.07932363 -0.010478911 0.012608874 0.026648277
0.043185987 -0.042880505 -0.6006581 0.0040198728 0.18578829 0.014802165 0.029589431 0.04151703

fc5.bias f4 [3]
00000000: 2476 183f 0913 5fc0 bc9f 39c0
0.5955527 -3.4855368 -2.9003744
