checkpoints/checkpoint_qnetwork_local_WMT_V5.pth (torch_old, 340036 bytes, 10 tensors)

fc1.weight f4 [128, 13]
000000 51 e8 a4 be 61 b1 97 3e c9 6f 1b 3e 97 7e 94 ba
       -0.32208493 0.29627517 0.15179361 -0.0011329231
000010 54 7d 69 be f1 6d fd bd 59 af 7e be 29 fd 01 3e
       -0.22801715 -0.12374485 -0.24871577 0.12694229
000020 7f 13 58 be 22 ba 14 3e df c0 89 bf ff 77 dc 3e
       -0.21101187 0.14524129 -1.0761985 0.430603
000030 eb aa 05 c0 2f 08 b9 bd 72 ab 81 3e c8 49 99 3d
       -2.088557 -0.09034764 0.25326115 0.07484776
000040 36 af 5a bd f3 d3 02 3e b5 36 b3 be f5 07 0f bd
       -0.05338975 0.12776165 -0.35002676 -0.034919698
000050 6c 2a a0 3e aa d5 17 3e f1 a5 29 be 97 da bf 3d
       0.31282365 0.148276 -0.16567208 0.093678646
000060 a9 40 17 3e 73 3f b9 3e d6 34 29 bd c7 1c 53 bd
       0.1477076 0.3618122 -0.041310154 -0.051541116
000070 c9 79 44 be 3b bd b2 bd cc 2a ca bd 2b d3 a3 3d
       -0.19187082 -0.08727499 -0.09871444 0.079992615
000080 ce ac 18 be 1f b6 a6 be 08 ba 52 bd 13 47 45 bf
       -0.1490967 -0.32560822 -0.051446944 -0.77061576
000090 ea 56 9a be 38 eb 2c 3f 82 68 d3 3e 4f dd 1f 3c
       -0.30144435 0.67546415 0.4129067 0.009757354
0000a0 65 75 0f 3e 8e f8 b3 bd 14 f7 c9 3d 73 d0 6b be
       0.14009626 -0.087876424 0.098615795 -0.23028736
0000b0 17 c6 e5 bd 7f dd 0e be cd c0 6b 3d a7 19 f8 3d
       -0.11219423 -0.13951682 0.057556916 0.12114268
0000c0 9b 12 49 be 25 d6 e4 bd ef f3 b2 3e 62 7e fc 3e
       -0.19636004 -0.11173657 0.34951732 0.49315172
0000d0 30 42 cf 3d ff ac c0 bc d4 e5 a9 3d f3 44 ed bd
       0.10120046 -0.023519991 0.08295789 -0.11585417
0000e0 a7 cd 52 bd fa c5 9a bd 42 d1 52 3d 57 71 de bd
       -0.051465657 -0.07557292 0.051469095 -0.108614616
0000f0 db 5a b6 3d 32 3c 25 3d 2e 7e e5 bc af 4c 63 3e
       0.08904048 0.04034061 -0.028014269 0.22197221
000100 41 94 bd 3e d7 2e 19 3e 7b 2b 4a be 78 15 71 be
       0.3702717 0.14959274 -0.19743149 -0.23543346
000110 3a 56 58 3d 28 a4 37 be 32 b3 0a bf 2d 60 a9 be
       0.052816607 -0.17933714 -0.5417968 -0.3308119
000120 2d a1 73 3f b9 0f 27 3f 21 89 18 3e 26 94 57 be
       0.9516781 0.65258366 0.1489606 -0.21052608
000130 f4 24 0c be b0 8e 5c bf b2 34 f7 3d 53 f8 82 be
       -0.13685971 -0.86155224 0.12070598 -0.2558008
000140 20 d6 88 bd 55 9a fe bc 74 03 5e 3e 30 3b d0 be
       -0.06681466 -0.03107945 0.21681005 -0.40670156
000150 cc f5 11 3e fc 49 dd bd d2 49 2c bd 84 73 bb be
       0.1425392 -0.10805127 -0.042062588 -0.3661157
000160 b3 4f a5 be 80 2c 1a bf 2e 3c 7d 3e e5 74 0b 3e
       -0.32287368 -0.6022415 0.24729988 0.1361881
000170 be 4a 3b be 45 40 fe 3d e8 5e fa be 17 7b 2e bd
       -0.1829023 0.12414602 -0.48900533 -0.042597856
000180 9e 14 04 3f 17 68 8b 3d 44 3e e3 bd a4 1b 66 be
       0.5159396 0.06806963 -0.110958606 -0.22471482
000190 80 ef 82 3e 25 78 1b 3d b4 64 5e bd a8 80 a4 be
       0.2557335 0.037956376 -0.054295257 -0.32129407
0001a0 d1 a1 36 bf e7 7e 2e 3d 97 95 27 be 63 74 d4 be
       -0.7134066 0.042601492 -0.16365658 -0.41495046
0001b0 d9 e0 3a be 6d d1 dd bd 0a 31 70 3e fa 39 07 3f
       -0.18249835 -0.108309604 0.23456207 0.5282284
0001c0 4c b1 f5 3e 69 d9 73 3d a3 f7 b0 3e d4 14 46 3e
       0.4798683 0.05953351 0.34563932 0.19343883
0001d0 ed 62 0c bf 95 fa 14 bd 24 f9 c7 3d b2 0e 6d 3d
       -0.5483845 -0.036371786 0.09764317 0.057875343
0001e0 0c 5c f5 3b bb 7d 49 be 59 4b 32 3e 5e 35 bc 3d
       0.0074877795 -0.19676869 0.17411555 0.091898665
0001f0 e4 86 50 be a8 14 ed 3c 15 8a 74 be c7 04 df be
       -0.20363957 0.028940514 -0.23880799 -0.43558332
000200 84 34 7b 3e 4f 3b 64 be 03 d4 84 bd 4f 7b e3 3c
       0.24531752 -0.2228825 -0.064857505 0.027768759
000210 d6 c8 03 be aa 8f 02 bd bc 0c cd bc 9a 27 99 3d
       -0.12869582 -0.03187529 -0.025030486 0.074782565
000220 a7 b7 82 3d 22 ba d2 3d bb a2 43 3e 49 d1 46 3e
       0.06382685 0.10289408 0.19105045 0.19415773
000230 7a 13 a4 3e 3f 96 f0 3e 26 3a f6 3e b2 52 53 be
       0.3204611 0.4698963 0.4809124 -0.20637015
000240 bf 2f 00 bf 7d 1e 0b 3d 78 30 6e 3e f6 c1 6d 3e
       -0.50072855 0.033964623 0.23260677 0.23218521
000250 b1 e9 1c 3e 9f 7f 3f bd be 0c 49 bc d2 e7 ea be
       0.15323521 -0.04675257 -0.012271104 -0.4587999
000260 24 15 2e bf a0 73 91 3e 21 1c 8a be 2c e7 a0 bf
       -0.6800101 0.28408527 -0.26974586 -1.2570548
000270 09 35 f1 3d 0b 78 4c be 71 8b 0e bd 9f bf 8e be
       0.11777694 -0.19967668 -0.03480095 -0.2788057
000280 41 88 78 bc cd 68 80 be 89 e7 1e 3e 30 f3 5d bd
       -0.015169204 -0.25079957 0.15518011 -0.054187
000290 80 c7 81 be 4b d4 b9 3c d9 88 1b bf 26 3b 25 3e
       -0.2534752 0.022684237 -0.6075569 0.16135845
0002a0 fc ee 22 be 68 74 f3 be 34 bb 0b 3f ef a6 37 bf
       -0.15911478 -0.47549748 0.54582524 -0.71739095
0002b0 44 06 70 3e 44 79 10 be 55 22 42 bf 99 7c 6e be
       0.2343989 -0.14108759 -0.75833637 -0.23289718
0002c0 55 6d 85 3e 6f 01 b8 3e d6 98 59 3f 0b f2 20 be
       0.26059976 0.35938594 0.84998834 -0.15717332
0002d0 af 03 e6 bd 6b 76 f9 be dc 14 94 be b2 df 6d 3e
       -0.11231171 -0.48723158 -0.28922164 0.23229864
0002e0 c1 be 9b bd fc 6e 36 3e 4f bf c1 bd 5b 92 c5 3e
       -0.07604743 0.17815775 -0.09460317 0.38588223
0002f0 7f c6 c0 3e 69 b8 22 3f 53 3d 88 3f ea ed 80 3f
       0.3765144 0.6356264 1.0643715 1.0072606
000300 5e 0a 59 bd d6 70 00 3c 88 d6 9f be d4 f8 d9 bd
       -0.052988403 0.007839402 -0.31218362 -0.10643163
000310 80 ab 02 bf 97 dd 71 3e 27 97 17 be 0d 75 18 3e
       -0.5104294 0.23619686 -0.14803754 0.14888401
000320 cd 90 bb 3e 86 d4 36 3f 6a c5 ec be 37 16 f5 bd
       0.36633912 0.71418035 -0.46244365 -0.11967128
000330 64 c0 6b be f3 91 d7 bc e1 83 05 bd e7 3d 1f bf
       -0.2302261 -0.026314711 -0.032596473 -0.6220383
000340 41 74 67 3e 64 12 af 3d f2 b3 8d 3d 23 2a f3 bd
       0.22602941 0.085484296 0.069190875 -0.11873271
000350 47 5d de 3e 92 3b 33 be d5 ee e9 3d 8a 43 62 be
       0.4343054 -0.17503193 0.11422507 -0.22096077
000360 2f 21 04 be db 12 d2 be ad 14 d2 3d 7e b7 b6 bf
       -0.12903284 -0.4103001 0.1025785 -1.4274747
000370 85 09 57 3f 5c da e2 3b f4 d0 fa 3d 20 5c 22 be
       0.839989 0.006923003 0.12246886 -0.15855455
000380 d4 7e a5 be 05 a0 c6 3d 2f c5 af be bf b8 23 bd
       -0.32323325 0.0969849 -0.34330127 -0.03997111
000390 80 e9 d3 3d f2 61 04 bc fd ed c8 bd 9e e3 cc 3d
       0.10347271 -0.008079993 -0.09811018 0.10004352
0003a0 67 f6 1f 3d 4d 2a b4 3e 42 20 78 be 8b 0f 32 3d
       0.039053347 0.35188523 -0.24231055 0.043471854
0003b0 09 5e 7a 3d c7 12 94 be 40 cd 82 be 2b 1d ed 3d
       0.061124835 -0.28920576 -0.25547218 0.11577829
0003c0 03 f5 e4 bd 40 24 80 3e 47 b2 53 3d fd d2 c1 3e
       -0.11179545 0.25027657 0.05168369 0.37856284
0003d0 65 53 0c 3f 1f 78 b9 be 90 b0 23 3f f9 e5 1b be
       0.5481475 -0.36224458 0.6394129 -0.15224446
0003e0 66 4d 75 3e 06 89 89 3c 97 ce 3f 3e 7f 1d 8b 3d
       0.23955306 0.01678897 0.18731152 0.06792735
0003f0 35 dc ff 3d 5b 3d 6e bc 3d be 68 be 73 14 d2 bd
       0.12493173 -0.0145409955 -0.2272882 -0.10257807

fc1.bias f4 [128]
000000 c1 8c 61 3e 82 e7 1a 3f c3 3e 9a be 3c d1 46 3f
       0.2202635 0.605095 -0.30126008 0.77663016
000010 e4 7b 59 3f d2 0d 9a 3c cd bb 05 3f d2 5f b0 3e
       0.8495467 0.018805418 0.52239686 0.34448105
000020 da cc 47 ba e8 91 62 3f 7f 86 39 3f 23 84 51 3d
       -0.0007621773 0.88503885 0.7247085 0.051151406
000030 2b 63 65 3f 8c bf 01 bf 3f b3 3b bf 55 16 09 3e
       0.89604443 -0.506829 -0.7332038 0.13387425
000040 6a 7e dc bd aa c4 25 3f eb f6 f6 3e 82 63 99 3e
       -0.10766299 0.6475321 0.48235258 0.2995873
000050 e9 c7 83 3d 7b 1d 26 3f 7c c8 99 3c da 28 db 3e
       0.06434614 0.64888734 0.018772356 0.42804605
000060 64 e6 4c be a4 9b f9 3e b4 83 2d 3f c9 41 9d 3e
       -0.20009762 0.48751557 0.6777909 0.30714253
000070 09 28 5d be f9 5d 56 be d4 2a 3f 3f 69 79 3a 3f
       -0.21597303 -0.20934285 0.74674726 0.7284151
000080 fc 68 01 3f 9f 63 d3 3d 25 3c 94 3d ba ce a4 bc
       0.5055082 0.103217356 0.07238034 -0.020118106
000090 ab ff cf 3e 63 02 13 bf cd e5 1f 3f 99 a9 8c bd
       0.40624747 -0.57425517 0.62460023 -0.06868286
0000a0 1c d7 08 3e ff 81 b7 be 87 8b d1 3e 8f 17 a8 3d
       0.13363308 -0.35841367 0.40926763 0.082076184
0000b0 4b ad a9 be 6e 0d 0e 3f 30 a1 3f 3f c3 e2 1c 3f
       -0.33140025 0.5548924 0.7485533 0.6128351
0000c0 8c 6d 17 bc 3c c7 f3 3d a7 66 24 3f 89 92 03 3f
       -0.009242427 0.11903235 0.64219135 0.5139547
0000d0 21 d8 4a 3f ae c1 8b 3e 73 5c 55 3f 08 31 3e 3b
       0.79236037 0.27296203 0.8334419 0.0029020924
0000e0 94 ae 58 3f 05 c0 01 3c 88 82 f9 3d 44 bc bb 3d
       0.84641385 0.007919316 0.121831 0.09166768
0000f0 92 98 85 be 16 8d bf 3e c0 c7 72 3f 05 5c 33 be
       -0.26092964 0.37412328 0.94836044 -0.17515571
000100 07 3a f2 3e e1 b6 98 3f 24 12 4b be ae 2d 2e 3f
       0.47309896 1.193081 -0.19831139 0.6803845
000110 38 9e 65 3f af 41 28 3f c1 f9 8a 3f ab eb 03 be
       0.8969455 0.65725225 1.0857469 -0.12882869
000120 ff d9 bd be 35 87 ab be 16 2f 35 3f 3c 2d 11 3f
       -0.3708038 -0.33501592 0.7077497 0.5670965
000130 93 76 c5 be 2a 6f 3f 3f d9 71 e0 3d 21 44 85 3e
       -0.38567027 0.74779 0.10959215 0.2602854
000140 36 df f5 3d 70 f5 f1 3e a2 4e ff 3e ce 38 a2 be
       0.12005465 0.47257566 0.4986468 -0.31683964
000150 01 37 12 bf 5e fc 14 bf 8c 77 c7 3d 4e ef 28 3f
       -0.5711518 -0.5819758 0.09739599 0.6599015
000160 b9 67 7a 3f 8d 85 ce be e9 82 97 3e a9 de 9d 3e
       0.9781452 -0.40336266 0.29592064 0.3083394
000170 35 9a c7 3e d0 9f 07 bd f1 65 c9 be 6a 90 e1 be
       0.38984838 -0.033111393 -0.39335588 -0.44055492
000180 94 b3 ee bd cc 94 89 3e d1 a9 86 3e 7d fd 76 3e
       -0.116553456 0.26871336 0.26301435 0.24120136
000190 13 5c 66 3f b2 dd d2 bd 0a eb d9 3e 6d 85 3d 3f
       0.89984244 -0.10296191 0.42562133 0.74031717
0001a0 c8 54 05 3f db 2b 78 3b 9a ad 26 bf 1c 67 94 be
       0.5208249 0.0037867937 -0.65108645 -0.28984916
0001b0 d4 d2 65 3e ec 60 92 3f 57 0a d9 3c 25 61 14 3f
       0.22443706 1.1435828 0.026494188 0.5796073
0001c0 22 f6 82 be 87 e5 22 bf 39 e7 30 3f 43 2d 52 3f
       -0.2557841 -0.6363148 0.6910282 0.82100314
0001d0 40 cf 43 3f 07 23 d2 bd 61 ec 57 3f 84 fe af be
       0.76488113 -0.10260587 0.8434506 -0.34373868
0001e0 c2 fa 21 3f ed 9e cc be 61 f6 aa 3e d2 3d d5 bd
       0.6327325 -0.39965 0.33391097 -0.10412182
0001f0 3c b4 8a bf b9 4f 26 3f 6f be 1a 3f 1b 05 4a 3f
       -1.0836253 0.649654 0.6044683 0.7891404

fc2.weight f4 [256, 128]
000000 d5 35 58 3e ea 3b 60 3e d2 17 0b be fa 88 8d 3e
       0.21114285 0.21897855 -0.13583305 0.27643567
000010 dc c5 cc 3e 73 fd 28 be f2 63 60 3e 36 76 be 3d
       0.39994705 -0.16502933 0.21913126 0.09299891
000020 76 1f 07 be 63 e3 ad 3e d8 f7 93 3e 97 12 f7 3d
       -0.13195595 0.33962545 0.28900027 0.120640926
000030 43 5d ae 3e 4a e1 60 be af 51 cc be 20 2f 40 3e
       0.34055528 -0.21960941 -0.3990607 0.18767977
000040 3e 63 17 3e 41 73 96 3e e8 35 25 3e 58 3c d1 ba
       0.14783952 0.29384807 0.16133845 -0.0015963418
000050 a0 3b b5 3d 83 0f 4d 3e b4 8e e2 3d 15 05 a0 3e
       0.08849263 0.20025449 0.11062375 0.31253877
000060 a9 8a af 3c 15 58 d5 ba f1 78 d2 3c 74 57 0e 3e
       0.021428423 -0.0016276861 0.025692435 0.13900548
000070 bc e2 3f be 1c b0 32 3e 69 74 77 3e 3b 25 34 3e
       -0.18738836 0.17449993 0.241655 0.17592327
000080 ca 4e d5 bd 4f 55 7c bc 3e 36 81 be 98 34 1b 3e
       -0.104154184 -0.0154011985 -0.25236696 0.15156782
000090 8d 50 c8 bc 74 f2 78 bd 79 85 38 be 00 18 cc bd
       -0.024452472 -0.060778096 -0.18019666 -0.09965515
0000a0 75 99 3e 3e 82 db e3 3d 1e ad 1b 3e 54 49 dc 3d
       0.18613227 0.11125852 0.15202758 0.10756174
0000b0 7e 5f a5 3d 99 00 11 3e 0a c0 5b 3e 2a 31 df 3d
       0.08074854 0.14160384 0.21459976 0.10898049
0000c0 5b 79 65 3e 89 94 7b 3c 61 41 30 3e 43 17 b3 3d
       0.22409575 0.015355238 0.1721244 0.08744671
0000d0 e3 17 0d 3e c1 36 75 bd ab 72 cc 3d 62 04 c3 3d
       0.13778643 -0.05986667 0.09982809 0.0952232
0000e0 ca 8c 30 3e 01 5d 59 3e 23 25 90 be ca 7d 7a 3d
       0.17241207 0.21226884 -0.28153333 0.061155118
0000f0 61 01 27 3e cb 7b ad bd 27 bb e2 3e 17 10 d3 3d
       0.1630912 -0.08470877 0.4428341 0.10305803
000100 7d 9a 59 3e c9 a6 00 3f f1 3c 3f 3d 20 ea af 3e
       0.21250339 0.50254494 0.046688978 0.3435831
000110 97 d3 3b 3e ec 7a bb 3e be b2 1d 3e 29 d3 42 3e
       0.18342434 0.3661722 0.15400216 0.19025864
000120 b9 4e e0 be ed 6b 09 be a0 2a 5a 3e 67 ce cf 3d
       -0.4381006 -0.13420077 0.21305323 0.1014679
000130 06 01 b2 be d3 ca 99 3e f2 6b 95 be fb 8c 66 be
       -0.34766406 0.30037555 -0.29183918 -0.22514717
000140 73 b3 56 3d bd d1 80 be 5a e8 2e 3e 5e 75 ab 3e
       0.05241723 -0.25160018 0.17080823 0.33487982
000150 60 3a 91 be e5 e9 dc be d4 af 9a 3c 3d b2 4b 3d
       -0.2836485 -0.43147197 0.01888267 0.04973053
000160 a2 92 4f 3e dd be a3 bc ec 9b 48 3e 9a 2c 67 be
       0.2027078 -0.019988472 0.1959073 -0.22575608
000170 59 00 e6 3d c9 6d 13 3e 74 35 47 3e b0 7f 17 be
       0.11230535 0.14397348 0.19453984 -0.14794803
000180 77 6f 9c bd 39 76 a9 bd 27 97 8e 3e 0b b5 1b 3e
       -0.07638448 -0.08274502 0.27849695 0.15205781
000190 b3 09 db 3e ac 9b e9 be 90 7d ae bc 58 60 ad 3d
       0.42780837 -0.4562658 -0.021300107 0.08465642
0001a0 5e d6 b2 3c 96 d2 f0 3d 60 01 4c bd 73 3e 64 3e
       0.021830734 0.11758916 -0.049806 0.22289447
0001b0 5c 46 68 3e d6 a0 69 be fd 3a 2c 3d af 21 a4 3e
       0.2268309 -0.2281526 0.042048443 0.3205695
0001c0 1c 5a c5 3d ab b3 3b be 3c 1c 0b be 4d 6e 8f 3e
       0.096363276 -0.18330257 -0.1358499 0.2801384
0001d0 d8 56 64 3e 24 5a f1 3d d6 0f 25 3e 82 39 6c 3d
       0.22298753 0.11784771 0.16119322 0.05767203
0001e0 1c e6 9f 3e b6 da 20 be aa 02 70 3e fd 55 5c 3e
       0.31230247 -0.15708432 0.23438516 0.21517177
0001f0 69 0e b3 be 82 6c 93 3e a4 de 40 3c 47 ca bc 3e
       -0.34971932 0.28793722 0.011771832 0.36873075
000200 82 b2 2f be 17 b1 01 3e ad f4 0a be 9c d3 84 3e
       -0.17157939 0.1266521 -0.13569899 0.25942695
000210 2c 07 80 3e 17 f7 e8 bd 40 df 4b 3e d8 53 57 3c
       0.25005472 -0.11375254 0.19909382 0.0131425485
000220 99 0c 04 be 62 94 a0 3d a8 a9 04 3e 81 d2 8c be
       -0.1289543 0.07840802 0.12955344 -0.27504352
000230 52 c3 24 3e f1 c6 02 be 26 20 66 be fb 1b 0c bc
       0.16090134 -0.12771203 -0.22473201 -0.008551593
000240 9f ba 1a 3e d5 f6 25 3e 3a 61 89 3e f2 97 97 be
       0.15110253 0.1620744 0.2683199 -0.29608113
000250 af ab 61 be df 61 d7 bd 44 e2 64 be 32 e9 95 3d
       -0.22038148 -0.10516714 -0.22351938 0.07319869
000260 20 97 1b be 48 f2 c9 3d 27 ba be bd 4e 0f af 3e
       -0.15194368 0.098606646 -0.093128495 0.34191364
000270 e0 ea 51 bd b7 79 ee bc d4 65 a9 3e a9 4a 30 3e
       -0.051249385 -0.029110773 0.330855 0.1721598
000280 27 b7 21 3d c1 36 72 bc 36 f2 70 be b7 dc a9 bd
       0.03948131 -0.014783562 -0.23529896 -0.08294051
000290 7d 4d 44 3d 54 58 23 3d 3c 6a 8e bd a0 bb 93 bd
       0.04792546 0.03987916 -0.06953856 -0.07213521
0002a0 6c b0 cb 3d 6e f2 30 3b e5 26 6e be 83 8c 9a 3c
       0.09945759 0.0026999968 -0.23257025 0.01886583
0002b0 94 04 d9 3d e2 0e 80 bd d5 26 2c bd b7 79 21 3d
       0.10596576 -0.06252839 -0.04202922 0.039422717
0002c0 a8 a3 4e bc 7a d1 bf bd 96 93 10 3e db 91 19 3d
       -0.012612261 -0.09366126 0.141188 0.037492614
0002d0 5d 59 6a 3e 15 09 9e bd db a2 ce 3d 93 92 fc bd
       0.22885652 -0.07716576 0.10089656 -0.12332644
0002e0 d6 e2 03 3e a7 66 41 3e c1 ff f1 bd 21 12 b2 3e
       0.128795 0.18886815 -0.11816359 0.34779456
0002f0 e1 04 38 bd d3 4b d5 bd 62 5c 46 3e 5e e1 03 be
       -0.044926528 -0.10414853 0.19371179 -0.1287894
000300 93 4a b1 3d 93 44 0b 3f 93 68 82 3d f0 c1 50 3d
       0.08656802 0.5440151 0.06367602 0.050966203
000310 53 0d e4 bd 9a dc e8 3e 17 f6 84 be fe ce 4e bd
       -0.11135354 0.45480806 -0.25969002 -0.050490372
000320 9f e3 03 3d 49 97 f1 3d e0 7b 0d 3d ac bf eb 3c
       0.0321995 0.117964335 0.034541965 0.02877792
000330 2c ed 16 be a0 36 8b 3a 92 df a3 be 99 a3 36 3c
       -0.14738911 0.0010621138 -0.32006508 0.011147403
000340 5d 08 e5 3c 12 2b c7 bd d1 1f 16 3d 89 7a 1b bc
       0.02795809 -0.09725012 0.036651436 -0.009489664
000350 c2 de 29 bb d2 ef b1 3d ac 64 e6 bd 0f 6c cd 3d
       -0.0025920128 0.0868832 -0.112496704 0.10030376
000360 e5 ca fe bd ee e0 00 bd b6 fa 5d 3e 62 1a 11 bd
       -0.12441043 -0.03146451 0.2167767 -0.03542555
000370 a6 62 76 be 26 fc 23 3e 1b 17 96 3e 68 77 d6 3d
       -0.24061069 0.16014156 0.29314503 0.10471994
000380 a0 71 0f 3c 0f 64 81 bd 69 ae f4 3d 8c ec a9 bd
       0.008755118 -0.06317913 0.119473286 -0.08297071
000390 41 95 25 3e 23 00 88 be 4f c6 f0 3c 99 eb 00 3e
       0.16170217 -0.26562604 0.029391436 0.12589873
0003a0 62 2c 4d be fa ce 3e bd e3 1f a8 be 3b 62 f0 3c
       -0.20036462 -0.046584107 -0.32836828 0.029343715
0003b0 13 3c 8f 3d 35 e5 c7 be ec ca d6 bc 3b 06 05 3f
       0.0699388 -0.3904206 -0.026219808 0.5196263
0003c0 50 a1 cc 3d 76 44 9e be ad 4f 0a be 06 64 a9 3e
       0.099917054 -0.30911607 -0.13506956 0.33084124
0003d0 a3 6f 83 3e 56 e2 7c be 88 04 c5 3d cc 3d fe 3d
       0.2567111 -0.24695715 0.09620005 0.124141306
0003e0 96 5d 08 3e b4 fd 40 be 59 50 0b 3e 4e b6 8d 3e
       0.1331695 -0.1884678 0.13604869 0.2767815
0003f0 75 46 57 3d 12 62 24 3e 49 b0 48 3d e8 9f 08 3e
       0.052557427 0.16053036 0.048996244 0.1334225

fc2.bias f4 [256]
000000 bd ea 08 3f f5 f4 06 3f 3b 65 15 3f 47 18 0f 3f
       0.5348318 0.52717525 0.5835759 0.5589642
000010 62 2d f5 3e a1 90 cb 3e c6 73 02 3f 1b 59 87 3d
       0.47886187 0.3975878 0.50957906 0.066087924
000020 85 c5 2c 3f a9 42 3c 3f 68 4f 3c 3f b5 67 16 3f
       0.6748889 0.73539215 0.73558664 0.58751994
000030 16 f1 17 3f 09 58 8c bd 51 4f 14 3f 52 a2 a9 3e
       0.5935224 -0.06852729 0.5793353 0.33131653
000040 00 2d 5b 3f 07 19 30 3f ae 7c da 3e e5 b2 00 3f
       0.8561554 0.6878819 0.42673248 0.5027297
000050 40 aa 14 3f d5 00 f7 3e 9c 42 c3 3e 1c 76 0a 3f
       0.5807228 0.48242822 0.38136756 0.5408647
000060 14 11 0e 3f f7 22 ef 3e 2d 95 24 3f 4d 89 52 3f
       0.5549481 0.46706364 0.64290124 0.82240754
000070 66 9c 19 3f 95 24 f9 3e 6f 8a f2 3e 32 82 29 3f
       0.6000427 0.48660722 0.4737124 0.6621429
000080 d6 6d 3d 3f 88 d3 f2 3e 79 3c 12 3e c2 2a 27 3f
       0.7399572 0.4742701 0.14280881 0.6529962
000090 23 9a 29 3f 8a 60 39 3f aa 02 d1 3e 1e 75 2e 3f
       0.6625082 0.7241293 0.40822345 0.68147457
0000a0 8e aa 00 3f ff ad 08 3f 18 5e 77 3e 61 a0 3a 3f
       0.50260246 0.53390497 0.24156988 0.7290097
0000b0 58 63 db 3e 56 17 fe 3e 47 d2 ef 3e db 44 19 3f
       0.4284923 0.4962718 0.46840116 0.5987069
0000c0 43 e7 25 3f 7a d0 32 3f fd 2a 87 3e 4c 4b 20 3f
       0.64806 0.6984936 0.26399985 0.62614894
0000d0 1b d4 0a 3f 97 44 27 3f 1e 6f 30 3f ab 46 07 3f
       0.542299 0.65339035 0.6891955 0.52842206
0000e0 02 fe 04 3f cf 00 30 3f db c4 b9 3e a2 e3 35 3f
       0.51950085 0.68751234 0.36283 0.71050465
0000f0 99 c1 35 3f 9f 2c ab 3e a3 c3 0e 3f 0e 04 3b 3f
       0.7099853 0.3343248 0.5576727 0.7305306
000100 c6 4a c5 3e a9 cb fe 3e 7d d6 29 3f e0 b3 e3 3e
       0.3853361 0.49764755 0.6634291 0.4447317
000110 a2 36 47 bc 7a ed 08 3f a1 e6 02 3f cf 9e 0e 3f
       -0.012159022 0.5348736 0.5113316 0.5571107
000120 1e 4d 12 3f df 84 f6 3e f7 ce ec 3e 37 15 3a 3f
       0.5714892 0.48148248 0.46251652 0.7268862
000130 a9 f4 ec 3e ae 09 28 3f c8 47 40 3f 79 12 10 3f
       0.4628041 0.6563977 0.7510953 0.5627819
000140 46 26 1a 3f 5e 6a 0e 3f 44 04 05 3f 84 0c 22 bd
       0.6021465 0.55631053 0.51959634 -0.039562717
000150 15 d8 06 3f 38 20 4e 3f 0e 43 2e 3f 69 18 59 3f
       0.52673465 0.8051791 0.6807107 0.8480287
000160 fb 9e 9b 3e 38 90 14 3f 6d 29 1f 3f d2 02 21 3f
       0.3039473 0.5803256 0.62172586 0.6289493
000170 5c c0 31 3f aa 5b d7 3e 18 fa 06 3f b5 f3 d5 3e
       0.6943414 0.42062122 0.5272536 0.41787496
000180 1c 87 64 3e a7 93 26 3f 7f f8 d3 3e 2b 4e 2b 3f
       0.22317165 0.6506905 0.41400525 0.6691615
000190 50 98 19 3f 80 f8 b4 3e c5 52 d3 3e 96 24 6e 3e
       0.59998035 0.3534584 0.41274086 0.23256144
0001a0 9a a9 33 3f 8b 5d 7a bd 54 d5 b4 3e 72 9c 02 3f
       0.70180666 -0.061124366 0.35319006 0.51019967
0001b0 c3 b2 fb 3e b7 38 14 3f a4 cb 16 3f e7 60 b8 3e
       0.49159822 0.5789904 0.5890448 0.3601143
0001c0 3f 52 42 3f 66 e7 dd 3e d9 c0 25 3f 43 03 11 3f
       0.7590675 0.43340605 0.6474739 0.566456
0001d0 1d ab da 3e 0d f6 25 3f 13 c8 26 3f a1 1e aa 3e
       0.42708674 0.6482857 0.6514904 0.33226493
0001e0 88 7c 2a 3f 03 15 0f 3f 50 ec 27 3f cd 27 c2 3e
       0.6659627 0.55891436 0.6559496 0.3792099
0001f0 1a 21 08 3f 36 a8 02 3f d5 0f bc 3e 67 10 0c 3f
       0.5317551 0.5103792 0.3673083 0.5471253
000200 36 32 31 3f a6 11 56 3f 93 af 0b 3f 31 2b 5b 3b
       0.6921724 0.8362068 0.5456478 0.0033442492
000210 d7 1d 94 3e cd 48 4e 3f 5b 6d 13 3f ca 61 f8 3e
       0.28929016 0.80579835 0.5758874 0.48512107
000220 76 67 25 3f 4e 58 2b 3f 1d 62 e5 3e fd 62 1f 3f
       0.64610994 0.6693162 0.44801417 0.6226042
000230 6c 45 16 3f 7f 81 0f 3f d6 7f d9 3e 8a ae 1f 3f
       0.5869968 0.5605697 0.42480344 0.623757
000240 1c 1d 93 3e da c8 1a 3f ab 90 ca 3e 35 f9 ca 3e
       0.28733146 0.60462725 0.39563498 0.39643255
000250 2b b4 0e 3f a1 d0 20 3f 68 dc 1f 3f d6 d6 ec 3e
       0.55743665 0.6281834 0.6244569 0.46257657
000260 21 d0 9a 3d 6d 29 a8 bd b9 36 90 3e 2e 02 39 3f
       0.07559229 -0.08211026 0.2816675 0.7226895
000270 8d de 81 3e b8 a4 e1 3e d3 24 09 3f c4 2a 02 3f
       0.25365105 0.44070983 0.53571814 0.50846505
000280 02 f3 90 3e f8 44 1b 3f 48 2b 1a 3f f1 a9 2e 3f
       0.283104 0.6065211 0.6022229 0.6822806
000290 59 91 0b 3f b1 74 1a 3f e1 c0 24 3f 88 80 2d 3f
       0.5451866 0.60334307 0.6435681 0.6777425
0002a0 b9 a3 f8 3e a5 7d 45 3f ee 64 3b 3f 4d 69 2c 3f
       0.4856241 0.77144843 0.7320088 0.67348176
0002b0 fe 02 fd 3e 18 c8 62 3f 44 18 0c 3f eb 8c 03 3f
       0.49416345 0.8858657 0.54724526 0.513869
0002c0 b6 2c 20 3f 94 2c ef 3e 3d 24 0d 3f 63 6f 1a 3f
       0.62568223 0.46713698 0.5513342 0.6032621
0002d0 2a 7f 90 3e 8b 56 e8 3e 48 74 1e 3f 5c 6f d8 bd
       0.28222018 0.45378527 0.6189618 -0.10568115
0002e0 99 8d 00 3f 6e ec 2f 3f e2 f0 d3 3e 42 b3 ae 3e
       0.5021606 0.6872014 0.41394717 0.34121138
0002f0 23 5d 16 3f da ba e6 3e 61 09 f7 3e 50 9e 20 3f
       0.58735865 0.4506443 0.48249343 0.62741566
000300 8f 12 fd 3e 05 f1 b2 3e ce 0b 0b 3f 61 cd 3d 3f
       0.49428222 0.34949508 0.5431489 0.7414151
000310 90 04 42 3f d6 5f 27 3f 55 46 0a 3f 60 71 f2 3e
       0.7578821 0.6538061 0.5401357 0.47352123
000320 ef 1e 15 3f fb 9f e6 3e e4 4c 34 3f f1 0b f8 3e
       0.58250326 0.4504393 0.70429826 0.4844661
000330 c6 b2 2b 3f 68 23 16 3f 6e 3d e7 3e 60 11 f5 3e
       0.6706966 0.58647776 0.45164055 0.4786482
000340 c0 cc 39 3f 5b d7 56 3f b0 6c 33 3f 7f 6e e3 3e
       0.7257805 0.83922356 0.7008772 0.4442024
000350 e3 74 0f 3f da 3d fd 3e 75 c4 17 3f ca 08 16 3f
       0.5603773 0.49461251 0.59284145 0.5860716
000360 d5 9e fd 3e 33 ef bf bd 14 b5 f5 3e 8a df 0a 3f
       0.49535242 -0.093717955 0.47989714 0.54247344
000370 52 ea f1 3e e4 37 e2 3e ba f3 03 3f 0c ca 1e 3f
       0.47249085 0.44183266 0.5154377 0.6202705
000380 f2 c1 ea 3e 18 cf 2e 3f d1 9b 1b 3f a2 e2 2b 3f
       0.45851094 0.6828475 0.6078463 0.6714269
000390 3a 7a 20 3f 61 e0 20 3f 95 5f 35 3f f1 b6 b3 3e
       0.626865 0.62842375 0.7084897 0.3510051
0003a0 d2 57 12 3f 49 34 3c 3f df a4 1e 3f 07 8e 2c 3f
       0.57165253 0.7351728 0.61970323 0.67404217
0003b0 ac 7a 2b 3f 68 30 7a 3e a4 49 25 3f 48 4e f5 3e
       0.6698406 0.24432528 0.6456549 0.47911286
0003c0 af 97 ee 3e e7 19 4c 3f 1d 4e 10 3f 16 f9 22 3f
       0.466001 0.79727024 0.5636919 0.63661325
0003d0 6e 0e 06 3f 81 fb 46 3f 13 62 e4 3e aa fb 02 3f
       0.5236577 0.77727515 0.44606075 0.5116526
0003e0 ff 27 2d 3f af 86 c1 3e d1 54 ef 3e ea d9 37 3f
       0.67639154 0.37798068 0.46744397 0.71816885
0003f0 ee e3 0d 3f 39 53 85 3e 58 0b 03 3f 1f 58 c9 be
       0.5542592 0.26040056 0.51189184 -0.39325044

fc3.weight f4 [128, 256]
000000 58 5c f3 3d 98 30 34 be 41 ac e2 bb d6 25 18 be
       0.118828475 -0.17596662 -0.006917507 -0.14858183
000010 04 1f 39 be e2 ca cc bd 4a 33 c1 3e 6e f2 91 3f
       -0.18078238 -0.09999634 0.37734443 1.1402109
000020 b2 2d a9 3d dd 65 d2 3d b6 db d8 bd f3 44 1c 3f
       0.08260669 0.10273335 -0.105887815 0.6104271
000030 8e c9 67 bd 6c cc f9 bc c5 66 89 bf 8d 29 47 3d
       -0.056588702 -0.030492984 -1.0734488 0.04862361
000040 3c 1a c5 bc 68 f2 0d be e4 27 79 be 3b a0 31 3d
       -0.024060361 -0.13862002 -0.24331623 0.0433657
000050 f4 a1 d7 3e 3c 3b 8b be 88 67 cd bc b1 03 f7 3e
       0.42115748 -0.2719363 -0.025073782 0.48245004
000060 8c cb e5 3e 91 0c aa 3d f5 8b e1 3d 8f 0a 17 3f
       0.44881856 0.08303178 0.11013023 0.59000486
000070 36 1b 6d 3e e0 bd 0e 3d a2 76 d1 3e 5a eb 5c 3e
       0.23154911 0.034849048 0.40910822 0.21574154
000080 1e 01 24 3d 14 12 01 3e 36 0a 8b 3f 82 f2 4e 3f
       0.040040128 0.12604553 1.0862491 0.8083879
000090 5f 39 94 3e 98 66 73 bc 6f b2 5d bd 09 2b 9e bd
       0.2895002 -0.014856003 -0.054125246 -0.07723052
0000a0 c1 a4 c8 3d 9c b0 e6 3e ea a1 1d be be fd ec bd
       0.09797049 0.45056617 -0.15393797 -0.11571835
0000b0 2e 6e 8c 3e c0 c0 1d 3d 94 db 24 be 49 b2 8a 3e
       0.2742781 0.0385139 -0.16099387 0.27089146
0000c0 99 68 67 3e 82 ea 07 3e 56 a4 a5 bd 7d ef c8 3d
       0.22598495 0.13273051 -0.08087985 0.09811304
0000d0 d2 cf 8f 3e 1e 84 4a 3c cb bf 0b 3e 32 8f 25 3e
       0.28088242 0.012360601 0.13647382 0.16167906
0000e0 59 e9 8e 3d 79 fb 2f bf 7a 18 40 bd 2d 74 1e 3f
       0.06978101 -0.6874309 -0.046898343 0.6189602
0000f0 db c8 bf bd c6 50 c1 3e e1 ce 36 be 21 3b b3 3e
       -0.09364482 0.37756938 -0.17852356 0.3500605
000100 0e 35 bf 3e 87 68 db 3d a5 fa 27 be 29 59 4c bd
       0.37345165 0.107132964 -0.16404207 -0.049889717
000110 6d 14 ab 3c 1d f3 f5 bd 10 30 f4 bd 88 bf 5a 3e
       0.020883763 -0.12009261 -0.1192323 0.21362126
000120 87 14 b4 3d 95 b1 c0 3e f8 96 27 3d 28 43 59 3d
       0.08792978 0.37635484 0.04091546 0.05304256
000130 73 d1 a0 3d ec cc 41 3e 39 02 ec bd 6e 18 ce 3e
       0.07852449 0.18925828 -0.115238614 0.40253013
000140 b3 20 48 be 67 c8 33 3e a0 d6 0d bc 80 33 7e 3f
       -0.19543724 0.17556916 -0.008657128 0.9929733
000150 37 5d ec 3d a4 52 a4 bd 77 a4 7b 3f 0f 5b 59 3d
       0.11541217 -0.08023575 0.9829783 0.053065356
000160 3c e8 88 bc 95 d3 c8 3d 4d 70 ab bd d6 93 80 3c
       -0.0167123 0.09805981 -0.08371029 0.015695494
000170 55 17 e3 3e eb dd 3e 3e 9e 37 e3 bd 77 c2 48 3e
       0.44353738 0.18639342 -0.110945925 0.19605432
000180 e6 a5 fe bc dd 88 1d 3e 9d e9 ee 3e 56 93 14 be
       -0.031084966 0.1538424 0.46662608 -0.14509329
000190 10 32 e6 3d 5a c8 22 be 24 76 f3 3c e3 a5 22 be
       0.112400174 -0.1589674 0.02971942 -0.15883593
0001a0 8e 0a b3 3e 30 89 7f bd b0 81 04 3e 96 0b 91 be
       0.3496899 -0.06238669 0.12940097 -0.28329152
0001b0 63 ea cc 3e 66 86 06 be d7 02 30 3f 1f 0b 7b bd
       0.40022573 -0.13137206 0.68754333 -0.061289903
0001c0 c0 c6 c8 bd b7 51 d6 3e 09 c4 17 3f f1 56 8a 3d
       -0.098035336 0.41859218 0.592835 0.06754864
0001d0 29 3b 8c 3f 32 76 e7 3e 5f c5 07 bc 6d bf 29 be
       1.0955554 0.45207363 -0.008286803 -0.1657693
0001e0 a8 11 84 3c 3c aa 3a be f7 fb c2 bc 9b b7 60 3d
       0.0161217 -0.18229002 -0.023801787 0.0548626
0001f0 5b a0 54 bd 15 f7 a1 3e f6 fe 9a 3d 14 df dd 3c
       -0.05191074 0.3163382 0.07568161 0.027083911
000200 9c b4 2a 3e 2f 64 be 3d 96 c2 e3 3e 7d 97 00 3d
       0.1667046 0.09296452 0.44484395 0.03139447
000210 bc af ae 3e 39 44 24 bd 84 e6 99 3e c5 5e 0e 3f
       0.3411845 -0.040104125 0.30058682 0.55613357
000220 5d eb 18 be 41 a5 14 3d 07 b6 28 be 83 18 ff be
       -0.14933534 0.03629041 -0.16475688 -0.49823388
000230 a2 67 a3 bb 29 f3 00 3f 92 ef 1c bd ca f6 66 bd
       -0.004986719 0.5037103 -0.03831441 -0.0563877
000240 fe c6 ed 3e dd 69 8b bc 2e 72 66 be 97 e5 a8 3e
       0.46440881 -0.017018253 -0.22504494 0.32987663
000250 c3 1b 43 3f 18 ea 4d bd 6b ba 9e 3e b1 82 fa bd
       0.76214236 -0.050272077 0.310016 -0.12231959
000260 76 5d 9c 3f 71 61 2b bd b6 5b 5c 3e 22 98 46 be
       1.2216022 -0.041840974 0.2151936 -0.19393972
000270 a2 1d 97 3c 11 18 a1 3d dc 31 f5 3e 08 3b 3e 3e
       0.018446747 0.078659184 0.47889602 0.18577206
000280 5e 81 cf bc ea 93 30 3e a7 e6 d3 3e d5 bd e5 3e
       -0.025330242 0.17243925 0.4138691 0.44871393
000290 b4 bd be bd 1d 18 80 3e fd b7 f6 bd be ba f5 be
       -0.09313527 0.25018397 -0.12046812 -0.47994035
0002a0 d5 a6 27 3d 15 b4 6f bd 31 26 81 3d 0f a9 9d 3d
       0.040930588 -0.05852135 0.063061126 0.07698261
0002b0 08 93 2f 3c 51 54 08 3d 54 cd 6e 3e 3e 72 aa be
       0.010716207 0.033283535 0.23320514 -0.33290285
0002c0 c9 18 97 3e 1f c4 4f 3f cb 44 10 be 49 e8 3a be
       0.29511097 0.8115863 -0.14088742 -0.18252672
0002d0 84 f3 19 3f b1 c3 d4 3d 93 e3 17 bf 36 c0 55 3c
       0.601372 0.10388888 -0.59331626 0.013046315
0002e0 61 c6 b8 3d 5f 66 95 3e b4 67 3a 3f 8b 7e 06 bf
       0.09022213 0.29179665 0.7281449 -0.5253684
0002f0 63 92 9c bc 4a 04 2c bf a0 d0 90 3e 57 20 f5 3e
       -0.019112771 -0.67194045 0.28284168 0.47876236
000300 a0 5a 0d bf 4f 01 f6 3b 57 65 ec 3e 73 d2 da 3e
       -0.5521641 0.00750748 0.46171066 0.42738685
000310 09 3f 41 3d 4b 1f 9b 3c 54 2b 1e 3f cf 07 81 3e
       0.047179256 0.01893582 0.61784863 0.2520127
000320 17 69 8a 3e ec c4 c0 be 83 bd ba 3d 44 a0 1a bd
       0.27033302 -0.3765024 0.09118178 -0.037750497
000330 92 3a 5e be 78 e1 a5 be 7b 8b 76 3e 69 05 91 bd
       -0.2170203 -0.32398582 0.24076645 -0.0708111
000340 bc cc 2d 3d 98 2b a1 bd e1 b6 02 3f 88 e4 60 3d
       0.042431578 -0.07869643 0.510603 0.054905444
000350 3a bd 36 3f 56 d3 6b 3d 20 17 b7 3d b8 c1 91 3e
       0.71382487 0.057574593 0.089399576 0.28468108
000360 72 fd 1e bd a0 71 36 bd 49 9e 30 be 4f e7 af bd
       -0.038815923 -0.044541955 -0.17247881 -0.085890405
000370 b7 25 2a be 83 09 88 be 55 b0 f8 bd 6c 16 a5 3e
       -0.1661595 -0.26569757 -0.12143008 0.3224367
000380 c8 7c 28 3e a0 92 7e be 57 9e 34 bf 6a cb 47 bd
       0.1645385 -0.2486062 -0.7055411 -0.048777975
000390 3b 6c 37 be 01 b8 14 3f 11 b6 9e 3a 9a d0 79 bd
       -0.1791238 0.5809327 0.0012108703 -0.060989954
0003a0 3b 3d 34 3e a4 d7 f5 bd 01 db f9 3e 46 25 0d bf
       0.17601483 -0.12004021 0.487999 -0.55135
0003b0 69 5d e7 bd 24 05 87 3f 11 ff 91 3c cf 75 cd 3e
       -0.112971134 1.0548444 0.01782182 0.40128943
0003c0 a7 2f e2 3d 36 7a da 3e 09 3d 26 3e cb df dc bd
       0.11044245 0.42671365 0.1623422 -0.107848726
0003d0 df 3f b2 3e 3c 69 c2 bd 57 64 6e 3f b7 37 f3 be
       0.34814355 -0.09492728 0.93121856 -0.47503445
0003e0 46 a4 44 3f 34 3f 6a 3f 9e 29 6e 3e 38 2b cd 3d
       0.7681316 0.9150269 0.23258063 0.10018009
0003f0 5f 7c cd be 04 fa 0d 3d 4d 0c 4d 3e 42 1e b4 3e
       -0.4013395 0.03466226 0.20024224 0.35179335

fc3.bias f4 [128]
000000 6a a4 0c 3f 3a e6 89 3e 2e 3f 78 3c 75 60 6c 3f
       0.54938376 0.2693346 0.015151782 0.9233468
000010 62 61 0c 3f fa 9b 69 3e 89 ba e5 3e a7 09 00 3f
       0.54836094 0.22813407 0.44868878 0.5001473
000020 f0 9c 85 bd 75 27 bb 3e e6 a5 36 3f b5 d2 df 3e
       -0.06524074 0.3655354 0.7134689 0.43715444
000030 c6 6d 38 3f 62 25 f7 3c 3e 08 a4 bd 1e 85 8f 3e
       0.720425 0.030169193 -0.080093846 0.28031248
000040 6e 5f 6f 3e 92 92 9f 3e 23 55 53 3f 1b c6 73 3f
       0.23376247 0.31166512 0.82551783 0.9522416
000050 36 50 2f 3f 2b c3 9c bc 8e 2b 7e 3e b4 7f 7a 3c
       0.6848177 -0.019136032 0.24821302 0.015289236
000060 01 eb 03 3d 0e 38 3b 3f 23 6f c6 3e 7e 57 3c 3f
       0.03220654 0.7313241 0.38756666 0.73571
000070 6e 20 74 3e 90 0f 16 3c 4f 30 d0 3e 86 86 52 3e
       0.23840496 0.009158984 0.40661857 0.20559129
000080 88 67 2a 3c b2 91 46 3f 17 36 5c 3f 0c 4a 74 3f
       0.01040066 0.77566063 0.86020035 0.95425487
000090 ac 1a 75 3f 50 5b 4d 3e 50 fc fe 3e 0a a0 35 bd
       0.95743823 0.20054364 0.49801874 -0.04434208
0000a0 9b 12 8c bd 13 4f 34 3e 88 69 80 bc f6 b4 6e 3f
       -0.06839486 0.1760829 -0.015675321 0.93244874
0000b0 ea 4e 07 3f 93 49 84 3e f9 7d 2e 3f c4 8f 36 3f
       0.5285479 0.25837383 0.6816097 0.7131312
0000c0 ef 17 64 3f 46 a7 ab 3e 44 ba 75 3e 1c 54 26 3f
       0.8909902 0.33526057 0.23996836 0.6497209
0000d0 0e 6c 60 3e 78 8e 4f bd 0f ac a6 3c 85 23 dd 3e
       0.2191622 -0.05067298 0.020345716 0.43191162
0000e0 78 aa b8 bd ce 44 c6 3e 30 d9 08 3f 90 7f 38 3f
       -0.09016889 0.3872437 0.534564 0.72069645
0000f0 a0 c8 01 bd 5f c7 86 3c 84 77 99 3e fc 07 ad bc
       -0.03168547 0.01645249 0.29973996 -0.021121971
000100 c0 d6 b1 3e 48 31 8c bd b4 8c 03 3f 48 18 81 3f
       0.34734154 -0.06845337 0.5138657 1.0085535
000110 a3 fc b5 3e 1a 8a 82 3e 79 02 bc 3e 4b 91 bf bd
       0.3554431 0.25495988 0.36720636 -0.09353884
000120 45 02 3b 3f f1 ca 05 bd 45 15 03 3e 67 ed 72 3c
       0.7305034 -0.032664243 0.12801082 0.014827109
000130 ed 27 58 3f e0 d2 8e 3f 91 c1 21 bd e8 b6 85 3f
       0.8443592 1.1158104 -0.03949124 1.0446444
000140 b7 cd 35 3f f0 91 79 3f 8b 3a 1f 3f 61 11 73 3f
       0.7101702 0.9748831 0.62198704 0.94948393
000150 93 df 19 3f aa 6f 46 3e 18 ed 7c 3f 19 4f 39 3d
       0.6010677 0.19378534 0.98799276 0.04524145
000160 13 dd 08 3c 6a 77 33 3f dc 8e 1b 3f ee dc 5a bd
       0.008353489 0.70104086 0.6076486 -0.05343335
000170 e0 a4 26 3f 2d d7 94 bc 37 28 b6 bd 44 ee 25 bb
       0.6509533 -0.01816901 -0.08894389 -0.002531902
000180 7a 26 5d 3f f5 14 36 3f b4 68 27 3f a9 86 84 3e
       0.86386836 0.7112573 0.6539414 0.25883988
000190 12 9d ee 3e 52 83 55 3f b9 81 12 3f 63 98 7f bd
       0.4660421 0.83403504 0.5722919 -0.062401187
0001a0 0d 24 98 3e ab e7 2f 3f 17 c4 02 3f 1d e7 fd 3e
       0.29715005 0.6871287 0.5108046 0.49590388
0001b0 81 16 4d 3f c6 c3 64 3f 86 65 b3 bd c8 7a 53 bd
       0.80112463 0.89361227 -0.087595984 -0.051630765
0001c0 67 90 80 bd 1b 6e af bc f4 90 e6 39 ca 99 01 bc
       -0.062775426 -0.021414807 0.00043977017 -0.007910201
0001d0 40 d8 8f 3c 4f 27 7a bc e4 aa d4 3e 57 c8 4a bc
       0.01755917 -0.015268161 0.4153663 -0.012376866
0001e0 42 93 93 bd ef 46 df 3e be b1 98 bd 5e 93 34 3f
       -0.072058216 0.43608806 -0.07455777 0.70537364
0001f0 3b 05 92 3e 0e 23 22 3f e2 26 46 3d 6b e1 8b 3e
       0.28519616 0.6333474 0.048376925 0.27320418

fc4.weight f4 [128, 128]
000000 3a 6d 2a 3d 55 d1 56 bd a6 59 29 bd f5 41 64 bd
       0.041608073 -0.05244573 -0.04134526 -0.055726964
000010 db 60 02 be 35 13 e1 bd 3f c2 f6 bc c1 19 42 bd
       -0.1273226 -0.109899916 -0.03012192 -0.047387842
000020 d1 b4 d5 bc d2 67 fc 3c dc 0a 26 bd 09 36 ce bd
       -0.026087197 0.030811224 -0.0405377 -0.100689
000030 f9 54 10 3d 33 31 99 bc 52 06 e5 3c 4e f5 92 bc
       0.035237286 -0.018700218 0.027957115 -0.017939236
000040 67 54 c0 3b 79 0d 38 3d 19 17 94 bc 90 e0 d3 bd
       0.0058694365 0.044934724 -0.01807742 -0.10345566
000050 c3 43 38 3d a6 22 33 bd cc 8e b5 bd a7 9a 6b 3d
       0.044986498 -0.043734215 -0.08865127 0.057520535
000060 17 cb a6 bd d0 ce a3 bb d6 e4 08 3d d1 ab c7 bd
       -0.08144205 -0.004999019 0.03342136 -0.09749568
000070 4e 87 ce bd 2f d6 9a 3d f7 cd f9 bd 34 7f ee bb
       -0.10084401 0.075603835 -0.12197488 -0.0072783474
000080 f5 18 92 3c fc 9d 73 3d 39 83 3d bc b8 b6 ae bd
       0.017834166 0.059476838 -0.01156693 -0.085309446
000090 17 83 f9 bd 5a 49 ed 3c c8 03 2b bd b0 e0 9b 3b
       -0.121832065 0.02896564 -0.041751653 0.0047570094
0000a0 2e 08 9b 3c f9 68 31 3d 38 48 c6 3c b9 cd 2a 3d
       0.018924799 0.043313 0.024204358 0.0417001
0000b0 aa 13 4d bc 18 5e 9f bd 9c 00 a5 3c d5 c5 77 bd
       -0.012516895 -0.07781619 0.020141892 -0.0604914
0000c0 59 73 5d bd 16 81 3e bd 8d 11 77 bd 4b 7a 5c ba
       -0.054065082 -0.046509825 -0.060319472 -0.0008410557
0000d0 e4 f0 ce bd e4 f5 a3 bd 7c 98 55 bd f7 c7 40 3c
       -0.1010454 -0.08005884 -0.052147374 0.011766425
0000e0 62 ca 6a bd 9e ff bb bd 70 e4 8a bc 90 7c 4a 3d
       -0.057321914 -0.091796145 -0.01695463 0.0494352
0000f0 a2 e0 89 3d 03 bd 0d 3c 0f 77 b3 3b ba c4 e8 bc
       0.067322984 0.008651021 0.0054768394 -0.028414119
000100 76 2f 13 bd f0 c5 9a bc c8 0d 99 3c 65 cd 8c 3c
       -0.035933934 -0.018893212 0.01868333 0.017187783
000110 89 59 52 bd a3 16 2d 3d 0d c8 2f bd 56 0f 04 3d
       -0.05135492 0.042257916 -0.042915393 0.032241188
000120 fe a6 62 3a ab b6 0a bd ef 76 a5 3c ad e1 f1 bc
       0.00086460996 -0.033865612 0.020198314 -0.029526556
000130 60 ad f9 bd f3 8f 2f bd d0 b1 33 3d 22 22 18 3d
       -0.12191272 -0.04286189 0.043870747 0.037141927
000140 c4 b6 78 bd d8 cc 6c bc ca 2f e9 3c 9c 0d 7c bd
       -0.060721174 -0.014453135 0.02846517 -0.061536416
000150 6c b9 c6 3c 74 f2 5e bd af ac 85 bd 1f 42 52 bd
       0.024258338 -0.05443044 -0.065270774 -0.05133259
000160 ae d9 15 3d f2 cb 1c 3c c2 58 26 bd cb c2 db bc
       0.03658455 0.009570109 -0.04061199 -0.026826283
000170 c3 47 54 3c b6 6e 9b 3d 40 70 ad bc 18 7d 33 bd
       0.012956562 0.07589476 -0.021171689 -0.04382047
000180 01 55 7b bd 1e 04 b4 bb f0 c9 88 3c 5b 1a 43 bb
       -0.061360363 -0.005493655 0.016697854 -0.0029770348
000190 f4 90 f4 bd f6 b7 b6 bd a6 c8 9a bd 40 c2 58 3c
       -0.1194171 -0.089218065 -0.07557802 0.013229907
0001a0 55 64 80 3c 7c 18 c3 3c 41 c9 81 bd a9 26 88 bc
       0.015672842 0.023815386 -0.06337214 -0.016619997
0001b0 95 08 fb bb 9d 80 ab bd 50 94 a0 3d 2a ce 5e 3d
       -0.007660935 -0.083741404 0.07840788 0.054395832
0001c0 8f 43 a8 bd 9d 08 9f 3d 9e 64 30 3d d1 03 95 bd
       -0.08216011 0.07765315 0.043064706 -0.072761185
0001d0 ef 6e 4a 3d 58 87 a9 bd 27 78 7e 3c 8b 39 81 bc
       0.0494222 -0.08277768 0.015531576 -0.015774509
0001e0 5c e8 c3 bc a3 18 75 bb 10 2a 1d 3d cd 33 d9 bd
       -0.023914509 -0.0037398718 0.038370192 -0.10605583
0001f0 31 e8 43 3c 4a 06 89 bd 81 7d 79 3d 80 ac 3a 3d
       0.011957214 -0.06690653 0.060910705 0.045574665
000200 b5 34 a6 3e b1 11 97 be 52 62 ac bc b8 dc 48 3e
       0.32462087 -0.29505685 -0.021042977 0.19615448
000210 ed c2 52 3e 74 16 cc be 59 73 48 3e 7a 3f 47 3e
       0.20582171 -0.3986088 0.19575252 0.19457808
000220 4b df e7 3b a7 05 79 3e 29 47 b3 3e 2d b5 8c 3e
       0.007076179 0.24318562 0.35015228 0.27481976
000230 54 34 17 3e 63 12 c7 3d a3 b6 a3 3c af 27 4e be
       0.14766055 0.09720304 0.019984549 -0.20132326
000240 bc 09 9f bd ba 3d b6 bd 9b 80 76 bd b9 f7 54 3e
       -0.077655286 -0.08898492 -0.06018124 0.20797624
000250 f8 05 c4 3e 0b 4d 3c 3d 1e d8 89 be ef 29 32 3d
       0.38285804 0.04597191 -0.26922697 0.043497022
000260 97 cb 3b bd 04 e4 60 3e 03 07 af 3e 82 d5 26 3d
       -0.045848455 0.21961981 0.34185037 0.04073096
000270 d5 6b 39 be f8 21 34 bd ab 46 c1 3c c5 d1 3f be
       -0.18107541 -0.043977708 0.023593267 -0.18732364
000280 f0 fd 89 bd 99 1e ab 3e c3 19 fe bd 21 53 19 3e
       -0.06737888 0.33421782 -0.124072574 0.14973117
000290 e3 e7 a2 3e d6 81 66 be e5 dc d6 3e a8 13 11 3d
       0.3181754 -0.22510466 0.41965404 0.035419136
0002a0 98 c9 0f 3b bc b9 35 bf 80 a4 c5 bc ce 91 1f 3e
       0.0021940228 -0.70986533 -0.024126291 0.15582964
0002b0 d3 4c 66 3e be fb b9 be 3b 49 cc 3e 30 b0 6b 3e
       0.22490244 -0.36324877 0.3989962 0.23016429
0002c0 03 72 c7 3d d8 d1 11 be f4 10 d6 be 81 64 ea 3e
       0.09738543 -0.14240205 -0.4180981 0.45779803
0002d0 c1 db ae be 84 3c a6 bc 16 0d 83 3d 2d 41 ff bd
       -0.34152034 -0.020292528 0.0639898 -0.12463603
0002e0 2e ee b6 3d 43 6a 99 bd a5 8e 15 3e 96 03 d4 3e
       0.08932148 -0.07490971 0.14605196 0.41408986
0002f0 92 91 80 3d 59 5d 22 3d a6 8f 55 bd 82 5b e3 3c
       0.06277765 0.039639805 -0.052138947 0.027753595
000300 fb 2d 62 3e cd c6 80 bd c3 39 5e 3e bd 10 32 3e
       0.22087853 -0.06287918 0.21701722 0.17389198
000310 cb 68 22 bd 87 3a 00 be 9c d0 13 3e 03 2a 01 bd
       -0.03965072 -0.12522326 0.14435047 -0.031534206
000320 38 f5 bd bc 63 ec 82 bd 20 5f e5 be 10 97 c3 bd
       -0.023188218 -0.063927434 -0.44799137 -0.09550297
000330 e2 ff 1d be 69 2a c2 bb 80 36 77 3d b9 62 9b 3c
       -0.15429643 -0.005925466 0.06035471 0.018967973
000340 9b ff 69 3e 13 90 75 3e 37 9c c1 3e bb ec 23 be
       0.22851412 0.23980741 0.37814495 -0.16008274
000350 bf af d7 3e d6 af ad be 67 ca 95 3e 89 e9 82 3b
       0.4212627 -0.33923215 0.29255983 0.0039951247
000360 0a 4a e1 3c 90 08 87 3e c7 46 f1 3d d3 5b ce 3d
       0.027501125 0.2637372 0.11781078 0.10076108
000370 d1 67 86 3e 26 5e 7e bd e0 34 c7 bd e0 17 29 3d
       0.2625108 -0.062101506 -0.09726882 0.041282535
000380 90 49 93 3e 4a 35 8f 3e 07 b1 a6 3d bb 2c 0d be
       0.2876706 0.27970344 0.08139234 -0.13786595
000390 58 78 ab 3e 1e 00 d9 3c b2 41 e4 3e 06 ea 38 3c
       0.33490252 0.026489314 0.44581372 0.011286264
0003a0 de 1d a4 be db 76 d5 3d 69 29 8d 3e e7 e5 cd 3c
       -0.32054037 0.104230605 0.27570656 0.02513404
0003b0 30 19 c7 3e 26 72 c6 bd e0 07 2e 3d a1 d9 2e bd
       0.38886404 -0.09689741 0.04248798 -0.042688016
0003c0 6f e3 61 3d ff ec 96 bd af 67 3a 3d 06 70 88 bd
       0.05514854 -0.07369422 0.045509037 -0.06661992
0003d0 b0 cd 67 bd c8 a8 07 3c bb da 69 3e 0a a4 01 3d
       -0.056592643 0.008279987 0.22837345 0.03165058
0003e0 cb 45 4b bd 98 6e 7d bc 66 8f 08 bd 5d 50 63 3d
       -0.049627107 -0.015468262 -0.03333988 0.055496562
0003f0 44 b9 84 be e9 df b7 3d 02 fb 88 bc be 9f 82 be
       -0.25922596 0.08978254 -0.016721252 -0.255125

fc4.bias f4 [128]
000000 a1 00 82 bd 5d 80 bc 3c 8c f8 70 3f 25 3d 0e 3f
       -0.06347776 0.023010427 0.9412925 0.5556205
000010 47 d4 e8 3e 60 27 ed 3e 0c 49 da 3e 63 a1 15 3e
       0.45474455 0.46319103 0.42633855 0.14612345
000020 76 58 a2 bb e6 52 e1 3b 64 80 5d bd 95 b7 39 bd
       -0.004954393 0.0068763373 -0.05407752 -0.045341093
000030 eb 26 b1 bd 51 5c af bc bd 34 31 be ba 34 a4 bc
       -0.08650001 -0.021406325 -0.17305274 -0.020044673
000040 c6 e5 5b 3c b4 65 2f bd f6 ed 09 bd 65 90 2d 3d
       0.0134214815 -0.0428216 -0.033674203 0.042374033
000050 e6 5e 9a bc a4 7b 7c 3e f4 25 76 3f 2a 5b 87 bd
       -0.01884408 0.2465654 0.9615166 -0.06609185
000060 35 83 e6 3c 64 6a 32 3e 8a 40 c3 3e ea 2f 1e bd
       0.028138736 0.17423397 0.38135177 -0.038619913
000070 f1 f4 62 3f 32 9d c4 3c 1c a0 91 3d 35 aa 4e 3f
       0.88655 0.024000738 0.071106166 0.80728465
000080 20 2c 6f 3d 2c b7 80 3f 01 ed ec bd f3 1e 44 3d
       0.05839169 1.00559 -0.115686424 0.047881078
000090 dc e3 8b 3d e0 6c 1b 3f f6 51 3f 3d 67 3e 2c bd
       0.0683057 0.60713005 0.046709023 -0.0420517
0000a0 04 18 2b 3e 55 5a 06 3f db 54 e6 bb 57 12 c2 bd
       0.1670838 0.52481586 -0.0070291585 -0.09476154
0000b0 fa 20 be bd 99 9a d1 bd 73 84 e8 bd 31 7f e6 3e
       -0.092836335 -0.10234565 -0.11353388 0.45018914
0000c0 57 22 57 3f e1 5c ae 3e eb 57 06 3f 6c 3b da 3e
       0.84036773 0.34055236 0.524779 0.4262346
0000d0 6d 59 fd 3c ae 3c 30 3e 04 cf 43 3f 27 3a 2f 3e
       0.03092643 0.17210647 0.76487756 0.17112027
0000e0 6a 37 95 3f df 41 ef 3e ab 24 40 bc a6 4d 50 3e
       1.1657536 0.46729943 -0.011727492 0.2034212
0000f0 35 d4 0e 3f 3d 2f 09 3f e8 dd c6 bc 2b ad f9 3e
       0.5579255 0.53587705 -0.024275735 0.4876493
000100 62 9c 38 bd f3 ef ee 3e ca 58 74 3f 1a 68 1f 3f
       -0.045071013 0.46667442 0.9544798 0.6226822
000110 78 5d 48 3f 0b 71 ca bd 16 e5 c5 bd 4d 10 2c 3e
       0.7826762 -0.098848425 -0.09662835 0.16803093
000120 c6 97 2d 3e ac 23 c9 3c e5 0c cd bd d7 fa ab bd
       0.16952428 0.024553142 -0.10012225 -0.08397453
000130 57 dc 6d 3f 4c 7c 98 3f 28 c9 7a 3b af 17 bf bd
       0.92914337 1.1912932 0.003826687 -0.09330689
000140 3b 76 58 bd 22 e3 60 bd b9 56 0e be ae 83 ac 3f
       -0.05284713 -0.05490411 -0.1390027 1.3477685
000150 8b 99 d3 3c 87 3b 20 bd 6b 68 01 3f ef f3 06 bd
       0.02583005 -0.03911927 0.50549954 -0.032947477
000160 e3 35 34 be 94 03 63 3b 65 b3 83 3e 33 02 9d bc
       -0.17598681 0.0034639584 0.25722805 -0.019166088
000170 ed cc 71 3d 20 ef 4c bd 5c 18 84 3d f1 38 86 bd
       0.059033323 -0.050032735 0.06449959 -0.065538295
000180 c9 66 53 3d 21 12 92 3e bd 49 b7 3c db b7 5f 3f
       0.051611695 0.28529456 0.022374028 0.87389916
000190 0a 62 59 3c fa 18 b6 bd 19 69 63 bd bd e6 72 3e
       0.013268003 -0.08891483 -0.05552015 0.23720832
0001a0 0a b3 4e 3d 51 7a db 3e 13 ed eb bd 1b d0 33 3e
       0.050463714 0.42866758 -0.11519828 0.17559855
0001b0 20 bc 95 3c 63 c7 5f 3e c8 91 b1 bd 2d 28 5c 3f
       0.018278182 0.21853404 -0.08670384 0.85998803
0001c0 a2 99 8f 3f e0 4f 97 3f e3 d7 c8 3e 14 1a 96 3d
       1.121876 1.1821251 0.39227208 0.07329193
0001d0 f8 d6 5b bd b8 b8 77 bd ad 60 e8 3e a9 40 88 3e
       -0.053671807 -0.060478896 0.45386258 0.26611832
0001e0 f7 f2 22 3d eb 0d 16 bd 40 ed 49 3d 72 e8 06 3e
       0.03978249 -0.036634367 0.049298525 0.13174608
0001f0 82 1d 6b 3f ec 2e ba bb a0 bf b7 3e 95 70 4e 3e
       0.918419 -0.005681863 0.35888386 0.20160134
