checkpoints/checkpoint_qnetwork_local_WMT_V4.pth (torch_old, 340036 bytes, 10 tensors)

fc1.weight f4 [128, 13]
-0.0020764768 0.14878267 -0.22827165 -0.20411277 -0.106822595 0.07437348 -0.0054951906 0.21990797
-0.024613172 0.073390305 -0.08381882 -0.054517433 -0.264966 -0.4329348 0.11398438 -0.38438508
-0.124098174 0.29845938 -1.0984026 -0.4755983 0.2022631 0.15945221 -0.36426017 0.2911146
-0.38994557 0.07278775 0.7064631 -0.13629924 -0.25819528 -0.49357283 -0.3576 1.012518
-0.22570083 -0.49703792 0.04864183 0.10829512 -0.2619751 0.28302842 0.25848493 -0.14713271
-0.20780416 -0.38891038 -0.083125554 -0.35473448 -0.5168013 -0.21615094 -0.010851525 0.10151577
-0.39595002 -0.14179572 0.58646387 0.7052624 0.066669054 0.10886921 0.37727275 -0.6427746
0.14994617 -0.5400227 -0.5943031 -0.41827893 0.38651434 0.3294473 -0.6938932 -0.032943342
0.5518845 -0.09481121 -0.03553578 -0.11085635 0.029175552 0.20647721 -0.34170148 -0.17972562
0.059879225 0.14821497 0.1804816 0.12892559 -0.15637201 -0.44383973 0.119999565 -0.29988012
-0.31865326 0.20744786 0.16228038 -0.5136266 0.019849949 -0.21149167 0.03289918 -0.4376269
0.0750559 -0.26189297 0.081379406 0.18078238 0.121798694 -0.034846798 -0.9887266 -0.25097784
0.06248659 -0.13779199 -0.46524358 -0.1730029 0.19739786 0.427673 -0.36587232 -0.34382612
-0.26420316 -0.004985124 -0.20886096 -0.21393585 -0.015281886 0.041642755 -0.11358327 0.16457334
-0.16877839 0.25165918 0.19006798 -0.2338846 -0.069028094 0.01251477 0.040465683 0.06578031
0.10884002 0.016613305 -0.13532709 0.13123903 -0.26604778 -0.16438726 -0.06942901 -0.13510093
-0.09702632 -0.22732216 -0.5169717 -0.08036564 -0.7196879 -0.5293692 0.4465523 0.023971133
-0.17679407 -0.42391467 0.21214484 -0.036100425 0.079429306 0.34906417 0.3804365 -0.020058423
-0.24914956 -0.13148536 0.18884912 -0.0017979145 -0.13785586 -0.21253663 -0.25955865 -0.23408575
-0.056256786 0.15210047 0.14994687 -0.2674853 0.15886116 -0.22587669 -0.069976516 -0.12229827
-0.061152264 -0.062711574 -0.26027775 -0.24488959 -0.056757487 -0.010754039 -0.13933575 0.09014467
-0.26401946 -0.0002830051 0.5745793 -0.059357148 0.7692013 0.30609205 -0.62617433 0.40054008
0.023308842 -0.038363885 0.11926757 -1.0841964 0.17670922 0.15772177 0.4258915 0.22283539
0.31504363 0.4481381 0.0053502433 -0.0593437 -0.25091285 0.20663439 0.40977007 0.58914655
-0.11743337 -0.40254435 -0.19685675 -0.17037788 -0.22371323 0.09057813 -0.1755732 0.03155095
0.028484482 0.185615 -0.20015913 -0.3950075 -0.07404839 0.18657282 -0.14329425 0.19679508
0.10029188 0.035119742 -0.0020646155 -0.05482699 0.034798115 -0.063331425 -0.0019487739 0.035387933
-0.21694466 -0.1453679 0.22395816 -0.22508255 -0.019915462 0.06253607 0.13568488 -0.09735158
-0.69142455 -0.19286825 -0.59948516 -0.29272836 -0.59084296 -0.2409213 -0.29753 0.21658504
-0.23139071 0.27611867 0.22472294 -0.12156986 0.12286241 -0.10617381 -0.07487137 0.21429363
0.06628924 0.24067296 -0.11042197 0.010082168 1.044141 -0.9102011 0.21989626 -0.22934702
0.003822565 -0.047154173 -0.14607279 0.03665766 0.229346 -0.08107485 -0.16466111 -0.10257484
00000000: 8015 08bb 7c5a 183e 0bc0 69be f002 51be
00000010: cec5 dabd 2051 983d 0011 b4bb 8e2f 613e
00000020: 90a1 c9bc a84d 963d 34a9 abbd ac4d 5fbd
00000030: a0a9 87be a1a9 ddbe a570 e93d 1fce c4be
00000040: 2f27 febd abcf 983e 7598 8cbf 9f81 f3be
00000050: 0f1e 4f3e 7147 233e 4f80 babe f90c 953e
00000060: f2a6 c7be be11 953d c4da 343f 0792 0bbe
00000070: 2c32 84be 94b5 fcbe 5917 b7be 319a 813f
00000080: 1e1e 67be c17b febe a83c 473d d5c9 dd3d
00000090: 9a21 86be 1ae9 903e 2358 843e f5a9 16be
000000a0: 9dca 54be 431f c7be bb3d aabd c29f b5be
000000b0: 174d 04bf ac56 5dbe 98ca 31bc 80e7 cf3d
000000c0: f6b9 cabe e632 11be 7f22 163f 148c 343f
000000d0: c989 883d d2f6 de3d e529 c13e e08c 24bf
000000e0: 7d8b 193e ed3e 0abf 3f24 18bf a828 d6be
000000f0: 35e5 c53e 51ad a83e fca2 31bf 99ef 06bd
00000100: 4d48 0d3f 612c c2bd f78d 11bd a708 e3bd
00000110: 9101 ef3c c36e 533e 7ff3 aebe fe09 38be
00000120: eb43 753d aac5 173e 2bd0 383e 1205 043e
00000130: fc1f 20be f63e e3be 55c2 f53d e389 99be
00000140: 8526 a3be 366d 543e d42c 263e 087d 03bf
00000150: 5c9c a23c 4691 58be 4ac1 063d a210 e0be
00000160: e8b6 993d d616 86be 3faa a63d 041f 393e
00000170: 9871 f93d 84bb 0ebd 301d 7dbf 2b80 80be
00000180: f0f1 7f3d 5819 0dbe 6834 eebe ac27 31be
00000190: aa22 4a3e f5f7 da3e 9e53 bbbe fa09 b0be
000001a0: a345 87be 405a a3bb a6df 55be 0012 5bbe
000001b0: e060 7abc 9891 2a3d 589e e8bd ea85 283e
000001c0: 3ed4 2cbe 79d9 803e 2ea1 423e 727f 6fbe
000001d0: 9a5e 8dbd c00a 4d3c 58bf 253d d4b7 863d
000001e0: 84e7 de3d a018 883c 2f93 0abe 8663 063e
000001f0: 6a37 88be 2255 28be cc30 8ebd e657 0abe
00000200: bcb5 c6bd 24c7 68be 4258 04bf be96 a4bd
00000210: 773d 38bf bd84 07bf 81a2 e43e 1c5f c43c
00000220: 8109 35be 580b d9be 7f3c 593e 0ade 13bd
00000230: d5ab a23d 8ab8 b23e 93c8 c23e 9051 a4bc
00000240: 1021 7fbe 19a4 06be aa61 413e 00a8 ebba
00000250: 162a 0dbe 34a3 59be dfe4 84be 2db4 6fbe
00000260: 846d 66bd 3ac0 1b3e ac8b 193e d5f3 88be
00000270: 80ac 223e 384c 67be d94f 8fbd 8477 fabd
00000280: cc7a 7abd ed6e 80bd 2043 85be 56c4 7abe
00000290: 8a7a 68bd b531 30bc 08ae 0ebe c59d b83d
000002a0: 8f2d 87be 4d60 94b9 a117 133f 7b20 73bd
000002b0: 60ea 443f 19b8 9c3e f64c 20bf 9713 cd3e
000002c0: 2ff2 be3c 7323 1dbd 8e42 f43d f3c6 8abf
000002d0: 43f3 343e d181 213e 730e da3e f62e 643e
000002e0: 664d a13e 5b72 e53e 1851 af3b 6112 73bd
000002f0: a677 80be f797 533e 62cd d13e 4fd2 163f
00000300: e880 f0bd 4b1a cebe d194 49be 8a77 2ebe
00000310: 1515 65be 0781 b93d 76c9 33be 923b 013d
00000320: 4a58 e93c dc11 3e3e 84f6 4cbe 6c3e cabe
00000330: afa6 97bd f20c 3f3e babb 12be a684 493e
00000340: d465 cd3d b8d9 0f3d 804e 07bb 4492 60bd
00000350: 7888 0e3d e8b3 81bd 006e ffba f0f2 103d
00000360: be26 5ebe 53db 14be 4a55 653e 0a7c 66be
00000370: c025 a3bc e912 803d faf0 0a3e 4460 c7bd
00000380: 3301 31bf 417f 45be dc77 19bf 7ee0 95be
00000390: 7c41 17bf 13b4 76be da55 98be 78c8 5d3e
000003a0: b0f1 6cbe 6d5f 8d3e c51d 663e 9ef9 f8bd
000003b0: 4a9f fb3d a871 d9bd 2956 99bd ca6f 5b3e
000003c0: a7c2 873d f972 763e ea24 e2bd ad2f 253c
000003d0: 6aa6 853f f002 69bf 7c2c 613e f2d9 6abe
000003e0: 0084 7a3b bc24 41bd 1b94 15be 5826 163d
000003f0: aed9 6a3e 920a a6bd ec9c 28be c212 d2bd

fc1.bias f4 [128]
-0.08910254 -0.07710703 -0.08480397 0.56565714 0.33711067 -0.1384125 0.099191494 -0.03837152
-0.1636635 -0.0024184585 0.05969683 -0.062601864 0.25088808 -0.118190646 -0.6420495 -0.1505051
-0.25740442 0.13816749 -0.55277497 -0.1951361 -0.08799124 -0.19798991 -0.14488032 0.21378835
-0.31680238 -0.034320228 0.22904055 -0.039950397 0.39138246 -0.4470994 0.08376818 0.16997479
0.052188855 0.25274244 -0.61218286 -0.043192573 0.22633173 -0.2626644 -0.101330735 -0.27929062
-0.069834165 -0.22005355 0.31137913 -0.4120752 -0.071858995 -0.07294984 0.2501142 0.041863605
-0.31051394 -0.13338752 0.09308632 -0.065542094 0.051641405 -0.16433507 0.15327671 -0.075726256
0.18319303 -0.36338842 -0.24428241 0.10382196 0.26718494 0.13669902 0.568027 -0.04456755
0.18216544 -0.22479586 0.027623378 0.3844829 0.17498946 0.29584607 0.07353656 0.14108077
0.07241517 -0.11589204 0.47560534 0.12560992 -0.6068848 0.36530888 -0.20765263 -0.03165979
-0.19656314 -0.2960368 0.11394843 -0.3922803 -0.25799298 -0.14286469 -0.055191904 0.19554621
0.17015538 -0.17626539 -0.084218726 -0.13892774 0.011806391 -0.06498453 -0.4182968 0.15502498
-0.13050477 -0.35150024 -0.45901793 0.12857741 0.5071712 -0.1361612 -0.03598885 0.13572142
-0.016549742 -0.24022612 -0.07463866 -0.129077 -0.2990537 0.1207546 -0.061661825 0.4444749
-0.15773481 0.07903502 -0.038958497 0.16044497 0.22275878 0.12156655 -0.05200628 -0.12426269
0.14092575 -0.16076574 -0.16689526 -0.23978361 -0.26662862 0.26767504 -0.02570363 0.36292762
00000000: 647b b6bd 4aea 9dbd b4ad adbd e8ce 103f
00000010: c599 ac3e 02bc 0dbe e924 cb3d 742b 1dbd
00000020: 6897 27be 007f 1ebb aa84 743d 6835 80bd
00000030: 6774 803e f00d f2bd 5b5d 24bf 021e 1abe
00000040: 83ca 83be c77b 0d3e a982 0dbf c2d1 47be
00000050: c034 b4bd debd 4abe 825b 14be 55eb 5a3e
00000060: ec33 a2be 5e93 0cbd 9b89 6a3e 07a3 23bd
00000070: 4863 c83e 36ea e4be a78e ab3d df0d 2e3e
00000080: fbc3 553d 7567 813e 04b8 1cbf b2ea 30bd
00000090: 81c3 673e f37b 86be 7d86 cfbd 2eff 8ebe
000000a0: 3705 8fbd b855 61be 166d 9f3e 85fb d2be
000000b0: cf2a 93bd ba66 95bd f80e 803e 2c79 2b3d
000000c0: affb 9ebe bd96 08be 0aa4 be3d ef3a 86bd
000000d0: f085 533d 7447 28be 92f4 1c3e 5e16 9bbd
000000e0: f496 3b3e 0c0e babe 2b25 7abe 9ca0 d43d
000000f0: 77cc 883e d4fa 0b3e 386a 113f 778c 36bd
00000100: 9489 3a3e e330 66be 6c4a e23c f1da c43e
00000110: 7030 333e 2379 973e 569a 963d 7a77 103e
00000120: 684e 943d ce58 edbd 8b82 f33e e39f 003e
00000130: cd5c 1bbf c409 bb3e e4a2 54be b2ad 01bd
00000140: d947 49be 2392 97be cb5d e93d f7d8 c8be
00000150: a817 84be 1f4b 12be e810 62bd 443d 483e
00000160: 363d 2e3e ea7e 34be de7a acbd 1343 0ebe
00000170: 986f 413c 9c16 85bd 002b d6be debe 1e3e
00000180: 0ba3 05be d7f7 b3be 6604 ebbe cca9 033e
00000190: f9d5 013f d76d 0bbe 0b69 13bd 8efa 0a3e
000001a0: 5393 87bc d6fd 75be 27dc 98bd c32c 04be
000001b0: 911d 99be 304e f73d 1c91 7cbd 3792 e33e
000001c0: 3c85 21be 1ddd a13d f292 1fbd b04b 243e
000001d0: e11a 643e e2f7 f83d 8904 55bd 707d febd
000001e0: d74e 103e c69f 24be 97e6 2abe d689 75be
000001f0: 8c83 88be b40c 893e 6b90 d2bc a6d1 b93e

fc2.weight f4 [256, 128]
0.07033334 0.21629535 0.19901913 0.047506742 0.39595613 -0.007476856 0.13647634 -0.5685184
0.013202541 0.00039216876 0.2013331 0.020518348 -0.065386005 0.13861896 -0.60618836 -0.13205302
-0.041918453 0.24043325 -0.26839256 0.0451323 0.021322345 0.23159495 0.022146061 -0.5099421
-0.1988189 0.37210146 -0.16206655 0.9132883 -0.056930557 -0.3509699 0.00905104 0.024812888
0.17668103 -0.0229863 -0.86183465 0.0659213 -1.5651006 -0.0326613 -0.030663945 0.6253711
-0.19897076 -0.011674628 0.2782929 -0.646061 -0.03594434 0.18645528 0.1617241 0.12147623
-0.12803625 -0.09037098 -0.3692111 -0.020525973 -0.09591784 0.18356524 -0.18679155 0.17595011
0.07421098 0.28653142 -0.4043826 0.61354744 -0.17093122 -0.9141592 0.13150397 -0.57387525
-0.20699993 0.041918997 -0.64566517 0.3656283 0.10021444 -0.05431792 0.22163235 -0.34345543
-0.041288044 -0.04683329 0.25521237 -0.33159316 -0.41965666 0.12611583 -0.7466351 0.22364621
-2.1268263 -0.5509512 0.38402557 -1.0041673 0.008549333 -0.06710883 -0.025930416 -0.2823992
-0.6176042 -0.07391864 0.57903045 -0.30443266 -0.17339242 -0.052140474 -0.6165173 -0.061395526
0.3274675 -0.33148387 -0.042070735 -0.84357375 0.14098556 -0.006677717 -0.087323286 -0.29756284
-0.3499886 -0.08537881 -0.1202668 -0.74010164 -0.0022995279 0.025249742 -0.035782073 0.08078261
0.016289936 -0.23503453 -0.16604024 0.16823784 0.03310111 -0.16446441 0.3025962 -0.07640817
0.06805338 -0.047559474 0.45435575 0.06136919 0.0040917248 0.23407273 -0.07318949 0.380682
-0.027119558 -0.27236488 0.577746 0.195109 0.3618117 -0.012325643 -0.19255131 -0.11557169
0.0030734614 0.002399385 -0.039180283 -0.07727212 0.011216513 0.5515418 -0.22345392 -0.03064585
0.037257604 -0.013027228 -1.231974 -0.07768747 -0.099805266 -0.020577963 -0.055889405 0.08942984
0.9616741 -0.17901798 0.07390542 -0.10662895 0.14414448 -0.5297472 0.036388703 -0.30839697
0.007605385 -0.027393408 -0.2624517 -0.02422468 0.2723104 -0.053298954 0.13671724 0.048587333
-0.3263506 -0.0037247986 -0.3528522 -0.04788902 0.036260135 -0.25885448 0.21214382 0.051762603
-0.23784308 0.03789603 0.053326212 0.057384 0.15294632 -0.28032097 0.12203222 -0.078675285
-0.06467444 -0.2680989 -0.68649495 0.92304945 -0.10376238 0.46567616 0.6671922 0.030605549
-0.058625735 -0.004997229 0.0001845705 0.19637181 0.6435891 0.37579244 -0.29147035 -0.045078795
0.0565835 -0.013819404 -0.14510836 0.12197351 -0.66774106 0.2169942 -0.22205321 0.012540774
-0.06261141 -2.4339035 0.5055442 0.3038334 0.055066817 -0.036257025 -0.009683952 -0.091995135
-0.5320142 0.08264751 -0.3449484 0.12930658 0.062066887 0.0128276665 0.0284737 0.01065518
0.055222455 -1.7899762 -0.31732625 -0.009848016 -1.0267437 -0.054407366 0.13227305 -0.3336648
0.99670047 0.14863381 1.3479294 -0.6285516 -0.01335499 0.058459528 -0.022349387 0.5090016
-0.03510609 0.15616147 -0.36231813 0.0030126811 0.13751364 0.4059055 0.3943993 -0.0056163967
-0.030174103 -0.0017829388 0.77730685 0.041496035 0.043008946 0.2677339 0.15455528 0.18310824
00000000: ed0a 903d 877c 5d3e accb 4b3e 6e96 423d
00000010: c3ba ca3e 6a00 f5bb 74c0 0b3e 6c8a 11bf
00000020: 784f 583c 009c cd39 442a 4e3e 1816 a83c
00000030: 19e9 85bd 21f2 0d3e 292f 1bbf e838 07be
00000040: afb2 2bbd 2234 763e c06a 89be a6dc 383d
00000050: 33ac ae3c 3a27 6d3e a86b b53c 918b 02bf
00000060: 2f97 4bbe 1584 be3e c6f4 25be 43cd 693f
00000070: 0430 69bd 54b2 b3be d04a 143c 6644 cb3c
00000080: dfeb 343e c44d bcbc 32a1 5cbf bf01 873d
00000090: 3755 c8bf dbc7 05bd f432 fbbc 5218 203f
000000a0: febe 4bbe f046 3fbc 687c 8e3e 4164 25bf
000000b0: 5f3a 13bd 22ee 3e3e 019b 253e 88c8 f83d
000000c0: ef1b 03be 6c14 b9bd 3d09 bdbe 1626 a8bc
000000d0: 9370 c4bd 87f8 3b3e 4946 3fbe 442c 343e
000000e0: edfb 973d 3fb4 923e 3c0b cfbe 7211 1d3f
000000f0: 9808 2fbe 5606 6abf faa8 063e 7de9 12bf
00000100: caf7 53be 41b3 2b3d 504a 25bf a233 bb3e
00000110: 3a3d cd3d 787c 5ebd 97f3 623e 64d9 afbe
00000120: a71d 29bd 44d4 3fbd 32ab 823e 94c6 a9be
00000130: 3ddd d6be 8224 013e 7a23 3fbf 8303 653e
00000140: ec1d 08c0 230b 0dbf 009f c43e 8e88 80bf
00000150: 8012 0c3c 5b70 89bd 066c d4bc a196 90be
00000160: 4f1b 1ebf a862 97bd 573b 143f 99de 9bbe
00000170: c88d 31be 4091 55bd 14d4 1dbf e079 7bbd
00000180: d2a9 a73e 41b8 a9be 5d52 2cbd 73f4 57bf
00000190: 855e 103e c0d0 dabb 8dd6 b2bd 285a 98be
000001a0: b531 b3be 16db aebd 714e f6bd 4d77 3dbf
000001b0: adb3 16bb 8cd8 ce3c 3990 12bd 5a71 a53d
000001c0: 7972 853c e4ac 70be 7406 2abe 8a46 2c3e
000001d0: 0895 073d 5c69 28be e4ed 9a3e e37b 9cbd
000001e0: 925f 8b3d b9cd 42bd 51a1 e83e 435e 7b3d
000001f0: e013 863b c3b0 6f3e 5fe4 95bd c0e8 c23e
00000200: d629 debc 6973 8bbe 29e7 133f a7ca 473e
00000210: 623f b93e 7ef1 49bc 2c2c 45be dab0 ecbd
00000220: 206c 493b 003f 1d3b 817b 20bd d840 9ebd
00000230: 77c5 373c d831 0d3f 1bd1 64be 010d fbbc
00000240: 6e9b 183d 2870 55bc 53b1 9dbf 9c1a 9fbd
00000250: b466 ccbd 1e93 a8bc 4aec 64bd fe26 b73d
00000260: 4630 763f 7d50 37be ba5b 973d 4760 dabd
00000270: 9c9a 133e 839d 07bf 520c 153d 35e6 9dbe
00000280: 9836 f93b 2468 e0bc 1260 86be d672 c6bc
00000290: 456c 8b3e 0150 5abd 9bff 0b3e 8303 473d
000002a0: 6d17 a7be c01b 74bb 0ba9 b4be 4727 44bd
000002b0: 8285 143d 9388 84be 3b3c 593e 0605 543d
000002c0: 238d 73be de38 1b3d 966c 5a3d 7c0b 6b3d
000002d0: f69d 1c3e 3b86 8fbe 07ec f93d 8220 a1bd
000002e0: 0874 84bd 4244 89be 22be 2fbf f84c 6c3f
000002f0: 5f81 d4bd 1b6d ee3e 1ccd 2a3f 7db8 fa3c
00000300: 8a21 70bd ccbf a3bb 4489 4139 b115 493e
00000310: 41c2 243f de67 c03e 9a3b 95be 8ba4 38bd
00000320: 1ac4 673d c86a 62bc 4997 14be 3fcd f93d
00000330: 14f1 2abf ba33 5e3e eb61 63be d277 4d3c
00000340: 693a 80bd 13c5 1bc0 586b 013f 0d90 9b3e
00000350: be8d 613d 3f82 14bd 70a9 1ebc f267 bcbd
00000360: 1532 08bf 1943 a93d 149d b0be f268 043e
00000370: d939 7e3d 222b 523c ad41 e93c 1093 2e3c
00000380: f130 623d f11d e5bf 9678 a2be 9359 21bc
00000390: 566c 83bf 42da 5ebd 9672 073e 1dd6 aabe
000003a0: c327 7f3f 7633 183e f388 ac3f c2e8 20bf
000003b0: e3ce 5abc 4273 6f3d 1016 b7bc ee4d 023f
000003c0: 67cb 0fbd cbe8 1f3e c381 b9be 6770 453b
000003d0: 60d0 0c3e d8d2 cf3e b4ee c93e c009 b8bb
000003e0: ae2f f7bc 80b1 e9ba 95fd 463f bff7 293d
000003f0: 262a 303d 6b14 893e bd43 1e3e ba80 3b3e

fc2.bias f4 [256]
-0.5149282 -0.2991306 -0.3883017 -0.13387066 -0.19252534 -0.31641906 -0.5674917 -0.0949236
-0.092645146 -0.12996086 -0.012746507 -0.07196868 -0.08246478 -0.11733089 -0.1320326 -0.037685048
0.099967584 -0.2682531 -0.47335038 0.12488269 -0.08131945 -0.09568622 0.07036867 0.16697642
-0.23899525 -0.04658099 -0.43301016 -0.19433317 -0.04267889 -0.4819099 -0.11844629 -0.21755923
-0.095265195 -0.3157101 -0.060418516 -0.059097502 -0.11026802 -0.042072315 -0.23933278 -0.098679624
-0.18906283 -0.046784773 -0.08280722 -0.011141604 -0.12918347 -0.40461838 -0.09973116 -0.2492594
-0.09106159 -0.79472053 -0.2893345 -0.37860164 -0.8486335 -0.09168275 -0.08897517 -0.130139
-0.03225701 0.020839907 -0.01672992 -0.06192318 -0.07953541 -0.09774041 -0.10026679 -0.016366418
0.013064625 -0.20650421 -0.042580042 -0.32480738 -0.005666299 -0.39379767 -0.051206894 -0.11189755
-0.51537925 0.017953672 -0.35985172 -0.035775747 -0.09752234 -0.011404688 -0.115477346 -0.09841921
-0.0875161 -0.03226515 0.11636818 -0.6511017 -0.028526595 -0.1887451 -0.3166698 0.23301817
-0.22186282 0.019203227 -0.086702056 -0.4933782 -0.26621386 -0.13058668 0.09454202 0.0009512013
-0.100767 -0.0006828838 -0.08511598 0.0004255853 0.093442015 -0.14922136 -0.11264897 -0.3456633
-0.024550105 0.17135192 -0.28202978 -0.031380717 -0.026297435 -0.18650916 -0.28557673 -0.02539768
-0.24354497 -0.25851405 -0.38645184 -0.13801661 -0.25618586 0.171773 -0.60279 -0.02358755
-0.029562483 -0.14770924 -0.020869274 -0.5422076 -0.18180475 -0.39708164 -0.037228134 -0.27865332
-0.08473715 -0.10264998 -0.10028996 0.063375235 -0.09039617 -0.17753774 -0.039818216 -0.060867053
-0.23565568 -0.033379134 -0.25269762 -0.074703395 -0.06757753 -0.043663323 -0.21978275 -0.25604582
-0.3635089 -0.43905696 0.06695886 -0.10330623 -0.078532696 0.19927289 -0.22361892 0.11395559
-0.12590247 -0.10936596 -0.081654854 -0.17780432 -0.0753101 -0.44211 -0.20175038 -0.30947128
-0.074195184 -0.1859753 -0.115816094 0.096534014 -0.14033496 -0.06149772 -0.5012705 -0.049883604
-0.30041045 -0.087751545 0.014125348 -0.07025547 -0.079146825 -0.018460402 -0.05631042 -0.88638675
-0.06019896 -0.11128141 -0.033295207 -0.07292963 -0.52364033 -0.08582942 -0.026101612 -0.0987197
-0.34761515 -0.09422773 -0.61255413 -0.11559391 0.001976358 -0.20663583 -0.19093978 -0.036329377
0.19478862 -0.0057967776 -0.050200682 -0.41585183 0.003044605 -0.15441191 -0.11002176 -0.12717356
-0.10371831 -0.38147432 -0.24880765 -0.3028033 -0.17232317 -0.43720737 0.011035481 -0.5849334
-0.0061476305 0.21489175 -0.11297631 -0.14380887 -0.41019654 -0.037893202 -0.061293196 -0.02281224
-0.026698777 -0.18435383 -0.6655675 -0.0024734412 -0.062995486 0.026746774 -0.38973448 -0.0819483
-0.10712235 0.27410093 0.03482231 -0.4635094 -0.016985904 -0.010112886 -0.39459926 -0.042215638
-0.022258086 0.07680942 -0.23084185 -0.023671644 -0.10374879 -0.21231608 -0.0847782 -0.1491297
0.020891892 -0.3351635 -0.1760788 -0.11273072 0.3128276 0.0046033245 -0.17578985 -0.38758773
-8.885414e-05 -0.016062548 -0.13334444 -0.33955443 -0.15675302 -0.092209466 -0.10277787 -0.03900287
00000000: 56d2 03bf a527 99be 7bcf c6be 6415 09be
00000010: 5d25 45be ae01 a2be 2347 11bf 4e67 c2bd
00000020: bdbc bdbd 7614 05be bad6 50bc 5164 93bd
00000030: 4be3 a8bd 2d4b f0bd 8e33 07be a35b 1abd
00000040: cebb cc3d 7858 89be fb5a f2be 7fc2 ff3d
00000050: d08a a6bd 23f7 c3bd 731d 903d defb 2a3e
00000060: 2cbb 74be b5cb 3ebd 82b3 ddbe 46ff 46be
00000070: 0fd0 2ebd e5bc f6be f893 f2bd d9c7 5ebe
00000080: 661a c3bd c1a4 a1be 6879 77bd 3910 72bd
00000090: 33d4 e1bd 0554 2cbd a713 75be 8b18 cabd
000000a0: b099 41be 64a1 3fbd d596 a9bd 468b 36bc
000000b0: ac48 04be 242a cfbe da3f ccbd db3d 7fbe
000000c0: 807e babd ce72 4bbf a723 94be 13d8 c1be
000000d0: 0c40 59bf 2ac4 bbbd 9d38 b6bd 2843 05be
000000e0: ed1f 04bd 74b8 aa3c 2f0d 89bc 29a3 7dbd
000000f0: 76e3 a2bd 202c c8bd ad58 cdbd de12 86bc
00000100: 020d 563c d775 53be 6968 2ebd 274d a6be
00000110: 5cac b9bb d99f c9be 52be 51bd 8b2a e5bd
00000120: e5ef 03bf 9413 933c 7c3e b8be 9789 12bd
00000130: cbb9 c7bd bada 3abc 637f ecbd 0390 c9bd
00000140: a43b b3bd 7628 04bd 7152 ee3d 9aae 26bf
00000150: 9bb0 e9bc 6546 41be 8b22 a2be 519c 6e3e
00000160: 0230 63be 1650 9d3c d990 b1bd 119c fcbe
00000170: 2f4d 88be 84b8 05be 3f9f c13d 0a5a 793a
00000180: ee5e cebd 8e03 33ba 4951 aebd 1821 df39
00000190: 875e bf3d 7ccd 18be 81b4 e6bd c8fa b0be
000001a0: 4d1d c9bc e176 2f3e 3566 90be 1189 00bd
000001b0: b86d d7bc 42fc 3ebe 1d37 92be cc0e d0bc
000001c0: da63 79be f45b 84be 04dd c5be 3a54 0dbe
000001d0: cb2a 83be 43e5 2f3e 7250 1abf ad3a c1bc
000001e0: 052d f2bc 1741 17be 0af6 aabc 1ece 0abf
000001f0: 062b 3abe 494e cbbe 877c 18bd a6ab 8ebe
00000200: ac8a adbd 273a d2bd d364 cdbd e0ca 813d
00000210: a121 b9bd 74cc 35be 6d18 23bd bb4f 79bd
00000220: b94f 71be 8fb8 08bd 9561 81be 18fe 98bd
00000230: 1766 8abd 50d8 32bd bb0e 61be 7018 83be
00000240: d71d babe 13cc e0be ba21 893d 3792 d3bd
00000250: c0d5 a0bd 310e 4c3e 5cfc 64be 8c61 e93d
00000260: 94ec 00be 43fb dfbd a93a a7bd 5612 36be
00000270: 2f3c 9abd 3e5c e2be a797 4ebe 0573 9ebe
00000280: a5f3 97bd 4f70 3ebe fd30 edbd a0b3 c53d
00000290: f8b3 0fbe 09e5 7bbd 4353 00bf c052 4cbd
000002a0: 66cf 99be 15b7 b3bd 016e 673c 1ae2 8fbd
000002b0: bb17 a2bd 453a 97bc c1a5 66bd 3eea 62bf
000002c0: 2f93 76bd 82e7 e3bd 8e60 08bd 215c 95bd
000002d0: 4b0d 06bf 56c7 afbd 0cd3 d5bc 8e2d cabd
000002e0: 9dfa b1be 78fa c0bd 59d0 1cbf 80bc ecbd
000002f0: c985 013b 5898 53be b885 43be 1dce 14bd
00000300: ab76 473e e5f2 bdbb 3b9f 4dbd 88ea d4be
00000310: ff87 473b 281e 1ebe 1753 e1bd c939 02be
00000320: 446a d4bd 9a50 c3be 6fc7 7ebe 0909 9bbe
00000330: 7c75 30be a5d9 dfbe 29ce 343c 32be 15bf
00000340: 1072 c9bb 950c 5c3e 2060 e7bd a242 13be
00000350: 4805 d2be e735 1bbd 930e 7bbd bce0 babc
00000360: 65b7 dabc 40c7 3cbe a262 2abf 7519 22bb
00000370: c703 81bd 0d1c db3c 478b c7be 83d4 a7bd
00000380: f662 dbbd f556 8c3e d7a1 0e3d 1b51 edbe
00000390: 0626 8bbc 85b0 25bc ea08 cabe 4eea 2cbd
000003a0: 9756 b6bc 424e 9d3d ce61 6cbe 09eb c1bc
000003b0: 3f7a d4bd 6369 59be 31a0 adbd 75b5 18be
000003c0: 7925 ab3c 8d9a abbe 004e 34be 5ddf e6bd
000003d0: f02a a03e 7cd7 963b 4102 34be e671 c6be
000003e0: 3457 bab8 9b95 83bc 728b 08be 14da adbe
000003f0: dd83 20be 51d8 bcbd 347d d2bd 79c1 1fbd

fc3.weight f4 [128, 256]
-0.4754764 -0.8679599 0.0791874 -0.24771976 -0.029475696 -0.6774722 0.2807357 0.01702274
-0.0037170444 -0.6746909 0.44124895 -0.028174892 -0.22694044 -0.020429088 -0.004063989 -0.0047016446
-0.41806954 0.07866559 0.53213865 0.17338032 -0.75026846 -0.009256681 0.305751 -0.16483714
-0.4718473 -0.100463435 -0.35975513 0.038315818 -0.032356337 -0.218498 -0.05374952 0.042667814
0.015910538 -0.36664787 -0.005177641 0.06325904 -0.58439845 -0.59268516 -0.16342501 -0.036257904
-0.83912194 -0.03134024 -0.014019208 -0.36319733 -0.038175218 0.42308524 -0.07487291 -0.2284019
-0.00920008 0.08367849 -0.66581583 -0.038587667 -0.4345818 -0.48566023 -0.034690555 -0.042132385
-0.4318384 0.06331346 0.04249621 0.06610933 -0.010329319 -0.018816784 0.0226493 0.056706138
-0.026029946 0.14254962 0.0059026745 -0.052808914 0.43046367 0.19360371 -0.046048943 -0.025622716
-0.032150496 0.04895552 -0.65590006 -0.00479996 0.057202294 -0.29828522 -0.3395182 0.11231501
0.3215457 0.038189348 -0.20611514 -0.3426429 0.12215206 -0.15773617 0.29962832 0.63417685
-0.31270346 -0.13874929 0.035176206 -0.22280034 0.24459396 -0.044244498 0.112378955 0.08447656
-0.057063922 -0.27838108 0.054927845 0.061750557 -0.34614006 0.079894274 0.029204626 -0.24862611
0.010727175 0.42951745 -0.6509476 0.0017717498 -0.31119633 0.14075191 -0.41241333 -0.94728017
-0.21407406 -0.08765553 -0.2465049 -0.0787763 -0.22201823 -0.33325905 -0.73780066 -0.052798916
0.034251995 -0.012163268 0.3571888 -0.21789329 0.08359571 0.2686044 -0.40163755 0.16201918
0.10017974 -0.32688567 0.040576868 -0.35710874 -0.059259884 0.24556307 0.034813214 0.065030925
0.081633985 0.23288555 -0.2103251 -0.59092855 -0.015906118 -0.50684005 0.18683217 0.024253948
-0.12910688 0.31431273 0.19235727 -0.7136118 -0.01762373 -0.054433197 0.11226725 -0.11518927
-0.2712162 -0.07218511 -0.036278702 -0.4020462 0.019503344 0.079222016 -0.117068596 0.60413855
0.0026864433 -0.3474542 0.028013084 0.056500744 0.06046448 0.0023257781 -0.2145502 -0.0886487
0.03359007 -0.009082483 -0.7288036 -0.22639182 -0.0038346571 -0.14085436 -0.09884145 -0.30478
-0.30433512 -0.024672342 -0.03063118 0.048423152 -0.31648028 0.05182391 0.25461245 0.035669945
-0.74713856 0.09304741 -0.058966335 0.006659523 0.013482722 -1.2335664 -0.02336027 -0.28660914
-0.22635391 0.18873923 0.067185275 0.07895537 0.12151473 0.100803666 -0.009731437 -0.0457902
0.054030303 -0.9811781 -0.09942622 -0.23756249 0.43555096 0.52458715 -0.045546353 0.21104175
0.5688656 -1.133418 -0.6198847 0.04096085 -0.46571663 0.14747347 0.2037927 0.079957485
-0.7768571 -0.22512355 -0.756369 -0.28603187 0.030460173 0.0029859787 0.15778705 0.07417487
-0.10990595 0.022967685 0.15113167 -0.4013717 -0.030578742 0.027356194 -0.10027402 -0.012346749
0.12564181 0.010300937 -0.32671916 -0.03806287 -0.4138325 -0.45030695 0.0024992095 0.00091595465
-0.35545954 -0.11516175 -0.22768705 -0.02733232 0.12304798 0.03688153 -0.12924917 0.6911403
-0.018434536 0.048867 -0.044515934 -0.5344437 0.14588359 0.064091675 -0.5954896 0.059157897
00000000: a571 f3be 9f32 5ebf 012d a23d 40aa 7dbe
00000010: 0477 f1bc d16e 2dbf 97bc 8f3e 4673 8b3c
00000020: a899 73bb 8bb8 2cbf 62eb e13e 08cf e6bc
00000030: 1363 68be e75a a7bc 362b 85bb 4110 9abb
00000040: 360d d6be 6d1b a13d 3d3a 083f 9c8a 313e
00000050: 9811 40bf 56a9 17bc 658b 9c3e 11cb 28be
00000060: f895 f1be c6bf cdbd d331 b8be 0cf1 1c3d
00000070: 1488 04bd f1bd 5fbe 7528 5cbd 72c4 2e3d
00000080: d156 823c 45b9 bbbe 33a9 a9bb f58d 813d
00000090: 239b 15bf 37ba 17bf e358 27be 2b83 14bd
000000a0: b2d0 56bf a05e 00bd d2b0 65bc 00f5 b9be
000000b0: 9e5d 1cbd a19e d83e f856 99bd 30e2 69be
000000c0: efbb 16bc a15f ab3d e872 2abf 1a0e 1ebd
000000d0: 8181 debe 75a8 f8be af17 0ebd 0293 2cbd
000000e0: ec19 ddbe 7daa 813d 8210 2e3d 5464 873d
000000f0: 4e3c 29bc a825 9abc 068b b93c b244 683d
00000100: c13c d5bc 87f8 113e 396b c13b 294e 58bd
00000110: bc65 dc3e 0d40 463e d19d 3cbd bbe6 d1bc
00000120: 3db0 03bd 9585 483d 11e9 27bf fc48 9dbb
00000130: f44c 6a3d d7b8 98be 54d5 adbe 6905 e63d
00000140: a3a1 a43e 6f6c 1c3d d90f 53be e46e afbe
00000150: dc2a fa3d 9785 21be e268 993e 6a59 223f
00000160: ab1a a0be 4b14 0ebe ed14 103d c625 64be
00000170: d776 7a3e b839 35bd f026 e63d 0c02 ad3d
00000180: dcbb 69bd f787 8ebe 05fc 603d 27ee 7c3d
00000190: 4539 b1be 9c9f a33d 8a3e ef3c d897 7ebe
000001a0: 08c1 2f3c b6e9 db3e 80a4 26bf 0f3a e83a
000001b0: 2055 9fbe 4521 103e d727 d3be f480 72bf
000001c0: 3b36 5bbe be84 b3bd c86b 7cbe 7855 a1bd
000001d0: bf58 63be eea0 aabe 81e0 3cbf ad43 58bd
000001e0: d24b 0c3d 7248 47bc 73e1 b63e 6b1f 5fbe
000001f0: 3a34 ab3d 8486 893e 70a3 cdbe 5be8 253e
00000200: 092b cd3d 8f5d a7be ee33 263d f5d6 b6be
00000210: 7eba 72bd e374 7b3e 4d98 0e3d ef2e 853d
00000220: b82f a73d 8d79 6e3e 775f 57be 1847 17bf
00000230: 8c4d 82bc 45c0 01bf ef50 3f3e 37b0 c63c
00000240: 9834 04be 99ed a03e 4ef9 443e 43af 36bf
00000250: a45f 90bc 58f5 5ebd 5fec e53d 5ae8 ebbd
00000260: dadc 8abe c9d5 93bd fa98 14bd 00d9 cdbe
00000270: 7ac5 9f3c 273f a23d a9c1 efbd d3a8 1a3f
00000280: 0a0f 303b 84e5 b1be b27b e53c 536d 673d
00000290: 9aa9 773d 156c 183b 0cb3 5bbe 738d b5bd
000002a0: be95 093d b2ce 14bc df92 3abf 42d3 67be
000002b0: df4e 7bbb 203c 10be 636d cabd 200c 9cbe
000002c0: d0d1 9bbe a71d cabc 3eee fabc 5b57 463d
000002d0: b409 a2be 4f45 543d 905c 823e a61a 123d
000002e0: 7944 3fbf a48f be3d af86 71bd 2138 da3b
000002f0: a3e6 5c3c 81e5 9dbf 095e bfbc 6fbe 92be
00000300: 52c9 67be db44 413e 6f98 893d 5ab3 a13d
00000310: b7dc f83d 2772 ce3d 9b70 1fbc 818e 3bbd
00000320: e14e 5d3d 7d2e 7bbf f99f cbbd 9543 73be
00000330: 8900 df3e 584b 063f d08e 3abd 541b 583e
00000340: 2da1 113f d713 91bf c4b0 1ebf 90c6 273d
00000350: 6972 eebe 4903 173e 09af 503e c0c0 a33d
00000360: 1be0 46bf ca86 66be 66a1 41bf c572 92be
00000370: 9d87 f93c 69b0 433b ee92 213e ffe8 973d
00000380: 5f16 e1bd ba26 bc3c 43c2 1a3e 9780 cdbe
00000390: 4580 fabc 191a e03c 775c cdbd 054a 4abc
000003a0: 3fa8 003e 43c5 283c bc47 a7be d0e7 1bbd
000003b0: dae1 d3be a28e e6be c7c9 233b ad1c 703a
000003c0: cbfe b5be ecd9 ebbd cb26 69be 08e8 dfbc
000003d0: 9400 fc3d 1611 173d e559 04be 92ee 303f
000003e0: 0604 97bc c328 483d 5756 36bd 4dd1 08bf
000003f0: 8262 153e 7f42 833d 0272 18bf 8d4f 723d

fc3.bias f4 [128]
-0.28862903 -0.079901606 0.6339403 -0.34313786 -0.08179123 0.28012407 -0.079115346 -0.01197555
0.34232754 -0.11137044 -0.10089789 -0.046230983 -0.10755816 0.62102205 -0.096600905 -0.15595937
-0.23157479 -0.023089245 -0.08610329 -0.656202 -0.48582667 -0.21997546 -0.13262162 -0.50244385
-0.086439066 -0.09653059 -0.12626837 -0.3054863 0.0785132 -0.3559016 -0.49955884 -0.41249365
-0.5256539 -0.13769907 -0.1071865 0.22287367 -0.60981286 -0.14364778 -0.2919311 -0.14776094
-0.14010806 -0.0909213 -0.7499758 -0.09895059 -0.50756854 0.29626602 0.49651873 0.016190577
-0.5190004 -0.32554397 -0.49528158 -0.0681241 -0.055051513 -0.11372116 -0.18639995 0.12397449
-0.22178335 -0.0883909 -0.44365072 -0.23777412 0.3819492 0.47151208 0.22930619 0.854566
-0.12807097 -0.3186287 1.2578537 0.4260004 -0.28147087 0.027686598 0.13774446 -0.1319837
0.19109994 -0.7613586 -0.1870431 -0.5832644 -0.30659178 0.124836296 -0.116045296 -0.18422979
-0.058421 -0.42734087 -0.2664277 0.1751242 -0.10572863 -0.14996444 -0.26533377 -0.06649491
-0.56293714 -0.27575937 -0.04967343 -0.15973707 -0.26898512 -0.26091403 -0.07736771 0.3402967
-0.104145646 -0.047795936 0.64236504 0.28936958 0.3316037 0.5226435 -0.385471 -0.5392569
-0.53424984 0.022311823 -0.5998472 0.07926709 -0.49769682 -0.16125199 -0.12127751 -0.1358102
-0.78465575 -0.08399748 -0.11064121 0.46346483 -0.360303 0.11407314 -0.4954622 -0.15263309
-0.08377352 0.8161494 -0.116480336 -0.011486194 -0.23986922 -0.0576665 0.08855905 0.041489255
00000000: 2fc7 93be 74a3 a3bd e949 223f c4af afbe
00000010: 2982 a7bd 6c6c 8f3e 3a07 a2bd 1935 44bc
00000020: 8e45 af3e 2f16 e4bd 8ea3 cebd b35c 3dbd
00000030: 7447 dcbd 4dfb 1e3f b2d6 c5bd d0b3 1fbe
00000040: f121 6dbe a825 bdbc ec56 b0bd dbfc 27bf
00000050: 46be f8be 3f41 61be f6cd 07be 29a0 00bf
00000060: f706 b1bd d4b1 c5bd 7f4c 01be b368 9cbe
00000070: 87cb a03d bc38 b6be 2dc6 ffbe 5e32 d3be
00000080: 4191 06bf fc00 0dbe 9984 dbbd ff38 643e
00000090: b21c 1cbf 6718 13be fe77 95be a54e 17be
000000a0: 7d78 0fbe f234 babd 6afe 3fbf 9ba6 cabd
000000b0: 03f0 01bf 2eb0 973e b437 fe3e 1aa2 843c
000000c0: 36dd 04bf b3ad a6be 8c95 fdbe a684 8bbd
000000d0: b27d 61bd a4e6 e8bd a1df 3ebe 56e6 fd3d
000000e0: 2d1b 63be 4a06 b5bd 3026 e3be 0f7b 73be
000000f0: d88e c33e 086a f13e 3ecf 6a3e d6c4 5a3f
00000100: 0925 03be 4d23 a3be 5a01 a13f b91c da3e
00000110: f31c 90be 01cf e23c e20c 0d3e bc26 07be
00000120: b4af 433e 66e8 42bf 3a88 3fbe d150 15bf
00000130: 99f9 9cbe 2caa ff3d 28a9 edbd bca6 3cbe
00000140: dc4a 6fbd 6ccc dabe 3669 88be c253 333e
00000150: 4188 d8bd 4790 19be d4d9 87be 7c2e 88bd
00000160: a61c 10bf 5530 8dbe 5e76 4bbd 1d92 23be
00000170: 6bb8 89be 8696 85be f672 9ebd 5e3b ae3e
00000180: 504a d5bd acc5 43bd 0972 243f 4028 943e
00000190: f6c7 a93e f7cb 053f 745c c5be bd0c 0abf
000001a0: 99c4 08bf 49c7 b63c 968f 19bf c956 a23d
000001b0: 1ed2 febe 3e1f 25be 5860 f8bd d411 0bbe
000001c0: 33df 48bf df06 acbd dc97 e2bd 434b ed3e
000001d0: a379 b8be 2e9f e93d 39ad fdbe d94b 1cbe
000001e0: 7491 abbd 2bef 503f 3e8d eebd 9730 3cbc
000001f0: 47a0 75be b533 6cbd 725e b53d a3f0 293d

fc4.weight f4 [128, 128]
0.37631148 -0.070163526 -0.23079208 -0.04139229 -0.055715345 -0.081509024 -0.013963716 -0.24305747
-0.9997081 0.05571866 0.9097114 0.0251689 -0.8773586 -0.98841995 0.783843 0.017324138
0.5405164 -0.028205186 -0.27852467 -0.31650886 0.15012501 -0.20240672 0.031319343 0.057247724
-0.046193775 0.030745136 0.049711306 -0.4102527 -0.6660962 -0.35959628 -0.6413341 -0.52316415
-0.28947163 0.094410926 -0.017812537 -0.048997737 -0.14768738 0.06074138 -0.04284939 0.0047570094
0.044491343 0.10313303 -0.4843639 -0.016992647 -0.5985337 -0.2221929 0.4476661 0.36188358
-0.10288857 -0.0018052368 -0.06787157 -0.044173922 -0.07832844 -0.092090726 0.06411434 0.7051384
-0.048870984 -0.050963406 0.7790939 -0.39919254 -0.4699125 -0.3207771 -0.50053614 -0.050443694
-0.0033099488 -0.2794022 -0.924461 -0.23034745 0.18811779 0.2915247 -0.7653624 0.03557326
-0.12130229 -0.046961512 0.07646868 0.04032223 0.16416317 -0.13539435 0.04328071 -0.032296196
0.02768568 0.071955934 0.037389494 -0.46635163 0.04973843 -0.06355256 -0.11925981 -0.06924302
-0.2794052 -0.5793694 -0.011770478 -0.06973809 -0.20459646 -0.3328869 -0.6093271 0.17396522
-0.039792754 0.01746574 -0.110822126 -0.22274439 -0.05694695 -0.0020421806 -0.42450523 -0.109539956
-0.28156975 -0.17099163 -0.13094945 -0.6363385 0.37282377 -0.09856001 0.086534835 0.04108092
-0.26998848 0.07599527 -0.48300377 -0.4463607 0.17287642 0.048544098 -0.15485168 -0.045778703
-0.049049422 -0.13712823 0.08403517 -0.348709 -0.40691704 0.28140184 -0.26179072 0.068944834
0.014585371 0.04006695 -0.017291045 0.2790312 -0.072884455 0.35812563 -0.08516345 0.49706835
-1.1012896 -0.03460604 0.26423365 0.1424373 -0.1793682 -1.0539579 -0.5433315 0.18081714
0.17488725 0.54640925 -0.41320243 0.028129395 0.2494822 -0.25683567 -1.067214 -0.5809761
-0.11410852 -0.01882162 0.061874475 -0.112609595 -0.28955907 0.2544722 -0.28802675 -0.09534358
-0.17756389 0.1570922 -0.05870262 -0.5621012 -0.59955287 0.021473026 -0.34735107 0.0067091333
0.044906005 -0.13349189 -0.52779454 -1.0237988 -0.21225157 -0.57814914 -0.41875434 0.7849625
-0.3997827 -0.07630023 -0.080887794 -0.0208746 -0.32529077 -0.046461396 -0.4883647 -0.5790091
0.11079234 -0.03779406 -0.6290806 0.04466281 0.30377677 0.36899063 0.046242114 -0.49168825
-0.076422706 0.16779757 0.0070391498 -1.5758381 -0.8972728 -0.47767597 0.22173417 -0.044502404
0.07001769 -0.9926538 -0.017851353 -0.28170848 -0.9355161 0.5923873 0.05283073 -0.20285366
0.35652846 -1.4192821 0.08607047 -0.17604546 0.041641578 -0.11539086 0.05241999 0.032595463
-0.20075533 -0.640749 0.03063435 0.026321035 -0.36185357 -1.2342306 -0.26477903 0.40434086
0.08606673 0.051471952 -0.047438793 -0.6461789 0.13729246 0.43878496 0.13740481 -0.57715917
-0.4815358 0.3387681 -0.5945504 -0.46934134 -0.65352154 -0.041428607 0.022744806 -0.003410933
0.02612426 -0.06277137 0.29863188 0.008957856 0.80282116 0.4026417 0.27499476 0.09755705
-0.05180753 0.32363153 -0.03792882 0.4645336 0.3477373 0.42338654 0.18683378 -0.49754265
00000000: e6ab c03e e5b1 8fbd c254 6cbe f68a 29bd
00000010: c635 64bd 34ee a6bd 12c8 64bc 0fe4 78be
00000020: dfec 7fbf 4039 643d d9e2 683f 022f ce3c
00000030: 939a 60bf 1709 7dbf efa9 483f 5aeb 8d3c
00000040: 485f 0a3f 900e e7bc c99a 8ebe 730d a2be
00000050: 5fba 193e b543 4fbe b648 003d 977c 6a3d
00000060: af35 3dbd 39dd fb3c 159e 4b3d a40c d2be
00000070: 4885 2abf 011d b8be 792e 24bf 16ee 05bf
00000080: a035 94be 845a c13d 99eb 91bc dab1 48bd
00000090: 5c3b 17be f4cb 783d d882 2fbd b0e0 9b3b
000000a0: 8e3c 363d 6937 d33d 8cfe f7be 2a34 8bbc
000000b0: 8139 19bf 8986 63be 7e34 e53e ce48 b93e
000000c0: 3eb7 d2bd b29d ecba 4000 8bbd b7ef 34bd
000000d0: a96a a0bd 109a bcbd 614e 833d f383 343f
000000e0: f12c 48bd 01bf 50bd b372 473f f762 ccbe
000000f0: 5f98 f0be e53c a4be 2323 00bf 0c9e 4ebd
00000100: baeb 58bb ce0d 8fbe 7aa9 6cbf 34e0 6bbe
00000110: f3a1 403e ba42 953e caee 43bf 44b5 113d
00000120: 566d f8bd b75a 40bd 9c9b 9c3d ec28 253d
00000130: 641a 283e d1a4 0abe 1d47 313d 0449 04bd
00000140: 14cd e23c a25d 933d ba25 193d a4c5 eebe
00000150: 86ba 4b3d d827 82bd 7d3e f4bd 49cf 8dbd
00000160: 330e 8fbe 8e51 14bf f7d8 40bc d8d2 8ebd
00000170: bc81 51be 2770 aabe dcfc 1bbf f023 323e
00000180: bafd 22bd 5014 8f3c b6f6 e2bd 1b17 64be
00000190: 3441 69bd 1bd6 05bb c058 d9be 7c56 e0bd
000001a0: e929 90be 6e18 2fbe 9d17 06be 14e7 22bf
000001b0: c2e2 be3e d5d9 c9bd 2d39 b13d 7744 283d
000001c0: ee3b 8abe 68a3 9b3d 454c f7be 6489 e4be
000001d0: 8406 313e 2dd6 463d 7091 1ebe 7382 3bbd
000001e0: 0ce8 48bd 586b 0cbe a21a ac3d fc89 b2be
000001f0: 6e57 d0be e713 903e 6f09 86be f332 8d3d
00000200: 7bf7 6e3c 3e1d 243d f3a5 8dbc 2ddd 8e3e
00000210: 7244 95bd 3e5c b73e 2d6a aebd be7f fe3e
00000220: 0ff7 8cbf 10bf 0dbd a249 873e 15db 113e
00000230: 4cac 37be 18e8 86bf c617 0bbf 2128 393e
00000240: a515 333e 7ae1 0b3f 458f d3be 9e6f e63c
00000250: 4378 7f3e f77f 83be 789a 88bf daba 14bf
00000260: bab1 e9bd cc2f 9abc 1770 7d3d dc9f e6bd
00000270: 1641 94be 2e4a 823e 3e78 93be 7f43 c3bd
00000280: 4fd3 35be c7dc 203e 2972 70bd dde5 0fbf
00000290: 4c7c 19bf 33e8 af3c 00d8 b1be 4ad8 db3b
000002a0: 5cef 373d 19b2 08be 8b1d 07bf d70b 83bf
000002b0: 7a58 59be 9501 14bf f866 d6be 4df3 483f
000002c0: 51b0 ccbe 4c43 9cbd 80a8 a5bd 3601 abbc
000002d0: 838c a6be 4e4e 3ebd f00a fabe f139 14bf
000002e0: 18e7 e23d f2cd 1abd 6d0b 21bf 5af0 363d
000002f0: a188 9b3e 57ec bc3e 5f68 3d3d 90be fbbe
00000300: 8283 9cbd 20d3 2b3e aba8 e63b 10b5 c9bf
00000310: acb3 65bf f291 f4be 480e 633e 2748 36bd
00000320: 6f65 8f3d 8f1e 7ebf 003d 92bc 183c 90be
00000330: fc7d 6fbf b2a6 173f 0965 583d dfb8 4fbe
00000340: e68a b63e 09ab b5bf b745 b03d 4345 34be
00000350: 5c90 2a3d 0b52 ecbd 58b6 563d d282 053d
00000360: ce92 4dbe 2008 24bf e3f4 fa3c 369f d73c
00000370: df44 b9be 45fb 9dbf 1e91 87be c405 cf3e
00000380: c143 b03d 41d4 523d 2e4f 42bd fb6b 25bf
00000390: 6596 0c3e 6ca8 e03e d9b3 0c3e b4c0 13bf
000003a0: dc8b f6be 0373 ad3e 7434 18bf 824d f0be
000003b0: 304d 27bf 0bb1 29bd 5153 ba3c f689 5fbb
000003c0: 8b02 d63c 478e 80bd 47e6 983e f9c3 123c
000003d0: b085 4d3f 0e27 ce3e 1dcc 8c3e fecb c73d
000003e0: 2234 54bd 08b3 a53e 405b 1bbd 59d7 ed3e
000003f0: a00a b23e 1fc6 d83e 5b51 3f3e e9bd febe

fc4.bias f4 [128]
0.452564 -0.8808809 0.05627683 -0.4200637 -0.42042673 -0.31951228 -0.11923673 0.6944102
-0.63940793 0.06501125 -0.34219357 1.1473118 -0.035395607 -0.080600545 0.8086993 -0.2204198
-0.18292023 -0.81115574 -0.86003965 1.1730995 -0.22277851 0.31707495 0.1293981 0.5477705
0.70700663 0.2888747 -0.02488913 -0.2570072 0.2647368 -0.039910074 -0.9165991 -0.60421944
0.0068367007 0.2732796 -1.1076264 0.00016180308 -0.42829302 0.43746594 -0.31355894 -0.16262399
0.18162555 -0.015066361 0.47142157 -0.2700424 1.1013826 1.2124118 -0.37017173 0.18114763
0.21626502 -0.008624028 0.47925135 0.9492385 -0.5468261 -0.085787095 -0.22616753 0.4296167
-0.01092643 0.40058675 0.942015 -0.39672753 1.0124773 0.776424 -1.2132964 0.49916804
-0.014549897 -0.19167177 -0.66433656 1.4814906 -0.12053399 -0.103890784 -0.73259044 0.1522707
-0.00594417 -0.26241654 -0.23708582 -0.23100227 0.4423767 0.38806647 0.1891685 -0.30004287
-0.060237583 -0.7476455 -0.308898 1.3282232 -0.13606063 -0.38984236 0.23788829 -0.14424169
0.69101983 -0.024998965 1.3293144 -0.4007873 0.9457081 0.07550194 0.16657208 -0.14687286
0.036325082 -0.18318376 -0.4679751 0.062402125 0.51493925 -0.15618648 -1.3463455 0.09232156
-0.17068389 0.08578773 -0.69801927 -0.7975943 0.34490734 -0.6352817 -0.9206702 0.18871313
-1.6590979 -0.295555 -0.18495351 0.5346892 -0.25561947 -0.54184985 0.38453853 -0.39495304
-0.14397104 0.6941267 -0.08175397 0.8177763 1.4844217 -0.8566949 -0.13023348 0.51974213
00000000: 78b6 e73e 6981 61bf 8982 663d 9712 d7be
00000010: 2c42 d7be 1d97 a3be 6332 f4bd dec4 313f
00000020: 3db0 23bf 9e24 853d ff33 afbe 1ddb 923f
00000030: fcfa 10bd e611 a5bd eb06 4f3f bab5 61be
00000040: 714f 3bbe e7a7 4fbf 8f2b 5cbf 2028 963f
00000050: 0d20 64be a657 a23e ef80 043e b03a 0c3f
00000060: 63fe 343f 62e7 933e 4ae4 cbbc 7396 83be
00000070: 958b 873e bf78 23bd 3da6 6abf 20ae 1abf
00000080: 6706 e03b 4eeb 8b3e b4c6 8dbf afa9 2939
00000090: 3949 dbbe 89fb df3e cc8a a0be e786 26be
000000a0: 0cfc 393e e6d8 76bc 2b5e f13e ff42 8abe
000000b0: 1bfa 8c3f 4f30 9b3f 2687 bdbe c47e 393e
000000c0: 9474 5d3e cc4b 0dbc 6f60 f53e 4b01 733f
000000d0: ccfc 0bbf 25b1 afbd 7698 67be b8f6 db3e
000000e0: c504 33bc b519 cd3e e527 713f df1f cbbe
000000f0: db98 813f b9c3 463f 4c4d 9bbf f492 ff3e
00000100: b162 6ebc 9b45 44be f611 2abf 7ca1 bd3f
00000110: 86da f6bd b1c4 d4bd 0c8b 3bbf daec 1b3e
00000120: 50c7 c2bb 765b 86be a0c6 72be dc8b 6cbe
00000130: 337f e23e a6b0 c63e 63b5 413e 389f 99be
00000140: afbb 76bd b265 3fbf e127 9ebe 3803 aa3f
00000150: 7a53 0bbe 6b99 c7be fd98 733e 18b4 13be
00000160: ade6 303f a1ca ccbc f926 aa3f fe33 cdbe
00000170: ed19 723f c3a0 9a3d df91 2a3e d765 16be
00000180: 9cc9 143d 8694 3bbe 6f9a efbe 5f99 7f3d
00000190: 0fd3 033f 59ef 1fbe 0d55 acbf 1613 bd3d
000001a0: c2c7 2ebe 7ab1 af3d 64b1 32bf 242f 4cbf
000001b0: b297 b03e d2a1 22bf 0bb1 6bbf 043e 413e
000001c0: 525d d4bf fc52 97be 7464 3dbe 64e1 083f
000001d0: 8ee0 82be acb6 0abf 3ce2 c43e 4937 cabe
000001e0: 256d 13be 4ab2 313f a06e a7bd ca59 513f
000001f0: 8801 be3f 5b50 5bbf ed5b 05be d20d 053f

fc5.weight f4 [3, 128]
-0.052215315 0.0919358 0.26588956 -0.009740006 0.037020773 0.07274173 -0.007565002 -0.029580813
-0.32628006 0.18813603 0.04236487 0.25582016 -0.18305725 -0.0076735425 0.020595947 0.069461465
0.05249031 0.09352491 -0.32884184 0.40322882 -0.10402973 -0.013884031 -0.26602688 0.109851696
-0.102051795 0.022025539 -0.1438377 0.052225295 0.26838136 0.11353005 -0.0632902 -0.21958546
-0.006930112 0.18825844 -0.17342244 0.17531824 -0.15354355 0.05939711 -0.02488168 -0.03761716
0.1279316 -0.38405186 0.009826071 0.11023295 0.054682426 0.444389 -0.2936954 0.08492877
-0.87644106 0.24712455 0.1701333 0.23476768 -1.0874053 -0.029536087 0.12638772 0.26438475
0.12144164 -0.03613788 0.5560607 -0.0870593 -0.042391606 0.044532236 -0.4310905 0.16180849
0.23380639 0.01128735 -0.14217752 0.019440215 0.08118565 0.19056892 -0.010264788 0.7390308
0.18119189 -0.06167339 -0.26766938 -0.007435972 0.15545997 0.053236164 0.18099308 0.1739765
-0.24351545 0.030121429 0.012711903 -0.3173116 -0.16776575 -0.26763764 0.018279951 0.00060899486
-0.18689704 0.16995381 -0.07156869 -0.27265453 -0.04094819 0.25255564 0.05436981 0.025017723
0.04857845 0.002365449 -1.3538722 -0.28792518 -0.32399192 -0.022602744 -0.31822816 -0.10140586
-0.17804293 0.040442064 -0.027200362 -0.07268352 -0.0033170949 -0.27563128 -0.27464423 -0.2211011
-0.5572582 0.020254312 0.010006331 0.4899003 0.119008616 -0.68858445 0.024764078 0.0036548967
0.009464455 -0.03749473 -0.15792845 0.34304646 0.46102297 0.16403507 0.08864497 0.35703084
-0.070929706 0.024613032 0.07148557 -0.33788022 0.056804035 0.19202338 -0.036680978 -0.23333895
-0.32182133 0.26214588 -0.06394764 0.30133584 -0.2334401 0.004721819 -0.03701172 0.19863519
0.061305597 -0.08974121 -0.32460698 0.46766883 0.17471588 -0.018520216 -0.2557069 -0.2392966
-0.048182197 -0.1384405 -0.2985671 0.4610461 0.20031053 -0.06475039 -0.12384679 -0.24885595
0.14947535 0.2994325 -0.12013244 -0.12401052 -0.20707907 -0.32625812 0.0015743602 0.036970656
0.042993497 -0.41314086 -0.030558936 0.117800556 0.12761474 0.458081 -0.3516881 0.07548598
-0.8018271 0.23584552 0.19518891 0.264082 0.14783587 -0.03617414 0.013670467 0.260584
-0.0011469928 -0.0539817 0.5153054 -0.14271177 -0.044225395 -0.039987173 -0.40200546 0.16717434
0.21221787 -0.010689546 -0.12433138 -0.051161118 0.11520796 -0.1617068 -0.013258319 0.52554846
0.16698344 -0.053120334 0.012546264 0.02584139 0.17786424 0.013905062 0.11492725 0.11805252
-0.36634198 0.017085942 -0.13039154 -0.2882179 -0.056640964 -0.17169803 0.05482088 -0.078437455
-0.2138001 0.26796007 -0.12661017 -0.19256401 -0.10832859 0.20234592 0.0031312325 0.009752142
0.00091972377 -0.072302304 -0.22054964 -0.1437284 -0.3809729 -0.016537368 -0.32514638 -0.26547867
0.21583995 0.050555337 -0.0663198 -0.2007474 -0.010942245 -0.37642244 -0.23692046 0.07760718
-0.61026376 -0.00025648598 0.02819082 0.07819213 -0.13146898 0.22292505 -0.048178934 0.08965148
0.014052694 -0.0514183 -0.18348339 0.32711658 0.43430036 0.057371918 0.20185742 0.35239646
00000000: badf 55bd d648 bc3d ad22 883e 8c94 1fbc
00000010: 18a3 173d 9ef9 943d d6e3 f7bb 7653 f2bc
00000020: 2e0e a7be bba6 403e c986 2d3d dcfa 823e
00000030: 5c73 3bbe 5772 fbbb d5b8 a83c d041 8e3d
00000040: 1400 573d fd89 bf3d f55d a8be 0274 ce3e
00000050: 8a0d d5bd d979 63bc ad34 88be edf9 e03d
00000060: 8800 d1bd e76e b43c 314a 13be 31ea 553d
00000070: 4869 893e 7182 e83d 4b9e 81bd 03db 60be
00000080: fe15 e3bb d2c6 403e a795 31be a086 333e
00000090: 853a 1dbe 624a 733d aad4 cbbc 7314 1abd
000000a0: 8000 033e 72a2 c4be 87fd 203c d0c1 e13d
000000b0: aefa 5f3d f486 e33e 3e5f 96be 23ef ad3d
000000c0: 715e 60bf 380e 7d3e 6c37 2e3e f066 703e
000000d0: 1930 8bbf aaf5 f1bc c86b 013e 705d 873e
000000e0: 65b6 f83d 5005 14bd fe59 0e3f 254c b2bd
000000f0: d2a2 2dbd 6f67 363d e5b7 dcbe 20b1 253e
00000100: f16a 6f3e 94ee 383c fc96 11be 1641 9f3c
00000110: a944 a63d 8024 433e a42d 28bc 1f31 3d3f
00000120: 5e8a 393e 3d9d 7cbd f60b 89be 74a9 f3bb
00000130: e630 1f3e 2a0e 5a3d 4056 393e e526 323e
00000140: 1d5c 79be 37c1 f63c 9645 503c ab76 a2be
00000150: c9ca 2bbe cd07 89be d6bf 953c f4a4 1f3a
00000160: f061 3fbe 5f08 2e3e 9b92 92bd 6099 8bbe
00000170: 4ab9 27bd f94e 813e e1b2 5e3d f8f1 cc3c
00000180: 32fa 463d a605 1b3b af4b adbf ee6a 93be
00000190: 45e2 a5be 6429 b9bc cdee a2be e0ad cfbd
000001a0: e350 36be 94a6 253d 4bd3 debc 19db 94bd
000001b0: 9e63 59bb 8b1f 8dbe 2b9e 8cbe 5468 62be
000001c0: 79a8 0ebf 5fec a53c 98f1 233c 36d4 fa3e
000001d0: caba f33d 1247 30bf 09de ca3c fe86 6f3b
000001e0: cd10 1b3c 1394 19bd ffb7 21be c9a3 af3e
000001f0: 340b ec3e cff8 273e 7e8b b53d bfcc b63e
00000200: 9843 91bd 45a1 c93c 0767 923d a3fe acbe
00000210: 59ab 683d c7a1 443e cb3e 16bd 68f0 6ebe
00000220: c4c5 a4be fc37 863e fbf6 82bd b148 9a3e
00000230: ec0a 6fbe 7db9 9a3b 9a99 17bd 0667 4b3e
00000240: 941b 7b3d 3dca b7bd e332 a6be 4a72 ef3e
00000250: b8e8 323e b5b7 97bc 04ec 82be 2b0a 75be
00000260: b25a 45bd 59c3 0dbe c9dd 98be 3c0e ec3e
00000270: 341e 4d3e da9b 84bd 63a3 fdbd 18d4 7ebe
00000280: 1110 193e 374f 993e ff07 f6bd 3af9 fdbd
00000290: 890c 54be 4e0b a7be c35a ce3a 8b6e 173d
000002a0: f319 303d 3387 d3be bc56 fabc 6b41 f13d
000002b0: 70ad 023e 9889 ea3e 7610 b4be 6598 9a3d
000002c0: 8a44 4dbf 7d81 713e 9adf 473e c235 873e
000002d0: 4962 173e 562b 14bd 18fa 5f3c 446b 853e
000002e0: b156 96ba ea1b 5dbd 0eeb 033f 0923 12be
000002f0: b025 35bd 97c9 23bd a9d3 cdbe c02f 2b3e
00000300: a44f 593e 3523 2fbc 73a1 febd 528e 51bd
00000310: 27f2 eb3d 7896 25be 6c39 59bc 588a 063f
00000320: b5fd 2a3e b594 59bd d88e 4d3c 53b1 d33c
00000330: 0b22 363e 0fd2 633c fa5e eb3d 85c5 f13d
00000340: 2d91 bbbe d1f7 8b3c 5c85 05be 4c91 93be
00000350: 5b00 68bd 9cd1 2fbe dc8b 603d d1a3 a0bd
00000360: 6aee 5abe 1032 893e 19a6 01be 802f 45be
00000370: 61db ddbd c533 4f3e 5d35 4d3b 73c7 1f3c
00000380: 9e19 713a 3b13 94bd c4d7 61be 8a2d 13be
00000390: e10e c3be 6079 87bc 9679 a6be d2ec 87be
000003a0: 2605 5d3e 1d13 4f3d add2 87bd ba90 4dbe
000003b0: 1a47 33bc 71ba c0be 479b 72be 83f0 9e3d
000003c0: 3f3a 1cbf f778 86b9 6ff0 e63c 3223 a03d
000003d0: ce9f 06be 7746 643e 4657 45bd 329b b73d
000003e0: 453d 663c ff9b 52bd 12e3 3bbe d37b a73e
000003f0: 9e5c de3e d1fe 6a3d b6b3 4e3e 4f6d b43e

fc5.bias f4 [3]
0.62486726 0.21141303 -0.9169073
00000000: 4df7 1f3f a87c 583e 70ba 6abf
