checkpoints/checkpoint_qnetwork_local_UNH.pth (torch_old, 339524 bytes, 10 tensors)

fc1.weight f4 [128, 12]
0.21571171 0.30332348 -0.36202696 -0.07932145 -0.15796442 0.24054624 0.071081325 0.39692667
0.041300233 0.01777797 -0.18906656 -0.17114818 -0.57486886 -0.5381293 -0.34851047 0.06928507
-0.12836099 0.494442 -0.65974736 -0.8734958 0.034137297 0.3763636 -0.26098785 0.23477988
-0.18485078 0.300121 0.5193365 -0.31857336 -0.13596988 -0.05674848 0.039333325 0.46285796
-0.8426749 -0.51618546 -0.069885954 -0.16009177 -0.0542012 0.23210122 0.4940987 0.40146193
-0.14896175 -0.37733227 0.09703589 -0.99786186 -0.21610956 -0.30823436 0.39679763 0.14644659
-0.6101745 -0.5219263 0.4226098 0.706193 0.3858987 -0.1153605 0.3595732 -0.3811072
-0.36625856 -0.48001724 -0.22347933 -0.35099536 0.22575745 0.09725246 -0.80900526 0.28047544
0.090323254 0.0658783 -0.14267735 -0.20986749 0.38822752 0.29130572 -0.07478913 -0.2067652
-0.02972057 0.2334456 0.17082524 0.17905249 -0.06990012 -0.23045765 0.048886444 -0.16131268
-0.26965103 0.28726542 0.6365164 -0.49189803 -0.46424785 0.042944573 -0.69126016 -0.1406693
0.51401836 0.29038236 0.3240702 0.32094136 0.4296046 -0.12768316 -0.51253116 -0.43876785
0.5410408 0.3973031 -0.13551934 -0.7022876 0.49624404 0.21696681 -0.09973223 -0.54913646
0.0756121 0.4192995 -0.2869826 -0.28109378 0.05604474 -0.18165502 -0.5728133 0.045165088
-0.8206648 0.51468766 0.4604293 -0.11282334 -0.48449597 -0.5569456 0.28627342 -0.13790213
0.26608667 0.33428618 -0.03866377 0.21634929 -1.9001597 -0.4619208 0.20284633 -0.3479043
-0.07376748 -0.06112157 0.06616966 0.19391622 -0.18909425 -0.070224226 0.1756714 0.078169726
-0.124791585 0.08866956 0.025879858 0.16107114 0.19089492 0.20850472 0.5232376 -0.26382023
-0.2593231 -0.1368543 0.19656041 -0.0018713176 -0.14348492 -0.22121516 -0.27015722 -0.24364418
-0.05855392 0.15831119 0.15606964 -0.27840748 0.16971467 -0.20203732 -0.1886151 -0.27692103
-0.1844326 -0.30889583 -0.5294746 -0.4731954 -0.13355835 -0.026425796 -0.1139018 -0.010738731
-0.25786138 0.15169325 0.29496112 -0.13842249 0.2184888 0.022120534 -0.26945698 0.51692563
0.26510343 -0.049167655 0.59975123 -0.5330279 -0.08868204 -0.044591937 -0.015422762 0.022499878
0.3118296 -0.10471316 -0.63365996 -0.008910783 -0.6504342 0.5018041 0.46281862 0.11560267
0.08405926 0.206439 -0.5581588 0.2031738 -0.26738876 0.69387287 -0.48971418 0.0026201685
-0.40044245 0.44370377 -0.2320187 -0.24840568 -0.9082318 0.16454573 -0.49814665 0.39782333
-0.34790578 0.021210814 -0.29777586 -0.061824642 0.29545337 0.12735336 0.23978502 0.18756081
-0.18501253 -0.26753 0.49439925 -0.031043997 -0.05615568 0.4009421 0.4725138 0.1721583
-0.5438247 0.455526 -0.22936104 -0.15208608 0.024480216 -0.58626086 -0.0037544183 0.29519203
-0.37323573 -0.003391367 0.25621074 -1.2887524 0.40259555 -0.34270877 0.042675495 0.28768882
0.13064922 0.1929629 0.1378059 0.002394614 0.48459584 -0.5499189 0.45753977 -0.10812401
-0.03597619 0.0027863022 -0.18379015 -0.14178823 0.4418572 -0.28211102 -0.19306628 -0.6968559
00000000: 88e3 5c3e 374d 9b3e 995b b9be 4973 a2bd
00000010: 6dc1 21be c151 763e 1693 913d f939 cb3e
00000020: 6f2a 293d 1ba3 913c aa9a 41be 7841 2fbe
00000030: 9b2a 13bf d8c2 09bf f76f b2be 55e5 8d3d
00000040: 1071 03be 8027 fd3e 34e5 28bf 6c9d 5fbf
00000050: 8dd3 0b3d bbb2 c03e 33a0 85be 236a 703e
00000060: 8649 3dbe 76a9 993e 3df3 043f 0c1c a3be
00000070: b03b 0bbe 1871 68bd fb1b 213d b8fb ec3e
00000080: 8bb9 57bf bb24 04bf 5e20 8fbd 19ef 23be
00000090: 1402 5ebd f1ab 6d3e 81fa fc3e 6b8c cd3e
000000a0: 6e89 18be b231 c1be c1ba c63d e073 7fbf
000000b0: d34b 5dbe e5d0 9dbe 0f29 cb3e 18f6 153e
000000c0: 6534 1cbf f69c 05bf 5060 d83e 10c9 343f
000000d0: 8494 c53e 2042 ecbd fa19 b83e 7c20 c3be
000000e0: 3e86 bbbe d2c4 f5be c4d7 64be aab5 b3be
000000f0: f62c 673e 4c2c c73d f81a 4fbf 7a9a 8f3e
00000100: 66fb b83d 34eb 863d 031a 12be 81e7 56be
00000110: c2c5 c63e 0626 953e 0b2b 99bd 42ba 53be
00000120: 8e78 f3bc 5d0c 6f3e d0ec 2e3e 8959 373e
00000130: cb27 8fbd 17fd 6bbe 273d 483d 272f 25be
00000140: b30f 8abe 7414 933e bdf2 223f 0fda fbbe
00000150: e5b1 edbe a6e6 2f3d 6df6 30bf 9d0b 10be
00000160: b596 033f ffac 943e 87ec a53e 6d52 a43e
00000170: 22f5 db3e 60bf 02be 3e35 03bf 2ea6 e0be
00000180: a681 0a3f 506b cb3e 95c5 0abe 1fc9 33bf
00000190: b313 fe3e 8c2c 5e3e 6940 ccbd 3594 0cbf
000001a0: 84da 9a3d 6dae d63e 62ef 92be 86eb 8fbe
000001b0: 2b8f 653d c603 3abe e4a3 12bf 07ff 383d
000001c0: 1717 52bf 92c2 033f 64bd eb3e ec0f e7bd
000001d0: db0f f8be fd93 0ebf 6e92 923e 3736 0dbe
000001e0: 833c 883e 8f27 ab3e e75d 1ebd ab8a 5d3e
000001f0: 6f38 f3bf e280 ecbe f3b6 4f3e 8320 b2be
00000200: 6813 97bd 9d5a 7abd f583 873d f991 463e
00000210: eca1 41be b8d1 8fbd 34e3 333e 7317 a03d
00000220: bb92 ffbd 6398 b53d ff01 d43c d5ef 243e
00000230: f579 433e 4382 553e e6f2 053f 7213 87be
00000240: ffc5 84be 8923 0cbe 2247 493e 0047 f5ba
00000250: b6ed 12be 3a86 62be 0c52 8abe dc7d 79be
00000260: 3cd6 6fbd 541c 223e b8d0 1f3e 6d8b 8ebe
00000270: afc9 2d3e dfe2 4ebe 5124 41be 98c8 8dbe
00000280: e6db 3cbe 9827 9ebe a68b 07bf ab46 f2be
00000290: 85c3 08be e97a d8bc 5945 e9bd 81f1 2fbc
000002a0: 6806 84be 7a55 1b3e 2505 973e a0be 0dbe
000002b0: 87bb 5f3e 1f36 b53c 44f6 89be 3d55 043f
000002c0: a3bb 873e 0664 49bd 4c89 193f 8474 08bf
000002d0: ee9e b5bd 09a6 36bd c1af 7cbc aa51 b83c
000002e0: 21a8 9f3e da73 d6bd 8a37 22bf 88fe 11bc
000002f0: db82 26bf 3c76 003f 90f6 ec3e 18c1 ec3d
00000300: 4327 ac3d bf64 533e 7fe3 0ebf cb0c 503e
00000310: 2ee7 88be a7a1 313f d1bb fabe 22b7 2b3b
00000320: cb06 cdbe 242d e33e 4f96 6dbe 0f5e 7ebe
00000330: e181 68bf ad7e 283e 140d ffbe 80af cb3e
00000340: b520 b2be 4dc2 ad3c 1476 98be d63b 7dbd
00000350: aa45 973e eb68 023e 348a 753e f10f 403e
00000360: ed73 3dbe b1f9 88be e621 fd3e fb4f febc
00000370: 8003 66bd 4848 cd3e 54ed f13e 444a 303e
00000380: 1838 0bbf b43a e93e 9fdd 6abe 74bc 1bbe
00000390: bc8a c83c 3115 16bf b00c 76bb 6923 973e
000003a0: c118 bfbe b241 5ebb 0e2e 833e d7f5 a4bf
000003b0: 0121 ce3e 8677 afbe 80cc 2e3d f34b 933e
000003c0: e9c8 053e 1198 453e fd1c 0d3e f5ee 1c3b
000003d0: f21c f83e 7cc7 0cbf a742 ea3e 1f70 ddbd
000003e0: c55b 13bd 659a 363b 7c33 3cbe ef30 11be
000003f0: 1b3b e23e db70 90be 2bb3 45be 2665 32bf

fc1.bias f4 [128]
-0.22120695 0.068062104 0.29700828 0.21999405 0.34954062 -0.44292533 -0.040803313 0.11934886
0.112584665 0.2832511 0.05412606 -0.5186159 -0.15837191 0.09315585 -0.28108516 -0.13986062
0.14693192 0.29584733 -0.068317406 0.20076777 -0.24207756 -0.07382774 -0.21699697 -0.34084168
0.103677526 0.1590942 -0.33651304 -0.34809276 -0.1484518 -0.3393585 0.0762833 -0.32830408
-0.23099889 -0.0180285 -0.30513772 -0.11315388 0.34948725 -0.28809187 -0.09443763 -0.13970146
0.049619716 -0.37214768 -0.032695983 0.42288145 0.13024281 0.11169753 -0.30967575 0.17428872
0.2470501 -0.2288331 -0.2386969 -0.21677954 0.09773709 -0.11949288 0.14564745 0.08049177
-0.107220136 -0.32533756 0.43178093 -0.06772612 -0.37208405 0.24806209 0.15061617 -0.052629244
-0.18374547 0.3185404 0.16659038 -0.13505594 0.05884574 0.009617141 0.02750396 -0.11950779
-0.17597036 -0.025734732 -0.10008229 -0.10083228 -0.152921 -0.029989537 -0.23343602 0.28414637
0.08950403 -0.15910932 -0.31569558 -0.0010493696 -0.20508142 -0.2835219 -0.20417853 0.21687564
0.21261425 0.16111776 0.23177738 0.2771793 0.1624631 0.19119579 0.03399536 0.044539534
0.2669473 0.15428504 -0.107241146 -0.2193925 0.22888494 0.34910634 0.15482162 0.07009615
0.19245866 -0.5350234 -0.18939741 -0.277772 -0.037759665 0.09554683 -0.1329247 0.17043778
-0.2783192 -0.44452822 -0.121202506 -0.024836482 -0.16909297 -0.4297759 0.33182892 0.4201299
0.119708925 -0.1449972 0.049030095 -0.1101128 -0.34715274 -0.38675922 0.095809855 0.07606221
00000000: 1384 62be 2564 8b3d 7811 983e 1f46 613e
00000010: fdf6 b23e 1cc7 e2be 6021 27bd 2d6d f43d
00000020: ca92 e63d 4a06 913e 4ab3 5d3d 03c4 04bf
00000030: 3f2c 22be 7fc8 be3d 65ea 8fbe 9f37 0fbe
00000040: 5275 163e 4d79 973e ffe9 8bbd 1196 4d3e
00000050: 2ee3 77be 0033 97bd 7434 5ebe cd82 aebe
00000060: e254 d43d 97e9 223e 704b acbe 3739 b2be
00000070: c003 18be 66c0 adbe 6b3a 9c3d 7917 a8be
00000080: f98a 6cbe 81b0 93bc 033b 9cbe 39bd e7bd
00000090: feef b23e c780 93be 8468 c1bd e60d 0fbe
000000a0: 0b3e 4b3d 248a bebe 39ec 05bd eb83 d83e
000000b0: 5f5e 053e adc1 e43d d28d 9ebe be78 323e
000000c0: b4fa 7c3e 3953 6abe f66c 74be 75fb 5dbe
000000d0: 622a c83d afb8 f4bd 9b24 153e ded8 a43d
000000e0: 3b96 dbbd a592 a6be 6412 dd3e feb3 8abd
000000f0: cd81 bebe fd03 7e3e 203b 1a3e c391 57bd
00000100: c627 3cbe ba17 a33e ab96 2a3e 1b4c 0abe
00000110: 3b08 713d 3791 1d3c fc4f e13c 80c0 f4bd
00000120: 9331 34be a5d1 d2bc f2f7 ccbd 2881 cebd
00000130: 5397 1cbe 9eac f5bc da09 6fbe a27b 913e
00000140: e44d b73d 8eed 22be daa2 a1be 008b 89ba
00000150: dd00 52be c829 91be 2d14 51be a614 5e3e
00000160: 8db7 593e 0efc 243e 0d57 6d3e 72ea 8d3e
00000170: ba5c 263e d4c8 433e b83e 0b3d 166f 363d
00000180: 51ad 883e e6fc 1d3e 3fa1 dbbd 6da8 60be
00000190: d060 6a3e 11be b23e 8f89 1e3e 928e 8f3d
000001a0: e213 453e 4bf7 08bf 65f1 41be 2238 8ebe
000001b0: e1a9 1abd 0eae c33d 6a1d 08be 3e87 2e3e
000001c0: db7f 8ebe 3499 e3be 0539 f8bd e175 cbbc
000001d0: b526 2dbe 960b dcbe 7be5 a93e 441b d73e
000001e0: f429 f53d 257a 14be c8d3 483d d282 e1bd
000001f0: 01be b1be 4e05 c6be f537 c43d 81c6 9b3d

fc2.weight f4 [256, 128]
-0.10010927 -0.075391546 0.058591064 0.4463918 0.12436164 0.22479978 -0.04889424 -1.6700286
-0.49050432 -0.047594506 -0.08577147 0.088609226 0.0847596 -0.0009427795 -0.046819393 0.19137153
-1.0250525 -0.25927734 0.18066032 -0.49207714 0.014390351 -0.12253148 -0.046171725 0.27890453
0.021078067 0.17811207 0.37327808 -0.22409078 -0.29109526 0.17147683 0.17285001 -0.9412026
0.13071787 -0.1344163 -0.0797512 -0.22478735 -0.43795073 -0.059615426 -0.45720533 0.6260687
-0.1602466 0.34119937 0.43242094 0.5719102 0.29725665 -0.44168985 -0.16361654 -0.57803506
0.4738868 0.613867 0.04961086 0.15756549 0.056457005 -0.025461683 -0.16688675 0.09980248
-0.61069757 -0.0788171 -0.017971521 -1.1070514 0.05338684 0.82000345 -0.2638167 -0.5687402
0.03984936 -0.9023797 -0.105606906 0.14398 -0.4010952 0.26910365 0.08219239 -1.4100633
0.29376322 -0.47970566 0.002103762 -0.2384058 -0.26648158 0.37269777 -0.0013116077 -0.29056785
-0.58437616 -0.3698722 -0.7220422 -0.04315027 0.48091584 0.4041134 -0.01758904 0.027376387
0.12491704 0.12606049 0.04045727 -0.8482654 -0.04728498 -0.015542865 0.51005983 0.09204876
0.24768661 -0.14982563 0.2908375 -1.4457322 -0.12367355 0.14504023 -0.21155162 0.56011546
-0.18134023 0.27804485 -0.34449545 -0.030995507 0.044253703 0.27164233 -0.019650929 -0.0146317305
-0.14425208 0.115898274 -0.19631751 0.65368754 -0.6878148 -0.27257776 -0.5519663 0.21106078
0.4998833 -0.051234223 -0.35504922 -0.12517446 -0.80278903 0.31202662 0.1434892 0.010672934
-0.08297047 0.08510671 0.055349536 -0.6546187 0.23278347 0.24065986 -0.20970993 -0.7152346
0.11910334 -0.7143103 -0.076467 -0.25012782 -0.06497828 0.43990058 -0.08110746 -0.44790086
-0.1720603 -0.2665216 -0.32165816 0.18554305 -0.04068376 0.33609968 0.022146061 -0.15603626
-0.47650442 -0.5849661 -0.45205864 -0.003852398 -0.610116 -0.87668246 -1.1290284 0.15105908
-0.6607928 -0.05881077 0.042031903 1.0677915 -0.79827833 0.01973046 0.38541114 -1.5405474
-0.1197589 -0.5578294 0.084927574 -0.11052252 0.09528935 -0.4467119 -1.1886406 -0.25156903
-0.11083963 -0.84236753 -0.0114060715 -0.46359518 -0.06805866 -0.08293831 0.23078236 0.040143996
0.53369373 0.13890469 -0.6417234 -0.63975567 0.068502516 -0.69914794 0.46289787 0.35024086
0.034599554 0.16563848 1.0363477 0.46628532 -0.035786565 0.50728106 -1.06105 0.0016434432
-0.57653606 -0.13305002 -0.54006374 0.11258915 0.16537867 -0.07985726 0.07526175 0.1356055
-0.009544361 -0.115928404 -0.18992415 -0.051559366 -0.15398017 -1.0410593 -0.025930416 -0.34642205
-0.21656927 -0.08196726 -0.32623 0.7217331 0.022292018 -0.068031535 -0.29221073 0.08026102
-0.13764596 -1.3867334 0.2688841 -0.2785591 0.10543124 0.073896855 -0.2245186 -0.28264478
0.118910655 -0.15571222 -0.29674307 0.044480108 -0.25701123 0.5016006 -0.035782073 0.038742468
0.07086862 -0.1807429 -0.0038119103 -0.19795273 -0.04091874 0.20427637 0.66787 -0.1722345
0.37956423 -0.047559474 -0.11900053 0.33387956 -1.8537894 -0.40870544 0.020303318 0.18000731
00000000: 1706 cdbd e266 9abd 2ffd 6f3d 778d e43e
00000010: 51b1 fe3d ea31 663e 5445 48bd 7fc3 d5bf
00000020: 6223 fbbe 75f2 42bd f4a8 afbd c178 b53d
00000030: 7196 ad3d dc24 77ba b1c5 3fbd e6f6 433e
00000040: ec34 83bf 00c0 84be 05ff 383e 89f1 fbbe
00000050: 82c5 6b3c c9f1 fabd 901e 3dbd 93cc 8e3e
00000060: e9ab ac3c 0363 363e 4e1e bf3e 0e78 65be
00000070: 700a 95be 9f97 2f3e 98ff 303e a7f2 70bf
00000080: e8da 053e 6da4 09be 9954 a3bd a82e 66be
00000090: 143b e0be 4e2f 74bd d116 eabe 0a46 203f
000000a0: af17 24be afb1 ae3e 4766 dd3e b568 123f
000000b0: 0632 983e 2c25 e2be 188b 27be 1bfa 13bf
000000c0: 4aa1 f23e 6326 1d3f c234 4b3d d958 213e
000000d0: 763f 673d 0595 d0bc 5ce4 2abe 3e65 cc3d
000000e0: ad56 1cbf dc6a a1bd 0339 93bc dcb3 8dbf
000000f0: 29ac 5a3d bfeb 513f fc12 87be f598 11bf
00000100: 1539 233d 5b02 67bf 6f48 d8bd 7e6f 133e
00000110: 5a5c cdbe f4c7 893e 7c54 a83d f47c b4bf
00000120: 2268 963e fb9b f5be 45df 093b a620 74be
00000130: 4670 88be 3ed2 be3e 40ea abba 4fc5 94be
00000140: ad99 15bf e45f bdbe c2d7 38bf 56be 30bd
00000150: 9a3a f63e f4e7 ce3e e416 90bc 7244 e03c
00000160: 81d4 ff3d 0016 013e 86b6 253d ec27 59bf
00000170: e5ad 41bd 80a7 7ebc 4893 023f 0f84 bc3d
00000180: 8fa1 7d3e e46b 19be a7e8 943e c10d b9bf
00000190: 8f48 fdbd 6d85 143e fda0 58be ba63 0f3f
000001a0: 41b1 39be e55b 8e3e b561 b0be 4aea fdbc
000001b0: 5f43 353d b414 8b3e fcfa a0bc edb9 6fbc
000001c0: d1b6 13be 135c ed3d 7507 49be 1158 273f
000001d0: a114 30bf 508f 8bbe aa4d 0dbf 5120 583e
000001e0: b4f0 ff3e fada 51bd 03c9 b5be bc2d 00be
000001f0: 9583 4dbf f4c1 9f3e d5ee 123e 88dd 2e3c
00000200: 6cec a9bd 6d4c ae3d 32b6 623d 1795 27bf
00000210: ca5e 6e3e 8a6f 763e 33be 56be 9d19 37bf
00000220: 74ec f33d 0add 36bf bb9a 9cbd c110 80be
00000230: 5513 85bd a63a e13e ab1b a6bd 4353 e5be
00000240: 9330 30be 8575 88be 61b0 a4be fffe 3d3e
00000250: 04a4 26bd 4215 ac3e a86b b53c f8c7 1fbe
00000260: 63f8 f3be 57c0 15bf 3b74 e7be 8378 7cbb
00000270: 9030 1cbf 436e 60bf 0184 90bf 3baf 1a3e
00000280: b829 29bf 90e3 70bd a529 2c3d 64ad 883f
00000290: f85b 4cbf c6a1 a13c 9c54 c53e a830 c5bf
000002a0: 2744 f5bd e8cd 0ebf 82ee ad3d a259 e2bd
000002b0: 1027 c33d 6cb7 e4be 6025 98bf a8cd 80be
000002c0: e3ff e2bd 66a5 57bf 88e0 3abc 595c edbe
000002d0: 5762 8bbd 90db a9bd 3652 6c3e 086e 243d
000002e0: 27a0 083f 083d 0e3e fc47 24bf 07c7 23bf
000002f0: 0c4b 8c3d 5cfb 32bf f300 ed3e c552 b33e
00000300: 43b8 0d3d 229d 293e 0ba7 843f f3bc ee3e
00000310: ef94 12bd 2cdd 013f 7dd0 87bf ce68 d73a
00000320: de97 13bf 443e 08be 9e41 0abf 2495 e63d
00000330: 0759 293e 348c a3bd d522 9a3d 2bdc 0a3e
00000340: f45f 1cbc df6b edbd 7a7b 42be ea2f 53bd
00000350: faac 1dbe 6e41 85bf 066c d4bc 3b5e b1be
00000360: 56c4 5dbe 73de a7bd 9e07 a7be 80c3 383f
00000370: c09d b63c 1e54 8bbd a59c 95be e45f a43d
00000380: 10f3 0cbe 7b80 b1bf 2dab 893e 4c9f 8ebe
00000390: 55ec d73d 3c57 973d 34e8 65be d1b6 90be
000003a0: 6e87 f33d 0673 1fbe b5ee 97be c630 363d
000003b0: fa96 83be e668 003f 3990 12bd 6cb0 1e3d
000003c0: 9123 913d ab14 39be 3ed1 79bb 1fb4 4abe
000003d0: 699a 27bd d32d 513e 87f9 2a3f 3e5e 30be
000003e0: 3e56 c23e b9cd 42bd 8db6 f3bd 43f2 aa3e
000003f0: f948 edbf d741 d1be 2553 a63c d653 383e

fc2.bias f4 [256]
0.34127867 -0.03374916 0.010451265 -0.2973923 -0.0777556 0.33285934 0.17731553 -0.08901987
-0.056086406 0.09865923 -0.11005918 -0.04945357 0.041671086 -0.06286517 0.42694825 -0.13221304
-0.034656003 -0.08004171 -0.00049546565 -0.1207139 -0.01272701 -0.08150892 0.44513714 0.07457986
-0.01803237 -0.010745824 -0.09697377 0.15602702 0.06833838 -0.083452776 0.2737717 -0.064428054
0.07421946 -0.012632051 -0.014590437 0.20724763 0.19994628 0.17132643 -0.08543904 0.14124794
0.15592223 0.12502642 0.08658412 0.01046149 -0.42025292 0.0006197112 -0.050188985 -0.085942425
-0.1881794 0.22796106 -0.034709036 0.38172653 -0.30913347 0.12830079 0.26929957 0.12045192
-0.10951409 -0.11808895 -0.06963179 -0.3485507 -0.038066916 0.26619664 0.023145461 -0.32160762
0.5121374 0.35709783 -0.118772335 0.34529355 0.18106203 -0.010738936 0.028657071 -0.02364203
0.26013178 -0.0069991155 0.36460754 -0.004452327 0.14063545 -0.033028293 -0.010805669 0.007692334
0.09011375 0.23577967 -0.06065755 0.047295514 -0.21964633 -0.3312839 0.18512009 -0.1119456
0.02308134 0.17373763 0.37513503 -0.13198176 0.20922938 -0.093550526 -0.08115553 -0.15061833
-0.04932343 0.22880442 0.0763742 0.04868033 0.012883313 -0.0910498 -0.10304944 -0.4027331
-0.07613814 -0.08610102 -0.06779132 0.3375404 -0.059544813 0.18796472 -0.33985484 0.4103157
-0.10878319 -0.07166127 -0.2781062 0.14012286 -0.15708213 -0.13124494 0.11745386 -0.07904568
-0.06587074 0.1209083 0.32587737 -0.2583557 -0.058943372 -0.12855476 0.01871559 -0.09359684
-0.040553816 0.025229713 -0.19521087 -0.010853246 -0.115344204 0.038355485 -0.20762567 -0.006508178
-0.17321327 0.24719122 0.13061106 0.304687 -0.033443686 -0.12489311 -0.2684446 0.08914873
0.31202766 0.31604517 0.103242695 0.091386065 0.019027079 -0.13706164 0.20061229 0.059069052
-0.06533879 0.032455206 0.0080065215 -0.09268678 -0.047837038 -0.086209975 -0.16170047 -0.11924256
0.26160207 -0.11087617 -0.18916082 -0.16063091 -0.0018685486 0.047403496 0.045387715 0.0061363676
0.023114534 0.40250275 -0.037206214 0.31915846 -0.10688498 0.25107 -0.0942938 -0.4041007
0.23565309 0.02489317 -0.116171695 0.021010762 -0.29747686 0.29896495 -0.07626055 -0.086594544
-0.19742475 0.4972239 -0.09922854 -0.19238223 0.42468014 0.3258087 -0.16830333 0.18488117
0.58534867 0.18263379 -0.13103592 -0.018990945 -0.19984184 -0.075097896 -0.15168476 0.14009255
-0.11718036 -0.03123628 0.20674902 0.25523925 -0.29301998 0.29324657 0.2614781 0.30072623
0.3182358 -0.020181578 0.17855406 0.27128437 0.41007054 -0.012967657 0.061941084 0.03725529
-0.31996858 0.30543718 -0.08550144 -0.21013327 -0.15306237 -0.07898592 0.034279097 0.3833495
0.14368258 0.10574999 -0.055408165 0.19430217 0.18144399 -0.10811874 -0.1033415 -0.14973387
-0.19211407 -0.077741854 0.280036 0.112114035 0.11135138 -0.35889158 -0.04211111 -0.10729464
-0.22766541 0.3586542 0.23204295 0.02795785 -0.14227882 -0.13421483 -0.09481744 0.010953532
0.047795117 -0.084052786 -0.044766024 -0.11825242 -0.050682068 -0.29077289 -0.017292777 -0.09102599
00000000: 14bc ae3e 8f3c 0abd c83b 2b3c ce43 98be
00000010: 543e 9fbd 8a6c aa3e 3492 353e 0d50 b6bd
00000020: dcba 65bd da0d ca3d b566 e1bd d48f 4abd
00000030: 4daf 2a3d 74bf 80bd f698 da3e db62 07be
00000040: 74f3 0dbd e8ec a3bd 23e2 01ba d938 f7bd
00000050: f384 50bc 26ee a6bd 04e9 e33e 53bd 983d
00000060: 9fb8 93bc 410f 30bc 2f9a c6bd 8cc5 1f3e
00000070: fef4 8b3d 4ae9 aabd ce2b 8c3e dbf2 83bd
00000080: 5f00 983d a9f6 4ebc ba0c 6fbc b938 543e
00000090: b8be 4c3e 3270 2f3e aafa aebd 4da3 103e
000000a0: 14aa 1f3e ed06 003e 0453 b13d ab66 2b3c
000000b0: 642b d7be 1d74 223a f792 4dbd 9502 b0bd
000000c0: 1ab2 40be a06e 693e 102b 0ebd a971 c33e
000000d0: be46 9ebe 4861 033e a2e1 893e 7faf f63d
000000e0: ec48 e0bd 9fd8 f1bd 1d9b 8ebd 3d75 b2be
000000f0: 0eec 1bbd ed4a 883e 8d9b bd3c c1a9 a4be
00000100: 701b 033f 87d5 b63e e93e f3bd 51ca b03e
00000110: 5368 393e 5df2 2fbc 3cc2 ea3c eeac c1bc
00000120: fe2f 853e d658 e5bb d7ad ba3e d3e4 91bb
00000130: bd02 103e ad48 07bd 430a 31bc f90f fc3b
00000140: 8f8d b83d 3a70 713e 0d74 78bd f1b8 413d
00000150: f8ea 60be 0b9e a9be 1f90 3d3e bc43 e5bd
00000160: 1415 bd3c 47e8 313e b311 c03e 3a26 07be
00000170: 3a40 563e 6b97 bfbd df34 a6bd b13b 1abe
00000180: 5d07 4abd b54b 6a3e 146a 9c3d 0765 473d
00000190: 8814 533c 5178 babd 960b d3bd 0833 cebe
000001a0: 50ee 9bbd bb55 b0bd 2dd6 8abd 18d2 ac3e
000001b0: 43e5 73bd d379 403e 7401 aebe e614 d23e
000001c0: b9c9 debd 25c3 92bd f063 8ebe 5e7c 0f3e
000001d0: 23da 20be 1365 06be a68b f03d b4e2 a1bd
000001e0: 3de7 86bd c59e f73d 66d9 a63e 3347 84be
000001f0: 9b6e 71bd dca3 03be 7051 993c b3af bfbd
00000200: c21b 26bd 8bae ce3c 5ce5 47be d0d1 31bc
00000210: 9539 ecbd a41a 1d3d d39b 54be 8e42 d5bb
00000220: d25e 31be b21f 7d3e e8be 053e efff 9b3e
00000230: 3ffc 08bd f5c7 ffbd 9271 89be 9c93 b63d
00000240: 17c2 9f3e acd0 a13e e870 d33d 9e28 bb3d
00000250: adde 9b3c e359 0cbe 4f6d 4d3e 64f2 713d
00000260: 58d0 85bd c0ef 043d c92d 033c 91d2 bdbd
00000270: c5f0 43bd db8e b0bd cf94 25be 7135 f4bd
00000280: b5f0 853e 0c13 e3bd 60b3 41be 6e7c 24be
00000290: 16ea f4ba 2b2a 423d 78e8 393d 9513 c93b
000002a0: b15a bd3c d714 ce3e 8b65 18bd bd68 a33e
000002b0: 83e6 dabd 3f8c 803e 1c1d c1bd 49e6 cebe
000002c0: 0b4f 713e c3ec cb3c 6deb edbd c31e ac3c
000002d0: e34e 98be ef11 993e 7e2e 9cbd 7b58 b1bd
000002e0: b729 4abe 2294 fe3e 5538 cbbd d9ff 44be
000002f0: ad6f d93e 66d0 a63e b557 2cbe 7d51 3d3e
00000300: 69d9 153f 5a04 3b3e 482e 06be e692 9bbc
00000310: 57a3 4cbe edcc 99bd 4053 1bbe 6c74 0f3e
00000320: 42fc efbd 3ae3 ffbc 04b6 533e b8ae 823e
00000330: b706 96be 6a24 963e 75e0 853e caf8 993e
00000340: ceef a23e d653 a5bc e0d6 363e c9e5 8a3e
00000350: c4f4 d13e 4c76 54bc efb5 7d3d 0199 183d
00000360: ecd2 a3be 4362 9c3e 611b afbd 2d2d 57be
00000370: 62bc 1cbe 5fc3 a1bd 3d68 0c3d 6346 c43e
00000380: 8721 133e 7393 d83d acf3 62bd 26f7 463e
00000390: 74cc 393e 5c6d ddbd b5a4 d3bd d653 19be
000003a0: 8db9 44be 1f37 9fbd e160 8f3e 0b9c e53d
000003b0: 310c e43d a3c0 b7be b37c 2cbd 4bbd dbbd
000003c0: 1f21 69be 86a1 b73e ab9c 6d3e dc07 e53c
000003d0: 8ab1 11be 9d6f 09be a52f c2bd 7176 333c
000003e0: d0c4 433d de23 acbd 945c 37bd 532e f2bd
000003f0: 0098 4fbd 2fe0 94be 95a9 8dbc d66b babd

fc3.weight f4 [128, 256]
0.116059095 0.4672733 0.13802657 0.3495659 -0.018189153 -0.016979564 0.21638905 -0.16299234
0.060502358 -0.45479828 -0.084884144 -0.091561526 0.20080464 0.103701375 0.18543644 0.063007884
-0.014409167 -0.13958578 -0.58316255 0.014980028 -0.0038686006 0.4166322 -0.045979697 0.1505805
-0.04139667 -0.00055962475 -0.74511755 -0.35792685 -0.35189423 -0.040750828 -0.25455067 0.08086541
-0.11694274 -1.5155616 -0.045391675 0.29380754 0.26453057 0.0001537295 0.115025595 0.05138282
-1.2499839 0.33782378 -0.24256662 -0.18009481 0.4456936 0.24924435 0.06093178 -0.0062395227
0.37012568 0.21304628 0.20863311 0.49022812 -0.3118962 -0.6029802 -0.27315217 0.105408855
0.9770697 -0.041958917 0.32946348 0.020577593 0.010778385 0.015255203 -0.084537596 0.14162184
0.29987216 0.38529113 1.3323102 -0.0462737 -0.04096808 -0.9769725 0.41140348 -0.026972668
0.12325567 0.05532146 0.4169352 0.122751236 0.28216812 0.18113764 0.056109946 0.3160485
-0.016249321 -0.13429175 0.6946778 0.2993937 0.4571592 -1.1577188 0.7535785 0.049308136
0.08365067 -0.12459877 0.22601685 -0.048400942 -0.04912203 0.070946306 -0.032019544 -0.49698403
0.39286876 0.34947565 -0.7204052 0.024749238 0.49261022 0.0387739 -0.008063529 0.11743379
-0.030652702 -0.14690018 -0.032876473 0.33248428 0.004935332 0.09837607 -1.0467671 0.16218784
-0.015207816 0.36009726 -0.17156056 -0.34668058 -0.05049367 -0.29954225 0.12779407 -0.06385375
0.0063599916 0.73163176 -0.15262328 -0.08398653 -0.45275918 0.22280784 -0.10430815 0.048343267
-0.6109619 0.09488404 -0.029184962 -0.07852084 -0.0325101 0.4751151 0.21387312 0.21433876
0.23441681 0.19984068 -0.37475094 0.15013298 0.08140049 -0.03758359 0.10163169 -0.7611961
0.08635667 0.037241742 0.27735487 -0.30894208 -0.44237477 -0.21382008 0.62892354 0.10885089
-0.03505709 0.18767495 -0.3826349 -0.0021294956 -0.19054286 0.015779048 -0.106181234 -0.03239391
0.2201679 -0.056016672 0.078844234 -0.39579242 0.5268873 -0.011182952 0.07787236 0.26915595
0.61627007 -0.057417624 0.6225025 0.14503977 -0.027294049 -0.026264358 -0.025507985 0.21467924
0.30058253 0.12964828 0.045868345 -0.50917923 0.02381185 0.017857214 0.04650098 -0.05173774
0.37486616 0.14363036 -0.6225193 -0.024813196 0.18883017 1.1421779 0.0067066564 0.21540995
0.14689338 -0.18306419 -0.2926312 -0.12899145 -1.0090934 -0.08020462 -0.8985234 0.26042143
-0.40538755 0.1588415 0.039918765 0.033963874 -0.11249502 0.20481396 0.15840897 0.059709307
-0.22272448 0.04258845 -0.020049985 0.2649538 0.3666977 0.5552081 0.7852486 0.3338724
0.31368247 0.23138632 0.025781445 0.60558635 0.3186768 -0.053280685 0.17946182 0.2378032
0.7076637 -0.6017973 0.021638546 0.41342387 -0.111769445 0.06920261 0.5122415 0.16080576
0.07034895 0.123861365 0.17910671 0.41159958 0.28790638 -1.9456024 0.053665683 -0.031037739
-0.036081813 0.14659087 0.10925856 0.3716361 0.004608931 -0.20765355 0.0003425489 0.22491458
0.22433211 0.0069771763 0.03306094 0.13139102 0.5913185 0.20971167 -0.42651734 0.017394567
00000000: 64b0 ed3d 723e ef3e d656 0d3e 4dfa b23e
00000010: 6b01 95bc ba18 8bbc 1795 5d3e 77e7 26be
00000020: 52d1 773d 52db e8be bdd7 adbd 9c84 bbbd
00000030: bb9f 4d3e 6361 d43d 0de3 3d3e 470a 813d
00000040: 6d14 6cbc 93ef 0ebe 244a 15bf cb6e 753c
00000050: 5988 7dbb d150 d53e 3555 3cbd c631 1a3e
00000060: 8e8f 29bd c8b3 12ba 06c0 3ebf 3042 b7be
00000070: 7b2b b4be 57ea 26bd 7754 82be c49c a53d
00000080: ad7f efbd ecfd c1bf 9fec 39bd f16d 963e
00000090: 8d70 873e 7332 2139 8a92 eb3d cb76 523d
000000a0: 79ff 9fbf 3df7 ac3e 6263 78be c66a 38be
000000b0: f431 e43e e939 7f3e 9a93 793d e974 ccbb
000000c0: 1d81 bd3e ce28 5a3e eba3 553e 2eff fa3e
000000d0: dcb0 9fbe e95c 1abf 9ada 8bbe 99e0 d73d
000000e0: 3d21 7a3f 1ddd 2bbd 70af a83e 5792 a83c
000000f0: d397 303c f5f0 793c 0c22 adbd 5105 113e
00000100: d888 993e e144 c53e 2489 aa3f 7e89 3dbd
00000110: 25ce 27bd df1a 7abf 7aa3 d23e c9f5 dcbc
00000120: 786d fc3d c198 623d 8878 d53e 0065 fb3d
00000130: 5778 903e 257c 393e 8bd3 653d 1cd1 a13e
00000140: 4c1d 85bc c783 09be 68d6 313f 224a 993e
00000150: c510 ea3e 2130 94bf 85ea 403f 54f7 493d
00000160: 0b51 ab3d a42d ffbd f670 673e 1140 46bd
00000170: 2f34 49bd 4c4c 913d ed26 03bd b174 febe
00000180: 1826 c93e 79ee b23e 7a6c 38bf eabe ca3c
00000190: 6837 fc3e 62d1 1e3d e41c 04bc 2081 f03d
000001a0: 601b fbbc 006d 16be 7ba9 06bd 613b aa3e
000001b0: 91b8 a13b 6579 c93d 77fc 85bf 9214 263e
000001c0: 342a 79bc ab5e b83e 92ad 2fbe 1e80 b1be
000001d0: 73d2 4ebd 9a5d 99be 73dc 023e c1c5 82bd
000001e0: 7a67 d03b 384c 3b3f 4749 1cbe 2101 acbd
000001f0: 0dd0 e7be bd27 643e 839f d5bd 9703 463d
00000200: 0068 1cbf 9052 c23d 4d15 efbc 89cf a0bd
00000210: 5029 05bd 4942 f33e 8e01 5b3e 9f7b 5b3e
00000220: f60a 703e 09a3 4c3e 5bdf bfbe 76bc 193e
00000230: 4db5 a63d 40f1 19bd 4724 d03d bfdd 42bf
00000240: c4db b03d cc8a 183d 7501 8e3e a82d 9ebe
00000250: f27e e2be a7f3 5abe 2201 213f 37ed de3d
00000260: 0698 0fbd dd2d 403e b9e8 c3be 028f 0bbb
00000270: ab1d 43be 1043 813c 8c75 d9bd 7aaf 04bd
00000280: b273 613e bd71 65bd 1679 a13d 4ea5 cabe
00000290: 16e2 063f b338 37bc 8b7b 9f3d cfce 893e
000002a0: e0c3 1d3f be2e 6bbd 535c 1f3f 4e85 143e
000002b0: c597 dfbc 5a28 d7bc 1ff6 d0bc e0d4 5b3e
000002c0: f4e5 993e 85c2 043e 72e0 3b3d 9259 02bf
000002d0: 1211 c33c 4b49 923c d077 3e3d f4ea 53bd
000002e0: 75ee bf3e d613 133e 6d5d 1fbf 0b45 cbbc
000002f0: b25c 413e e332 923f 83c3 db3b 6d94 5c3e
00000300: 386b 163e 2e75 3bbe c2d3 95be 5616 04be
00000310: f929 81bf 5242 a4bd a105 66bf f555 853e
00000320: f58e cfbe 59a7 223e dc81 233d b41d 0b3d
00000330: ca63 e6bd c0ba 513e f635 223e bf91 743d
00000340: e311 64be 3a71 2e3d de3f a4bc 06a8 873e
00000350: cdbf bb3e 1e22 0e3f 0d06 493f 53f1 aa3e
00000360: fd9a a03e 89f0 6c3e 9c33 d33c b507 1b3f
00000370: 9b29 a33e d93c 5abd d7c4 373e af82 733e
00000380: 7329 353f 630f 1abf 5243 b13c 4bac d33e
00000390: 61e7 e4bd 19ba 8d3d 4222 033f 44aa 243e
000003a0: 1c13 903d 07ab fd3d c067 373e 2ebd d23e
000003b0: 7768 933e 8009 f9bf 8cd0 5b3d db42 febc
000003c0: 86ca 13bd eb1b 163e f4c2 df3d 1647 be3e
000003d0: 8406 973b 22a3 54be 2398 b339 0250 663e
000003e0: 51b7 653e cca0 e43b e96a 073d 5e8b 063e
000003f0: a660 173f a8be 563e 7b60 dabe 0d7f 8e3c

fc3.bias f4 [128]
0.5353018 0.59632146 0.44895396 0.6004372 0.6030616 0.68983805 -0.12670699 0.20694767
-0.09847099 0.051736135 0.22872959 0.3485705 0.59237146 -0.011716516 -0.042677864 0.5701518
0.595546 0.57081115 0.017342063 0.6529481 0.5695177 0.14553931 -0.07800293 0.122242205
0.06982715 -0.083524995 -0.05287387 -0.08184514 0.71942943 0.5468024 0.71324486 -0.08922483
0.29723775 -0.09100083 -0.536833 0.6465206 -0.097219415 -0.074900456 -0.08455122 0.0066667437
-0.047052544 0.026939727 -0.09126345 -0.047179494 0.63545126 0.3060138 0.38586935 -0.07461112
-0.069648266 -0.040210035 0.75507134 0.67297095 -0.0041440707 0.56590676 -0.07984725 0.6560797
-0.14730106 0.6498193 0.46622214 0.052458964 0.65399927 0.0041717575 0.6609299 0.15293442
-0.034119647 0.6780005 -0.06331549 -0.07351002 0.48007968 0.6551379 -0.05449887 0.4855553
0.5986218 -0.1273996 0.39006683 -0.5203195 -0.054578643 0.14469849 -0.065166235 -0.021910978
0.5345507 0.5224845 0.6074941 0.47692457 0.027567934 0.59021115 0.37885484 -0.06430247
0.53387475 0.5314548 0.6032784 0.22238955 -0.09395655 -0.02362759 0.51786613 -0.06227174
0.71724856 -0.09781193 -0.34836107 -0.13602154 0.6788638 -0.108845964 0.47207338 0.44905797
-0.09443149 -0.32065558 0.5893889 0.46127537 0.49913645 -0.056925412 0.5837029 -0.03434628
-0.13673924 0.5696926 0.090963766 -0.40480706 0.45151937 -0.0382422 0.31175062 -0.23312813
0.1284308 -0.08547103 -0.018804979 0.5615996 0.7354924 0.11166883 -0.06993179 -0.031123277
00000000: 8a09 093f 86a8 183f 4bdd e53e 41b6 193f
00000010: 3f62 1a3f 3a99 303f 7abf 01be 17ea 533e
00000020: 29ab c9bd 45e9 533d 1738 6a3e d577 b23e
00000030: a8a5 173f a1f6 3fbc fcce 2ebd 78f5 113f
00000040: b475 183f ae20 123f f110 8e3c 9b27 273f
00000050: e9cb 113f 4208 153e 00c0 9fbd 1f5a fa3d
00000060: 8901 8f3d 270f abbd 4592 58bd 6d9e a7bd
00000070: 872c 383f 3efb 0b3f 3797 363f 82bb b6bd
00000080: 8c2f 983e a55e babd e36d 09bf 6082 253f
00000090: f91a c7bd 6965 99bd 3129 adbd b374 da3b
000000a0: 2bba 40bd b4b0 dc3c 55e8 babd 493f 41bd
000000b0: efac 223f d7ad 9c3e ab90 c53e b7cd 98bd
000000c0: c0a3 8ebd 47b3 24bd 5b4c 413f d347 2c3f
000000d0: fcca 87bb 44df 103f f486 a3bd d7f4 273f
000000e0: 17d6 16be 8f5a 263f abb4 ee3e 36df 563d
000000f0: 7f6c 273f 3db3 883b b432 293f d79a 1c3e
00000100: 0bc1 0bbd 7191 2d3f 8dab 81bd 6c8c 96bd
00000110: 01cd f53e 1eb7 273f 353a 5fbd b49a f83e
00000120: 473f 193f 0a75 02be d7b6 c73e a933 05bf
00000130: db8d 5fbd d72b 143e e075 85bd a77e b3bc
00000140: 51d8 083f 8bc1 053f bc84 1b3f 752f f43e
00000150: 26d6 e13c 1418 173f 43f9 c13e 03b1 83bd
00000160: 04ac 083f 6c0d 083f 7470 1a3f 16ba 633e
00000170: 4b6c c0bd a68e c1bc e092 043f a710 7fbd
00000180: 9a9d 373f 9f51 c8bd 625c b2be 3b49 0bbe
00000190: 05ca 2d3f a2ea debd 9ab3 f13e edea e53e
000001a0: 4c65 c1bd f82c a4be 31e2 163f 492c ec3e
000001b0: d08e ff3e 9f2a 69bd 8e6d 153f afae 0cbd
000001c0: 5f05 0cbe 60d7 113f 364b ba3d df42 cfbe
000001d0: 8c2d e73e daa3 1cbd c79d 9f3e 24b9 6ebe
000001e0: 5d83 033e 6f0b afbd e60c 9abc fec4 0f3f
000001f0: 3b49 3c3f a1b2 e43d 6638 8fbd 3ef6 febc

fc4.weight f4 [128, 128]
0.2244222 0.32130495 0.2062461 0.37828848 0.34521133 0.29931512 -0.20969306 0.74155027
0.007899746 -0.10893755 0.19356476 0.063601844 0.29160643 0.023560246 -0.10359779 0.3437193
0.24262574 0.24676618 -0.021278787 0.27492663 0.8384693 0.13155638 -0.033947922 0.28768718
0.077769525 0.058189556 1.0175223 0.036570437 0.2930442 0.40941972 0.42181513 -0.104479514
0.16824096 -0.052867904 -1.2734563 0.350918 0.04690865 -0.11541651 0.051129088 -0.09431891
-0.11168072 0.043803297 0.030138569 0.051869486 0.33256173 3.4704227 0.32084548 0.06135503
0.03052924 0.11991884 0.73628265 0.20486288 -0.11473445 0.26210403 0.013931829 0.48936313
-0.48025912 0.31911713 0.17437865 -0.61965877 0.33234555 -0.21939042 0.42690277 0.8359696
-0.05961682 0.25742826 0.0480615 0.103464365 0.1949999 0.38532597 0.07726774 0.08857
0.34221646 -0.13755676 1.4349748 -0.9456961 -0.017118176 0.10284655 -0.07615245 -0.011149447
0.3040485 0.38170654 0.28666106 0.49046126 -0.005985002 0.16434059 0.12991063 0.16033722
0.31329042 0.19913286 0.40117407 0.23074688 0.018556636 0.018626215 0.16731125 0.059588365
0.27031517 0.050750833 -0.22521247 0.021468462 0.69368774 -0.8549854 0.1413828 0.06338816
0.06837747 -1.1957142 0.37064803 0.19630527 0.2252878 -0.2880158 0.185495 -0.033692062
-1.8364832 0.31004384 1.2027454 -0.33335677 0.24839467 0.02901738 1.0458916 0.111420035
0.12545322 0.013106057 -0.015132885 0.24237098 0.4116467 1.075345 0.09292955 0.061243452
0.08067795 -0.032108724 -0.02721083 -0.058806255 -0.10826628 -0.087552965 -0.0103923725 -0.020265397
-0.017889448 0.060284376 -0.040277112 -0.07142175 0.041670796 -0.019505171 0.012448466 -0.00091165496
0.02849687 0.06778954 -0.015681805 -0.07525382 0.03565953 -0.06077645 -0.054207962 0.06481976
-0.09017934 0.032771304 0.059904553 -0.047179196 -0.071081914 0.06488496 -0.09893286 0.035338193
0.018200861 0.06865714 0.021484822 -0.06446567 -0.07896806 0.06631263 0.0011972561 0.0047570094
0.028397292 0.09055731 0.026358807 0.075463764 0.014515174 -0.03591982 0.029541658 -0.018306844
-0.008728592 -0.009397183 -0.034451075 0.009006643 -0.07241087 -0.101920374 -0.043186117 0.04586395
-0.06314137 -0.069963194 -0.025447465 0.04575419 0.06324188 -0.0070568724 0.024818273 -0.028917762
-0.02116851 -0.035365026 0.055778265 0.02795656 -0.02141859 0.062175907 -0.0070989616 0.027183907
0.020624593 -0.037157707 0.042232215 -0.025538411 -0.079203844 -0.055379786 0.03856831 0.035221215
-0.029646825 -0.023857122 0.054482877 -0.039974883 0.011384162 -0.034160662 -0.05102788 -0.02557101
0.041886933 -0.0026114613 -0.013465229 -0.014242668 0.024087131 0.082283296 -0.036500286 -0.035222195
-0.07086733 0.009458342 0.059609883 0.036674462 -0.08186983 -0.05304344 -0.079051144 0.009521652
0.058472984 0.05315884 -0.03854282 0.026047349 -0.009504455 -0.09411642 0.06371623 0.044109598
-0.08732099 0.064264044 0.029256357 -0.0667557 0.043889925 -0.075983636 0.044151455 -0.013517446
-0.03435217 0.027547292 0.053986356 -0.06626995 0.040785726 -0.038187414 0.07069103 0.08475222
00000000: efce 653e 1582 a43e 2d32 533e 07af c13e
00000010: 8abf b03e d53f 993e c7b9 56be 3dd6 3d3f
00000020: f06d 013c a61a dfbd d735 463e af41 823d
00000030: 704d 953e 6b01 c13c 142b d4bd fafb af3e
00000040: e272 783e 46b0 7c3e da50 aebc 2fc3 8c3e
00000050: eda5 563f b7b6 063e fa0c 0bbd bc4b 933e
00000060: a145 9f3d 2c58 6e3d 2c3e 823f e2ca 153d
00000070: e409 963e 769f d13e 27f8 d73e 5bf9 d5bd
00000080: 5c47 2c3e 048c 58bd 9e00 a3bf 86ab b33e
00000090: 4923 403d 7e5f ecbd bc6c 513d 462a c1bd
000000a0: dcb8 e4bd 166b 333d 29e5 f63c 1975 543d
000000b0: 8845 aa3e 681b 5e40 dc45 a43e 694f 7b3d
000000c0: 7518 fa3c 0298 f53d 057d 3c3f 93c7 513e
000000d0: e5f9 eabd 8032 863e 5342 643c ce8d fa3e
000000e0: 86e4 f5be 5263 a33e 5190 323e f5a1 1ebf
000000f0: 3229 aa3e e2a7 60be 0093 da3e 1b02 563f
00000100: c430 74bd a3cd 833e 23dc 443d 20e5 d33d
00000110: 0eae 473e 7249 c53e 8d3e 9e3d 3064 b53d
00000120: ff36 af3e aedb 0cbe 41ad b73f 2419 72bf
00000130: 6b3b 8cbc 36a1 d23d d1f5 9bbd 2cac 36bc
00000140: 3fac 9b3e 0a6f c33e 3dc5 923e bd1d fb3e
00000150: d61d c4bb e648 283e 4b07 053e 712f 243e
00000160: 9a67 a03e 7ce9 4b3e b066 cd3e e948 6c3e
00000170: 1604 983c 0196 983c a453 2b3e ee12 743d
00000180: c066 8a3e 1be0 4f3d 199e 66be a1de af3c
00000190: 8595 313f 53e0 5abf a7c6 103e a7d1 813d
000001a0: 7d09 8c3d 2a0d 99bf 94c5 bd3e 4004 493e
000001b0: d8b1 663e cf76 93be 67f2 3d3e b000 0abd
000001c0: e211 ebbf 11be 9e3e 90f3 993f bdad aabe
000001d0: 2c5b 7e3e dbb5 ed3c c7df 853f 3030 e43d
000001e0: cf76 003e caba 563c ecef 77bc 1930 783e
000001f0: 5bc3 d23e e8a4 893f d951 be3d 6ada 7a3d
00000200: 7b3a a53d 7084 03bd 3fe9 debc d4de 70bd
00000210: b6ba ddbd f84e b3bd c544 2abc 9e03 a6bc
00000220: e48c 92bc c0ec 763d 9df9 24bd 9145 92bd
00000230: ffae 2a3d 4fc9 9fbc a7f4 4b3c 21fc 6eba
00000240: 4572 e93c 3ed5 8a3d 2177 80bc ad1e 9abd
00000250: ba0f 123d baf0 78bd 2b09 5ebd 39c0 843d
00000260: f2af b8bd 343b 063d 7a5e 753d f93e 41bd
00000270: 6593 91bd 68e2 843d 509d cabd c8be 103d
00000280: f919 953c 1d9c 8c3d f000 b03c 9406 84bd
00000290: 02ba a1bd ebce 873d 40ed 9c3a b0e0 9b3b
000002a0: 70a1 e83c 1c76 b93d 6dee d73c bf8c 9a3d
000002b0: 0dd1 6d3c a920 13bd 5901 f23c 3cf8 95bc
000002c0: 5e02 0fbc a4f6 19bc 921c 0dbd 9990 133c
000002d0: 264c 94bd a1bb d0bd ede3 30bd d6db 3b3d
000002e0: 4350 81bd dd48 8fbd 3477 d0bc bf68 3b3d
000002f0: f584 813d 563d e7bb b14f cb3c f1e4 ecbc
00000300: 9569 adbc ebda 10bd c077 643d 2805 e53c
00000310: 0a76 afbc 2aac 7e3d 689e e8bb c9b0 de3c
00000320: e8f4 a83c ae32 18bd b0fb 2c3d ee35 d1bc
00000330: a035 a2bd ead5 62bd cef9 1d3d 1f44 103d
00000340: e6dd f2bc 0370 c3bc 7029 5f3d b4bc 23bd
00000350: a384 3a3c 0dec 0bbd 9c02 51bd 4b7a d1bc
00000360: a291 2b3d 0d25 2bbb 449d 5cbc 145a 69bc
00000370: 6052 c53c 2584 a83d 5381 15bd 2645 10bd
00000380: e422 91bd 29f7 1a3c 7e29 743d f637 163d
00000390: 5fab a7bd 1444 59bd 91e5 a1bd b400 1c3c
000003a0: 5e81 6f3d 15bd 593d 13df 1dbd 4061 d53c
000003b0: 93b8 1bbc 1cc0 c0bd a87d 823d 44ac 343d
000003c0: 59d5 b2bd de9c 833d 07ab ef3c 36b7 88bd
000003d0: ecc5 333d 4f9d 9bbd 28d8 343d 4778 5dbc
000003e0: dcb4 0cbd dcaa e13c cc20 5d3d 8ab8 87bd
000003f0: ef0e 273d 686a 1cbd 75c6 903d 9292 ad3d

fc4.bias f4 [128]
0.61934996 0.03723828 0.59709585 0.066836864 -0.08481865 0.29278588 0.42538375 -0.20449705
-0.20345826 0.24306841 -0.09038253 0.49671248 0.6923489 -0.087548815 -0.09668758 0.53820765
0.3845688 -0.56663907 0.38429844 0.7155802 -0.02024176 0.70314646 0.73013914 -0.2806953
-0.10641019 0.6976614 -0.077227816 0.27161556 -0.05141434 -0.046042852 0.078328505 0.01139624
0.6480605 0.7452603 -0.23527522 -0.03237967 0.5819923 0.0130472835 0.77433354 -0.029827746
-0.014034688 -0.0053976825 -0.08058798 -0.47943377 -0.06917015 0.48455864 0.007383799 0.05298901
0.7326957 0.5029322 -0.23399958 -0.0509033 -0.06425196 -0.21186915 -0.10501821 -0.04085293
-0.10287258 0.035828553 -0.09732581 -0.055209417 0.58724344 -0.09709169 0.23269886 0.7035307
0.5815003 -0.10247935 -0.21157977 0.6353302 0.61339504 -0.4365275 -0.042056393 -0.09014909
0.6437044 0.19921826 0.03587621 -0.07977646 0.68447983 0.6045603 0.6539405 -0.10328378
0.045376606 0.7049484 0.26119506 -0.10763125 0.61897844 -0.024234124 -0.16663215 -0.116866894
0.24010874 0.8230581 0.6778943 0.51705134 0.6972912 -0.07089068 -0.12374095 0.56067926
-0.19079193 0.7770089 -0.108357556 0.66789865 -0.05392596 0.42037985 0.67944664 0.5014885
0.8023663 0.0067274626 -0.109786354 0.06511682 0.62101305 0.6895805 -0.107641935 0.7157761
0.58305347 0.13383164 -0.115718246 0.32065377 -0.09457764 -0.098986484 -0.15355563 0.09448066
-0.058017973 -0.05394179 -0.06161007 -0.026084267 0.6989822 0.021825504 -0.24235888 -0.07105297
00000000: b88d 1e3f 2b87 183d 46db 183f c4e1 883d
00000010: 66b5 adbd 08e8 953e e6cb d93e ad67 51be
00000020: 5d57 50be ede6 783e 7a1a b9bd 1951 fe3e
00000030: c73d 313f cb4c b3bd 2304 c6bd fac7 093f
00000040: 34e6 c43e 420f 11bf c4c2 c43e 4430 373f
00000050: 0cd2 a5bc 6801 343f 66ea 3a3f 4bb7 8fbe
00000060: 96ed d9bd f099 323f 9e29 9ebd 3211 8b3e
00000070: d897 52bd 6e97 3cbd b26a a03d 4cb7 3a3c
00000080: 4be7 253f 61c9 3e3f fdeb 70be 8ba0 04bd
00000090: 73fd 143f 46c4 553c b93a 463f 5159 f4bc
000000a0: bff1 65bc 0bdf b0bb 500b a5bd 5878 f5be
000000b0: 14a9 8dbd 1218 f83e ccf3 f13b 010b 593d
000000c0: f291 3b3f 2ac0 003f 969d 6fbe fb7f 50bd
000000d0: 8896 83bd 3af4 58be ca13 d7bd 6755 27bd
000000e0: dcae d2bd f6c0 123d c152 c7bd 4523 62bd
000000f0: 9655 163f 02d8 c6bd 9c48 6e3e 971a 343f
00000100: 34dd 143f b2e0 d1bd 5ea8 58be 00a5 223f
00000110: 7507 1d3f 8880 dfbe 5343 2cbd 16a0 b8bd
00000120: d0c9 243f dfff 4b3e eff2 123d d761 a3bd
00000130: 123a 2f3f 77c4 1a3f a568 273f 7286 d3bd
00000140: d2dc 393d 8077 343f 5cbb 853e c66d dcbd
00000150: 5f75 1e3f a486 c6bc 9ea1 2abe e957 efbd
00000160: 11df 753e f0b3 523f 7b8a 2d3f 7a5d 043f
00000170: ad81 323f 222f 91bd e56b fdbd ad88 0f3f
00000180: f65e 43be 0eea 463f 91ea ddbd 68fb 2a3f
00000190: 78e1 5cbd 073c d73e 37f0 2d3f 8d61 003f
000001a0: e167 4d3f 0c72 dc3b abd7 e0bd f85b 853d
000001b0: b6fa 1e3f 5988 303f 6073 dcbd 1a3d 373f
000001c0: fe42 153f 290b 093e b0fd ecbd bb2c a43e
000001d0: ecb1 c1bd 6db9 cabd b03d 1dbe 147f c13d
000001e0: 41a4 6dbd 11f2 5cbd d75a 7cbd acae d5bc
000001f0: 7ff0 323f 66cb b23c ed2c 78be 3884 91bd

fc5.weight f4 [3, 128]
0.5379963 0.051626958 0.26212466 0.044960056 -0.0057847723 -1.7716689 3.0701509 -0.44549415
-0.65038687 0.01917586 -0.05378983 0.1316712 0.3887727 -0.0154008195 0.02972696 0.5438239
0.16191922 -2.0098932 -0.039694052 0.449873 -0.0048057926 0.36541075 0.30580562 -0.09457734
0.07770335 0.3319558 0.07717756 -1.4590358 0.054486413 0.0025733842 -0.20448343 -0.045098018
0.72183955 0.3022185 -0.6845461 0.046596605 0.38531554 0.076756015 0.5084366 0.018603032
0.22140236 -0.03167411 0.06632108 -0.77486414 0.08933554 0.029851364 -0.07674068 0.048646845
1.0572639 1.3666028 0.18016872 -0.016006945 0.040143732 -0.62536913 -0.07064876 0.022168582
0.078886546 -0.02900364 0.02016624 0.03879615 0.5289078 -0.018053371 -1.1052997 0.5452692
0.074489176 -0.011856471 -0.5279697 0.66148835 0.36334455 -0.33197895 -0.12996529 0.030703546
0.63138497 0.16393153 -0.06629544 -0.068853304 0.48181522 0.17936637 0.40531826 0.2590687
0.01101037 0.38250637 -0.07042699 0.06952532 0.32628107 -0.08987101 -0.16641286 -0.037117813
0.76026744 0.7874878 0.42795956 0.11175568 1.8951644 -0.026633833 -0.13655299 0.22556372
-0.22049552 1.3297986 0.052389253 0.5415061 -0.015503594 -0.09815216 0.33771348 0.31970876
0.49996218 0.04201482 -0.061096843 -0.028598566 0.42670363 0.5464049 -0.077040814 0.5223975
0.31471974 -0.26831552 -0.03686076 0.016564077 -0.08176894 -0.03062573 -0.8855768 0.08049411
0.033200797 -0.00048512287 0.08764046 -0.02165712 0.62216985 -0.898844 -0.29411036 0.03402992
0.5210663 -0.034957763 0.68181354 -0.04000717 0.043764092 0.62854964 -0.8092493 -0.52676266
-0.5264063 -0.14588164 0.005331546 -0.024150806 0.6992593 -0.037698586 -0.01323587 0.598163
0.19510561 -2.386546 -0.022454804 0.2744597 0.014100696 0.38473624 0.5890278 0.25951925
-0.022686845 0.34031996 0.017576784 1.057859 0.0584866 -0.009035396 0.18756236 -0.073430784
0.6204603 0.3728582 -0.5088642 -0.029118327 -0.1881177 -0.014423285 0.21713741 -0.31253684
-0.02672311 -0.056018967 0.036808223 -0.4429619 -0.043879665 0.0878717 -0.009898432 0.0027445215
0.64999884 0.5195787 0.18170948 0.08705926 -0.07663267 -0.3756306 0.078995846 -0.047169156
0.014796443 -0.044594266 0.035650242 0.005317712 0.45417374 -0.012438943 0.89195687 0.020736322
0.082690805 -0.00018360252 -0.43022603 0.59871125 0.7734191 -0.70916295 0.08458693 -0.0037975565
0.3375983 0.06940882 -0.067620926 0.067275286 0.118745275 0.03802146 0.55421686 0.2635123
0.0027406756 0.48412162 0.26212907 -0.03583732 0.3618956 0.0035358816 0.2109652 0.017348893
0.32350442 0.6131418 0.37193152 -0.036008272 0.996255 0.08241808 -0.021522826 0.23010033
0.22985063 1.1146371 0.038488574 0.7981294 -0.061906617 -0.017173326 0.7086248 0.25657842
0.28545225 -0.051676728 -0.07144145 -0.03153552 -0.13739695 0.36897334 -0.0077131037 0.66513175
0.59490067 -0.048416745 0.08494908 0.2814981 -0.049689595 0.023874313 -0.8605103 -0.21620308
-0.032340534 -0.06763065 -0.033119634 0.0063666753 0.7918639 0.92686623 0.29874343 0.04488345
00000000: 20ba 093f ca76 533d 3435 863e 0928 383d
00000010: 308e bdbb 0cc6 e2bf 5a7d 4440 cf17 e4be
00000020: c17f 26bf b116 9d3c ba52 5cbd d1d4 063e
00000030: 370d c73e b853 7cbc f485 f33c 0b38 0b3f
00000040: 27ce 253e 17a2 00c0 3b96 22bd c155 e63e
00000050: e979 9dbb 1e17 bb3e 8e92 9c3e c4b1 c1bd
00000060: ef22 9f3d 1cf6 a93e 450f 9e3d afc1 babf
00000070: 252d 5f3d 39a6 283b 1b64 51be b3b8 38bd
00000080: 7aca 383f 62bc 9a3e 6a3e 2fbf 15dc 3e3d
00000090: 1448 c53e 4232 9d3d e728 023f 6365 983c
000000a0: 4db7 623e b6bc 01bd 59d3 873d 7f5d 46bf
000000b0: 8df5 b63d d98a f43c 382a 9dbd ea41 473d
000000c0: 6c54 873f d7ec ae3f 267e 383e ff20 83bc
000000d0: c16d 243d 3118 20bf 4cb0 90bd e39a b53c
000000e0: 458f a13d 0b99 edbc ac33 a53c b6e8 1e3d
000000f0: 8066 073f aae4 93bc 767a 8dbf c396 0b3f
00000100: c88d 983d a541 42bc 0629 07bf 4d57 293f
00000110: 4c08 ba3e 25f9 a9be 9f15 05be 0186 fb3c
00000120: 72a2 213f abdd 273e e7c5 87bd f602 8dbd
00000130: 7cb0 f63e d1ab 373e e085 cf3e a7a4 843e
00000140: d764 343c e0d7 c33e 073c 90bd 4a63 8e3d
00000150: 500e a73e 4b0e b8bd 2268 2abe d908 18bd
00000160: e3a0 423f cd98 493f 841d db3e 29e0 e43d
00000170: bf94 f23f 322f dabc 8cd4 0bbe 2dfa 663e
00000180: 94c9 61be d736 aa3f 1d96 563d 25a0 0a3f
00000190: c902 7ebc 0004 c9bd c8e8 ac3e deb0 a33e
000001a0: 0bfb ff3e bb17 2c3d af40 7abd 8a47 eabc
000001b0: e678 da3e 31e1 0b3f 93c7 9dbd d8bb 053f
000001c0: f222 a13e a760 89be 4ffb 16bd 63b1 873c
000001d0: 7976 a7bd d0e2 fabc 29b5 62bf 19da a43d
000001e0: 8ffd 073d 1758 feb9 d77c b33d 466a b1bc
000001f0: 8646 1f3f a41a 66bf a295 96be f562 0b3d
00000200: 9a64 053f df2f 0fbd 558b 2e3f 8fde 23bd
00000210: fa41 333d a1e8 203f f62a 4fbf ebd9 06bf
00000220: 90c2 06bf ff61 15be 40b4 ae3b e9d7 c5bc
00000230: a802 333f d569 1abd 43db 58bc 3621 193f
00000240: c4c9 473e 2bbd 18c0 23f3 b7bc fb85 8c3e
00000250: 9b06 673c 26fc c43e 87ca 163f b5df 843e
00000260: c3d9 b9bc 6b3e ae3e 30fd 8f3c ec67 873f
00000270: a58f 6f3d 3309 14bc 5910 403e e162 96bd
00000280: 7cd6 1e3f 45e7 be3e ed44 02bf 8f89 eebc
00000290: eda1 40be a44f 6cbc 4559 5e3e d404 a0be
000002a0: 6cea dabc 2574 65bd 38c4 163d e7cb e2be
000002b0: 2abb 33bd 14f6 b33d 082d 22bc 6edd 333b
000002c0: 5366 263f 1c03 053f 0d12 3a3e 204c b23d
000002d0: 97f1 9cbd a752 c0be 93c8 a13d 7234 41bd
000002e0: c86c 723c 7aa8 36bd fd05 123d 3440 ae3b
000002f0: 7689 e83e b5cc 4bbc 4957 643f 38df a93c
00000300: cc59 a93d 6d85 40b9 9646 dcbe 2445 193f
00000310: cbfe 453f b48b 35bf ea3b ad3d 6de0 78bb
00000320: afd9 ac3e 3626 8e3d d77c 8abd a0c7 893d
00000330: b930 f33d 64bc 1b3d 28e1 0d3f 16eb 863e
00000340: e89c 333b cade f73e c835 863e 27ca 12bd
00000350: 614a b93e 40ba 673b 4307 583e 441f 8e3c
00000360: 5fa2 a53e dcf6 1c3f cf6d be3e 697d 13bd
00000370: 910a 7f3f cfca a83d a350 b0bc 6c9f 6b3e
00000380: f75d 6b3e 6eac 8e3f 32a6 1d3d 3552 4c3f
00000390: cb91 7dbd 13af 8cbc 6f68 353f 3f5e 833e
000003a0: cc26 923e faaa 53bd e54f 92bd 642b 01bd
000003b0: c9b1 0cbe 13ea bc3e 34be fcbb 1346 2a3f
000003c0: 694b 183f a350 46bd c9f9 ad3d 8520 903e
000003d0: 5187 4bbd 1094 c33c 674a 5cbf 5764 5dbe
000003e0: 8277 04bd f081 8abd 74a8 07bd 8b9f d03b
000003f0: 98b7 4a3f 1b47 6d3f e6f4 983e b5d7 373d

fc5.bias f4 [3]
0.81907356 0.5386575 0.2343521
00000000: ceae 513f 75e5 093f fff9 6f3e
