checkpoints/checkpoint_qnetwork_target_WMT_with_trend.pth (torch_old, 340036 bytes, 10 tensors)

fc1.weight f4 [128, 13]
0	0xbe5c0afe	-0.21488568
1	0x3e8639ae	0.2621588
2	0xbe9b07bd	-0.3027934
3	0x3d2a2559	0.041539524
4	0xbef0ac6c	-0.47006547
5	0x3e88023d	0.26564208
6	0x3a2777f6	0.000638842
7	0xbe96b08c	-0.2943157
8	0x3d410ae9	0.047129545
9	0x3f203661	0.62582976
10	0xbd283464	-0.04106559
11	0x3dfbc111	0.12292684
12	0xbf255b9a	-0.645929
13	0xbdc04d62	-0.093897596
14	0xbd1e8275	-0.038698632
15	0x3c631b38	0.01386147
16	0x3c33c3cb	0.010971974
17	0x3d66b7d7	0.056327667
18	0xbd729e4e	-0.059233002
19	0xbd7ad05d	-0.061233867
20	0x3da8e860	0.08247447
21	0x3da3aac1	0.07991553
22	0xbdac4eaa	-0.084134415
23	0x3e17677f	0.14785574
24	0xbe5cb323	-0.2155271
25	0x3ce032da	0.027367998
26	0x3e7e8fb4	0.24859506
27	0xbe36fc0e	-0.17869589
28	0xbee00f9b	-0.43761906
29	0x3e7c9088	0.2466451
30	0xbcf176f3	-0.029475665
31	0x3efe96f3	0.4972454
32	0x3e260d71	0.16216065
33	0xbe6d4ad8	-0.23173082
34	0x3e3318e3	0.17489962
35	0xbeab0e55	-0.33409372
36	0xbf18507d	-0.59497815
37	0x3f1d3d35	0.6142152
38	0x3f36ab4e	0.7135514
39	0x3ce979a4	0.028500386
40	0x3db73a3f	0.089466564
41	0xbcc5a5dc	-0.02412694
42	0xbc730a9a	-0.014834071
43	0xbe1ddb40	-0.15415668
44	0xbdbf343b	-0.09336134
45	0xbd5f7de8	-0.054563433
46	0x3cccb236	0.024987321
47	0x3dcd0b0b	0.10011872
48	0xbdb11cb6	-0.08648054
49	0x3d92738e	0.071509466
50	0x3de0432c	0.10950312
51	0x3ea42ae2	0.32063967
52	0x3e0f39aa	0.13986841
53	0xbc0e9bf0	-0.008704171
54	0x3e1e4e3e	0.15459535
55	0xbe144677	-0.14480005
56	0x3e4a894c	0.19778937
57	0xbe4ad096	-0.19806132
58	0xbe4349e4	-0.19071156
59	0xbd472125	-0.048615593
60	0x3d308a88	0.043100864
61	0x3d6bc954	0.05756505
62	0xbe1b9daf	-0.1519687
63	0x3d75fbe4	0.060054675
64	0x3e8b1e0d	0.27171364
65	0xbc80e043	-0.015731936
66	0xbddbbc27	-0.107292466
67	0x3da90760	0.0825336
68	0x3d6f3512	0.05840022
69	0x3f0f7455	0.56036884
70	0xbda32b49	-0.0796724
71	0x3dad33b8	0.0845713
72	0xbd8a5ccb	-0.0675598
73	0xbc0e6c28	-0.008692779
74	0x3eaaeeac	0.33385217
75	0x3dd2a4f3	0.10285368
76	0x3f0a7f14	0.54100156
77	0xbec7c4c9	-0.39017323
78	0xbd84f253	-0.06491532
79	0xbe9462e4	-0.28981698
80	0x3df8903f	0.12136888
81	0x3f060b24	0.5236075
82	0x3dcf93db	0.10135623
83	0xbdb40cb9	-0.08791489
84	0xbe6d6cf8	-0.231861
85	0xbdb12c2a	-0.08651002
86	0x3e2bcd40	0.16777515
87	0xbea25d7f	-0.31711957
88	0xbd8029a3	-0.062579416
89	0xbf588268	-0.84573984
90	0xbe297131	-0.16547085
91	0xbd5a7a0a	-0.05333904
92	0x3e94f0e1	0.29090026
93	0x3de732ea	0.11289008
94	0xbe1e09e5	-0.15433462
95	0xbdc1a3af	-0.09455048
96	0x3c01d4db	0.007924284
97	0xbda3f657	-0.0800597
98	0x3e8bde5c	0.27318084
99	0x3df48009	0.11938483
100	0x3eda3d90	0.42625093
101	0x3e8f2d99	0.27964476
102	0xbf6d4554	-0.9268391
103	0xbf097716	-0.53697336
104	0xbe871879	-0.2638586
105	0x3ba9f037	0.0051861065
106	0xbec3872d	-0.38189068
107	0xbee2d907	-0.44306204
108	0xbeed10b8	-0.46301818
109	0xbe1ce8eb	-0.15323226
110	0xbccaa475	-0.024736622
111	0x3e69f56e	0.2284753
112	0x3e7ddaad	0.2479045
113	0x3ee9f500	0.45694733
114	0x3efbe7e0	0.49200344
115	0xbccd61af	-0.025070993
116	0xbf058d40	-0.52168655
117	0x3e3b5736	0.18294987
118	0x3da815bf	0.08207273
119	0x3d64f318	0.055895895
120	0xbb0a61a5	-0.002111533
121	0x3e3f0263	0.18653254
122	0x3e0e9fea	0.1392819
123	0xbc29eabb	-0.0103709055
124	0xbe858bb7	-0.26083156
125	0xbe81951e	-0.2530908
126	0xbf0985d6	-0.5371984
127	0xbd17dcd0	-0.037075818
128	0xbd2124da	-0.039341785
129	0xbe936fd4	-0.28796256
130	0xbcd5734d	-0.026055956
131	0x3dbaadfe	0.091152176
132	0xbd69cbff	-0.05707931
133	0xbd168953	-0.036752056
134	0xbb702f07	-0.0036649124
135	0x3d184019	0.037170503
136	0x3d5e3466	0.05424919
137	0x3d9652df	0.07340025
138	0x3d9ad68b	0.07560452
139	0x3dbc7eec	0.09203896
140	0x3ebfc163	0.3745223
141	0x3e33f37f	0.17573355
142	0x3e7c7622	0.24654439
143	0xbe922a5f	-0.28547952
144	0xbeff6b57	-0.4988658
145	0xbd44a0e6	-0.048005007
146	0x3f2c529d	0.6731356
147	0xbdb968ae	-0.09053169
148	0xbde36cca	-0.11104734
149	0x3d27cf96	0.040969454
150	0xbec38b9e	-0.38192457
151	0xbf3439f0	-0.70400906
152	0x3f022d3d	0.5085028
153	0x3e2cb896	0.16867289
154	0x3d5cd6fc	0.053915963
155	0xbe603365	-0.21894605
156	0x3e39e6bb	0.18154423
157	0xbd9c4ca7	-0.07631808
158	0xbe8526df	-0.2600622
159	0xbe3c073f	-0.18362139
160	0xbe6ca5a8	-0.23110068
161	0xbe1b5379	-0.15168561
162	0xbe37a50f	-0.17934059
163	0xbe19c67f	-0.15017127
164	0xbe03cbd6	-0.12870726
165	0xbe038179	-0.12842359
166	0xbe0e4acb	-0.13895719
167	0x3e1d4bb7	0.15360914
168	0xbe594b8a	-0.21220222
169	0xbe32e166	-0.17468795
170	0x3ea25821	0.31707862
171	0xbe01ff0f	-0.12694953
172	0x3f0f88e3	0.5606825
173	0xbe513184	-0.20429045
174	0x3cd538e7	0.02602811
175	0x3f00f37f	0.50371546
176	0x3e2e9371	0.17048432
177	0xbe04d604	-0.12972265
178	0x3f40108b	0.7502524
179	0xbec0149d	-0.37515727
180	0x3e95ef2a	0.2928403
181	0xbf3488b6	-0.70521104
182	0xbc92ae61	-0.017905416
183	0x3d6f4286	0.05841305
184	0xbe6c0673	-0.23049335
185	0xbe493134	-0.19647676
186	0x3e3b2d12	0.18278912
187	0xbea31da7	-0.3185856
188	0xbe09ab35	-0.13444217
189	0x3ee6fb97	0.45113823
190	0x3f99852b	1.1993765
191	0x3f3c4f97	0.73558944
192	0xbdbaaf9f	-0.09115528
193	0x3d45db13	0.04830463
194	0x3eac9f8f	0.33715484
195	0xbe9d1299	-0.3067825
196	0xbe66554b	-0.22493474
197	0x3f0d376f	0.5516271
198	0x3da17644	0.078838855
199	0x3dbbf8ca	0.09178312
200	0xbc84fc74	-0.01623366
201	0x3efcfed4	0.49413168
202	0x3e139f13	0.14416151
203	0xbd0ea642	-0.034826525
204	0xbe66c7e5	-0.22537191
205	0xbdd0055c	-0.10157272
206	0xbeaf7452	-0.34268433
207	0x3ec7c015	0.39013734
208	0x3f1093ac	0.5647533
209	0xbec02bf9	-0.37533548
210	0xbe60c980	-0.21951866
211	0x3cdc941a	0.02692609
212	0xbdd9f721	-0.10642839
213	0x3e3bf545	0.18355282
214	0x3d45136a	0.048114218
215	0xbe68481e	-0.2268376
216	0xbe12cd2f	-0.14336084
217	0xbecd6396	-0.4011504
218	0x3f01c5dd	0.5069254
219	0xbf784a0d	-0.9698799
220	0xbf424170	-0.758811
221	0x3e9c0f55	0.30480447
222	0xbdd919da	-0.10600634
223	0xbe2d28e8	-0.16910136
224	0xbdc40b6a	-0.095724896
225	0xbc0ad6eb	-0.008474092
226	0xbe0492fa	-0.12946692
227	0xbd91f640	-0.071270466
228	0xbdbe51bd	-0.09292934
229	0x3c6b3736	0.014356425
230	0xbd47c918	-0.048775762
231	0x3e9115c9	0.28336933
232	0xbe817c29	-0.2529004
233	0x3ebe8b89	0.37215832
234	0x3ece8cd3	0.40341815
235	0xbe83cc85	-0.25741974
236	0x3ecf2765	0.40459743
237	0x3e63bac8	0.2223922
238	0xbe049eef	-0.12951253
239	0x3d6d80c5	0.057984132
240	0x3e980848	0.29693818
241	0x3c828c19	0.015935944
242	0x3ecf9188	0.4054072
243	0x3cd1bb0d	0.025601888
244	0x3b041223	0.0020152412
245	0xbf2e3f76	-0.68065584
246	0xbee318fd	-0.44355002
247	0xbd926cf5	-0.07149688
248	0x3eab880f	0.33502242
249	0xbdbc5f34	-0.09197846
250	0xbec730d2	-0.38904434
251	0x3ecf5c56	0.40500134
252	0xbd0390ce	-0.03212052
253	0xbe95502e	-0.29162735
254	0x3a04b88c	0.00050629
255	0x3d483711	0.04888064

fc1.bias f4 [128]
0	0x3e7adb25	0.2449766
1	0x3f6c4181	0.9228745
2	0xbf2ca857	-0.67444366
3	0x3f8ec420	1.1153603
4	0x3f6f0619	0.9336868
5	0x3e63f470	0.22261214
6	0x3f0f3648	0.559422
7	0x3ecfe945	0.40607658
8	0xbe2428e3	-0.16031222
9	0x3f38cbe5	0.7218612
10	0x3f62d8a2	0.88611805
11	0x3e6fb622	0.23409322
12	0x3f73a096	0.9516691
13	0xbf1e9a83	-0.61954516
14	0xbf1972d7	-0.59940857
15	0x3ee4ef0a	0.44713622
16	0xbe97f297	-0.2967727
17	0x3f5adf3e	0.8549689
18	0x3e974f48	0.29552674
19	0xbeaa11dd	-0.33216754
20	0x3e277d4e	0.16356394
21	0xbf287a3a	-0.658115
22	0x3eec8cfe	0.46201319
23	0x3f777848	0.9666791
24	0xbf27203d	-0.65283567
25	0x3e7e336e	0.24824306
26	0x3f87d524	1.061192
27	0xbf3cd71e	-0.7376574
28	0xbef396cb	-0.47575983
29	0xbe9f834e	-0.31154865
30	0x3f8a9d3f	1.0829238
31	0x3f5e3b22	0.8680898
32	0x3f4a9a94	0.7914212
33	0x3f42afe5	0.76049644
34	0x3dc5ada3	0.09652259
35	0x3eb49df3	0.35276756
36	0x3f2d3a0e	0.6766671
37	0xbeb70e74	-0.35753214
38	0x3ed0a205	0.4074861
39	0x3ebd1be4	0.3693534
40	0x3dfeb68d	0.124371625
41	0xbf37a6df	-0.71739
42	0x3f4e8beb	0.8068225
43	0xbf1a3b52	-0.60246766
44	0xbe98e1a2	-0.29859644
45	0x3f3f793d	0.7479437
46	0x3f4a1800	0.7894287
47	0x3ec782dd	0.38967028
48	0xbe3640cf	-0.1779816
49	0x3e8266bb	0.25469002
50	0x3f737af7	0.95109504
51	0x3f32e8ac	0.6988628
52	0x3f9c368a	1.2204144
53	0x3ede3064	0.43396294
54	0x3f9d255b	1.2277025
55	0xbd032820	-0.032020688
56	0x3f893f3e	1.0722425
57	0xbdcb0349	-0.09912736
58	0xbec8715f	-0.39148995
59	0x3e963c96	0.29343098
60	0xbdc5810d	-0.09643755
61	0xbdfef62e	-0.12449299
62	0x3f836cfe	1.0267637
63	0xbe65e79f	-0.22451638
64	0x3f0144a9	0.5049539
65	0x3f01c3de	0.50689495
66	0x3ebd9b25	0.37032428
67	0x3fa2a06a	1.2705204
68	0x3f804867	1.0022095
69	0x3f9e196d	1.2351509
70	0x3f6d3a4a	0.9266707
71	0xbe21ef9c	-0.1581406
72	0xbf116d70	-0.56807613
73	0xbe59eb7d	-0.21281238
74	0x3f7c60ab	0.98585004
75	0x3f1e8999	0.6192871
76	0x3ecdecdf	0.4021978
77	0x3f6c1eed	0.9223469
78	0xbc596100	-0.0132677555
79	0x3edfb8fd	0.43695822
80	0xbe5513ef	-0.20808385
81	0x3eb93c64	0.36178887
82	0x3ee9f66d	0.4569582
83	0xbec03ac9	-0.3754485
84	0xbf159ad9	-0.58439404
85	0xbeaadc71	-0.33371308
86	0x3d8ffa15	0.07030121
87	0x3f6a7b33	0.9159424
88	0x3f766510	0.9624796
89	0xbe18bb0a	-0.149151
90	0x3f3aa8c7	0.72913784
91	0xbc8caa1e	-0.017170962
92	0x3e9e3a4d	0.30903855
93	0x3d5f66b5	0.05454131
94	0x3ec2aa56	0.3802058
95	0x3fcc151f	1.5943946
96	0xbed1a7ff	-0.40948483
97	0x3d00735c	0.031360015
98	0x3e65e735	0.2245148
99	0xbd8ee3b3	-0.06977024
100	0x3f879bc5	1.0594412
101	0xbe8b9f45	-0.2726995
102	0x3f041522	0.51594746
103	0x3f93194c	1.1492095
104	0x3ea8a644	0.3293935
105	0xbec0cd0b	-0.37656435
106	0xbf459868	-0.7718568
107	0x3ca910fa	0.020637978
108	0x3e843a9a	0.2582596
109	0x3f2e6dd8	0.6813636
110	0xbeea39bd	-0.45747176
111	0x3f77123f	0.96512216
112	0xbe47abac	-0.19499081
113	0xbef6a21f	-0.48170564
114	0x3f4912ff	0.7854461
115	0x3f8f6dda	1.1205399
116	0x3f9c2e06	1.2201545
117	0x3f38aba1	0.72136885
118	0x3f15220f	0.58255094
119	0x3ecb61c8	0.3972304
120	0x3f52aa82	0.82291424
121	0xbdd11550	-0.10209143
122	0xbe309911	-0.1724589
123	0xbf22367d	-0.6336439
124	0xbf59478d	-0.848748
125	0x3f0a01e2	0.5390912
126	0x3e72c511	0.23707987
127	0x3f515d86	0.8178333

fc2.weight f4 [256, 128]
0	0x3eef55d5	0.46745172
1	0x3e553eda	0.20824757
2	0xbf0f912e	-0.560809
3	0x3e14538b	0.14484994
4	0x3ea1094a	0.314524
5	0xbd306630	-0.043066204
6	0x3da4ae4a	0.080410555
7	0x3c7e5840	0.01552397
8	0xbf008d9f	-0.50216097
9	0xbe5d4b94	-0.21610862
10	0x3de47be2	0.11156441
11	0xbe44b2a2	-0.19208768
12	0x3e000186	0.12500581
13	0x3f3673f9	0.7127071
14	0xbcfb9343	-0.030709868
15	0xbcc2cbfb	-0.023778906
16	0xbe46fab2	-0.1943157
17	0x3cf72a18	0.030171439
18	0x3d2aa693	0.041662764
19	0xbf428ade	-0.75993145
20	0x3e440ca7	0.19145451
21	0xbeee31c4	-0.46522343
22	0x3ddc7d5c	0.10766098
23	0x3e82ef9e	0.25573438
24	0xbe5bea92	-0.214762
25	0x3e8c5051	0.27405027
26	0x3e2e3405	0.17012031
27	0xbeb17515	-0.3465964
28	0xbf1516c3	-0.58237857
29	0xbe86abd2	-0.26302963
30	0x3e482f68	0.19549334
31	0x3de1bfda	0.11022921
32	0xbe27da30	-0.16391826
33	0xbe320216	-0.17383608
34	0xbc5b0911	-0.013368861
35	0xbdd8130f	-0.1055051
36	0x3e04cd2d	0.12968893
37	0x3d6d617e	0.057954304
38	0xbedf0fc1	-0.43566707
39	0x3dbcacc1	0.09212638
40	0x3d81fa09	0.063465185
41	0x3dec4cfc	0.11538121
42	0xbde09a52	-0.10966934
43	0xbee67e1e	-0.45018095
44	0xbe3d50b2	-0.18487814
45	0x3e0cd8e1	0.13754608
46	0xbdde111f	-0.10843109
47	0xbde0b4bd	-0.10971973
48	0xbebb6baa	-0.3660558
49	0xbe5a3d7b	-0.21312515
50	0x3e253740	0.16134357
51	0x3e141389	0.14460577
52	0x3e267794	0.16256553
53	0xbdff0f60	-0.124541044
54	0x3e89f00c	0.26940954
55	0xbcd91de1	-0.026503505
56	0x3d4589b0	0.048227012
57	0xbe9f1f2d	-0.31078473
58	0x3f6579f3	0.89639205
59	0xbeb1a4f3	-0.3469616
60	0x3d3c63ae	0.0459935
61	0xbeb046e1	-0.34429076
62	0x3e89163c	0.26774776
63	0x3d4f4a14	0.050607756
64	0xbd2a51b3	-0.04158182
65	0x3e5eaab2	0.21744803
66	0x3d78fa86	0.060785793
67	0x3e972fe4	0.29528725
68	0x3d942174	0.07232943
69	0x3e9f3958	0.31098437
70	0x3e1f4a38	0.15555656
71	0x3d839892	0.06425585
72	0xbf27bbef	-0.6552114
73	0x3f3466b1	0.70469195
74	0x3de3e45e	0.11127542
75	0xbeea3d6c	-0.45749986
76	0xbd6c5dc1	-0.0577066
77	0x3e6bfcc9	0.23045649
78	0x3d9175c7	0.07102542
79	0xbe18fc12	-0.14939907
80	0xbe276a05	-0.16349037
81	0xbf28f0fb	-0.65992707
82	0x3e279b43	0.16367821
83	0xbe52a638	-0.2057122
84	0xbe8ef816	-0.2792365
85	0xbfa69eef	-1.3017253
86	0xbf21cb35	-0.63200694
87	0x3e1f1623	0.15535788
88	0x3decccf1	0.11562527
89	0xbee5a4e8	-0.44852376
90	0x3e10538b	0.14094369
91	0xbe4c00ca	-0.19922176
92	0x3d217416	0.03941735
93	0xbe94e883	-0.29083642
94	0x3d664593	0.056218695
95	0x3d88bb50	0.06676352
96	0xbf4c8f00	-0.799057
97	0xbf34f935	-0.7069276
98	0x3e55e2d3	0.20887308
99	0x3d424d42	0.04743696
100	0x3e878b37	0.264734
101	0xbe3dd47b	-0.18538086
102	0xbe1f7cfe	-0.15575024
103	0x3e031a72	0.12803057
104	0xbe49f4fb	-0.19722359
105	0xbf8000e6	-1.0000274
106	0xbd3d43d7	-0.046207275
107	0xbee7b418	-0.45254588
108	0xbe5e51db	-0.21710913
109	0xbe208eb2	-0.15679434
110	0xbedab3a6	-0.42715186
111	0x3e524922	0.2053571
112	0xbd692434	-0.05691929
113	0xbdf2f648	-0.11863381
114	0x3cedc989	0.029026764
115	0x3e0b8dbb	0.13628285
116	0x3e0e3113	0.13885908
117	0x3c10b635	0.008832504
118	0x3d993740	0.07481241
119	0xbed185b7	-0.4092233
120	0xbdcebbaa	-0.10094388
121	0xbe44a6e7	-0.19204293
122	0xbe9dd058	-0.30823016
123	0xbf72dae6	-0.9486526
124	0xbe39a9f5	-0.1813124
125	0xbecc785d	-0.3993558
126	0x3ea4b4ba	0.32169133
127	0x3e71f272	0.23627642
128	0xbd2f4ee7	-0.042799857
129	0x3e38d82e	0.18051216
130	0x3dad1ef4	0.084531695
131	0x3ebd8f3c	0.37023342
132	0x3e9dad26	0.30796164
133	0x3d7e17c1	0.062034372
134	0x3d8e45fa	0.06946941
135	0x3e2ba647	0.16762649
136	0xbcf82a61	-0.030293645
137	0x3d81e7df	0.06343054
138	0x3e543b6e	0.20725796
139	0x3e38a7d2	0.18032768
140	0x3e6743e7	0.22584496
141	0xbd44d4e1	-0.04805458
142	0xbe74651f	-0.238667
143	0x3e8267fd	0.25469962
144	0xbe008fd4	-0.12554866
145	0x3ea9e3c7	0.33181593
146	0xbe0fc22b	-0.14038913
147	0xbe1ab623	-0.15108542
148	0xbef7e1a6	-0.48414344
149	0x3e4828a7	0.19546758
150	0x3dd97585	0.10618118
151	0x3e408e69	0.18804325
152	0xbde242a4	-0.11047867
153	0x3e0012d7	0.12507187
154	0x3e533d1d	0.20628782
155	0x3e83e81f	0.25763032
156	0x3db7f7bc	0.089827985
157	0xbcaac0a6	-0.020843815
158	0x3e90bbab	0.2826818
159	0x3e6bdcf4	0.23033506
160	0x3e336a81	0.17521097
161	0x3d0a5ea1	0.03378165
162	0xbe699c58	-0.22813547
163	0xbe821b35	-0.25411382
164	0x3e73c016	0.23803744
165	0xbdb23994	-0.087023884
166	0xbdb716ea	-0.089399174
167	0x3cde3dd5	0.027129093
168	0x3dce8dbb	0.10085627
169	0x3e1a3871	0.15060593
170	0x3d398db3	0.04530115
171	0x3e149c61	0.14512779
172	0x3e12855b	0.14308684
173	0x3d94be8d	0.07262907
174	0x3d879568	0.06620294
175	0xbdeaeedf	-0.11471342
176	0xbdb5794a	-0.08861025
177	0xbdeeed11	-0.116663106
178	0x3e85b022	0.2611094
179	0x3e7037c9	0.2345878
180	0x3ecf19d5	0.40449396
181	0xbe0e04e2	-0.1386905
182	0x3e8ed48c	0.27896535
183	0xbba40e76	-0.0050066067
184	0x3e2c7627	0.16841947
185	0x3dedd282	0.11612417
186	0x3e48fe93	0.19628362
187	0xbe301484	-0.17195326
188	0x3e1bae90	0.15203309
189	0x3cb61f77	0.0222318
190	0x3e9a4671	0.30131868
191	0x3d8e91d3	0.069614075
192	0x3e3b3e1d	0.18285413
193	0xbe076e1a	-0.13225594
194	0x3e80185b	0.25018582
195	0x3ea48b0d	0.32137337
196	0x3e29539d	0.16535802
197	0x3ea39550	0.31949854
198	0xbe56dfec	-0.20983857
199	0x3d9b35dd	0.07578633
200	0x3dd85401	0.105628975
201	0xbec71e5d	-0.38890353
202	0x3dddaf94	0.108245045
203	0x3e9bc92d	0.30426922
204	0x3e321847	0.17392074
205	0x3e746446	0.23866376
206	0xbe7a8d24	-0.24467903
207	0x3e1348fa	0.14383307
208	0x3d99d73e	0.07511757
209	0x3d6260d1	0.055268113
210	0x3e87427f	0.2641792
211	0x3df7940f	0.12088787
212	0xbdbb0c29	-0.09133179
213	0x3d4a1b30	0.049342334
214	0x3c7cee2b	0.015437643
215	0x3e12fdea	0.14354673
216	0x3decd890	0.115647435
217	0xbdcec914	-0.10096946
218	0x3e36e81c	0.1786198
219	0xbe91252d	-0.28348675
220	0xbbfec3b0	-0.0077747926
221	0x3e7d675c	0.2474646
222	0x3db1514a	0.08658083
223	0x3f1d396d	0.6141575
224	0x3c1e5419	0.009663605
225	0x3e83af3a	0.25719625
226	0xbea43f54	-0.32079566
227	0x3c81e521	0.015856327
228	0x3e385501	0.18001176
229	0xbd750a44	-0.059824243
230	0x3e7eede3	0.24895434
231	0x3eb12dd0	0.34605265
232	0x3df4c3cd	0.119514085
233	0x3e0fd303	0.14045338
234	0x3e025462	0.12727502
235	0xbe0a52c3	-0.13508134
236	0x3d97ef81	0.074187286
237	0x3dc6df36	0.09710543
238	0xbdd7245d	-0.105049826
239	0x3e548388	0.207533
240	0x3edba6e9	0.4290078
241	0x3e171bef	0.1475675
242	0x3d78c24d	0.060732175
243	0x3e99f20c	0.3006748
244	0x3ed89a03	0.42305002
245	0x3e8b6a09	0.27229336
246	0x3e9ac611	0.30229238
247	0xbda036f4	-0.078229815
248	0x3dd8006e	0.10546957
249	0x3e171679	0.14754666
250	0x3e5f0f45	0.21783169
251	0xbe4b3d5c	-0.19847625
252	0x3d37d8c0	0.044884443
253	0x3de51f37	0.111875944
254	0xbcf0253b	-0.029314628
255	0x3e8d5ded	0.27610722

fc2.bias f4 [256]
0	0x3eff5018	0.49865794
1	0x3f3f9280	0.74832916
2	0x3f0b0512	0.5430461
3	0x3f1343fc	0.5752561
4	0x3f3fb9d9	0.74892956
5	0x3f0f1f24	0.5590689
6	0x3eac8c86	0.3370096
7	0x3ef72f55	0.482783
8	0x3f017a2f	0.5057706
9	0x3f42b9d2	0.7606479
10	0x3f083612	0.53207505
11	0x3f1c3613	0.6102001
12	0x3f4cf4b1	0.8006087
13	0xbd8c5833	-0.0685276
14	0x3f042426	0.5161766
15	0x3efd0451	0.49417356
16	0x3f687062	0.9079648
17	0x3f6ec0ca	0.9326292
18	0x3f6dbf52	0.92870057
19	0x3f30bcb9	0.6903797
20	0x3ef42367	0.4768326
21	0x3f178562	0.591879
22	0x3f1c15b6	0.6097063
23	0x3f11d79c	0.5696962
24	0x3f5a00ad	0.8515728
25	0x3f09576c	0.5364902
26	0x3f1f360d	0.6219185
27	0x3f56a6d5	0.83848315
28	0x3ebb1a66	0.36543578
29	0x3f137f26	0.5761589
30	0x3edd15c6	0.43180674
31	0x3eca4a53	0.3950983
32	0x3f640d66	0.89082944
33	0x3f0606dd	0.5235422
34	0x3f4981e1	0.78713804
35	0x3f2b171f	0.66832155
36	0x3f3c422e	0.7353848
37	0x3f66e815	0.9019788
38	0x3ec77ba3	0.38961515
39	0x3f2ebdf7	0.68258613
40	0x3f4bf569	0.7967134
41	0x3f3130fa	0.6921536
42	0x3f1face9	0.62373215
43	0x3f6d75a6	0.9275764
44	0x3ef1fa2e	0.47261184
45	0x3f143c8f	0.57904905
46	0x3eecd3bb	0.46255288
47	0x3e5bbe6d	0.2145936
48	0x3f476460	0.77887535
49	0x3f022ae6	0.5084671
50	0x3f01ab38	0.50651884
51	0x3f04e91d	0.519182
52	0x3f372009	0.71533257
53	0x3f039380	0.5139694
54	0x3f097271	0.5369025
55	0x3f02a42d	0.5103176
56	0x3ec74cf4	0.38925898
57	0x3f61d39f	0.88213533
58	0x3f150f56	0.58226526
59	0x3f519a2a	0.8187586
60	0x3f6a3468	0.91486216
61	0x3ed47d2f	0.41501758
62	0x3f3ed6bd	0.74546415
63	0x3ef6e462	0.48221117
64	0x3f3a6252	0.72806275
65	0x3f374ded	0.7160328
66	0x3f2c3766	0.6727203
67	0x3f3f4eda	0.7472969
68	0x3bf952fe	0.0076087704
69	0x3f1e9a10	0.6195383
70	0x3f2ba4cc	0.67048335
71	0x3ed9d2d0	0.4254365
72	0x3efce2c6	0.49391764
73	0x3f25a65f	0.6470699
74	0x3f15a8ad	0.58460504
75	0x3f566e45	0.8376201
76	0x3f00d322	0.50322163
77	0x3f26c43a	0.6514317
78	0x3f0a8b76	0.5411905
79	0x3e8e7e20	0.278306
80	0x3f449649	0.76791817
81	0x3f189935	0.59608775
82	0x3f08e466	0.5347351
83	0x3f27a0f6	0.6547998
84	0x3f0bbf51	0.545888
85	0x3f4d0071	0.800788
86	0x3d16c433	0.036808204
87	0x3f23e41f	0.6401996
88	0x3f4f01f3	0.8086235
89	0x3f12256f	0.5708837
90	0x3f21c209	0.631867
91	0x3ee7de2f	0.452867
92	0x3f4dcab5	0.8038743
93	0x3f13794e	0.5760697
94	0x3f223960	0.633688
95	0x3f01e7b6	0.5074419
96	0x3f088dfb	0.53341645
97	0x3f2b34bb	0.66877335
98	0x3ef26df0	0.473495
99	0x3f0e7a51	0.5565539
100	0x3f2624e1	0.6490002
101	0x3f291f45	0.6606334
102	0x3f54a6e4	0.83067155
103	0x3f0a971d	0.5413683
104	0x3ebf6a00	0.3738556
105	0xbd9020f6	-0.07037537
106	0x3f3abcc9	0.72944313
107	0x3f1eb54e	0.619954
108	0x3f153d91	0.5829707
109	0x3efffc9e	0.4999742
110	0xbcf53f0d	-0.029937292
111	0x3f095590	0.53646183
112	0x3f64fd47	0.8944897
113	0x3f0b8556	0.5450033
114	0x3f688593	0.9082882
115	0x3efc94a0	0.49332142
116	0x3f0efb29	0.5585199
117	0x3d247426	0.04014983
118	0x3f15816e	0.5840062
119	0x3f2a9de1	0.66647154
120	0x3f3b806a	0.7324282
121	0x3f47c78e	0.7803887
122	0x3f2473ad	0.6423901
123	0x3f1df71d	0.6170519
124	0x3f5fe441	0.8745766
125	0x3f0353a8	0.51299524
126	0x3f3d3c75	0.73920375
127	0x3f098209	0.5371404
128	0x3ef4ceba	0.4781397
129	0x3f072bf6	0.52801454
130	0x3f43c6a3	0.7647497
131	0x3b3d72ab	0.0028907459
132	0x3eb40ec2	0.3516751
133	0x3f066c8d	0.52509385
134	0x3eaa79c6	0.3329603
135	0x3f59a943	0.850239
136	0x3f5b873c	0.85753226
137	0x3f16ac0f	0.5885629
138	0x3f4defbf	0.8044395
139	0x3f6dc7bd	0.928829
140	0x3eeccbeb	0.46249327
141	0x3f382fbc	0.71947837
142	0x3f51fed5	0.8202947
143	0x3f259d07	0.6469273
144	0x3ebcdffe	0.36889642
145	0x3f052a2e	0.52017486
146	0x3f1dc848	0.6163373
147	0x3f3e3cff	0.7431182
148	0x3f53002a	0.82422125
149	0x3f622b22	0.88347065
150	0x3eea5b2e	0.4577269
151	0x3f4c5913	0.79823416
152	0x3f0ebc07	0.55755657
153	0xbd97f8cd	-0.07420502
154	0x3eec6bec	0.46176088
155	0x3f6e8176	0.9316629
156	0x3f02e4f0	0.5113058
157	0x3f1f93ac	0.62334704
158	0x3f08078c	0.53136516
159	0x3f453268	0.7703004
160	0x3f1b4b2a	0.60661566
161	0x3f26b62b	0.65121716
162	0x3f11a1d5	0.5688756
163	0x3ed0473c	0.40679348
164	0x3f319b2e	0.6937741
165	0x3eb1feae	0.34764618
166	0x3f562880	0.8365555
167	0x3f5d11ba	0.86355174
168	0x3f46d485	0.7766803
169	0x3f3243d4	0.6963475
170	0x3f6a8e1b	0.91623086
171	0x3f531bbd	0.824642
172	0x3ed8ef06	0.4236986
173	0x3f2f7a19	0.6854568
174	0x3f098951	0.53725153
175	0x3f062255	0.52396137
176	0x3e90ff99	0.28320006
177	0x3e4eac74	0.20182973
178	0x3f00bfe5	0.5029281
179	0x3f104b9f	0.5636539
180	0x3f433576	0.7625345
181	0x3ec55c54	0.38547003
182	0x3f423ab0	0.758708
183	0xbdd6e27a	-0.10492416
184	0x3ef66c80	0.48129654
185	0x3f5ae717	0.85508865
186	0x3f3545be	0.70809543
187	0x3ee55af1	0.44795945
188	0x3f198f0d	0.59983903
189	0x3f284136	0.65724504
190	0x3ec28a72	0.3799625
191	0x3f20391c	0.6258714
192	0x3f149409	0.58038384
193	0x3f46a503	0.7759554
194	0x3f40aef4	0.7526696
195	0x3f52ce2c	0.82345843
196	0x3f45491d	0.77064687
197	0x3f33f60f	0.7029733
198	0x3f438004	0.7636721
199	0x3ef40990	0.47663546
200	0x3f22974f	0.6351213
201	0x3f6a186f	0.9144353
202	0x3f1a3671	0.6023932
203	0x3eff42cd	0.49855652
204	0x3f519d2e	0.8188046
205	0x3f269af0	0.65080166
206	0x3f0d33fd	0.5515745
207	0x3f1f799e	0.6229495
208	0x3f23e0ef	0.64015096
209	0x3f5bd46d	0.8587101
210	0x3efb5ce4	0.49094307
211	0x3f05152e	0.5198544
212	0x3f5e578d	0.8685234
213	0x3f4f5d9f	0.8100223
214	0x3ec640a6	0.38721198
215	0x3f06e25a	0.52689135
216	0x3f17c42c	0.5928371
217	0xbdbd3fe4	-0.09240702
218	0x3f44a34e	0.76811683
219	0x3f466c8e	0.7750939
220	0x3f087672	0.53305733
221	0x3f36797f	0.7127914
222	0x3edb356d	0.42814198
223	0x3f40fbca	0.753842
224	0x3ef188ec	0.47174776
225	0x3f19f885	0.60144836
226	0x3f5e2bf5	0.86785823
227	0x3f50b56f	0.81526846
228	0x3f649632	0.8929168
229	0x3f2027bd	0.62560636
230	0x3f67baa5	0.9051917
231	0x3f242d01	0.6413117
232	0x3eeb18ba	0.45917302
233	0x3f396b8d	0.72429734
234	0x3ebff8f4	0.37494624
235	0x3f59fcb1	0.851512
236	0x3f5a9422	0.8538228
237	0x3f05e68b	0.52304906
238	0x3f1875b7	0.5955462
239	0x3f0a29bf	0.5396995
240	0x3f344a77	0.70426124
241	0x3f4a6de9	0.7907396
242	0x3eb0db18	0.34542155
243	0x3f43d13f	0.7649116
244	0x3f103095	0.5632413
245	0x3f241b2d	0.64103967
246	0x3f13c9f3	0.57730025
247	0x3f3193af	0.6936597
248	0x3f6d58f0	0.9271383
249	0xbce6e047	-0.028183116
250	0x3e838a0f	0.25691268
251	0x3f2c444e	0.67291725
252	0x3f57ab52	0.8424579
253	0x3f26352e	0.64924896
254	0x3f31189d	0.6917818
255	0xbec7bfc0	-0.3901348

fc3.weight f4 [128, 256]
0	0x3ebfc281	0.37453082
1	0xbe36b81f	-0.17843674
2	0x3f4e4d25	0.80586463
3	0xbd43b5f3	-0.047780942
4	0xbdf8c20c	-0.121463865
5	0xbd817702	-0.06321527
6	0x3ebabd8d	0.3647274
7	0x3e8a7c90	0.2704816
8	0x3e054752	0.13015488
9	0x3e464f4e	0.1936619
10	0xbe06e5ee	-0.13173649
11	0x3d5889be	0.052865736
12	0xbd210112	-0.03930766
13	0xbcf9cc6c	-0.030492984
14	0xbe893b29	-0.26802948
15	0xbd697c42	-0.057003267
16	0xbcf9a2f6	-0.030473214
17	0xbe06a254	-0.13147861
18	0x3d912ff0	0.070892215
19	0xbd9cea70	-0.07661903
20	0x3e6b342a	0.22969118
21	0x3d6fc0b0	0.05853337
22	0xbd5609b6	-0.052255355
23	0x3e9dd34f	0.30825278
24	0x3f0d4b47	0.5519299
25	0xbd25e740	-0.04050374
26	0x3ef477da	0.4774769
27	0x3f408342	0.75200284
28	0x3e6969a7	0.2279421
29	0xbd039ee5	-0.032133956
30	0x3f5b84eb	0.8574969
31	0x3ef27485	0.47354522
32	0xbba3833f	-0.004990011
33	0x3d2f56b6	0.042807303
34	0x3f1e9127	0.61940235
35	0x3d6ba57b	0.05753086
36	0x3cd14158	0.025543854
37	0xbd7339e8	-0.059381396
38	0xbd66187e	-0.0561757
39	0xbb550862	-0.0032506217
40	0x3e15510c	0.14581698
41	0x3e16b3fc	0.14717096
42	0xbdb034a8	-0.086037934
43	0xbe22e9a4	-0.1590944
44	0x3d129b1f	0.035792466
45	0x3cd160b3	0.025558805
46	0xbda1535c	-0.07877228
47	0xbd89eca5	-0.067345895
48	0x3e75d04c	0.2400524
49	0xbdff4fb2	-0.124663725
50	0x3dee7c59	0.11644811
51	0x3e7f6f59	0.2494482
52	0xbe76a5c5	-0.24086674
53	0xbe05e7bd	-0.13076682
54	0xbde51db9	-0.1118731
55	0x3dafaba9	0.085776635
56	0x3ecc1734	0.39861453
57	0xbe79beab	-0.2438914
58	0xbb59a6c8	-0.0033210982
59	0x3f5bf33a	0.8591801
60	0xbdb512bc	-0.08841464
61	0x3e24d5cf	0.16097187
62	0xbd61ea53	-0.05515511
63	0x3ea549bf	0.32282826
64	0x3e941df3	0.289291
65	0x3dcdc819	0.10047931
66	0xbdece769	-0.115675755
67	0xbd164d51	-0.03669483
68	0x3ca61a08	0.020276085
69	0xbda07401	-0.07834626
70	0xbf8fb772	-1.1227858
71	0x3ea8ebc5	0.32992378
72	0x3dcd5c51	0.100273736
73	0x3e88a86c	0.26690996
74	0xbec19c30	-0.37814474
75	0x3ef92054	0.48657477
76	0x3de104b2	0.10987224
77	0xbda16270	-0.078801036
78	0x3e04b1a5	0.12958391
79	0x3e56d6a5	0.20980318
80	0xbdc73f04	-0.09728816
81	0xbdc930c0	-0.098237514
82	0xbc8fc907	-0.017551912
83	0xbe69006c	-0.22754067
84	0x3eff8877	0.49908802
85	0x3d1bcf2a	0.038039364
86	0xbd4ce3d9	-0.05002198
87	0x3e08ca97	0.13358532
88	0x3d90d7fc	0.07072446
89	0xbdd6a4d0	-0.10480654
90	0xbd363af7	-0.044489827
91	0xbcbbfbab	-0.022947153
92	0x3f3dcbcb	0.7413909
93	0xbe54a78e	-0.20767042
94	0xbddd3f9a	-0.10803147
95	0x3e6279df	0.22116803
96	0x3c4ab974	0.012373317
97	0xbce6bc6b	-0.028166017
98	0x3e8e7b4b	0.2782844
99	0x3f62462f	0.8838834
100	0xbfa6639b	-1.2999147
101	0xbd81a80a	-0.06330879
102	0xbd441db6	-0.047879897
103	0xbc99c922	-0.018772665
104	0x3ea57597	0.32316276
105	0xbdad5987	-0.084643416
106	0x3d8b42a0	0.06799817
107	0xbcd71311	-0.026254209
108	0x3ccab863	0.024746126
109	0xbdf4d807	-0.119552664
110	0xbefe1820	-0.4962778
111	0xbf205cb0	-0.6264143
112	0xbdd842f6	-0.10559647
113	0x3d881ecc	0.06646499
114	0x3e93ea8f	0.28889892
115	0x3e3570c9	0.17718805
116	0x3e8b78b9	0.27240542
117	0x3d42aaa0	0.047526002
118	0x3e0d174b	0.13778417
119	0x3d8c7e1f	0.06859993
120	0xbe1b52e0	-0.15168333
121	0xbde7aee6	-0.11312656
122	0xbd4225e0	-0.0473994
123	0x3e4f0d1c	0.20219845
124	0xbd84f240	-0.06491518
125	0x3daeb188	0.08529955
126	0x3df54418	0.119758785
127	0xbd27ddff	-0.040983196
128	0xbe2a5414	-0.16633636
129	0x3c5757aa	0.013143459
130	0x3da893b5	0.08231298
131	0x3d0c7773	0.034293603
132	0x3e9d5206	0.3072664
133	0xbd9d1569	-0.07670099
134	0x3f0b1c8e	0.54340446
135	0x3e2204f8	0.15822208
136	0xbdef7f30	-0.11694181
137	0x3f35e03a	0.7104527
138	0xbe055f93	-0.1302474
139	0xbdcd7f6a	-0.10034068
140	0x3d47d6dc	0.04878889
141	0xbe988e37	-0.29796
142	0x3eb9b517	0.36270973
143	0xbe0a0671	-0.1347902
144	0x3f56ef80	0.839592
145	0xbf170678	-0.58994246
146	0xbdbaabb9	-0.09114785
147	0x3f0054b2	0.50129235
148	0x3f2da351	0.67827326
149	0xbd6bde5a	-0.057585098
150	0x3e8e622a	0.27809268
151	0xbd59d3a1	-0.05318034
152	0xbe610415	-0.21974213
153	0x3ce34e34	0.027747251
154	0xbeec3bf6	-0.46139497
155	0xbdb181f8	-0.08667368
156	0xbe284eb2	-0.1643627
157	0xbf38c8bb	-0.7218129
158	0x3e6d4e5b	0.23174421
159	0xbd2dcff2	-0.04243464
160	0xbf869dc8	-1.0516901
161	0x3d3f6fab	0.046737354
162	0x3e3643e7	0.1779934
163	0x3f008388	0.502007
164	0xbd5bedb5	-0.053693492
165	0x3ecf3353	0.40468845
166	0xbdb6eebb	-0.08932253
167	0xbe026be5	-0.12736471
168	0x3df3a2fc	0.11896321
169	0xbc996620	-0.018725455
170	0xbc3d0767	-0.011537409
171	0x3d52dbfb	0.05147932
172	0x3e2d379c	0.16915745
173	0xbc5ddcf0	-0.013541445
174	0xbe14d8b5	-0.14535792
175	0xbe48c525	-0.19606455
176	0x3e170472	0.1474779
177	0x3eb75311	0.35805562
178	0x3dbd1fec	0.09234604
179	0xbddb0ac6	-0.10695414
180	0x3dc868c2	0.09785606
181	0x3eecb604	0.46232617
182	0x3e35bb45	0.17747219
183	0x3c55a9f8	0.013041012
184	0xbe21a337	-0.15784918
185	0x3cf79dbe	0.030226585
186	0x3f07efa6	0.5310005
187	0x3b888125	0.004165786
188	0xbd393c88	-0.045223743
189	0xbd928674	-0.07154551
190	0x3e3a4a11	0.18192317
191	0x3ea0ea2a	0.31428653
192	0xc0052b87	-2.0807817
193	0x3e84ec78	0.2596166
194	0x3e0d5adc	0.13804191
195	0x3f42f16e	0.7614964
196	0xbb111b18	-0.0022141393
197	0x3dc51156	0.09622447
198	0x3f090eab	0.53538007
199	0x3e7aa34c	0.24476355
200	0x3ec79811	0.38983205
201	0xbe24439f	-0.1604142
202	0x3df659d2	0.120288506
203	0xbe0ce670	-0.1375978
204	0xbda50e17	-0.08059328
205	0xbdaeb148	-0.085299075
206	0x3dd93af0	0.106069446
207	0xbe5a4f99	-0.21319427
208	0xbe5f6bdf	-0.21818493
209	0xbb445d50	-0.0029962845
210	0x3dd04691	0.101697095
211	0x3bb37a6b	0.00547724
212	0x3f5726b3	0.84043425
213	0x3cc4d01e	0.02402502
214	0xbe6b0828	-0.2295233
215	0x3e946691	0.28984502
216	0xbf31c9d3	-0.69448584
217	0xbd658886	-0.056038402
218	0xbdbf7fa6	-0.09350519
219	0xbdd1e24f	-0.10248243
220	0xbe86d9f8	-0.26338172
221	0xbe1003bf	-0.14063929
222	0xbf016f96	-0.5056089
223	0xbc96ab54	-0.018392242
224	0x3c11e5b7	0.008904866
225	0xbdba368a	-0.09092434
226	0xbe12e5fe	-0.14345548
227	0xbd8ced48	-0.06881195
228	0xbdc54108	-0.09631544
229	0x3f838df5	1.0277697
230	0xbd3c3f2b	-0.04595868
231	0xbe0cfae2	-0.13767579
232	0x3e83573d	0.25652495
233	0xbc723d03	-0.014785054
234	0xbed5fcef	-0.41794536
235	0xbe4cfbf3	-0.20017986
236	0xbddbb6fa	-0.107282594
237	0x3ca71d02	0.020399574
238	0x3dff1ed6	0.12457053
239	0x3d4dd994	0.050256327
240	0x3b73c2f3	0.0037195056
241	0x3f1f0b00	0.6212616
242	0x3e1c2bab	0.15251033
243	0xbdbc3a7d	-0.09190843
244	0xbd46d8f4	-0.048546746
245	0xbef70a18	-0.48249888
246	0xbd023f83	-0.03179885
247	0xbd6f1fc5	-0.058379907
248	0x3f3941ed	0.7236622
249	0x3d1587cb	0.036506455
250	0x3f86aac2	1.0520861
251	0xbdee85fd	-0.1164665
252	0xbde36744	-0.11103681
253	0xbb55e78a	-0.0032639229
254	0x3b097246	0.0020972653
255	0x3f89e988	1.0774393

fc3.bias f4 [128]
0	0x3f1a59aa	0.60293067
1	0x3f54f8f4	0.8319237
2	0x3f7c1cf5	0.98481685
3	0x3f70a1fb	0.9399716
4	0x3d197f6d	0.03747504
5	0x3f68ccc3	0.9093744
6	0x3f0d4a60	0.5519161
7	0x3f17d834	0.59314275
8	0xbd0a6431	-0.033786956
9	0xbd7a06af	-0.06104153
10	0x3f474df0	0.778533
11	0x3f009102	0.50221264
12	0x3f25bfa3	0.6474554
13	0x3f7b4e3b	0.98166245
14	0xbda7528a	-0.0817004
15	0x3f42b270	0.76053524
16	0x3f87af74	1.0600419
17	0x3f8467d8	1.0344191
18	0x3f4f2757	0.809194
19	0x3f28266e	0.6568364
20	0x3f804684	1.002152
21	0xbc9e2ac2	-0.019307498
22	0x3f7c8717	0.9864363
23	0x3c269e7d	0.0101696225
24	0x3d024dd9	0.031812523
25	0x3f1c7514	0.6111615
26	0x3f155fb5	0.5834916
27	0x3f4d1288	0.801064
28	0x3f7d9a1c	0.9906328
29	0x3cb0c0a1	0.021576228
30	0x3f2fd3f8	0.68682814
31	0x3f6e1589	0.9300161
32	0xbc277d82	-0.0102227945
33	0x3f6865fd	0.9078062
34	0x3f6e901c	0.93188643
35	0x3f52a4a0	0.8228245
36	0x3f4c8b2c	0.7989986
37	0x3f69555d	0.9114588
38	0x3f208bc9	0.62713295
39	0xbd35a00a	-0.04434208
40	0xbd8ca653	-0.06867661
41	0x3ce3698b	0.027760288
42	0xbc8ab63a	-0.016932596
43	0x3f167b1d	0.58781606
44	0x3f068b7f	0.52556604
45	0x3f6ccbb9	0.92498356
46	0x3f333b9a	0.7001282
47	0x3f1dad51	0.61592585
48	0x3f1699d4	0.58828473
49	0x3f786399	0.97026974
50	0x3f65bb4c	0.8973892
51	0x3f54c0c9	0.83106667
52	0x3f4436b8	0.76645994
53	0xbd4f8e78	-0.05067298
54	0x3ca650b8	0.020302162
55	0x3f856369	1.0420963
56	0xbda7a0aa	-0.08184941
57	0x3f315312	0.6926738
58	0x3f29d37a	0.6633831
59	0x3f75819b	0.9590089
60	0xbd039dcc	-0.03213291
61	0xba9cf241	-0.0011974053
62	0x3f6202bd	0.8828543
63	0xbcaa5414	-0.020792045
64	0x3f0628cc	0.52406
65	0xbdcccbfc	-0.099998444
66	0x3f17b656	0.592626
67	0x3f83ff10	1.0312214
68	0x3f8c4af5	1.0960375
69	0x3f323993	0.696191
70	0x3f784b5c	0.9698999
71	0xbdc542b3	-0.096318625
72	0x3f23770b	0.6385352
73	0xbd21ff3d	-0.039550055
74	0x3f40bb1f	0.75285524
75	0x3c6ebfed	0.014572126
76	0x3f7a28fc	0.9771879
77	0x3f843053	1.0327247
78	0xbd20f59c	-0.03929673
79	0x3f7b5268	0.98172617
80	0x3f14d53e	0.5813788
81	0x3f858e1f	1.0433997
82	0x3f51cb91	0.8195124
83	0x3f794de7	0.97384495
84	0x3c5461d7	0.01296278
85	0x3f3c9626	0.7366661
86	0x3f8e2a23	1.1106609
87	0x3d39add0	0.045331776
88	0x3c0c062a	0.0085463915
89	0x3f4cc87f	0.7999343
90	0x3f246b4c	0.6422622
91	0xbd29a064	-0.041412726
92	0x3f5e595f	0.8685512
93	0xbd4eb0cb	-0.05046157
94	0xbdb62776	-0.08894245
95	0xbb18b065	-0.0023298499
96	0x3f5cc847	0.862431
97	0x3f356198	0.7085204
98	0x3f38c65b	0.72177666
99	0x3f0dfe03	0.55465716
100	0x3eedc458	0.4643886
101	0x3f4898ae	0.7835797
102	0x3f7e9b44	0.99455667
103	0xbd911b5f	-0.07085299
104	0x3f718e6c	0.94357944
105	0x3f059681	0.52182776
106	0x3f160996	0.58608377
107	0x3f48ff53	0.78514594
108	0x3f4673ed	0.7752064
109	0x3f666810	0.90002537
110	0xbda7bfea	-0.081909016
111	0xbd537b5f	-0.051631328
112	0xbd4ad868	-0.049522787
113	0xbca8f86b	-0.020626267
114	0x39dcbe7e	0.00042103598
115	0x3cbfcc3d	0.023412818
116	0x3c94b0f1	0.018150778
117	0xbc7f7d24	-0.015593801
118	0x3f62d25a	0.8860222
119	0xbc5cddbf	-0.013480603
120	0xbd736f2a	-0.059432186
121	0x3f6e980b	0.9320075
122	0xbd2ed858	-0.04268679
123	0x3f27ca71	0.65543276
124	0x3f572849	0.84045845
125	0x3f0f82d1	0.56058985
126	0x3d469a73	0.048487138
127	0x3f6508d3	0.8946659

fc4.weight f4 [128, 128]
0	0x3d6f8726	0.058478497
1	0xbd8e38ac	-0.06944403
2	0xbddef101	-0.108858116
3	0xbdee5e46	-0.11639075
4	0xbdc127e7	-0.09431439
5	0xbe08e560	-0.1336875
6	0xbc6c106c	-0.014408212
7	0xbcf2f611	-0.02965835
8	0xbcd48500	-0.025942326
9	0x3d8b1b3b	0.06792303
10	0xbdd71d12	-0.105035916
11	0xbdb8f251	-0.09030593
12	0x3d0b94e1	0.03407753
13	0xbda9bbbc	-0.082877606
14	0x3c82de62	0.015975181
15	0xbcf8783e	-0.030330773
16	0xbc7dfe53	-0.01550253
17	0x3cfa1e1f	0.030531941
18	0xbdb13da2	-0.08654334
19	0xbdbf6e7e	-0.093472466
20	0xbc5d146f	-0.013493641
21	0xbd3322a6	-0.043734215
22	0xbdb9ec51	-0.09078277
23	0x3d6b9f22	0.057524808
24	0xbda6cb17	-0.08144205
25	0x3c8128e0	0.015766561
26	0x3d4e724a	0.050401963
27	0xbdb3c614	-0.08778015
28	0xbdfafcc8	-0.122552454
29	0x3d9dd4d1	0.07706607
30	0xbde9da02	-0.11418535
31	0xbd0e678d	-0.034766722
32	0xbb4229b8	-0.0029626917
33	0x3af29c38	0.0018509692
34	0xbd3fb8b6	-0.046807013
35	0xbda961e3	-0.082706235
36	0xbe0c7773	-0.13717441
37	0x3c909a0e	0.017651584
38	0xbd99b236	-0.07504694
39	0x3b9be0d0	0.0047570243
40	0x3ca5914f	0.02021089
41	0x3d9a2f36	0.07528536
42	0x3c9a7d56	0.018858593
43	0x3d520c2d	0.051281143
44	0x3a6c7213	0.0009019684
45	0xbd9efdb3	-0.07763233
46	0xbd07668f	-0.033056792
47	0xbd3f7a36	-0.04674741
48	0xbd271021	-0.040786866
49	0xbd4bda39	-0.04976866
50	0xbd5e58a8	-0.054283768
51	0xbdbb72f3	-0.09152784
52	0xbe03577b	-0.1282634
53	0xbda3f5e4	-0.08005884
54	0xbd52815e	-0.051392905
55	0x3c4aa59e	0.012368588
56	0xbd6ae3a3	-0.057345998
57	0xbdae99d8	-0.08525437
58	0xbdb1d5fb	-0.08683392
59	0xbc52e306	-0.012871509
60	0x3d89ac98	0.06722373
61	0xba754fa3	-0.0009357875
62	0x3a8ff5fd	0.0010983344
63	0xbcea81fa	-0.02862643
64	0xbd1c84e1	-0.03821266
65	0xbc9ac5f0	-0.018893212
66	0x3d118856	0.03553041
67	0xbd3d20a4	-0.046173707
68	0xbd92d848	-0.071701586
69	0x3d3ef17d	0.04661702
70	0xbd5ae9bd	-0.053445566
71	0x3d043a0b	0.032281917
72	0x3c9eee12	0.01940063
73	0xbcf6da2d	-0.030133331
74	0x3b8a0288	0.0042117275
75	0xbcf21381	-0.029550316
76	0xbe19a67e	-0.15004918
77	0xbde56946	-0.1120172
78	0x3cf94b2e	0.030431356
79	0xbcc24128	-0.02371271
80	0xbd3e747d	-0.04649781
81	0xbdaf9ba9	-0.08574612
82	0xbca4aad7	-0.020100994
83	0xbdc83885	-0.09776405
84	0x3cc6b9b4	0.024258472
85	0xbd7c48d1	-0.06159288
86	0xbe007149	-0.12543215
87	0xbd4e148a	-0.050312556
88	0x3d15d9d3	0.036584686
89	0xbd9d9e21	-0.07696176
90	0xbccfb29c	-0.025353722
91	0xbcc2d599	-0.023783492
92	0xbd988955	-0.07448069
93	0x3d9b67b7	0.075881414
94	0xbcad7040	-0.021171689
95	0xbd32d3e3	-0.043659102
96	0xbe218625	-0.15773828
97	0xbd8d273c	-0.06892249
98	0x3cd69841	0.026195647
99	0x3bff7553	0.0077959686
100	0xbddace65	-0.10683898
101	0xbda2f556	-0.0795695
102	0xbe200b3c	-0.15629286
103	0x3c5bef75	0.01342379
104	0xbc7d4e8a	-0.01546062
105	0x3d198b25	0.037486214
106	0xbd498c5f	-0.049206134
107	0xbc1b15af	-0.009465619
108	0xbdbf1c76	-0.093316
109	0xbe117c9f	-0.14207695
110	0x3d8effe4	0.06982401
111	0x3d5ece2a	0.054395832
112	0xbdafb701	-0.08579827
113	0x3d9f089d	0.07765315
114	0x3d30649e	0.043064706
115	0xbd9502fa	-0.07275958
116	0x3d505a93	0.05086763
117	0xbda88723	-0.082289
118	0x3c094aef	0.008379682
119	0xbc2ab5bd	-0.010419306
120	0xbcc3e85c	-0.023914509
121	0xbd03ad6c	-0.03214781
122	0x3d260298	0.040529817
123	0xbdbcb72c	-0.09214625
124	0x3c97d5a4	0.018534489
125	0xbd59249c	-0.05301343
126	0x3d7fcf2b	0.06245343
127	0x3cfd9ca8	0.030958489
128	0xbd0577e0	-0.032585025
129	0xbc97eabc	-0.018544547
130	0xbe5b0427	-0.21388303
131	0xbd0d870d	-0.034552623
132	0xbd0f80cd	-0.035034943
133	0xbd81a5aa	-0.06330426
134	0xbe2ffbe1	-0.17185928
135	0xbe34f813	-0.17672758
136	0x3c00bf69	0.007858136
137	0xbd068fb5	-0.032851893
138	0xbc69ea57	-0.014277062
139	0x3e148ba4	0.14506394
140	0x3ea45799	0.32098082
141	0x3e72acc6	0.2369872
142	0xbb80dea9	-0.003932793
143	0xbd088b88	-0.033336192
144	0x3e290763	0.16506724
145	0x3db65a5a	0.08903952
146	0xbd94c8cd	-0.07264862
147	0x3e9c6723	0.30547437
148	0x3e4568ff	0.19278334
149	0x3d3c0b4a	0.045909204
150	0xbc3ae706	-0.011407619
151	0x3d322033	0.04348774
152	0xbd29f26b	-0.041490953
153	0x3eb511df	0.35365197
154	0xbcce4c2c	-0.025182806
155	0x3e2e6e5f	0.1703429
156	0x3da6888e	0.081315145
157	0xbd7c4101	-0.06158543
158	0x3e8e77e1	0.27825835
159	0x3d9e7bbb	0.077384435
160	0xbcb6f296	-0.02233247
161	0x3e85e7a9	0.26153305
162	0xbbecea5c	-0.0072300863
163	0x3e78b811	0.24288966
164	0xbc8c41bf	-0.017121194
165	0x3e1aca03	0.15116124
166	0xbec0f988	-0.37690377
167	0x3d1113a8	0.035419136
168	0x3b8883b8	0.0041660927
169	0xbd871485	-0.06595711
170	0xbc8f0f84	-0.017463453
171	0x3e90fcc3	0.28317842
172	0x3df453e5	0.11930064
173	0xbd99e7b0	-0.07514894
174	0xbdc49f11	-0.09600652
175	0x3e3a7c3c	0.18211454
176	0x3e2ed35f	0.17072819
177	0xbde1962b	-0.110149704
178	0xbde5a742	-0.112135425
179	0x3e202bfb	0.15641777
180	0xbdad4988	-0.084612906
181	0xbca63c84	-0.020292528
182	0x3d88d1d8	0.066806495
183	0xbc361b17	-0.011114857
184	0x3d3eab2c	0.04654996
185	0x3e141d91	0.14464404
186	0xbde9799b	-0.114001475
187	0x3e18ee73	0.14934711
188	0x3d811d29	0.0630439
189	0x3d672a80	0.056437016
190	0x3e97e895	0.29669634
191	0x3ce37543	0.027765876
192	0xbe1c46b0	-0.1526134
193	0xbdc1a0be	-0.09454487
194	0xbe0aaa31	-0.13541485
195	0xbce9caad	-0.028539026
196	0xbbb7d581	-0.0056101684
197	0x3dbd9d32	0.09258498
198	0x3e4a5f90	0.19763017
199	0xbd0e5405	-0.034748096
200	0x3e53010e	0.20605871
201	0xbdaa502c	-0.08316073
202	0xbd9ba405	-0.075996436
203	0xbdbd342c	-0.092384666
204	0x3d116d04	0.035504356
205	0x3d180456	0.03711351
206	0x3d52a09d	0.051422704
207	0x3d091251	0.033464734
208	0x3e4c54c0	0.19954205
209	0x3dcbaa0f	0.099445455
210	0x3dfa009d	0.12207148
211	0xbcfa9fdd	-0.030593807
212	0x3d3bb172	0.045823522
213	0xbdc17932	-0.09446944
214	0x3e6e366a	0.23262945
215	0x3b999ac6	0.00468764
216	0xbd0f230d	-0.034945536
217	0xbae60fc3	-0.0017552305
218	0x3e23ff07	0.16015254
219	0x3d8a0288	0.06738764
220	0xbc0bd24b	-0.0085340245
221	0xbcf576b3	-0.029963827
222	0xbdc732cd	-0.09726486
223	0xba82c6f2	-0.0009977503
224	0x3e0a5c9d	0.13511892
225	0xbd564fdc	-0.052322254
226	0x3e15c8b9	0.14627351
227	0x3dba33da	0.09091921
228	0x3e771f53	0.24133043
229	0x3e1277a9	0.14303459
230	0x3e0e3616	0.1388782
231	0x3c2ff8bf	0.010740458
232	0xbcde5251	-0.02713886
233	0x3d6ef0e2	0.058335193
234	0x3e5e59f8	0.21714008
235	0x3e1d2623	0.15346579
236	0x3d14995f	0.03627908
237	0x3e371566	0.17879257
238	0xbc9be0d0	-0.019028097
239	0xbd2edc3f	-0.04269051
240	0xbd637d14	-0.055539206
241	0xbd961082	-0.07327367
242	0x3d4dfd1a	0.050290205
243	0xbd26c200	-0.040712357
244	0xbd2c4815	-0.04206093
245	0x3cc36621	0.02385241
246	0x3e5768f1	0.21036126
247	0x3c719a67	0.014746285
248	0xbca0de2b	-0.019637188
249	0xbbcf5161	-0.00632684
250	0xbd840744	-0.06446698
251	0x3e22c846	0.15896711
252	0x3e3fd1aa	0.18732324
253	0x3d16850f	0.03674799
254	0xbc7deaca	-0.015497873
255	0x3e59112f	0.21197961

fc4.bias f4 [128]
0	0xbd7c3549	-0.061574254
1	0x3f08a41f	0.5337543
2	0x3fb69565	1.4264342
3	0xbc0781e7	-0.008270717
4	0x3f6eedee	0.933318
5	0x3f6f0e41	0.93381125
6	0x3f5efd2c	0.8710506
7	0x3eb563ff	0.35427853
8	0xbb937871	-0.0045004417
9	0x3efaf269	0.4901307
10	0x3f1f5304	0.62236047
11	0x3f86e0af	1.0537318
12	0xbb8831cd	-0.0041563273
13	0xbcaf5940	-0.021404862
14	0x3f174eae	0.5910443
15	0xbca362b6	-0.01994453
16	0x3c9f8283	0.019471413
17	0xbd304789	-0.04303697
18	0xbcf92fd7	-0.03041832
19	0x3d2cf7dd	0.04222857
20	0xbca9f26c	-0.020745479
21	0x3f51b792	0.8192073
22	0x3fbbd5ca	1.4674618
23	0xbd83b154	-0.06430307
24	0x3f61455a	0.8799645
25	0x3e38e1ba	0.18054858
26	0x3f5cc0fe	0.8623198
27	0xbd0bb03a	-0.03410361
28	0x3f978164	1.1836362
29	0x3cca7e8e	0.02471855
30	0x3e8cc8ac	0.2749685
31	0xbdbabf42	-0.09118511
32	0x3d6c859b	0.057744604
33	0x3fb62d38	1.423255
34	0xbde16dbb	-0.110072576
35	0x3d42dd68	0.04757443
36	0x3d8d8113	0.069093846
37	0x3f5495eb	0.83041257
38	0x3d40493e	0.04694485
39	0xbd865cee	-0.06560694
40	0x3f3e43e8	0.74322367
41	0x3f1640da	0.58692706
42	0xbbeebfee	-0.0072860634
43	0xbdbe7c4d	-0.09301052
44	0x3f1e332f	0.6179685
45	0xbd962bdb	-0.073325835
46	0xbde82868	-0.11335832
47	0x3f3a8c79	0.72870594
48	0x3f11eaff	0.569992
49	0x3f3a5fcf	0.7280244
50	0x3f81a698	1.0128965
51	0x3f550b69	0.83220536
52	0x3cf67883	0.030086761
53	0x3f465e5e	0.7748774
54	0xbdf4fd9b	-0.11962434
55	0x3f3094be	0.6897696
56	0x3fc5428f	1.5410937
57	0x3f470ccf	0.7775392
58	0xbc3a6d3a	-0.011378581
59	0x3f47c816	0.7803968
60	0x3f242b10	0.6412821
61	0x3f725ddb	0.9467446
62	0xbcc9172e	-0.024547186
63	0x3f5a3bdd	0.85247594
64	0xbd37bdb8	-0.044858664
65	0x3f3b673a	0.73204386
66	0x3f490361	0.7852078
67	0x3f739785	0.95153075
68	0x3f6345e5	0.88778526
69	0x3dc2d12d	0.09512553
70	0xbdbe1e8d	-0.09283171
71	0x3f06cb00	0.52653503
72	0x3f58969f	0.8460483
73	0xbc350665	-0.011048888
74	0x3f6491d3	0.8928501
75	0xbdabf9f6	-0.08397286
76	0x3f4f972e	0.81090057
77	0x3fbcf0a9	1.4760944
78	0x3b854b7c	0.0040678363
79	0xbd863dae	-0.06554733
80	0x3eddac7c	0.43295658
81	0xbd6cd048	-0.05781582
82	0xbdeb936b	-0.11502727
83	0x3fcbbb21	1.5916482
84	0xbba13bed	-0.004920474
85	0x3f11e5c3	0.56991214
86	0x3f3ccffa	0.7375485
87	0xbd6de915	-0.058083612
88	0x3f19de9f	0.6010532
89	0x3c41898f	0.011812582
90	0x3f5f42b5	0.8721116
91	0xbc9c2ef0	-0.01906535
92	0x3f1180ed	0.5683735
93	0xbd9b9698	-0.07597083
94	0x3f215993	0.63027304
95	0x3ed8e770	0.42364073
96	0x3d23f726	0.04003062
97	0x3f494f47	0.7863659
98	0x3cb23b8a	0.021756906
99	0x3f9e6b4d	1.2376496
100	0x3edf3a18	0.4359901
101	0x3dc0db37	0.09416812
102	0xbd630fb4	-0.055434898
103	0x3f5da25a	0.86575854
104	0x3d4eef4a	0.050521173
105	0x3f4811da	0.7815224
106	0xbdeb54eb	-0.11490806
107	0x3f289303	0.6584932
108	0xba59b13c	-0.0008304303
109	0x3ebdaa04	0.37043774
110	0x3f2e5509	0.68098503
111	0x3f795520	0.97395515
112	0xbdf4f9b3	-0.11961689
113	0xbdeed376	-0.11661427
114	0x3f5b030b	0.8555152
115	0x3f1481e5	0.58010703
116	0xbd48925e	-0.04896771
117	0xbd7b0498	-0.061283678
118	0x3f76d2cd	0.96415406
119	0x3f02942a	0.5100733
120	0x3d23010d	0.039795924
121	0x3eb710fe	0.35755152
122	0x3e7596eb	0.23983352
123	0x3f417dc7	0.75582546
124	0x3fb0a7a5	1.3801161
125	0x3b53f477	0.0032341757
126	0xbcce8da3	-0.025214022
127	0x3f443292	0.76639664

fc5.weight f4 [3, 128]
0	0xbca2ed86	-0.01988865
1	0xbd7c0516	-0.061528288
2	0x3d80c5ef	0.06287753
3	0xbd2d6156	-0.042329155
4	0x3d24f737	0.040274825
5	0x3c2ba7c8	0.010477014
6	0xbdd16978	-0.10225195
7	0xbc486b55	-0.012232621
8	0x3cd10e45	0.0255195
9	0x3d13bbe6	0.036067866
10	0x3d50632b	0.050875824
11	0x3d36e156	0.04464849
12	0x3fa90b19	1.3206512
13	0xbd1a69d5	-0.037698586
14	0x3e09602b	0.13415591
15	0x3c356426	0.0110712405
16	0x3c23dfb7	0.010002068
17	0xbcda2e3c	-0.026633374
18	0xbd857a5c	-0.06517479
19	0xbd62f843	-0.055412542
20	0x3d78706e	0.060654096
21	0x3dc7f319	0.09763164
22	0x3d18922e	0.037248783
23	0x3d61eaba	0.055155493
24	0x3d81d0d4	0.06338659
25	0x3e9439dd	0.28950396
26	0x3d968896	0.073502705
27	0x3db281db	0.08716174
28	0x3e89b1a5	0.26893345
29	0xbc76bed4	-0.015060145
30	0x3cad2f71	0.021140786
31	0xbd562ae0	-0.052286983
32	0x3d82f1eb	0.063937984
33	0x3d4d1a18	0.050073713
34	0xbd03c0f3	-0.032166433
35	0xbcc81d2c	-0.024427973
36	0xbd89ac98	-0.06722373
37	0xbe3fb4e9	-0.18721355
38	0xbcb7cd57	-0.02243678
39	0xbe04f58d	-0.12984295
40	0x3e0cac8d	0.13737698
41	0xbe607398	-0.21919096
42	0x3ce56d2e	0.028006162
43	0xbd14e7a1	-0.03635371
44	0x3dccb154	0.0999476
45	0xbc2a11ab	-0.010380189
46	0xbc8248f8	-0.015903935
47	0x3c202a7b	0.009775753
48	0x3f3c2ab6	0.7350267
49	0x3d185833	0.03719349
50	0x3de7a886	0.1131144
51	0x3e238d38	0.1597184
52	0xbd95688a	-0.0729533
53	0xbd883a8f	-0.06651794
54	0x3d22218a	0.039582767
55	0xbcf037a8	-0.029323414
56	0x3d4ad918	0.049523443
57	0xbd00a30c	-0.031405494
58	0x3cddb0b0	0.02706179
59	0xbb8e7dbd	-0.0043484853
60	0xbe2ab9c4	-0.16672426
61	0x3c4a2321	0.012337477
62	0x3d90f7cf	0.07078516
63	0xbe3d2207	-0.18470012
64	0xbd7f65b3	-0.062352847
65	0x3c303bd1	0.010756449
66	0x3d1c3649	0.038137708
67	0xbd3d24bc	-0.04617761
68	0xbd4032f0	-0.046923578
69	0xbeb79067	-0.35852358
70	0x3d7ff253	0.062486958
71	0x3e49a881	0.19693185
72	0x3d33cd0a	0.043896712
73	0x3d3b24d2	0.04568941
74	0x3d97963b	0.07401701
75	0x3d493286	0.04912045
76	0xbd6158ca	-0.055016316
77	0x3c56c4aa	0.013108412
78	0x3b8dcb4c	0.0043272134
79	0x3d7762e4	0.060397044
80	0xbdb16912	-0.08662619
81	0xbc817530	-0.01580295
82	0x3b87762e	0.004133961
83	0x3aaf059d	0.0013353113
84	0x3d96a06d	0.073548175
85	0x3b15d716	0.0022863797
86	0xbbad5058	-0.0052891187
87	0x3cfa4530	0.03055057
88	0x3dd4771f	0.10374283
89	0x3d51e136	0.05124017
90	0x3e1af9a8	0.15134299
91	0xbda3763d	-0.079815365
92	0x3e7e251e	0.24818847
93	0x3d8055f0	0.06266391
94	0x3cde9f0d	0.02717545
95	0x3e47d1af	0.19513582
96	0x3c469a73	0.0121217845
97	0x3e19b32a	0.15009752
98	0x3d1d01e1	0.03833187
99	0x3e466c26	0.19377193
100	0xbcf97172	-0.030449603
101	0xbf4584cb	-0.7715575
102	0x3cd47947	0.025936736
103	0x3d88e476	0.066842005
104	0xbc8cf85a	-0.017208267
105	0xbe358eca	-0.17730251
106	0xbc9c50f0	-0.019081563
107	0xbd84bc0c	-0.064811796
108	0xbd82d693	-0.06388583
109	0x3e901fed	0.28149357
110	0xbcb62676	-0.022235136
111	0xbd2f76a8	-0.04283777
112	0xbd29a064	-0.041412726
113	0xbcafc2b8	-0.021455154
114	0x3e15f733	0.1464508
115	0x3e534729	0.20632614
116	0xbcb540fd	-0.022125715
117	0x3cc39410	0.023874313
118	0x3e0f4224	0.13990074
119	0xbd9cee58	-0.07662648
120	0xbd013881	-0.031548027
121	0x3aa17df5	0.0012320863
122	0xbd70bdff	-0.058774944
123	0x3c5a258a	0.013314614
124	0x3e33bc26	0.17552242
125	0x3daf68e1	0.08564926
126	0x3dd8132b	0.10550531
127	0x3e1d1810	0.1534121
128	0x3cda64ec	0.026659451
129	0xbe4ad7c7	-0.19808875
130	0x3e8bb0d7	0.27283356
131	0xbcbf91a6	-0.02338488
132	0xbdb380c5	-0.08764795
133	0xbd5130dc	-0.051071987
134	0xbe20c6d2	-0.15700844
135	0xbea0c75e	-0.31402105
136	0xbc4926ce	-0.012277318
137	0xbe9b2018	-0.30297923
138	0xbe571554	-0.2100423
139	0x3f449ad5	0.76798755
140	0x3f8cac85	1.0990149
141	0x3c17ba4c	0.009260725
142	0xbe87b0db	-0.26502118
143	0x3d339f03	0.043852817
144	0xbd9e78e2	-0.077379
145	0x3c298cdb	0.010348524
146	0x3bcd8fb9	0.0062732366
147	0x3d9b542f	0.07584416
148	0x3cf8a71e	0.030353125
149	0xbe475a73	-0.19468097
150	0x3e4a9e7f	0.19787024
151	0x3b396780	0.002829045
152	0xbf126eb3	-0.57200164
153	0xbeade81c	-0.33966148
154	0xbe120e86	-0.14263353
155	0x3d6c665b	0.0577148
156	0x3e8652e1	0.26235107
157	0xbc9ae2e7	-0.018907024
158	0xbeb31568	-0.3497727
159	0xbc005208	-0.007832058
160	0x3d6676ce	0.056265645
161	0x3e78db5e	0.24302432
162	0x3c814ff2	0.015785191
163	0x3c7ce8f9	0.015436404
164	0xbc72f9fa	-0.014830107
165	0xbe33d76d	-0.17562647
166	0x3cb4f6c4	0.022090323
167	0x3cb3358b	0.021876117
168	0xbe89fa17	-0.26948616
169	0xbe6d531d	-0.23176236
170	0xbc948212	-0.018128429
171	0xbc8e5a08	-0.017376915
172	0xbe6394fe	-0.22224805
173	0x3caef797	0.021358294
174	0x3d51cbe6	0.051219843
175	0xbd378aee	-0.044810228
176	0xbd4dd88f	-0.050255354
177	0xbdb8d230	-0.09024465
178	0xbdfcc171	-0.123415835
179	0xbd84e3cb	-0.064887606
180	0x3d87109d	0.065949656
181	0xbe19f0fd	-0.15033336
182	0xbb1b0380	-0.002365321
183	0xbe530815	-0.20608552
184	0x3e746339	0.23865975
185	0xbda1fce7	-0.079095654
186	0x3d8ed104	0.0697346
187	0xbe21de4b	-0.15807454
188	0xbe18cc52	-0.14921692
189	0xbcffe7a6	-0.031238388
190	0x3d738a81	0.05945826
191	0xbe13b520	-0.14424562
192	0x3d080e86	0.033216976
193	0xbac542b2	-0.0015049784
194	0xbf284e94	-0.657449
195	0xbdf62718	-0.12019175
196	0xbdd769fc	-0.10518262
197	0xbe20cb67	-0.15702592
198	0xbcf29081	-0.02960992
199	0xbe991cd2	-0.299048
200	0xbdee2262	-0.11627652
201	0x3c10efff	0.008846282
202	0x3f313c70	0.69232845
203	0x3cf10dc7	0.029425515
204	0xbd5de1e7	-0.054170515
205	0x3e349ec0	0.17638683
206	0x3d1cc360	0.03827226
207	0xbc8aa2b1	-0.01692328
208	0xbe871a35	-0.26387182
209	0xb90a4cc1	-0.00013189299
210	0xbd680966	-0.056649588
211	0x3e5f8eb7	0.21831785
212	0xbdb194dc	-0.08670971
213	0xbc868a48	-0.01642336
214	0xbc3192f2	-0.010838257
215	0xbd631b6b	-0.05544607
216	0xbe714cc0	-0.23564434
217	0xbd07474f	-0.03302699
218	0xbe6965fe	-0.22792813
219	0x3c0db3db	0.008648838
220	0xbe6c6648	-0.23085892
221	0x3c1ce688	0.009576447
222	0xbe384ebb	-0.17998783
223	0xbe8ccdb3	-0.27500686
224	0xbc8af8a2	-0.01696426
225	0xbe3cd59f	-0.18440865
226	0x3d9c7540	0.07639551
227	0x3e742840	0.23843479
228	0xbe8f12d4	-0.27944052
229	0xbe2422f0	-0.16028953
230	0x3d9ca808	0.07649237
231	0xbe5aa483	-0.21351819
232	0x3d43f2c1	0.04783893
233	0xbe3947dc	-0.18093818
234	0xbd3a03c0	-0.045413733
235	0xbe3e18b3	-0.1856411
236	0x3b5ea6c8	0.003397392
237	0xbe983a0e	-0.29731792
238	0xbe07a70d	-0.13247319
239	0xbd9d7cfe	-0.07689856
240	0x3d0dc763	0.034613978
241	0x3c2c4528	0.010514535
242	0xbe039dfc	-0.12853235
243	0xbe85d7aa	-0.261411
244	0xbc14ef71	-0.00909029
245	0xbc24aad7	-0.010050497
246	0xbdeba023	-0.11505153
247	0xbe30dbf9	-0.17271413
248	0xbcae6328	-0.021287516
249	0xbeaa6793	-0.33282146
250	0xbe8265c7	-0.25468275
251	0xbe02e362	-0.12782052
252	0x3e718b66	0.23588333
253	0x3c730d81	0.014834763
254	0x3cf1a620	0.02949816
255	0xbe7e83e5	-0.24855001

fc5.bias f4 [3]
0	0x3f042664	0.5162108
1	0xbe72cca6	-0.2371088
2	0xbf790940	-0.9727974
